outputs/mnist/models/mnist_sim_autoencoder_epoch4.pth (torch_old, 882017 bytes, 16 tensors)

encoder.0.weight f4 [128, 784]
000000 bf 01 1e bc 95 37 1d bc 75 48 1d bc ad bb 1d bc
       -0.009643971 -0.009595771 -0.009599795 -0.009627265
000010 e1 01 1e bc 10 65 1e bc 29 44 1e bc 3d 07 1e bc
       -0.009644003 -0.00966765 -0.009659805 -0.00964528
000020 fc 68 1d bc a9 0f 1d bc 0d 8a 1d bc 5b 07 1e bc
       -0.00960755 -0.009586253 -0.009615433 -0.009645308
000030 65 4e 1c bc a5 74 27 bc 74 ab 27 bc 9a 84 1e bc
       -0.009540175 -0.010220681 -0.010233749 -0.009675169
000040 60 cc 1d bc 03 51 1d bc b5 82 1c bc 51 03 1d bc
       -0.009631246 -0.009601834 -0.009552647 -0.00958331
000050 f6 18 1e bc 7e 19 1e bc 6f 8f 1c bc 7f 31 1f bc
       -0.009649506 -0.0096496325 -0.009555682 -0.009716391
000060 1f 82 1c bc c5 16 1e bc 44 02 1e bc 85 00 1e bc
       -0.009552508 -0.009648983 -0.009644095 -0.009643679
000070 7a 23 1f bc 24 f1 1d bc 03 61 1e bc 14 bd 1d bc
       -0.009713048 -0.009640012 -0.009666684 -0.009627599
000080 ad ae 1c bc 6c e1 1f bc 24 a0 1b bc 8e 5c 22 bc
       -0.00956313 -0.009758335 -0.00949863 -0.009909762
000090 8b 79 58 bc 32 06 6c bc 7a d2 39 bc 01 24 5c bc
       -0.013212572 -0.014405774 -0.011341685 -0.013436318
0000a0 15 b7 79 bc 49 22 5e bc 78 43 31 bc c6 79 24 bc
       -0.015241404 -0.013557979 -0.010819308 -0.010038799
0000b0 bc 51 32 bc c8 4f 40 bc b9 51 3b bc 77 9d 1f bc
       -0.010883745 -0.011737771 -0.011433058 -0.009742132
0000c0 be dc 0b bc 30 de 10 bc 77 63 1c bc c1 13 21 bc
       -0.008536516 -0.008842036 -0.009545199 -0.00983137
0000d0 81 92 1c bc bb 23 1e bc e3 b1 1c bc 8f 0c 1e bc
       -0.009556414 -0.0096520735 -0.009563896 -0.009646549
0000e0 3b 84 1c bc 6b 5b 1e bc 04 65 1c bc fc 41 20 bc
       -0.009553011 -0.00966535 -0.009545568 -0.009781357
0000f0 63 68 22 bc 13 13 16 bc 33 87 f4 bb 38 13 24 bc
       -0.009912583 -0.009159821 -0.007462406 -0.010014348
000100 39 0c 5c bc ae c9 b1 bc 9a 43 bb bc d5 7f da bc
       -0.0134306485 -0.021702614 -0.022859383 -0.026672283
000110 e6 ce eb bc 31 ff d9 bc 18 d3 a6 bc 89 68 a7 bc
       -0.02878518 -0.026610943 -0.02036433 -0.020435588
000120 8d c9 88 bc 62 c6 6c bc b3 00 af bb 95 42 3b 3b
       -0.01669767 -0.014451595 -0.0053406595 0.0028573622
000130 b2 79 2e bb e5 63 f5 bb 58 5c ab bb 33 d4 c9 bb
       -0.002662283 -0.007488715 -0.005229514 -0.0061593293
000140 1f 66 e4 bb 04 db 06 bc 1a 4f 1f bc 78 8a 1d bc
       -0.0069701816 -0.008230928 -0.009723449 -0.009615533
000150 c8 04 1e bc 81 32 1f bc d0 8f 1c bc da c4 24 bc
       -0.009644695 -0.009716631 -0.009555772 -0.010056699
000160 06 91 16 bc c4 4a b9 bb 85 91 88 bb b0 ef 2b bb
       -0.00918985 -0.0056546647 -0.004167738 -0.0026235394
000170 a7 05 aa bb d7 8f b4 bc dd d9 97 bc 7f 00 f2 bb
       -0.005188662 -0.022041244 -0.018536502 -0.007385313
000180 5f c5 37 bc 27 d8 a5 bc 13 bf f2 bc d8 dc 24 bd
       -0.0112164905 -0.020244671 -0.029632127 -0.040249676
000190 c5 28 48 bd c7 e7 27 bd 60 82 33 bd 81 eb b4 bc
       -0.048867006 -0.040992524 -0.043825507 -0.022084953
0001a0 e7 f7 ec bb 13 24 13 bc a8 23 28 bc f9 48 dd bb
       -0.0072317007 -0.008980769 -0.010262407 -0.006753084
0001b0 bc 23 2f bc 9c 7b 0d bc e4 dd 1b bc ea 0c 1e bc
       -0.010689672 -0.008635428 -0.009513352 -0.009646634
0001c0 de b0 1c bc f0 8c 1c bc 33 e6 1d bc 04 bc 2a bc
       -0.009563653 -0.0095550865 -0.009637403 -0.010420803
0001d0 96 ea f2 bb 04 2d 33 bb ea 07 35 3b 4e cc 3b 3c
       -0.0074132187 -0.0027340064 0.0027623125 0.011462284
0001e0 7f 85 6c 3c f6 bd b8 3c ff 97 d9 3c 40 88 8c 3c
       0.014436125 0.022551518 0.026561735 0.017154813
0001f0 5c aa 93 3c a5 86 0c 3c b1 b4 e2 bb 60 b3 bd bc
       0.01802557 0.008577024 -0.0069185128 -0.023156822
000200 25 3f b8 ba 3b a4 09 bc 86 59 20 bd 9a 99 6e bd
       -0.0014056904 -0.008400972 -0.039147876 -0.058251955
000210 b1 2a 6e bd 48 51 2e bd 9f 67 ad bc da cd 48 bc
       -0.058146182 -0.042557985 -0.021167574 -0.01225611
000220 70 1c 14 bc c0 57 fc bb 4d fd 22 bc 2e cd 1f bc
       -0.009039983 -0.0077008903 -0.009948087 -0.0097535085
000230 de be 1e bc 54 19 1d bc 0d d9 13 bc 7e 6d 2a bc
       -0.009689061 -0.009588558 -0.009023917 -0.0104020815
000240 4f 55 a3 bb 65 66 8f 3b 58 d5 02 3c 22 23 e7 3c
       -0.004984535 0.00437622 0.007985435 0.028214995
000250 46 c1 1c 3d 4c e3 78 3d 45 cb 70 3d 7f d0 45 3d
       0.038270257 0.060763642 0.058787603 0.04829454
000260 88 55 52 3d 60 cb 55 3d f9 2c ee 3c 94 05 17 3c
       0.0513511 0.052195907 0.029074179 0.0092176385
000270 e5 d2 4b 3c 5a 97 a0 bc 0b 4b 61 bd 88 3c a1 bd
       0.012440418 -0.01960342 -0.055003207 -0.078728735
000280 dc 1e a1 bd cd df 60 bd ae 1b 86 bc 77 fd d9 3b
       -0.07867214 -0.054900933 -0.01637062 0.00665253
000290 90 06 07 3c 37 64 44 3b 51 02 de bb 12 fc 1b bc
       0.008241311 0.002996696 -0.0067751785 -0.009520547
0002a0 0e cd 1d bc 7b 63 1e bc a5 0a 2d bc de 99 2c bc
       -0.009631408 -0.009667273 -0.01056162 -0.010534732
0002b0 8d 91 82 3b 5e 59 71 3c 23 a4 d4 3c 1a d3 23 3d
       0.003984636 0.014730779 0.025957173 0.039996244
0002c0 b8 f6 77 3d 9a 52 9d 3d 5f dd 94 3d 2a c8 8a 3d
       0.060538024 0.076817706 0.07268786 0.067764595
0002d0 a5 3a 81 3d a7 66 81 3d f2 39 8a 3d 36 ff b3 3d
       0.06310014 0.063184075 0.067493334 0.08788912
0002e0 7b 64 ab 3d 27 56 82 bc fe 3c 77 bd 29 41 70 bd
       0.083687745 -0.015910221 -0.0603609 -0.05865589
0002f0 31 df 91 bd ae 26 52 bd 70 d5 e1 bc 22 4e 7e 3a
       -0.071226485 -0.05130642 -0.027567595 0.0009700974
000300 d2 b4 dc 3c 78 c7 61 3c 35 06 96 bb eb 25 1e bc
       0.02694169 0.013780467 -0.0045783767 -0.009652595
000310 ee 6e 1f bc 6b 4f 2b bc df 46 6f bc 30 d9 77 bc
       -0.009731038 -0.010455946 -0.014604299 -0.015127465
000320 6d 14 87 3b 10 f4 73 3b 7c 88 cf 3c a3 7e 50 3d
       0.004122308 0.003722433 0.025333636 0.05090202
000330 95 17 82 3d 04 a1 9e 3d f9 d9 9e 3d 3e 41 02 3d
       0.06352154 0.07745555 0.07756419 0.0318005
000340 41 b2 07 3d ba a2 68 3c 98 df 42 3d 7a a6 f7 3d
       0.03312898 0.014198953 0.047576517 0.120923
000350 00 69 82 3d ca 8e 93 bc e0 74 73 bd 96 6e 80 bd
       0.063676834 -0.018012423 -0.059437633 -0.062710926
000360 50 53 16 bd bb 51 55 bd 27 5b 4d bd 76 75 9a bb
       -0.036700547 -0.052079897 -0.050135758 -0.0047137095
000370 a5 be 1c 3d 61 4d 96 3c e0 65 df bb fd 60 1d bc
       0.03826775 0.018347444 -0.0068175644 -0.009605643
000380 d3 ac 1b bc 83 05 44 bc ab ff d9 bc 5b 80 11 bd
       -0.009501654 -0.011964205 -0.02661117 -0.0355228
000390 be 13 ba bc 3f a1 ea bc 61 52 be 3b 8d 7e 25 3d
       -0.022714492 -0.028641341 0.00580816 0.04040389
0003a0 3c 61 69 3d 67 64 77 3d 7f 83 49 3c bf c0 1e bc
       0.056977496 0.060398486 0.0122994175 -0.009689509
0003b0 e3 9d 35 bc b9 74 16 3c 79 fc 4c 3d 7b 6f 83 3d
       -0.011085006 0.009183102 0.050045464 0.064177476
0003c0 fb ee 49 3c ed 20 db bc f5 31 6a bc 44 c5 41 bc
       0.012325044 -0.026749099 -0.014294137 -0.011826817
0003d0 5c 19 24 3b 8b c0 d0 bc fb f3 73 bd 20 5a 9d bc
       0.002503953 -0.025482437 -0.05955885 -0.019208014
0003e0 6f f1 16 3d 59 ae a4 3c 8a 41 0a bc c0 c3 1c bc
       0.036851343 0.020102667 -0.008438477 -0.009568155
0003f0 76 47 1d bc 74 c3 62 bc 41 67 04 bd 1d 55 5f bd
       -0.009599557 -0.013840545 -0.032325033 -0.05452453

encoder.0.bias f4 [128]
000000 f8 4c 1e 3c d8 88 10 ae 72 9f e8 bb ec 99 8c 36
       0.0096619055 -3.286335e-11 -0.0070990855 4.190244e-06
000010 82 0d 1d 3c 12 8d 5f b0 24 41 02 3c 9e 7c af bc
       0.00958574 -8.13274e-10 0.007950101 -0.021421727
000020 95 c2 4c bc 91 0f 2a 3d 8c 6e 03 2d a3 98 c1 b5
       -0.012497564 0.04151875 7.471034e-12 -1.4424044e-06
000030 71 ae 24 ba 74 9d 9b b9 db 62 ba bb 70 4c b3 b4
       -0.00062820973 -0.00029681216 -0.005688054 -3.3396964e-07
000040 b9 26 91 3c 5c 6f 1f 3d b5 ad 32 ab 91 76 d5 b9
       0.01771866 0.03892456 -6.347937e-13 -0.00040714865
000050 4e 99 0a b9 bf df b5 bc 0f ef e1 98 e6 1d c5 b7
       -0.00013217816 -0.022201417 -5.8402524e-24 -2.3498153e-05
000060 a0 5b 4a ab 39 b0 3b 3c 3c 93 f4 a7 ea ef 84 bc
       -7.189197e-13 0.011455589 -6.7883236e-15 -0.016227681
000070 21 2b 61 bc 6f b6 75 bb 49 cb bb b5 3d d8 b8 bb
       -0.013743193 -0.0037492772 -1.399175e-06 -0.005641012
000080 53 36 7f bc 71 1e 8d bc 34 a1 ab bc f5 98 c7 bc
       -0.015576917 -0.01722643 -0.020950891 -0.024364928
000090 5e 05 c2 3b 15 c1 8f b4 2e d7 f6 b8 18 ac ad bb
       0.00592105 -2.677631e-07 -0.000117702744 -0.005300056
0000a0 ea a9 b6 bc 6e ad 84 af 4e 6c 5d 32 b9 be 84 22
       -0.022297818 -2.413389e-10 1.2888519e-08 3.5980607e-18
0000b0 3d 4e 91 a9 59 5e ef a2 13 bf 50 bb 13 cb 91 bb
       -6.452866e-14 -6.4880974e-18 -0.003185217 -0.004449257
0000c0 44 26 d6 ba e5 6d 09 3c 17 98 83 3c 56 02 8e b9
       -0.0016338308 0.008388017 0.016063733 -0.0002708609
0000d0 08 a6 69 3c 46 0c b0 b6 25 97 9d b8 52 60 1a 3d
       0.014260776 -5.2466376e-06 -7.514496e-05 0.037689514
0000e0 52 03 87 b9 56 93 e4 3c 2e 64 f1 3c 03 0f 10 ba
       -0.0002575168 0.027902286 0.029466715 -0.0005495401
0000f0 6a cc 1c b2 1a 6d 02 3d f3 ac 08 9e de fd 69 bb
       -9.1268735e-09 0.03184233 -7.235545e-21 -0.0035704295
000100 ac c1 0f a3 e6 dc f1 3a 84 04 36 b5 40 7b ae b9
       -7.793057e-18 0.0018452674 -6.7806855e-07 -0.00033279695
000110 47 77 f3 b4 7e e5 5c 3c 10 9e f2 bc b9 bc 9f 2b
       -4.5349063e-07 0.01348245 -0.029616386 1.1350011e-12
000120 8b 56 38 bc 85 d8 f7 3c c6 d9 6c bc 9e 16 23 bb
       -0.011251102 0.030254612 -0.014456218 -0.0024885307
000130 e5 21 09 27 98 6b b5 b9 d2 2b 44 b8 05 f6 ed bc
       1.9030944e-15 -0.00034603174 -4.6770852e-05 -0.029047975
000140 1d 45 78 b9 3e 9b 70 bb 7b 39 41 ab 80 f3 b8 ba
       -0.0002367687 -0.0036713625 -6.8647144e-13 -0.0014110655
000150 1e c9 21 bb 2a a3 ab b9 cc 6a 82 b7 ec 13 96 b4
       -0.0024686526 -0.00032737228 -1.5546939e-05 -2.7954172e-07
000160 ce 02 7a bc 8e 6e a5 bb 3e b4 fd ab 92 4b 9b b1
       -0.015259458 -0.0050485795 -1.8026758e-12 -4.519685e-09
000170 6c 40 e7 b4 77 40 89 b7 63 78 f1 a4 68 09 e4 3c
       -4.3073976e-07 -1.6361691e-05 -1.0472103e-16 0.027836516
000180 1f a7 e4 b5 25 b7 89 b1 24 5a fc ba 1b 79 a9 bc
       -1.7035962e-06 -4.008046e-09 -0.0019252938 -0.02068763
000190 0d 2e 0b b8 be 13 00 bc 5d c3 1c bd 60 e7 db bb
       -3.318307e-05 -0.007817207 -0.03827225 -0.0067109317
0001a0 87 4c aa a7 8b 7e 56 b1 de 1e d9 ac 88 9f 4c bc
       -4.726745e-15 -3.121303e-09 -6.170938e-12 -0.012489207
0001b0 cc b2 02 a7 f4 58 f5 bb 61 c3 cb b9 2a 06 d8 33
       -1.813805e-15 -0.0074874107 -0.00038864746 1.0059405e-07
0001c0 df 25 16 bc 36 1a e5 bb 36 64 9a b0 b2 74 bc ba
       -0.009164303 -0.00699165 -1.1233456e-09 -0.001437804
0001d0 f0 73 2f 3d a9 95 b1 3c d9 cc 09 bb e6 e6 13 b9
       0.042835176 0.021677809 -0.002102664 -0.00014105029
0001e0 7f 05 8f b2 60 39 44 ac 88 16 b8 b4 84 9b a3 b1
       -1.664989e-08 -2.7885125e-12 -3.4289064e-07 -4.7616044e-09
0001f0 49 21 0b bb 05 ca 41 3d 32 22 ff b6 49 ed 0b ba
       -0.0021229556 0.0473118 -7.603573e-06 -0.00053377874

encoder.2.weight f4 [64, 128]
000000 bc 1c cb bd 33 11 06 37 2d da af 3d b2 d8 46 b9
       -0.0991759 7.991027e-06 0.085865356 -0.00018963477
000010 b4 d7 24 39 90 d9 8d b5 b2 fc 02 be 22 a5 93 bc
       0.00015720614 -1.0568638e-06 -0.12791708 -0.018023077
000020 da da d9 3c 67 ad bd bd b1 5b 20 ae 3a 8a 11 bb
       0.026593614 -0.092615895 -3.6461226e-11 -0.0022207634
000030 dc 06 f7 bb 48 1e 21 38 3b 92 37 3d 61 7a e8 b7
       -0.0075386595 3.8413593e-05 0.04481719 -2.7713542e-05
000040 d8 eb cb bc ca e6 1c be 8a 42 f1 2e 0d 4c 86 3a
       -0.024892733 -0.15322414 1.0971231e-10 0.0010246054
000050 62 6f 26 bc e0 31 c1 bd c9 1c a7 97 b2 c3 a9 3a
       -0.010158392 -0.09433341 -1.0799388e-24 0.0012951999
000060 11 fc 68 b6 f1 d1 63 bd ae e5 7a b0 6d 0e 9d 3d
       -3.4717416e-06 -0.055620138 -9.1275865e-10 0.07668767
000070 07 19 23 3c 26 5c 08 3b d9 b7 b6 b7 0d d9 86 bc
       0.009954697 0.0020806878 -2.1781701e-05 -0.01646092
000080 d8 32 d1 bc c9 ec 8f 3d ee 1e 61 be f9 70 6b bd
       -0.02553694 0.07027585 -0.21984455 -0.057480786
000090 44 a7 fb bb f8 1b c5 bb d3 aa 29 bc bf 97 81 bc
       -0.0076798517 -0.006015297 -0.010355669 -0.015819428
0000a0 74 6d 97 bc e0 51 a2 36 52 3a b0 33 a9 78 88 2b
       -0.018484809 4.8375077e-06 8.206247e-08 9.696871e-13
0000b0 20 2a 9d a4 1b 20 75 a7 a6 fa 8d 3d 69 fd d6 3c
       -6.815926e-17 -3.4017985e-15 0.06932573 0.026243882
0000c0 3c ba 9a 3c d4 73 e1 3d e2 17 4e 3d ac f0 21 be
       0.018887632 0.110084206 0.050315745 -0.15814465
0000d0 89 f5 13 3e a1 ab 59 3b 6c e6 51 3c a0 2b 6d be
       0.14449133 0.003321387 0.0128112845 -0.23161173
0000e0 48 45 24 bc 1d 68 42 3e 66 a8 e9 bc dd a1 81 bd
       -0.010026284 0.18985029 -0.028522681 -0.06329701
0000f0 c8 53 67 b2 8b 5d 0b 3e 11 90 10 1e 2f bf 29 bc
       -1.3465019e-08 0.13609903 7.653089e-21 -0.010360523
000100 ea 1a e6 2c 44 e6 92 3d b7 67 9a 37 46 f5 7c 3c
       6.5399812e-12 0.07172826 1.8406527e-05 0.015439337
000110 75 ff ea b7 46 e2 3a bd b3 b0 86 be 23 cd d2 b0
       -2.801393e-05 -0.045625947 -0.26306686 -1.5337814e-09
000120 ed 1f d7 3d 40 95 89 be a1 e1 61 3d 53 76 e9 3c
       0.10504136 -0.2687168 0.055146817 0.028498804
000130 55 84 1e 9c 05 a8 89 39 7f 8d ce 34 73 53 48 bc
       -5.244885e-22 0.0002625586 3.8473442e-07 -0.012226927
000140 63 4e 99 3c 80 78 43 3d dd ba e1 ab c4 06 f1 bb
       0.018714136 0.04772234 -1.6039077e-12 -0.007355543
000150 3e 19 37 bd 4a 1d 4f bc a3 2c d7 38 c5 49 8a 35
       -0.044701807 -0.01264126 0.00010260313 1.0303271e-06
000160 f6 61 60 3d aa 2d 30 bd ae 06 18 35 17 f3 34 b2
       0.054780923 -0.0430123 5.663413e-07 -1.0532651e-08
000170 1a a9 06 35 e7 f7 0a b0 f2 e0 0a 27 0b 0a 21 3e
       5.0164965e-07 -5.05564e-10 1.927329e-15 0.15726487
000180 8a 88 59 3c ce 43 ea 30 37 9c 8c 3a f6 b4 20 bd
       0.013277182 1.7045012e-09 0.0010727708 -0.039235078
000190 91 b6 be 3c 1f be 41 3d 45 72 e0 bd 1a 52 bf 3a
       0.023280414 0.047300454 -0.10959295 0.0014596612
0001a0 72 94 db 81 71 f6 c6 b6 68 14 2f 3c d7 4d 98 bd
       -8.0660903e-38 -5.9295494e-06 0.010686018 -0.07436722
0001b0 0c c7 77 a7 a8 e9 1c 3d 60 04 c8 3d b8 cc 97 36
       -3.438604e-15 0.03830877 0.097664595 4.523983e-06
0001c0 68 f8 07 be 10 27 97 3d 6d ce 06 b5 f0 18 27 3b
       -0.13278353 0.073804975 -5.021928e-07 0.0025497042
0001d0 a3 7a 31 3d a6 5d b4 3d df 9d 73 3d 2d 9a c7 3c
       0.043329846 0.088069245 0.05947673 0.024365509
0001e0 16 3a ce b7 c6 68 3d 0e bb c4 93 b6 66 d0 b6 34
       -2.4584162e-05 2.3346495e-30 -4.403844e-06 3.4051772e-07
0001f0 99 27 87 bb d4 60 c6 bd 22 5f d6 af 6e ea 30 3c
       -0.0041245935 -0.09686437 -3.899397e-10 0.01079808
000200 7e 28 bc bc 4b ce b2 30 02 e4 2a bc a5 21 61 3a
       -0.022968527 1.3009837e-09 -0.010430338 0.0008588082
000210 ba da 7f bb d9 42 52 36 f2 69 af 3d ff 65 1d bd
       -0.0039040283 3.133135e-06 0.08565129 -0.03842735
000220 00 46 84 bc e4 ee 8a bd ae 4d db 8e 6f 65 56 38
       -0.01614666 -0.06783846 -5.406247e-30 5.1116043e-05
000230 ea f9 e9 39 97 ea 4a 38 26 bb 49 3d bb 1e 9e 39
       0.00044627424 4.837903e-05 0.049250744 0.00030159004
000240 c4 2e f0 3c a4 8a 72 bc 9a c6 4b 1c 18 e8 e8 3a
       0.029319175 -0.014803562 6.742375e-22 0.0017769365
000250 6f 0c 9d 3c 51 29 91 3c 1e 32 98 97 4f 81 31 bc
       0.019170968 0.017719897 -9.835421e-25 -0.010834052
000260 7b 6f 28 b2 f3 76 51 bd 61 42 58 8f e4 3e 35 bc
       -9.804235e-09 -0.05113883 -1.0662406e-29 -0.011062358
000270 e4 19 e0 3c 7a b6 ea bc 06 d4 7f b4 73 82 29 bd
       0.027356096 -0.028651465 -2.382586e-07 -0.04138417
000280 60 91 bc 3d c4 95 35 3d 48 2d 1d 3e f8 13 b3 3d
       0.092074156 0.04433228 0.15349305 0.08744043
000290 ad a0 87 3d 0e 7e 4b 38 be 3f 6b bb c9 35 64 bb
       0.06622443 4.851637e-05 -0.0035896148 -0.0034822098
0002a0 f5 35 88 bc e1 d5 88 38 d8 ba 8a 26 45 37 a2 0a
       -0.016627291 6.5248234e-05 9.626318e-16 1.5620823e-32
0002b0 ea 7d 65 a4 4a ed 25 00 44 5b cd 3d 75 1c 59 bc
       -4.9763113e-17 3.483037e-39 0.10027173 -0.013251414
0002c0 c2 35 b3 bc d4 9f 87 3c 77 07 8e bd f7 dd ae 3d
       -0.02187622 0.016555704 -0.069350176 0.0853843
0002d0 4c 6d 5b 3a 3c 33 92 3b e4 6e 25 3a 9f e4 5c 3d
       0.00083704735 0.004461674 0.00063107745 0.053928968
0002e0 10 a5 b8 bc 2e c4 21 be 64 e2 d4 3d ea b9 42 3d
       -0.022539645 -0.15797493 0.10394743 0.047540583
0002f0 ad 44 26 36 df 28 25 bd fc 27 e0 1c e6 1f 85 3d
       2.4775902e-06 -0.04032218 1.4833412e-21 0.06500225
000300 50 ba c9 b2 b6 10 2b bd 1e 6d af ba 03 8c 82 3b
       -2.3484205e-08 -0.041763984 -0.001338396 0.003983976
000310 5f 5f cb 39 0a 03 04 3e 00 77 79 3d 8c 80 b1 a5
       0.00038790234 0.12891784 0.060904503 -3.0791712e-16
000320 4f 87 18 bb 39 f3 a1 3d 66 45 b7 3d 32 20 8a 3c
       -0.002327401 0.07907719 0.089487836 0.016861055
000330 25 4c 6f 0a 52 78 5e ba 67 60 0d b6 5b da a7 3c
       1.15217526e-32 -0.0008486557 -2.106675e-06 0.020489862
000340 f3 b7 d9 3b 65 1b 88 bd 39 29 4f aa aa 0c 8a bb
       0.006644243 -0.0664585 -1.8399595e-13 -0.0042129355
000350 29 57 e6 bb 45 a3 bc 3c c6 53 5a 38 69 51 69 b3
       -0.0070294333 0.023027072 5.205327e-05 -5.4323582e-08
000360 6a 1f 14 3d 7e 90 b1 3d 64 c0 a1 ae 60 e9 7f 92
       0.03616277 0.08670138 -7.355608e-11 -8.075147e-28
000370 2a 6f 96 35 ef c9 7f 35 78 e4 cb 0e 03 25 b0 bd
       1.1208224e-06 9.5288755e-07 5.026337e-30 -0.086008094
000380 07 43 3c bc d5 53 ec 2e 21 3f 31 3a 35 50 e8 3d
       -0.01149059 1.0746929e-10 0.0006761421 0.11343423
000390 52 39 d5 bc 77 bd ab bd 99 5a 39 3c 2d 7b 2e bb
       -0.026028309 -0.08385747 0.011313104 -0.0026623711
0003a0 36 07 1d 01 5c bd 49 ab 40 db de 3a 16 1b e0 3c
       2.884152e-38 -7.1672334e-13 0.0017002597 0.027356666
0003b0 81 13 80 28 62 dc 38 3d 7e b2 b9 3d dd e1 cf ac
       1.4219313e-14 0.04513205 0.09067248 -5.9083697e-12
0003c0 cb e0 14 be f3 86 67 bd 50 fa 12 b3 83 44 e5 3d
       -0.14538877 -0.056525182 -3.4220932e-08 0.11194708
0003d0 a2 b0 87 bd 7e a6 15 3d b0 1c a2 bd 30 3d aa bd
       -0.06625487 0.036535732 -0.07915628 -0.08312452
0003e0 6e af 9d ba 42 94 9e 81 2e aa 32 35 83 91 30 b4
       -0.0012030432 -5.8252773e-38 6.655781e-07 -1.6444214e-07
0003f0 56 99 c1 38 34 47 40 bd aa 26 dc b3 bd 0a e8 3c
       9.231518e-05 -0.046942905 -1.0251581e-07 0.028325433

encoder.2.bias f4 [64]
000000 e9 93 37 3d 1c 9b c1 3c fe 6c 5d bc f3 1b bb 81
       0.044818792 0.023633532 -0.013514755 -6.8733056e-38
000010 33 93 e7 3c cd cd 87 27 3e 22 78 bc 07 ae ea b8
       0.028268432 3.7693157e-15 -0.015144883 -0.000111904046
000020 bd 60 87 3a 49 2d bb 3a b6 8b 8f 81 b3 ea 2a 3d
       0.0010328513 0.0014280464 -5.273038e-38 0.041727733
000030 8c 5d 10 b1 8b 25 eb bb 42 23 03 3b 85 be c0 81
       -2.1007933e-09 -0.0071761063 0.002001003 -7.0803043e-38
000040 ef 6e a5 2f a6 98 78 b3 a9 a2 1f 3d 7a 87 90 3d
       3.0092148e-10 -5.7880833e-08 0.038973484 0.0705709
000050 07 7d 42 3d 9c fd a9 01 22 dc d9 3c 71 4a ee 94
       0.047482517 6.2444707e-38 0.026594225 -2.406122e-26
000060 5c e6 e5 ba e1 70 fd b3 d7 eb 67 3b 6f d0 c9 3c
       -0.0017539966 -1.1801763e-07 0.0035388374 0.024635522
000070 35 4e d1 b4 f8 84 c4 3d 89 90 16 bd 68 ee 38 bc
       -3.8986187e-07 0.09595674 -0.036758933 -0.011287309
000080 9e 06 3d bc 5b ae a9 b6 45 3e 1c 3d 63 77 8b 89
       -0.011537222 -5.05689e-06 0.038145322 -3.3575304e-33
000090 f9 d1 ac 3d 4a f1 cb bc c4 bb 54 bd 43 23 ae bc
       0.084384866 -0.024895329 -0.05193688 -0.021257048
0000a0 3c 1b 40 3d a1 e9 8b bc 5d 19 8b bc 29 21 e1 3c
       0.046900973 -0.017079176 -0.016979868 0.027481632
0000b0 9a 53 e2 3d 67 04 0d bb 73 e7 38 3d 20 b8 7a bc
       0.11051102 -0.0021517517 0.045142602 -0.015302688
0000c0 63 eb ec 3d 2f af 8c bc 3f 3b 82 bb 79 af ae 3b
       0.11568334 -0.017173378 -0.003974348 0.0053309766
0000d0 82 62 98 bc a5 73 b1 bb 0e 35 bc 9b 20 c1 68 ae
       -0.01860166 -0.005415397 -3.1136277e-22 -5.2922222e-11
0000e0 b6 d5 1c 3d fc ae 2d bb c6 82 1e bd cb f4 57 ba
       0.038289748 -0.0026502004 -0.038698934 -0.0008238076
0000f0 15 bd b9 3b 89 40 fd 3c 27 f2 cf 3d 18 36 3c 3c
       0.0056682923 0.030914562 0.10153609 0.011487506

encoder.4.weight f4 [12, 64]
000000 d1 68 a6 3a eb dd 74 3d 17 9c 09 bc b3 90 57 bb
       0.0012696033 0.05978195 -0.008399031 -0.0032892644
000010 59 c2 1c 3e 30 3b 54 b4 ab 4a b3 bc 38 c3 84 bc
       0.15308513 -1.9765571e-07 -0.02188619 -0.016206369
000020 79 ed f7 3b 96 5e fa bc 0c 15 e0 b9 16 f3 b9 bd
       0.0075661507 -0.03056268 -0.0004274029 -0.09079568
000030 f7 fe c8 35 db 33 af 3d 1e 5a 65 3c 3a 76 77 01
       1.4975366e-06 0.085548125 0.013998536 4.5451559e-38
000040 ff 03 d2 39 69 cf c5 39 4e 5b 11 3e e3 63 eb 3d
       0.000400573 0.000377293 0.14194986 0.11493661
000050 c3 6d 69 3c 93 29 25 3b 50 83 f8 bc 8f a0 b6 36
       0.014247361 0.0025201782 -0.030336052 5.442714e-06
000060 25 5b cf 3d 2c 9f c9 ba 50 44 2a 3d 1b ec 17 bd
       0.10124806 -0.001538252 0.041569054 -0.037090402
000070 68 b0 0d 31 2c dc a6 3d 7f 59 5b 3d 05 2f bd 3d
       2.0618476e-09 0.08147463 0.053552147 0.09237484
000080 87 f8 7a bb ea c0 7c ba 1f 66 07 3e 19 14 e0 bb
       -0.0038295106 -0.00096417835 0.1322255 -0.0068383333
000090 a7 21 0b 3e 45 29 d5 3d bd 43 24 bd d3 6b b8 3d
       0.13587056 0.10408262 -0.040103663 0.09004941
0000a0 14 8a 2c 3e f7 db 21 bd e7 61 22 3d 28 2c 86 be
       0.16849548 -0.039516415 0.03964415 -0.26205564
0000b0 41 63 fd 3d b4 3a 54 3d e7 ac d9 3d ad 7d 0e 3e
       0.12372447 0.051813796 0.10628682 0.13915129
0000c0 b6 b2 0a 3e a8 9e d1 bc 3b 8a b4 bc ad ee 17 3e
       0.13544735 -0.025588349 -0.02203857 0.14837141
0000d0 7d fe 91 bd 85 69 1f 3e da ee 11 3c 69 a1 54 ba
       -0.07128618 0.15567596 0.008907044 -0.000811121
0000e0 d3 d3 be bd 32 c5 bf bc 65 f9 b2 3d 9e 86 ca ba
       -0.09317746 -0.02340946 0.087389745 -0.0015451496
0000f0 b8 f6 d6 bd 49 92 5a 3d 9e d1 81 3d c6 c2 19 3e
       -0.104962766 0.053362165 0.063388094 0.15015706
000100 ad 37 57 3d 56 de fe 3b 7d 76 aa 3c e8 c0 ac b1
       0.05254333 0.0077779694 0.020808453 -5.0277897e-09
000110 fe a5 a5 bb c2 81 a4 27 76 a6 87 3d 02 a0 df bb
       -0.005055188 4.5659828e-15 0.06623547 -0.0068244943
000120 35 64 ee 2a 47 59 12 3d 9b 76 4d 15 68 68 ff 3c
       4.2346825e-13 0.035729673 4.1492984e-26 0.031177714
000130 26 5d b1 83 b8 fa 5f 3b 23 5a fe ac 58 25 9d 01
       -1.0424511e-36 0.003417654 -7.2291214e-12 5.772628e-38
000140 cb e6 41 a3 ea bb 12 a8 f9 08 b7 3b 3d 60 6d 3d
       -1.0511423e-17 -8.1453754e-15 0.0055857864 0.057953108
000150 5e 0a dc 3d 70 51 1b b4 3a f5 e1 3d f4 5c d8 01
       0.10744165 -1.4465127e-07 0.110331014 7.947925e-38
000160 31 05 c3 bd 9c c3 92 b2 13 75 9e bd d1 7d f6 3d
       -0.095224746 -1.708559e-08 -0.07737174 0.12035716
000170 2e 1b b7 24 7f 3c 85 3d 56 2a 03 bd 48 5f 1c 3e
       7.940964e-17 0.06505679 -0.032022797 0.15270722
000180 ef 33 84 bd 3f fa bc bb fc 8f 2b 3c ab d2 95 b5
       -0.06455218 -0.0057671363 0.01047134 -1.1162678e-06
000190 ff 0a 09 3c 2b 84 a9 3d 67 66 be 3d 7a 9b 99 3d
       0.008364438 0.08277162 0.092968754 0.07500358
0001a0 90 c2 56 3e f3 54 04 3d 6c 95 a9 bd 3b 7b d4 3e
       0.20972657 0.032307576 -0.08280453 0.41500267
0001b0 ba d6 df 3d 74 f4 88 3e 9e 40 3b bd 20 6d 1d 3d
       0.10929628 0.26749003 -0.04571592 0.038434148
0001c0 a4 58 f4 3d 04 71 98 bc e9 3b d3 3d fe ea e6 bd
       0.11930969 -0.018608578 0.10314161 -0.1127529
0001d0 b5 b0 95 3c 98 8f 43 3b d0 76 6f 3b 70 ce 2d 28
       0.018272737 0.0029840227 0.0036539324 9.648193e-15
0001e0 90 bc dc 3d 1d 88 c0 3c 0c 76 f0 3d 09 93 e6 b6
       0.10778153 0.023502404 0.11741266 -6.8716513e-06
0001f0 06 27 c8 3c 1e b2 5e 3d b4 39 c2 3d fe 93 12 3e
       0.02443267 0.054369085 0.09483662 0.14314267
000200 a1 bc a8 ba be 22 ee 3d 6e 8d d0 bc 08 34 f9 38
       -0.0012873599 0.1162772 -0.025458064 0.00011882937
000210 74 47 00 bd e9 fb 96 29 1c f6 24 3d 70 d9 fa 3b
       -0.031318143 6.7050376e-14 0.04027377 0.007655315
000220 da bf 25 04 ad b3 b6 bd 30 03 a8 ab fd 43 70 bd
       1.948375e-36 -0.08920989 -1.1938003e-12 -0.05865859
000230 b3 9b 83 81 b0 26 32 3c 8e f0 97 18 14 87 60 01
       -4.834522e-38 0.010873482 3.9275483e-24 4.1239216e-38
000240 07 39 84 83 f1 18 b6 27 b2 54 03 3e 7a b3 e7 bd
       -7.7713556e-37 5.054219e-15 0.12825277 -0.11313529
000250 f0 11 fb bc 75 d2 a4 39 5a 77 87 bd 4d f2 c1 82
       -0.030648202 0.0003143732 -0.066145614 -2.8497875e-37
000260 6f 6c 4b 3d ac 2f 38 3a da e7 1b be 04 27 a0 3c
       0.049663957 0.00070261466 -0.15225163 0.019549854
000270 d5 5e 2a 26 53 b0 87 3c 4d 3b d2 3d 6b 95 19 be
       5.910912e-16 0.01656357 0.10265217 -0.14998405
000280 9e ae 98 3d dc 21 08 3c 15 9e 7d bd 5b f6 a7 3b
       0.074551806 0.008308854 -0.061918337 0.0051258034
000290 27 2d c0 bb 18 e7 d6 bd b2 37 6c bd 42 2f 4b 3d
       -0.0058647576 -0.104932964 -0.057670303 0.049605615
0002a0 cc f4 98 be e6 47 c4 bc fb 4e 00 be 4f 2a 46 3d
       -0.29874265 -0.023960065 -0.12530129 0.048380192
0002b0 25 3b 6b 3d 72 5f 84 be dc 8f 98 3d 10 0a 8b bd
       0.05742945 -0.2585407 0.07449314 -0.06789029
0002c0 2a 5b a4 3d 18 a7 bc 3c 11 a1 58 3d 95 be 45 3e
       0.08025201 0.023028895 0.05288798 0.19310983
0002d0 4a ef 58 bb 38 38 8f bd ee 24 a9 bc e5 f4 1f 12
       -0.0033101612 -0.06993145 -0.020647492 5.047341e-28
0002e0 d1 61 48 3b f2 26 da bc 49 3b d5 3d 5c 26 9d b8
       0.0030575881 -0.026629899 0.10411698 -7.4934884e-05
0002f0 2e 12 88 3c 8a 4f 19 3c cb 30 71 bb e8 91 c4 bd
       0.016610231 0.0093573425 -0.0036802765 -0.09598142
000300 49 d6 e9 3d e8 80 4d bc f3 a4 99 bc 30 27 53 b9
       0.11417825 -0.012542941 -0.018755412 -0.00020137127
000310 46 c1 ef 3e 64 97 58 aa 6f ec 3d 3d c5 61 7f 3c
       0.46827143 -1.9237178e-13 0.04636806 0.015587275
000320 6a a2 db 24 de ed d0 bc 93 55 b6 b0 84 51 31 3a
       9.525125e-17 -0.025504049 -1.3266565e-09 0.0006764161
000330 20 e3 c3 01 b1 60 02 3b 72 cb 96 a6 fc 32 a5 81
       7.1957595e-38 0.0019894058 -1.0463485e-15 -6.0684586e-38
000340 c0 a9 1d a9 66 8d 87 2d c1 40 a3 bc c6 16 8b ba
       -3.5008238e-14 1.5410517e-11 -0.019928338 -0.0010611645
000350 b1 c4 09 3e b8 04 08 32 7a 02 5c bc e8 5e 41 81
       0.13453938 7.917315e-09 -0.013428325 -3.5516593e-38
000360 13 22 a3 3d d9 90 44 b6 8d 37 e8 3e 6a 5d 7d 3d
       0.079654835 -2.9290588e-06 0.45354882 0.061856665
000370 61 ca f0 a6 da 82 bf 3e 64 20 99 3d 89 cb 65 3e
       -1.67082e-15 0.3740452 0.07476881 0.22440924
000380 95 a6 87 bd a1 8c 26 3a 21 18 16 3f f8 be 2f bb
       -0.0662357 0.0006353353 0.5863057 -0.0026816707
000390 2e 92 92 3d 4d 05 e8 3e 20 bb 9e 3c 59 89 e0 3e
       0.07156788 0.45316544 0.019376338 0.43854788
0003a0 94 b3 a1 3e a8 b7 30 bd 92 1a f6 3e 53 25 5a be
       0.3158232 -0.0431439 0.48067147 -0.213033
0003b0 a8 d4 df 3d ec 85 c4 3d 59 fd 6d 3e b4 7c fb 3e
       0.10929233 0.09595856 0.23241176 0.49118578
0003c0 5e b5 41 bd 83 f5 f2 bc 4b b3 f1 3b 0c 49 6d 3c
       -0.047292106 -0.029658085 0.0073761097 0.014482748
0003d0 ae 22 3b 3b aa 2d 85 3e f1 97 43 3c 70 34 30 95
       0.0028554606 0.260114 0.011938081 -3.5584283e-26
0003e0 16 c1 41 3b aa 02 9d bc 15 02 e2 3d bf ca 03 39
       0.002956455 -0.01916631 0.11035553 0.00012568662
0003f0 ca c6 87 bc d0 d4 19 3c c2 2a 03 3d c8 58 9b 3d
       -0.016574282 0.009389117 0.0320232 0.07585293

encoder.4.bias f4 [12]
000000 27 51 ba 3d 1c dc c9 3d a8 e1 b8 3b 71 35 91 bd
       0.0909751 0.09856436 0.0056421347 -0.07090271
000010 87 fa 3c 3d 4b 83 01 3d 38 4a ca 3b f3 9e 04 3d
       0.04613736 0.03161935 0.0061733983 0.03237815
000020 17 95 4c 3d c0 36 a1 bc 84 02 89 3d ef 60 f2 b5
       0.04994687 -0.019679427 0.06689933 -1.8058616e-06

encoder.6.weight f4 [2, 12]
000000 c5 18 66 be 64 85 83 bd e2 eb a6 3e 60 f1 41 be
       -0.22470386 -0.064219266 0.3260184 -0.18939734
000010 06 2b d2 bd 24 11 4f 3c a5 5a 8a bc 1a b9 ef 3e
       -0.10262112 0.012638364 -0.016888926 0.4682091
000020 e5 88 ec bd 29 b0 4a 3f 36 15 fd be 62 43 d5 2c
       -0.11549548 0.7917505 -0.49430245 6.061305e-12
000030 27 d6 90 3e 39 3b 3c bd 9b 26 51 3c 37 5d 2a 3e
       0.28288385 -0.045954917 0.012765552 0.16637121
000040 74 fc 17 be 20 de 3f 3e bf e1 c2 3c 95 a5 cb 3e
       -0.14842397 0.18737078 0.023789285 0.39774767
000050 ae 7a 28 3e a3 ba 64 3e 33 eb ce bb 3d 8f ed 27
       0.16453049 0.22336821 -0.006314659 6.5936013e-15

encoder.6.bias f4 [2]
000000 c8 27 33 be 74 60 21 be
       -0.17495644 -0.1575945

decoder.0.weight f4 [12, 2]
000000 92 d1 a4 3d 10 c8 e8 be ec f3 25 3f 69 7a b9 3d
       0.08047785 -0.45465136 0.6482532 0.09056551
000010 ce 07 21 bf 56 c0 09 bf d0 f5 8a bc cc 8c 96 3d
       -0.62902534 -0.53809106 -0.016962916 0.073510736
000020 d1 d9 28 3f 8f 08 a2 3d 65 76 b9 be ad 5e 47 3f
       0.6595736 0.07911789 -0.3622314 0.7787884
000030 8d 1d 80 bd a5 3f 61 be 6d be c4 bd eb a6 01 3f
       -0.06255636 -0.21996935 -0.09606633 0.5064532
000040 45 7c 5f 3d 1f 77 98 be c6 39 2b bf 16 e3 a8 bd
       0.054561872 -0.29778382 -0.6688503 -0.08246438
000050 c4 21 c7 3e 64 18 db 3e 41 42 95 be 57 d9 0d be
       0.3889295 0.42792046 -0.2915211 -0.1385244

decoder.0.bias f4 [12]
000000 5a a8 21 3f 12 9b 28 3d 45 90 d8 be 11 7d 4d 3f
       0.6314751 0.04116351 -0.4229757 0.8026896
000010 54 c5 cd 3e 66 1c 51 3e 72 0f d7 3e 35 24 52 bf
       0.40189612 0.2042099 0.4200397 -0.820865
000020 d5 d4 10 3f 68 23 84 3e 0f 8d 15 3e 48 5e ce 3b
       0.56574756 0.25808263 0.14604591 0.0062978603

decoder.2.weight f4 [64, 12]
000000 b0 2d 02 3c 0e 6e 2b bf be a7 10 3e 29 03 b4 3d
       0.007945463 -0.66964805 0.14126489 0.08789665
000010 20 fc d6 be 89 ee 43 3e 53 d1 2e bd f3 33 94 be
       -0.4198923 0.19133963 -0.042680096 -0.28945884
000020 c6 ef 26 be 11 e0 83 3e 7f c9 18 bd 80 62 8f be
       -0.16302404 0.25756887 -0.037301537 -0.28004837
000030 2d f0 6c be b7 0d f7 bd 15 56 0f bf 47 c2 28 3e
       -0.23138495 -0.12063163 -0.55990726 0.16480361
000040 e8 fc f3 bd 69 b4 af 3e f2 8c 3f be 2f 3b 14 3e
       -0.119134724 0.3431733 -0.1870611 0.14475702
000050 50 4c 2b be d8 b0 82 be c5 91 42 3e f9 2d cf be
       -0.1672833 -0.25525546 0.19000919 -0.40464762
000060 eb 6d b9 38 3f 03 50 bc 1e 53 95 bc bc c1 e0 ba
       8.841961e-05 -0.012696086 -0.01822811 -0.0017147581
000070 66 55 5d bc bf 3a 94 bc 8a ee a5 b8 9b 75 be bb
       -0.01350913 -0.018094419 -7.9122445e-05 -0.0058123595
000080 8c aa 8f b9 2a 71 97 bc 4f 46 57 bc 99 83 52 bc
       -0.00027402153 -0.018486578 -0.0131393215 -0.012848758
000090 4a 5e ea 3d 9a 0c c1 3d 08 02 fc 3d 53 43 4f be
       0.114437655 0.09426232 0.12305075 -0.20240526
0000a0 ad 30 a2 3d 72 cd 83 3e 26 39 a3 bd 46 08 72 3d
       0.079194404 0.2574268 -0.079698846 0.05908992
0000b0 a0 f8 03 3e 8c c0 59 3d 12 ed b6 3b cd 50 14 3e
       0.12887812 0.053162143 0.00558246 0.14483948
0000c0 9f 7c 48 3d f8 06 14 bc 34 72 24 3d 68 55 93 be
       0.048946973 -0.009034865 0.040147975 -0.28776097
0000d0 e5 5e 21 bd 97 b6 52 3e 9f 02 52 3e 6f 80 ac 3e
       -0.03939714 0.20577465 0.20508812 0.33691737
0000e0 eb 76 fe 3d 99 e2 3e 3d 59 1b dd 3d fc 0e 36 bc
       0.124250256 0.04660282 0.10796232 -0.011111971
0000f0 80 86 47 b8 c4 9d be b8 67 ac 64 bc 2e 46 19 bc
       -4.757056e-05 -9.089292e-05 -0.01395712 -0.009355111
000100 0a 8d e5 b9 13 39 b3 bc 4c 3d ac ba 41 fe 94 bc
       -0.00043783366 -0.021877801 -0.0013140826 -0.018187644
000110 2e a0 86 ae 8f 13 8b bc 4d 61 51 bb fb c7 38 bc
       -6.122068e-11 -0.0169771 -0.0031948865 -0.011278148
000120 02 74 f2 3c d8 ec 5b 3d b5 eb 0e be 24 32 8b bc
       0.029596332 0.05369267 -0.13957103 -0.016991682
000130 71 0d 7a 3d 0f f5 81 3e 11 2b d3 bc 2f f5 e4 bd
       0.061047975 0.25382277 -0.025777372 -0.111795776
000140 e4 52 74 bd 68 fd 87 3d cd 78 9c bd 12 78 52 bd
       -0.059649363 0.0664013 -0.076402284 -0.05138404
000150 d6 2e b8 3d 70 69 7f 3e 2a e7 c4 be 9b e1 9b 3d
       0.08993308 0.24942565 -0.38457614 0.0761139
000160 91 14 38 3c 99 55 85 3e da 31 7c bd 3a 52 22 3d
       0.011235372 0.26041868 -0.06157098 0.0396292
000170 cc 59 24 3d cb 44 a4 3e df 91 99 be 70 c1 1e 3d
       0.0401247 0.32083735 -0.29994103 0.038758695
000180 66 e4 95 ab ca 41 d3 b6 74 dc 0c 2d e4 a7 a7 ae
       -1.065048e-12 -6.295949e-06 8.007029e-12 -7.624104e-11
000190 10 d2 dc b7 54 92 02 b6 af 68 60 2b 54 9e 03 2d
       -2.6323862e-05 -1.9456684e-06 7.9726064e-13 7.481644e-12
0001a0 b8 41 36 2b 90 fa 1d 2d a3 80 2c b8 01 c8 08 2c
       6.475059e-13 8.980053e-12 -4.1127798e-05 1.9437787e-12
0001b0 24 db 70 3e 07 ca 8b 3d 2e 85 af bc 04 37 ab 3e
       0.23521096 0.06825643 -0.02142581 0.3344041
0001c0 eb df 2f 3e 80 33 80 be 11 a4 dd 3e ed 56 1c bf
       0.17175262 -0.2503929 0.43289235 -0.6107014
0001d0 e0 85 bf 3e 9e 6c 00 3d 69 bb 65 3d e3 9d 06 3e
       0.37406826 0.031353585 0.05608693 0.13146167
0001e0 97 96 11 3d 3b ef a9 3d 0f d4 60 3d 32 84 6d be
       0.035544004 0.08297583 0.054889735 -0.2319496
0001f0 ee 7c ec 3c 5a 3f 0e 3e 5e f3 dd bd e7 4f c3 3e
       0.028868165 0.13891354 -0.10837434 0.38146898
000200 31 1f 0e 3e 53 a6 59 bd 62 4b 2d 3e 34 d1 65 3d
       0.13879086 -0.053137135 0.16923288 0.056107715
000210 e6 a4 3a 3d 62 e1 1e 3e eb 0b e8 bd a9 51 4f 3c
       0.045567416 0.15515664 -0.11330398 0.012653747
000220 59 c5 2a 3e 89 a9 1f 3e 60 be 94 3d 59 2a 35 3e
       0.16676845 0.15592016 0.07262874 0.17691936
000230 8c 67 91 3d b9 28 2d 3e 5e 2d bc bb 22 88 2b be
       0.07099828 0.16910066 -0.005742713 -0.1675115
000240 b7 3f 22 01 34 30 04 89 f7 09 6c 33 80 1b 73 ad
       2.9800414e-38 -1.5911587e-33 5.4957095e-08 -1.3819057e-11
000250 ea 99 8e 01 01 72 15 b9 88 94 a2 82 dd e5 1f b5
       5.238342e-38 -0.00014252217 -2.3889013e-37 -5.956661e-07
000260 fc 7a bb 01 f6 48 55 b8 96 b3 96 01 31 1e 48 2a
       6.8869425e-38 -5.0851108e-05 5.535899e-38 1.7774043e-13
000270 ab c7 2e 3e cd 35 4e 3e 1a 1c 3d 3e 68 f8 b6 bd
       0.17068355 0.20137711 0.18467751 -0.089340985
000280 7d 3c 79 3e 8b 28 34 bd c1 38 ee 3e 57 5d fc be
       0.2433948 -0.043983977 0.46527675 -0.49289963
000290 e5 cc 53 3e 19 d8 c8 3d a3 a6 7c 3e 96 a0 1c 3d
       0.2068363 0.09806842 0.24672942 0.038239084
0002a0 c7 ad 70 3d c1 57 52 bd f0 65 02 3e 54 5c 45 be
       0.058759477 -0.05135322 0.12734199 -0.19273502
0002b0 46 d7 8e bd 42 a8 65 3e e4 f6 f8 bd c9 18 ee 3e
       -0.06974654 0.22427467 -0.12156466 0.46503285
0002c0 ff 8a 0d 3e 7c c6 b6 3c 37 dd 97 3d 12 18 d7 bb
       0.13822554 0.022311442 0.0741524 -0.0065641487
0002d0 d2 45 1e be 63 c7 13 3e 32 84 0c be 2a f8 ab 3e
       -0.15456322 0.14431529 -0.13722304 0.33587772
0002e0 86 d1 50 3e 28 5b 3c 3e 71 14 73 3e 6b 30 59 be
       0.20392427 0.18394148 0.23738267 -0.21209876
0002f0 03 73 05 bd 6c b1 e8 bd 0e 96 82 3d 2e 6e 4f 3e
       -0.032580387 -0.113619655 0.06376277 0.20256874
000300 b5 31 2e 3f 71 9b 4c 3d 16 19 7a 3d 35 8d ce 3e
       0.68044597 0.049952928 0.06105908 0.40342107
000310 2e 39 bc 3d 22 27 c3 be de 78 fd 3e 7e 6d b2 bd
       0.09190594 -0.38115793 0.49506277 -0.0871229
000320 c6 6f 32 3f 1c b7 40 be eb 00 be 3b 02 d0 23 3e
       0.697018 -0.1881985 0.0057984493 0.15997317
000330 88 a2 61 bc b5 42 28 bb 2e 87 32 bd ec 8d b2 bc
       -0.013771661 -0.0025674526 -0.04358595 -0.02179619
000340 b7 d9 6b bb d8 fa 34 bd 79 9c f3 bc 0e 74 46 bd
       -0.0035987922 -0.044184536 -0.029737698 -0.048450522
000350 1d 9c 58 bc af 64 4a bd c7 d0 b7 bc 6a 35 3d bd
       -0.013220814 -0.049412426 -0.02243842 -0.046193518
000360 93 6c d0 3e 13 a6 98 be 62 85 b0 be bc aa 87 3e
       0.40707836 -0.29814205 -0.34476763 0.26497447
000370 6b bf 7c bd e9 15 76 3d 3b 3f d9 3d 08 2d 37 3d
       -0.061705988 0.06007949 0.106077634 0.04472068
000380 b2 80 b3 3e a6 a8 a8 be 17 49 c6 3e e3 4e 43 bf
       0.35059124 -0.3294117 0.38727638 -0.76292247
000390 3d e0 d8 bc 72 90 2d be fd 4e 03 be e9 71 a4 3e
       -0.026474113 -0.16949633 -0.128231 0.32118157
0003a0 7d c2 2e bc d7 c1 d9 3d 0b e5 b5 3e 9d aa c2 be
       -0.010666487 0.10632675 0.35526308 -0.38020793
0003b0 da d4 db bd a3 24 54 3d 1b e6 52 bd 1a ac d5 3d
       -0.107339576 0.051792752 -0.051488977 0.104332164
0003c0 cc b3 a1 3d a3 ae d0 be 1d c5 f5 3d f8 7d a8 3e
       0.07895622 -0.40758237 0.12000487 0.32908607
0003d0 f0 86 a4 be d6 8b 1c bd 2f 33 47 bd b1 7b 4b ba
       -0.321342 -0.038219295 -0.048632797 -0.0007762267
0003e0 b3 08 00 3d 2c 9b 68 3e cc 10 86 3d 62 1d 3e be
       0.031258296 0.22715443 0.065461725 -0.18565896
0003f0 9b 5f 99 3c 88 e9 06 3d 74 76 85 be f4 e3 b1 3d
       0.018722346 0.032937557 -0.26066935 0.08686057

decoder.2.bias f4 [64]
000000 74 db c4 3e 8f 0c 76 3d 17 33 83 bb 2b 8d 30 be
       0.3844868 0.06007057 -0.004003893 -0.17241351
000010 4f b0 9c be f6 9b d7 bb 42 32 92 3e 9f f0 87 bc
       -0.30603263 -0.0065798713 0.2855397 -0.01659423
000020 4f 7d 84 2c b2 b0 db 3e 02 10 26 be 62 e6 34 be
       3.7655777e-12 0.42908245 -0.16217044 -0.17666009
000030 62 ec 04 b0 c3 fd f8 3d d3 15 c8 be 00 11 dc 3e
       -4.835724e-10 0.12157776 -0.3907915 0.4298172
000040 36 18 b2 3e 72 4f 8d bc 7e 52 0f 3f 60 d5 69 3e
       0.34784096 -0.017249797 0.5598525 0.22835302
000050 e0 9f c3 3d 3f 2b cb 3e 36 5d c9 3d 7e 50 b8 be
       0.09551978 0.39681432 0.09832232 -0.3599891
000060 2c 84 8a be e1 62 d8 3d 3e b3 77 3c 82 14 4a be
       -0.27053964 0.10565735 0.015118418 -0.19734386
000070 be d3 af 3e 3a cd b9 3e 00 37 d6 b0 08 08 b2 3d
       0.34341234 0.36289388 -1.5586181e-09 0.08692938
000080 40 34 e2 3d 58 fd 9c be 94 b1 0e 3f a9 08 1b 3f
       0.11045122 -0.30662036 0.5573971 0.6056009
000090 b9 aa 01 bd 2d 76 b5 3e c2 88 b3 be 0c bb 11 be
       -0.031656954 0.35441723 -0.35065275 -0.14231509
0000a0 cc c5 2d 3e 15 1f 90 3d fd 83 b9 3d 92 0e 90 be
       0.16969985 0.070371784 0.09058378 -0.28136116
0000b0 24 75 29 3f dc ec c0 bc 7d 7e 74 be 8e 3e c0 3e
       0.6619437 -0.023550443 -0.23876376 0.37547725
0000c0 49 ac c0 3e f6 f7 58 3e cd b0 ce bb 83 c8 63 be
       0.37631443 0.2118834 -0.0063076974 -0.22244458
0000d0 d2 91 b5 3e 6a 1b 80 3e b5 db 02 3b a6 6f 20 3e
       0.35462815 0.25020915 0.0019967381 0.1566759
0000e0 4e 22 63 bc e2 9f bf be 43 3e a5 3e 5f 61 52 3b
       -0.013863159 -0.37426668 0.32274064 0.0032101495
0000f0 56 9d ab 3d 2a 71 40 be 2a aa 8b be 2c 8a 11 3e
       0.08379619 -0.18793169 -0.27278262 0.14212865

decoder.4.weight f4 [128, 64]
000000 cf b8 b5 3c 8c 2a 47 bb 53 6c 10 bc 7f 91 c1 3d
       0.02218285 -0.003039035 -0.008814889 0.09451579
000010 47 4f 5b 3d 6a b3 91 3b ce da 17 3e a3 94 a3 bd
       0.0535424 0.0044464367 0.14829561 -0.079873346
000020 dc 4c 32 2b 02 e5 5c 3d bf e4 0e 3d 3e 96 98 3d
       6.334497e-13 0.053929336 0.034886118 0.074505314
000030 b8 cb 8c 96 d7 44 3a 3e 19 e2 bb 3c 31 51 19 3d
       -2.2746784e-25 0.18190323 0.02293496 0.037430946
000040 97 50 8c 3d 32 c0 16 bb ee 9c fb bd 8f f0 9f bd
       0.06851309 -0.002300274 -0.12285791 -0.07809555
000050 1c 3e ff 3c c5 d7 ca 3c 6c 12 12 3d df 4f 8a bd
       0.031157546 0.02476109 0.0356621 -0.067535155
000060 ef ef b0 3d d7 26 88 be 27 4e 2c bc 7c 08 38 bd
       0.08639514 -0.26592132 -0.01051668 -0.044929966
000070 ae c3 d4 3d 9f 54 a4 3b a3 cd 10 31 8f 6e 91 3c
       0.103888854 0.0050149704 2.1071649e-09 0.017752914
000080 1d 37 04 be db 5c 38 3d 88 c3 3d bd 42 36 e3 bd
       -0.12911649 0.04501043 -0.04632905 -0.11094333
000090 bd 41 22 ba 7f 6f 2a 3d d4 15 eb bc 72 a3 d6 3d
       -0.00061896053 0.041610237 -0.028696932 0.104803935
0000a0 d9 f8 a7 3d 36 65 76 3c ed 91 a9 bb d1 c0 3e 3b
       0.08201761 0.015038779 -0.0051748664 0.0029106627
0000b0 eb ad 62 3d fc 85 8d bc 22 10 3d 3c a4 7d 8c 3d
       0.055341642 -0.017275803 0.011539491 0.068599015
0000c0 8b 97 c6 bd f8 60 ed bd 48 d5 29 bb 63 5c 90 3d
       -0.09696873 -0.11590761 -0.002591448 0.07048871
0000d0 1d 28 f9 3d 5f d1 dc 3c c1 e0 51 bd 9a 68 cf 3b
       0.12165854 0.026955305 -0.051239733 0.006329608
0000e0 a7 a8 56 3c ad 7a 17 3c 19 91 c9 3d 0b 8c a9 bb
       0.013101733 0.009245557 0.09842128 -0.005174165
0000f0 5d ae f3 bd d1 3a 12 bd 99 7d 8d bd 77 01 25 3e
       -0.118984915 -0.035700623 -0.069087215 0.1611384
000100 38 8f 3b bd ec f6 7a 3d 83 e7 aa ba 5b 26 76 3d
       -0.04579088 0.06127064 -0.0013038967 0.060095172
000110 64 db ea 3d 0b 1c 01 3b fe 52 8a 3d 6c e2 58 bd
       0.11467627 0.0019700553 0.06754111 -0.052950308
000120 4d c7 a4 ab 21 d5 d2 bc d9 bb b1 3d 54 b6 93 3d
       -1.1708218e-12 -0.025736393 0.08678407 0.07212511
000130 fa aa 13 0d f6 4e 9d bd 8f 9f 00 3d 44 09 06 3d
       4.550368e-31 -0.07681076 0.031402167 0.03272368
000140 9b e3 23 bd 80 2a dc ba 1c 73 1d 3d 59 95 61 3d
       -0.040011983 -0.0016797334 0.038439855 0.05507407
000150 41 ba e5 3d 50 f3 c1 3c 95 9d 60 bd 7e 97 17 3c
       0.11217166 0.02367559 -0.054837782 0.009252427
000160 ef 42 a5 3d a1 07 b4 bd 1d a2 b3 bd ec f1 00 bc
       0.08069407 -0.087905176 -0.08771155 -0.007870179
000170 4e 22 a2 3d f4 0e fe 3d 09 57 23 30 69 2d f1 3d
       0.07916699 0.12405196 5.942274e-10 0.117762394
000180 d1 a3 44 3c 1b f6 85 bd 5c 63 68 be 71 4a 69 be
       0.0120019475 -0.065410815 -0.22694153 -0.22782303
000190 c1 2d 94 ba b7 82 fd 3d b5 da c7 3c 6a 5e bd 3c
       -0.001130514 0.123784475 0.02439628 0.02311631
0001a0 67 04 01 3d 51 aa e6 bc d9 fb fa 3c 11 09 5e bd
       0.03149834 -0.028157385 0.030637668 -0.054207865
0001b0 1c ad 31 bd 43 cd d0 3c d2 39 db 3d bb 6b f6 bd
       -0.04337798 0.025488501 0.10704388 -0.12032267
0001c0 04 93 c3 3c 5f 6f 29 bc 5f 40 ab 3c f9 4f d7 bd
       0.023873813 -0.010341494 0.020904718 -0.105133004
0001d0 5e 8f 08 3e 90 51 6a bd 88 79 0c bc 40 ae 2c 3d
       0.1333594 -0.05720669 -0.008573897 0.042158365
0001e0 26 c5 21 3d 0b 05 95 3d f1 f9 99 3d 8a b9 1d ba
       0.039494656 0.072763525 0.07518376 -0.0006016722
0001f0 2f b4 b4 3d 3a bd 38 bd c5 eb 6c bd 6e b1 09 3e
       0.0882343 -0.045102336 -0.057842035 0.1344659
000200 fd 24 9d bd de 87 13 3e 7c 83 05 b7 31 e9 b6 3d
       -0.076730706 0.14407298 -7.958031e-06 0.089311965
000210 a8 ae be 3c ae 83 0c 3b 7a aa c3 3d fb 77 a5 3d
       0.023276642 0.0021440792 0.09554 0.08079525
000220 ac 22 95 ab 87 c2 75 bd 63 d1 bc bd 2b c4 e5 bc
       -1.059671e-12 -0.05999997 -0.09219625 -0.028047642
000230 50 f5 b3 9a a1 03 c0 bd f5 48 8c 3c 08 5a 34 bd
       -7.442899e-23 -0.09375692 0.017124632 -0.044031173
000240 92 2b d1 3c d9 16 2b 39 81 9e a2 bd 85 7d 2f bd
       0.025533471 0.00016316342 -0.079403885 -0.042844314
000250 9a f1 58 3a 36 75 eb bd 2f 13 a3 3d 42 ac f0 3c
       0.00082757475 -0.114969656 0.07962643 0.029379014
000260 9f 7a 08 3d 04 76 06 8b a7 c4 67 bd f6 bd a0 3d
       0.033320066 -2.5896246e-32 -0.056584027 0.07848732
000270 e9 2f 95 3c cf 42 c2 3d f3 54 cb ae eb af b2 3d
       0.018211322 0.09485399 -9.246461e-11 0.0872496
000280 18 57 82 bc 69 f2 05 bb 25 8d dc bd f5 c4 0e be
       -0.01591067 -0.0020438677 -0.10769109 -0.1394232
000290 53 9e ad ba 9e e3 06 bd 55 c2 1b 3d ee 7f 4f bd
       -0.0013246037 -0.032931916 0.038027126 -0.050659113
0002a0 c7 06 be bc 30 29 83 3c 51 c0 26 3d 33 1b 02 bc
       -0.023196591 0.01601085 0.04071075 -0.007941055
0002b0 aa 5e 88 3c d5 17 bf bb 29 d5 06 3e c8 bf 69 3e
       0.016646702 -0.0058316984 0.13167252 0.22827065
0002c0 f1 a7 be bd 24 e7 81 bd ac 14 d4 3c b4 78 09 bc
       -0.09309376 -0.06342915 0.025888763 -0.008390594
0002d0 76 cc e2 3d bc af 40 bd 41 c3 6c ba 48 28 7e bd
       0.11074154 -0.047042593 -0.00090317806 -0.062050134
0002e0 0b a2 b8 3b 72 44 2f 3d 6a 0d a3 3d a3 67 16 bb
       0.0056345514 0.042789884 0.07961543 -0.0022949956
0002f0 1a ae 45 bd 0a 97 c3 bb d3 bc 75 3d 80 d2 f5 bb
       -0.04826174 -0.005968933 0.05999453 -0.0075019
000300 7d b9 33 bc c1 af de ba 6a 27 a9 81 70 09 07 bc
       -0.010969517 -0.0016989635 -6.213735e-38 -0.008241996
000310 b4 a4 c0 bb 0a f7 3a 01 3e 7f f1 bb b7 66 36 bc
       -0.005879009 3.4340046e-38 -0.007369905 -0.011132888
000320 d1 1f a8 01 40 83 da b5 46 aa e9 bb f7 a9 01 bc
       6.175911e-38 -1.6280464e-06 -0.007130894 -0.007914058
000330 a6 37 97 81 c3 6b 8c ba bb f9 17 bc 21 56 71 bb
       -5.554849e-38 -0.0010713268 -0.009275849 -0.0036825018
000340 8d 08 d1 b4 b6 c1 47 01 1e 46 64 ba 7d 04 10 bb
       -3.8935505e-07 3.6689508e-38 -0.0008707958 -0.0021975331
000350 7e 4d a4 bb 80 e6 2b bb 71 05 14 bc 51 32 9f bb
       -0.0050141206 -0.0026229918 -0.0090345 -0.004858293
000360 28 d3 57 bc ba a7 46 06 3a 0f 20 bc 62 35 86 bc
       -0.013172902 3.7362887e-35 -0.009769255 -0.016382877
000370 a9 78 4e bc 3c 22 47 bc 98 0a cf 80 01 20 49 bc
       -0.01260201 -0.012154158 -1.9013748e-38 -0.012275697
000380 99 bf 35 bc 3d 2b 1b bc 82 b3 4b ba 0c 8c ab bb
       -0.011093044 -0.009470758 -0.0007770584 -0.0052352007
000390 da 8a bb 81 94 f6 2f bb 33 de 82 bb e1 99 3e bc
       -6.8892193e-38 -0.0026849853 -0.0039937734 -0.011633367
0003a0 69 6d 11 bc db ca 97 bb 93 d2 29 b9 32 6b 1c bc
       -0.008876183 -0.0046323366 -0.00016195541 -0.009547042
0003b0 a9 7c 24 bb 0d 9b a3 81 01 bd 9f bb db 4f d0 ba
       -0.0025098717 -6.009923e-38 -0.004874826 -0.0015892939
0003c0 51 e1 1b bc 44 5a 02 bc 87 2a c7 01 6a 67 de ba
       -0.009514169 -0.007956091 7.316208e-38 -0.0016968076
0003d0 5f 16 09 bb 87 9f 9e bb 8d 96 8d bb 75 ca 96 ba
       -0.0020917875 -0.0048407945 -0.0043209256 -0.0011504429
0003e0 30 e0 7e 80 6c 70 16 bc f7 ea 0e bc 08 1e 91 00
       -1.1651696e-38 -0.009182077 -0.008723012 1.332692e-38
0003f0 c6 1e b4 bb 26 b4 82 bb 98 c7 6e bb a1 3e ec ba
       -0.0054968325 -0.0039887605 -0.0036434885 -0.0018024036

decoder.4.bias f4 [128]
000000 07 00 4c ba 49 25 ff 3d 57 9e a2 3b c1 bd 90 bb
       -0.00077819865 0.124582835 0.0049627232 -0.0044171517
000010 14 2b 09 3d 9c 82 93 3d 5e a5 80 ba 4e 78 02 3d
       0.033488348 0.07202646 -0.0009814908 0.031853013
000020 2f 37 29 3e 02 1a 23 b8 65 ef d4 3b be ad 8a 3d
       0.16524957 -3.888645e-05 0.0064982646 0.0677142
000030 68 c5 3e 3e 44 d1 83 bc 3d e0 5e 3d 58 8b b9 b9
       0.18629992 -0.016090997 0.05441307 -0.0003538977
000040 36 e6 31 3d 8e df 34 3e 55 50 a8 b0 37 59 ec bb
       0.043432437 0.17663404 -1.224644e-09 -0.0072127837
000050 89 93 a9 bb be 35 7b 3d 49 3b b3 38 e9 89 94 ba
       -0.0051750583 0.06133055 8.546428e-05 -0.0011332604
000060 67 16 93 3e 93 31 af 3d bb 40 8e bb 38 07 0d b8
       0.2872803 0.085543774 -0.0043412126 -3.3623743e-05
000070 de 2b 19 bb a2 88 1d bd a1 02 31 3d 84 66 cb 3d
       -0.0023372094 -0.03846038 0.043215398 0.09931663
000080 86 d9 bb 3d ee c3 c3 bb 79 64 02 3e 2c 0b 00 3e
       0.09172349 -0.0059742844 0.1273364 0.12504262
000090 e7 ef 0b 3e a0 c2 2a 3e 0b b2 9b bc 98 c4 c8 3d
       0.13665734 0.16675806 -0.019005796 0.09803122
0000a0 e8 0f f4 3c f8 0d 85 3e 85 fc 79 bd af 96 cf 3d
       0.029792741 0.2598722 -0.061031837 0.101361625
0000b0 ed ad c3 3d fa bc 0b 3d b8 ce d7 3d 50 09 8b bb
       0.09554658 0.03411577 0.10537475 -0.0042430535
0000c0 f9 5a 3d 3e f3 cb cf 3d b2 ab 0c 3e 43 d4 04 3e
       0.18491735 0.10146322 0.13737372 0.12971596
0000d0 bf e7 8e ba 9d 5e f6 3d c5 fe f9 3d 89 0a 05 3e
       -0.0010902806 0.12029765 0.122067966 0.129923
0000e0 1b 50 ae b9 bd b3 25 bc e0 61 03 3e 9c 0a 89 3e
       -0.0003324755 -0.010113654 0.12830305 0.26765907
0000f0 b9 56 0d 3e 5d 15 06 3d 03 a7 05 ba bf 8a 02 3e
       0.13802613 0.032735217 -0.0005098434 0.1274824
000100 74 41 c6 3d 74 86 f8 3d 72 4d 99 3c 4c f5 ef bc
       0.09680453 0.1213502 0.018713687 -0.029291771
000110 de ee 8b ba 22 1a 16 3e 2b 6f 1e 3e e0 a6 8f ba
       -0.0010676046 0.14658406 0.15472095 -0.0010959767
000120 d3 02 a6 b7 51 87 04 bb 6e 85 0b 3e 52 a7 01 3e
       -1.9790057e-05 -0.0020222256 0.13625118 0.12661484
000130 b0 ae da 3c af 9e 28 bb bc b4 19 3e f2 ca 2e bc
       0.026694626 -0.0025729348 0.15010351 -0.010668503
000140 2a 87 88 3d 7b 2d f0 bb a4 22 63 ba 20 a4 0e bb
       0.066664055 -0.0073296404 -0.00086645246 -0.0021765307
000150 a5 f9 91 bb f7 fd 0d 3e d8 f2 1a 3c d5 4b 06 3e
       -0.004454809 0.13866411 0.0094573125 0.13114865
000160 86 c0 8d bd 8e fa e8 3c ca 36 16 3e 64 2c 08 3e
       -0.069214866 0.028439786 0.14669338 0.13298184
000170 2c a7 95 be 78 de 7d 3d 96 18 42 bd 87 7c b7 3e
       -0.29229105 0.06197974 -0.04738673 0.35837194
000180 3d d7 bc bb a3 55 56 ba 5c 04 b1 ba 14 84 78 bc
       -0.005762963 -0.0008176213 -0.0013505328 -0.015168209
000190 5d 11 ff 3d 0b 8c f6 ba 8d 3d 07 3e 41 da f5 bc
       0.12454484 -0.0018810047 0.13207074 -0.030011298
0001a0 d3 27 1b 3e 55 88 06 3e 80 a6 65 bc c7 03 2d be
       0.1515191 0.13137944 -0.0140167475 -0.16895972
0001b0 85 7d 68 3d 76 6f 80 3d ee 25 60 3e 87 77 aa bb
       0.05676033 0.062712595 0.21889469 -0.005202237
0001c0 18 04 d6 be 78 9a 58 bc a8 76 4c bb 7b a2 9a 3e
       -0.41799998 -0.013220422 -0.0031198654 0.30202088
0001d0 f7 83 6a 3d b5 d0 df 3d 31 f3 00 bb 00 cd ed bc
       0.057254758 0.109284796 -0.0019676203 -0.029028416
0001e0 0c 0a ea 3d aa a3 c4 3d f4 03 20 3e 3d 56 94 3e
       0.114276975 0.09601529 0.15626508 0.28972045
0001f0 0e 93 db ba 8e b1 29 bb 37 e6 b5 b9 57 c5 05 ba
       -0.00167522 -0.0025893184 -0.00034694534 -0.00051029533
