outputs/mnist/models/mnist_sim_autoencoder_epoch8.pth (torch_old, 882017 bytes, 16 tensors)

encoder.0.weight f4 [128, 784]
-0.0041711596 -0.004129203 -0.0041327053 -0.0041566235 -0.004171188 -0.0041917805 -0.004184941 -0.004172302
-0.004139465 -0.00412094 -0.0041463324 -0.004172327 -0.004100453 -0.0047383667 -0.0047092354 -0.004199361
-0.0041601053 -0.0041344957 -0.0040916726 -0.0041183657 -0.0041759824 -0.0041760905 -0.0040943264 -0.004234215
-0.004091556 -0.00417554 -0.004171266 -0.004170901 -0.004231283 -0.004167719 -0.0041909404 -0.004156916
-0.0040872204 -0.0042503867 -0.0046600453 -0.0054613384 -0.007963916 -0.009460598 -0.0077237575 -0.008510362
-0.011598986 -0.008479908 -0.004104117 -0.0046778745 -0.007792635 -0.007474982 -0.007186072 -0.005255737
-0.003191014 -0.0035939172 -0.004022376 -0.0043665636 -0.004094961 -0.004178226 -0.004101476 -0.004173406
-0.0040919892 -0.004189781 -0.004162786 -0.0042486386 -0.004183054 -0.0038369563 -0.005300712 -0.008823809
-0.0072449194 -0.017436726 -0.02198639 -0.02731735 -0.023515226 -0.016320178 -0.0037124758 -0.0045019123
-0.005720805 -0.006556587 -0.0050292383 2.1593747e-05 0.004440473 -0.0003084535 -0.0008078653 -0.0024952956
-0.0024331873 -0.0024965557 -0.0042403387 -0.0041464143 -0.004171789 -0.0042344253 -0.0043276963 -0.004390663
-0.0038203048 -0.0014137416 -0.003827811 -0.0017984379 -0.0063224635 -0.026438246 -0.0301692 -0.015163696
-0.014107352 -0.023177676 -0.03348443 -0.05388108 -0.06631443 -0.05147487 -0.051243816 -0.018861149
0.0042041354 0.004401016 -0.0015208663 -0.0031690837 -0.005122515 -0.001550526 -0.0037958159 -0.004173478
-0.0041012624 -0.0040998855 -0.0043286327 -0.0050240234 -0.0004592722 0.0042827846 0.0058736564 0.013119041
0.0069027278 0.012117872 0.011510883 0.010755928 0.0040704 -0.03174392 -0.08747325 -0.102285065
-0.05384524 -0.030622307 -0.057851378 -0.057735555 -0.05153239 -0.02702181 -0.0074267006 -0.011870332
-0.005878551 -0.0020655652 -0.0051184315 -0.0042547756 -0.0042104153 -0.004122941 -0.0034086586 -0.0043760035
0.0059523573 0.019032076 0.018370217 0.039160106 0.034378145 0.037844416 0.026107104 0.01681236
0.038039237 0.034549594 -0.001137027 -0.04336195 -0.019516787 -0.048825834 -0.094147705 -0.101338856
-0.07466231 -0.045321275 -0.011211754 0.013298059 0.017634716 0.012064273 -0.0015594335 -0.0040706852
-0.0041602426 -0.004192018 -0.0053084954 -0.003601082 0.01753385 0.032172944 0.03887343 0.04453982
0.07358408 0.07944473 0.07913069 0.092995256 0.055737805 0.06389667 0.08195145 0.07948077
0.028212845 -0.058247875 -0.076460406 -0.07679417 -0.060170095 -0.035544656 -0.023251453 0.007174594
0.038871504 0.023073569 0.0010709004 -0.0039952886 -0.0042120973 -0.005408242 -0.009353719 -0.010748243
0.014344063 0.004292097 0.035462048 0.07887043 0.103674054 0.11499846 0.10550078 0.047522616
0.05975594 0.05834255 0.057372913 0.13504173 0.032826383 -0.010527127 -0.03192926 -0.04239067
-0.037227757 -0.045746535 -0.049491134 -0.008323913 0.0535674 0.0268214 -0.0034329265 -0.0045120376
-0.003742071 -0.005111039 -0.02166323 -0.03882015 -0.021250451 -0.012483065 0.027770685 0.08192626
0.15411262 0.12804687 0.055555806 0.009168771 0.008341466 0.005706478 0.03779758 0.0805486
0.025071973 0.026384985 0.04597928 0.02783917 -0.019124206 -0.058900412 -0.061829224 -0.011816378
0.050716087 0.021512015 -0.006176507 -0.0039816755 -0.0040237443 -0.006774809 -0.027980065 -0.057994887
00000000: 39ae 88bb 444e 87bb a56b 87bb 4934 88bb
00000010: 76ae 88bb 345b 89bb d421 89bb ceb7 88bb
00000020: 59a4 87bb f308 87bb f5dd 87bb 04b8 88bb
00000030: 185d 86bb 4d44 9bbb ee4f 9abb cb9a 89bb
00000040: 7e51 88bb aa7a 87bb 7013 86bb 5bf3 86bb
00000050: aed6 88bb 96d7 88bb b329 86bb 2bbf 8abb
00000060: 7612 86bb f8d2 88bb 1eaf 88bb 0eac 88bb
00000070: 93a6 8abb 5c91 88bb 2854 89bb bd36 88bb
00000080: 17ee 85bb d446 8bbb 4bb3 98bb 07f5 b2bb
00000090: 167b 02bc a000 1bbc 9317 fdbb 0c6f 0bbc
000000a0: ac09 3ebc 50ef 0abc d47b 86bb db48 99bb
000000b0: 5c59 ffbb b2f0 f4bb 2479 ebbb 5138 acbb
000000c0: 5520 51bb ed87 6bbb 23ce 83bb 6415 8fbb
000000d0: 062f 86bb 80e9 88bb ad65 86bb 11c1 88bb
000000e0: 1816 86bb 6e4a 89bb fb67 88bb 2a38 8bbb
000000f0: 0012 89bb 7275 7bbb 98b1 adbb bd91 10bc
00000100: ca66 edbb 77d7 8ebc cd1c b4bc a3c8 dfbc
00000110: 01a3 c0bc e5b1 85bc 024d 73bb c784 93bb
00000120: 9775 bbbb a3d8 d6bb 4fcc a4bb 3824 b537
00000130: 6381 913b eeb7 a1b9 ecc6 53ba 1d88 23bb
00000140: 1c76 1fbb 419d 23bb 8af2 8abb a5de 87bb
00000150: 81b3 88bb efc0 8abb 59cf 8dbb 8ddf 8fbb
00000160: 145e 7abb 4c4d b9ba 03dc 7abb 90b9 ebba
00000170: ab2c cfbb 0595 d8bc 6625 f7bc 2771 78bc
00000180: 8622 67bc 1cdf bdbc f826 09bd 68b2 5cbd
00000190: dccf 87bd 50d7 52bd 09e5 51bd b282 9abc
000001a0: d8c2 893b 6636 903b ce57 c7ba 67b0 4fbb
000001b0: c5da a7bb 053b cbba 39c3 78bb acc1 88bb
000001c0: e263 86bb 5558 86bb 34d7 8dbb 90a0 a4bb
000001d0: 79ca f0b9 9a56 8c3b cd77 c03b 3ff1 563c
000001e0: 4730 e23b 0a8a 463c 2598 3c3c a239 303c
000001f0: fd60 853b ea05 02bd 2d25 b3bd d57a d1bd
00000200: d48c 5cbd a2db fabc 91f5 6cbd 1e7c 6cbd
00000210: a113 53bd d85c ddbc ae5b f3bb c87b 42bc
00000220: dca0 c0bb 6f5e 07bb 84b8 a7bb a56b 8bbb
00000230: 86f7 89bb bc19 87bb cd63 5fbb 9464 8fbb
00000240: fe0b c33b 28e9 9b3c 237d 963c 5966 203d
00000250: 19d0 0c3d bf02 1b3d 91de d53c 13ba 893c
00000260: 08cf 1b3d e083 0d3d 4c08 95ba 4d9c 31bd
00000270: abe1 9fbc 99fd 47bd 83d0 c0bd bf8a cfbd
00000280: 8ee8 98bd cda2 39bd 81b1 37bc 1ae0 593c
00000290: ae76 903c 3aa9 453c e865 ccba 6263 85bb
000002a0: a552 88bb 325d 89bb e3f2 adbb 2100 6cbb
000002b0: 26a3 8f3c c7c7 033d bf39 1f3d 636f 363d
000002c0: 40b3 963d ebb3 a23d 450f a23d 4c74 be3d
000002d0: 534d 643d 42dc 823d 29d6 a73d d0c6 a23d
000002e0: a01e e73c 5395 6ebd 4697 9cbd 4346 9dbd
000002f0: eb74 76bd 4697 11bd d579 bebc db18 eb3b
00000300: ba37 1f3d c804 bd3c 745d 8c3a e9ea 82bb
00000310: a205 8abb 9f37 b1bb 5740 19bc 6619 30bc
00000320: 5c03 6b3c b8a4 8c3b a740 113d d286 a13d
00000330: 1053 d43d 5084 eb3d cb10 d83d 13a7 423d
00000340: a5c2 743d 99f8 6e3d dcff 6a3d 6148 0a3e
00000350: f574 063d f979 2cbc 41c8 02bd d7a1 2dbd
00000360: 227c 18bd b860 3bbd 37b7 4abd 0661 08bc
00000370: 7d69 5b3d 8db8 db3c f3fa 60bb b7d9 93bb
00000380: 893d 75bb 817a a7bb 1677 b1bc e101 1fbd
00000390: 6d15 aebc c585 4cbc 597f e33c f4c8 a73d
000003a0: b3cf 1d3e b81e 033e 7c8e 633d 9d38 163c
000003b0: a5aa 083c 68fd ba3b a3d1 1a3d aaf6 a43d
000003c0: bd63 cd3c 5325 d83c c554 3c3d f90e e43c
000003d0: 5eaa 9cbc 8f41 71bd a440 7dbd 7b99 41bc
000003e0: acbb 4f3d f739 b03c 4c64 cabb b778 82bb
000003f0: 9dd9 83bb 38ff ddbb 7336 e5bc 0c8c 6dbd

encoder.0.bias f4 [128]
0.0041867755 -0.0031683804 -0.0005411517 -3.4180844e-06 0.008174778 -0.01980765 0.014860334 -0.00018662307
-1.4383876e-10 0.04025528 -0.0030993028 -9.317749e-09 -1.0503326e-13 -0.0011149646 -0.011722679 -0.0053751213
0.011157356 0.034778994 -0.00062455836 -1.6793687e-16 -1.5764947e-08 -0.01816969 -1.7761358e-23 -3.865088e-05
-0.0038260482 0.0008066532 -3.3551078e-05 -0.0144206 -1.0463453e-10 -5.832088e-09 -1.3796634e-05 -2.7089095e-07
-0.02197301 -0.013019477 -0.030552229 -0.022502812 -0.002490179 -1.3503393e-07 -1.9410505e-10 -2.8829806e-08
-0.02680009 -3.10026e-08 -0.0025774501 -6.393744e-08 -5.262236e-22 -5.1052984e-16 -0.010516647 -2.5587153e-05
-3.4687106e-10 0.0063463766 0.0100848265 -0.003751227 0.0057556327 -4.3170897e-12 -2.5698413e-05 0.03416629
-7.997488e-07 0.028969664 0.020961858 -0.013680628 -4.5519606e-15 0.029459558 -5.0884084e-09 -0.015570552
-2.2345628e-05 -0.00046268885 -1.0241304e-14 -0.005130646 -7.246451e-06 0.008712779 -0.030883396 -0.012995256
-0.0073356437 0.025368381 -0.013303255 -0.00058818026 -1.3016586e-06 -5.113123e-05 -1.1743058e-07 -4.546623e-17
-0.0018674401 -0.007165704 -5.359954e-17 -6.191219e-05 -3.6790098e-06 -1.07644386e-10 -0.02400139 -7.403121e-06
-0.02665571 -0.0074489927 -1.8322415e-07 -2.5552445e-06 -8.428485e-10 -2.2545332e-11 -3.7948756e-22 0.017582934
-2.278819e-17 -3.560487e-05 -0.0024135814 -0.013930749 -0.00022284182 -0.0103885215 -0.032490287 -0.016959142
-0.0036838732 -0.010965628 -5.8237333e-07 -0.012716473 -1.3832656e-09 -8.767751e-08 -0.002111806 -2.290067e-08
-0.00595705 -0.0039995266 -5.786177e-09 -0.0049518724 0.044202656 0.013800196 -0.002981149 -0.00078009156
-1.3959806e-05 -4.0550526e-20 -0.008958016 -4.477995e-06 -0.00016274105 0.041344713 -2.4025645e-05 -0.0033486648
00000000: 3831 893b 9aa4 4fbb 13dc 0dba 3e62 65b6
00000010: 81ef 053c a743 a2bc c278 733c 40b0 43b9
00000020: 0327 1eaf b8e2 243d ac1d 4bbb e513 20b2
00000030: 8d83 eca9 0124 92ba 7b10 40bc c921 b0bb
00000040: 58cd 363c 6b74 0e3d 67b9 23ba 379e 41a5
00000050: 7c6b 87b2 9ad8 94bc fec6 ab99 111d 22b8
00000060: 70be 7abb 9475 533a 32b9 0cb8 6144 6cbc
00000070: 0118 e6ae 9763 c8b1 1878 67b7 f86e 91b4
00000080: be00 b4bc a54f 55bc ab48 fabc d157 b8bc
00000090: 4532 23bb d8fd 10b4 b76b 55af 6aa5 f7b2
000000a0: dd8b dbbc b827 05b3 70ea 28bb fb4d 89b3
000000b0: 940a 1f9c 7426 13a6 044e 2cbc fea3 d6b7
000000c0: c3b1 beaf 44f5 cf3b d43a 253c 25d7 75bb
000000d0: bf99 bc3b e3e4 97ac ec92 d7b7 f4f1 0b3d
000000e0: 52ae 56b5 ca51 ed3c 34b8 ab3c b624 60bc
000000f0: 6d00 a4a7 2c55 f13c 1dd6 aeb1 a11b 7fbc
00000100: df72 bbb7 0c95 f2b9 ae7d 38a8 fa1e a8bb
00000110: 8a26 f3b6 0bc0 0e3c 2dff fcbc 0eea 54bc
00000120: d75f f0bb 5ad1 cf3c e5f5 59bc 1c30 1aba
00000130: a6b4 aeb5 bd75 56b8 252e fcb3 0dad 51a4
00000140: e4c4 f4ba 48ce eabb 2b2f 77a4 dbd6 81b8
00000150: e8e4 76b6 67b6 ecae 909e c4bc 5368 f8b6
00000160: 135d dabc ae16 f4bb 45bc 44b4 c47a 2bb6
00000170: 31ae 67b0 934f c6ad db62 e59b 160a 903c
00000180: 182f d2a3 7056 15b8 2d2d 1ebb cc3d 64bc
00000190: a5aa 69b9 9e34 2abc 8914 05bd e6ed 8abc
000001a0: 236d 71bb 2da9 33bc 6454 1cb5 c158 50bc
000001b0: 551d beb0 3949 bcb3 3a66 0abb 1bb7 c4b2
000001c0: 5b33 c3bb 760e 83bb c0cf c6b1 5143 a2bb
000001d0: d80d 353d 381a 623c 615f 43bb 0f7f 4cba
000001e0: e934 6ab7 947e 3f9f a4c4 12bc af41 96b6
000001f0: 78a5 2ab9 1359 293d ae8a c9b7 4675 5bbb

encoder.2.weight f4 [64, 128]
-0.083824426 -0.010908285 0.045850106 6.0741044e-05 -0.005189379 -0.0024506012 -0.2727412 0.0026258002
0.00091915514 -0.031149026 -0.007529374 0.0006713554 0.000120022 -0.013621964 0.007900895 0.047830887
-0.031159898 -0.15268861 0.012465866 0.0028530376 -1.3110348e-09 -0.16292259 -9.533198e-05 0.008578945
-0.026623335 -0.0180172 -0.0018593809 0.038975514 -0.0012400082 3.5857684e-05 0.0017309542 -0.0006331543
-0.042500068 0.19096264 -0.21317084 -0.15347455 -0.0768339 -0.0067819376 0.015298348 0.0015934105
-0.11114467 3.9079445e-05 -0.033594072 0.004141955 0.0032955613 0.004679879 0.10162173 0.050571363
8.449168e-19 0.10095704 -0.0028243805 -0.21774417 0.20352907 -0.002839686 -0.009114967 -0.28583333
-0.009074409 0.23872037 -0.08162178 -0.103620395 -9.63159e-05 0.16151462 -3.497477e-05 -0.087367624
-0.00020676055 0.0016431473 8.52605e-05 0.08880559 0.0006384535 -0.11343227 -0.10024812 0.0597861
0.1419521 -0.3499406 0.035208724 0.02036064 -2.9352998e-06 -0.0148551585 -0.0032126773 0.0008064157
0.0013222861 0.095536426 0.0039547826 -0.0006615039 -0.006901286 -4.058139e-11 -0.007653677 -0.010869531
-0.0021515596 -0.07502125 -0.006511819 0.007130031 0.0015762795 -0.0057638134 0.0026976513 0.21999066
0.0031786307 -0.00056184205 0.026720108 -0.061735433 -0.021424668 0.021002848 0.009142192 -0.03740917
0.0015311213 0.09368775 0.00069494423 -0.06611428 -0.0020035347 0.00039493118 0.10381448 -0.003996449
-0.18850824 0.03508436 -0.003510351 -0.09018821 0.022403492 0.10814293 0.07228049 -0.008835754
0.00446797 0.0035090034 0.019265683 0.023534954 0.00028668763 -0.057474904 1.9527448e-08 0.024911718
-0.048963953 -0.0024542802 -0.016430898 8.398628e-05 -0.0027226633 -0.033003353 0.13499022 0.021277914
-0.0001481789 -0.041987095 0.019112652 -0.00017744307 0.0013947283 -0.003957981 0.011112421 -0.013882607
0.02946619 0.0067758732 -0.002214141 0.003028784 2.9840233e-13 -0.029493924 -0.0001707642 -0.026031008
-0.010293443 -0.07276234 -0.0003599765 -0.034891892 -5.9005444e-05 -2.4542378e-05 0.00025881044 4.9609757e-06
0.031034252 0.08102209 0.09417565 0.09317993 0.0108178975 0.0007224732 0.014138145 0.0023780377
-0.10579733 -1.3314653e-07 0.007912967 0.0020136721 0.0028308418 0.0034387603 0.08831355 0.0038939063
1.7741982e-08 -0.018589158 -0.20362185 0.06614595 -0.0161611 0.009199464 0.015760189 0.038564082
0.010474881 -0.16661558 0.089863546 -0.009235142 0.0003340387 -0.064880416 -1.7273631e-08 0.004967485
0.00082003756 0.06574107 -2.4669655e-05 -0.054508943 0.0007462934 0.14544469 0.20467353 0.029240051
-0.012327878 0.06548621 0.09513494 -0.044834547 1.4485565e-09 0.0068541584 -0.003184101 8.9451e-07
0.009421458 -0.06593021 0.0024508403 0.0007408244 0.00048493003 3.1395324e-22 -0.0144349225 0.00029238925
-0.08242168 0.08789417 -0.003246597 0.0029674517 -0.0022744678 -0.00025131923 0.0011355918 -0.07939208
0.004145846 -0.0006552609 0.00855484 0.030126521 0.003412435 -0.1342936 0.07155888 -0.019154167
0.00020246577 0.012088783 -8.940695e-05 -0.0465333 -0.0043661506 7.876689e-06 0.02074279 -0.004871091
0.007705462 -0.08774256 -0.0002846987 0.21790746 -0.10678827 0.019917892 -0.074698046 -0.090679385
0.0010186661 0.0029783295 -0.034394905 -0.00516698 -6.826327e-05 -0.057048474 -0.0011733525 -0.036623772
00000000: 24ac abbd aab8 32bc 52cd 3b3d 33c4 7e38
00000010: ab0b aabb 449a 20bb bca4 8bbe 9e15 2c3b
00000020: 75f3 703a 3e2c ffbc f8b8 f6bb e6fd 2f3a
00000030: 52b4 fb38 a82e 5fbc c172 013c 52ea 433d
00000040: 0b43 ffbc 675a 1cbe a23d 4c3c 07fa 3a3b
00000050: f02f b4b0 2ed5 26be f8ec c7b8 b48e 0c3c
00000060: 2e19 dabc cf98 93bc 78b6 f3ba caa4 1f3d
00000070: c587 a2ba e565 1638 2fe1 e23a 44fa 25ba
00000080: 8d14 2ebd b68b 433e 7549 5abe 6f28 1dbe
00000090: 175b 9dbd 043b debb eca5 7a3c fcd9 d03a
000000a0: d19f e3bd 3ce9 2338 f099 09bd 3db9 873b
000000b0: 58fa 573b ac59 993b 0e1f d03d eb23 4f3d
000000c0: 1c60 7921 91c2 ce3d 3e19 39bb 54f8 5ebe
000000d0: ed69 503e 071a 3abb f156 15bc bf58 92be
000000e0: d4ac 14bc 1d73 743e 5229 a7bd ee36 d4bd
000000f0: 34fd c9b8 1764 253e e0b1 12b8 cced b2bd
00000100: ddcd 58b9 e05e d73a e2cd b238 b5df b53d
00000110: e45d 273a 2e4f e8bd e34e cdbd 45e2 743d
00000120: e45b 113e 6a2b b3be 0637 103d 5bcb a63c
00000130: 11fc 44b6 0d63 73bc c88b 52bb a465 533a
00000140: 8f50 ad3a 9aa8 c33d 1f97 813b c668 2dba
00000150: 2f24 e2bb 957a 32ae b2cb fabb 1e16 32bc
00000160: 2e01 0dbb bea4 99bd 1961 d5bb 09a3 e93b
00000170: 2a9b ce3a 5fde bcbb 14cb 303b 3b45 613e
00000180: 9350 503b 9548 13ba 21e4 da3c 4bde 7cbd
00000190: c982 afbc 2a0e ac3c 22c9 153c 5c3a 19bd
000001a0: e8af c83a 5ddf bf3d eb2c 363a ec66 87bd
000001b0: bc4d 03bb c40e cf39 b09c d43d a5f4 82bb
000001c0: 4e08 41be 9eb4 0f3d eb0d 66bb 99b4 b8bd
000001d0: 8787 b73c 0a7a dd3d cb07 943d d7c3 10bc
000001e0: 0d68 923b 4ff7 653b 11d3 9d3c 60cc c03c
000001f0: 904e 9639 ce6a 6bbd 50bd a732 a913 cc3c
00000200: 6d8e 48bd fdd7 20bb 179a 86bc ca21 b038
00000210: b66e 32bb 862e 07bd e03a 0a3e 054f ae3c
00000220: 7860 1bb9 a9fa 2bbd 2392 9c3c 0310 3ab9
00000230: 51cf b63a f3b1 81bb df10 363c e073 63bc
00000240: 1463 f13c 2508 de3b 1f1b 11bb 907e 463b
00000250: 4ffc a72a 3e9d f1bc 2a0f 33b9 fb3e d5bc
00000260: d4a5 28bc 6c04 95bd 3abb bcb9 cdea 0ebd
00000270: 9d7c 77b8 5be0 cdb7 f3b0 8739 7576 a636
00000280: 8b3b fe3c e9ee a53d 2adf c03d 1ed5 be3d
00000290: 8d3d 313c 5b64 3d3a aea3 673c dad8 1b3b
000002a0: 45ac d8bd 0af7 0eb4 64a5 013c d0f7 033b
000002b0: a585 393b d35c 613b bcdd b43d e830 7f3b
000002c0: 0867 9832 4a48 98bc 3f82 50be 8777 873d
000002d0: 4864 84bc 59b9 163c 831b 813c 5ff5 1d3d
000002e0: d69e 2b3c 469d 2abe 610a b83d fe4e 17bc
000002f0: ea21 af39 06e0 84bd 1e61 94b2 49c6 a23b
00000300: caf7 563a 41a3 863d aef1 ceb7 c544 5fbd
00000310: e7a2 433a 74ef 143e f095 513e d588 ef3c
00000320: defa 49bc a21d 863d 1cd6 c23d 6ea4 37bd
00000330: 8d16 c730 d998 e03b 5aac 50bb 421e 7035
00000340: 755c 1a3c 6b06 87bd 479e 203b e233 423a
00000350: 353e fe39 e9c5 bd1b 7480 6cbc d24b 9939
00000360: b3cc a8bd dc01 b43d dcc4 54bb 9479 423b
00000370: 3d0f 15bb 7fc3 83b9 23d8 943a 5198 a2bd
00000380: e0d9 873b d1c5 2bba 9a29 0c3c e5cb f63c
00000390: 29a3 5f3b 4384 09be 768d 923d 33e9 9cbc
000003a0: fe4c 5439 0810 463c fe7f bbb8 b499 3ebd
000003b0: ed11 8fbb 1f26 0437 c9ec a93c ac9d 9fbb
000003c0: 1a7e fc3b 5fb2 b3bd 9d43 95b9 2223 5f3e
000003d0: cfb3 dabd d92a a33c 4afb 98bd 1db6 b9bd
000003e0: c384 853a 1430 433b ace1 0cbd c54f a9bb
000003f0: 9028 8fb8 a9ab 69bd 2dcb 99ba cf02 16bd

encoder.2.bias f4 [64]
0.021509293 0.007926437 2.0792298e-38 -3.223202e-10 0.024302904 3.4542484e-38 -0.002345755 -8.364026e-05
-8.781846e-18 0.005431383 2.2085427e-33 -2.008478e-11 -6.1676584e-18 -0.028308243 -0.0038672294 -3.1970212e-18
-1.0154402e-12 -2.8512044e-14 0.076440625 0.078351505 0.05305977 1.023214e-34 0.03855598 -5.360486e-06
-0.0003463882 -1.9586986e-28 -0.0037033327 0.03245549 -0.0010460407 0.1149567 -0.018074654 -0.0009786332
-0.011738741 -1.1412596e-30 0.031559415 -5.4649387e-14 0.088915326 -0.020497084 -0.011108319 -0.01248675
0.043051455 -5.0213926e-09 -0.0012065135 0.024500437 0.1313754 0.0014078027 0.050947126 -0.0029613762
0.14576623 -2.7278981e-09 -3.2448162e-09 -0.016276086 -4.0313014e-38 7.973533e-05 -0.00035760234 -3.207093e-14
0.031084377 -4.760812e-07 -0.027204568 -4.0817908e-11 0.010037148 0.028070971 0.10194373 0.015742043
00000000: 4234 b03c e3dd 013c 7868 e200 8932 b1af
00000010: e216 c73c 3211 3c01 3dbb 19bb 0668 afb8
00000020: 18ff 21a3 bef9 b13b 827a 3709 e7aa b0ad
00000030: e38b e3a2 b0e6 e7bc 5871 7dbb 06e6 6ba2
00000040: 17e9 8eab 2668 00a9 e78c 9c3d c176 a03d
00000050: 3455 593d 2b02 0807 e0ec 1d3d 39de b3b6
00000060: 709b b5b9 674b 7891 9db3 72bb 0cf0 043d
00000070: 4d1b 89ba 6b6e eb3d 4c11 94bc 7b45 80ba
00000080: d953 40bc 122e b98d 7244 013d 741e 76a9
00000090: 3d19 b63d 80e9 a7bc abff 35bc 3a95 4cbc
000000a0: b956 303d a388 acb1 e023 9eba 24b5 c83c
000000b0: 4687 063e 0586 b83a efad 503d a613 42bb
000000c0: be43 153e b175 3bb1 69fb 5eb1 6d55 85bc
000000d0: 247c 5b81 9437 a738 937c bbb9 446f 10a9
000000e0: aaa4 fe3c 1a98 ffb4 1ddc debc e184 33ae
000000f0: da72 243c 18f5 e53c e0c7 d03d 75f5 803c

encoder.4.weight f4 [12, 64]
0.044144347 0.06764128 2.4556892e-38 0.0008436789 0.27099788 0.00018098536 -0.044403113 -0.005335969
2.258962e-05 -0.025272034 -0.00032306797 -2.6102844e-06 0.00036200788 0.042061236 -0.01768638 -0.00021371547
0.00055620994 0.00066559087 0.15358202 0.109757856 0.10908509 0.00041582028 -0.015866311 -0.013271295
0.08579586 5.8350037e-05 0.26781836 -0.026375415 0.009821188 0.15484719 0.049412183 0.19973171
0.006375229 4.0670375e-06 0.41346624 0.00041085065 0.14432986 0.29643562 -0.007663281 0.28856608
0.16624798 0.00010182195 0.06719162 -0.2545783 0.14124675 0.027687555 0.15044439 0.22166866
0.15402742 0.0059190984 0.0012090261 0.21408379 -4.2204335e-18 0.20477432 0.002084674 0.00084698497
-0.07697798 -0.0066256667 0.08733936 0.008431351 -0.104511544 0.06189672 0.066550836 0.123236425
-0.06946074 0.028943125 4.4761156e-38 -0.00028576056 -0.06540516 -3.602443e-09 0.0853207 -0.011253298
-0.00031638963 0.020682592 -2.6436533e-12 6.380829e-22 -0.00034969533 0.030544544 0.029304488 2.3157127e-09
-0.00035001972 -0.00034049994 0.013801573 0.06767676 0.05299215 3.7279801e-06 0.17902017 -0.016567959
-0.18097587 -1.895883e-06 -0.1340251 0.114403926 -0.01307002 0.09288699 -0.08077701 0.17302404
-0.07094024 -7.0028316e-11 -0.02338185 -0.00020063354 -0.0032745288 0.08459072 -0.008680554 0.050925963
0.2452183 0.00048302134 -0.13253683 0.44565552 0.11640983 0.2601421 -0.03574036 0.05418885
0.11868347 0.0039031603 -0.004447511 -0.29098627 -2.5145757e-38 -0.017128965 -0.003020079 -0.000320362
0.05211568 0.003778644 0.10062587 0.0037540065 0.050710123 0.02941447 0.088673145 0.090004444
-0.0006625089 0.12420431 6.932406e-38 0.0019433345 -0.026084317 5.6205226e-05 0.11017004 0.015760222
0.0029431938 -0.055970933 4.7394872e-07 -3.20495e-07 0.0024225283 -0.047713555 -0.010278886 -2.4632657e-06
0.0021610954 0.0020137357 0.12918773 -0.10653541 -0.24320592 -0.0016654587 -0.087525494 0.026343212
0.04961535 0.00038075887 -0.074230775 0.025728114 -0.0004121459 0.1271907 0.1417959 -0.08393762
0.0659224 3.611351e-05 -0.15812618 0.0022674466 -0.005478006 -0.19017436 0.0063264356 0.09555466
-0.5416604 -0.0040307906 -0.15583657 0.15897985 0.053772654 -0.34402928 0.06410212 0.030390406
0.0824844 -0.008189307 0.010690292 0.24874565 6.024109e-34 -0.09583633 0.0006073689 0.0022486285
0.037064824 -0.00458728 0.12794171 -0.017129451 -0.022289716 0.025197223 -0.004283904 -0.01644979
0.13644695 0.03637138 -1.4948357e-38 0.00011923382 0.5083552 3.25835e-05 0.06885121 -0.004963304
-0.0007737206 -0.018886965 -6.9557216e-05 -5.4552376e-09 -0.00063564855 0.042462226 -0.028361456 -5.8558653e-06
-0.00011889851 -0.00025563524 -0.015249422 0.0072753383 0.23928462 4.6850622e-05 0.013227767 -0.018836964
0.005841091 -8.523349e-05 0.5527212 0.05171546 0.002265522 0.46578902 0.04946705 0.36053056
-0.08079231 9.697677e-12 0.7504088 -0.00012562987 0.102353826 0.5633933 -0.0072581116 0.5530271
0.3220211 -0.0003481421 0.46888512 -0.27284387 0.13843794 0.076729275 0.29920557 0.5305034
-0.035702888 0.005064216 -0.0021753334 0.06921006 4.552107e-38 0.3120748 -0.005577022 -0.0006342
0.004010648 0.010350203 0.11193158 0.009489789 -0.013721029 -0.0073718773 0.021610074 0.05897273
00000000: b4d0 343d 8387 8a3d 50b3 0501 552a 5d3a
00000010: 3cc0 8a3e e3c6 3d39 0ae0 35bd 5ad9 aebb
00000020: d77e bd37 4c07 cfbc 7361 a9b9 582c 2fb6
00000030: e0cb bd39 6748 2c3d 07e3 90bc cf18 60b9
00000040: 9ece 113a 0c7b 2e3a 9b44 1d3e bac8 e03d
00000050: 0168 df3d 7402 da39 11fa 81bc d96f 59bc
00000060: bdb5 af3d e0bc 7438 7d1f 893e 4111 d8bc
00000070: 0ce9 203c 4390 1e3e 6e64 4a3d 7886 4c3e
00000080: 4ce7 d03b 9677 8836 d9b1 d33e 7167 d739
00000090: 35cb 133e 69c6 973e 431c fbbb efbe 933e
000000a0: e93c 2a3e 3e89 d538 c39b 893d 1658 82be
000000b0: fda2 103e 03d1 e23c 180e 1a3e 1cfd 623e
000000c0: 5db9 1d3e fff4 c13b 2f78 9e3a c838 5b3e
000000d0: deb4 9ba2 5cb0 513e 079f 083b 3308 5e3a
000000e0: a2a6 9dbd 1f1c d9bb fade b23d a623 0a3c
000000f0: 260a d6bd 6a87 7d3d ce4b 883d 6163 fc3d
00000100: 6f41 8ebd 221a ed3c f2b3 7301 22d2 95b9
00000110: 24f3 85bd d98e 77b1 9fbc ae3d c15f 38bc
00000120: 19e1 a5b9 8a6e a93c d307 3aac 46d9 401c
00000130: 5057 b7b9 8d38 fa3c f70f f03c 7322 1f31
00000140: da82 b7b9 2185 b2b9 fe1f 623c 1d9a 8a3d
00000150: 4c0e 593d 362e 7a36 1051 373e 87b9 87bc
00000160: bd51 39be 0b76 feb5 e03d 09be 9b4c ea3d
00000170: a323 56bc 893b be3d 6b6e a5bd 372d 313e
00000180: 1e49 91bd 70fe 99ae 4b8b bfbc 2861 52b9
00000190: 7a99 56bb e63d ad3d e238 0ebc be97 503d
000001a0: 821a 7b3e 073e fd39 bcb7 07be f62c e43e
000001b0: 4768 ee3d 5831 853e 7c64 12bd 21f5 5d3d
000001c0: 5210 f33d 2acc 7f3b 6dbc 91bb 27fc 94be
000001d0: 12e8 0881 0b52 8cbc 85ec 45bb 43f6 a7b9
000001e0: 4077 553d 20a3 773b f014 ce3d c705 763b
000001f0: 6bb5 4f3d 9df6 f03c 449a b53d 4054 b83d
00000200: 38ac 2dba d45e fe3d d2b7 bc01 7cb7 fe3a
00000210: c7ae d5bc e7bd 6b38 d4a0 e13d 951b 813c
00000220: 99e2 403b c741 65bd 0473 fe34 7f10 acb4
00000230: 48c3 1e3b 4a6f 43bd c668 28bc 954e 25b6
00000240: 2aa1 0d3b e1f8 033b ca49 043e 3d2f dabd
00000250: f90a 79be 854b daba 9140 b3bd b8cd d73c
00000260: 7739 4b3d 97a0 c739 4e06 98bd c4c3 d23c
00000270: 4915 d8b9 473e 023e f232 113e 7de7 abbd
00000280: 5302 873d 9678 1738 d4eb 21be 7199 143b
00000290: d880 b3bb 11bd 42be fd4d cf3b 29b2 c33d
000002a0: 42aa 0abf b914 84bb 9f93 1fbe 9dcb 223e
000002b0: b740 5c3d 9b24 b0be f947 833d 4df5 f83c
000002c0: 95ed a83d 712c 06bc 5626 2f3c 2eb7 7e3e
000002d0: 742f 4808 d645 c4bd d637 1f3a ba5d 133b
000002e0: 49d1 173d e550 96bb 2703 033e 1053 8cbc
000002f0: ec98 b6bc 686a ce3c fe5f 8cbb b6c1 86bc
00000300: c0b8 0b3e 28fa 143d f0c5 a280 2b0d fa38
00000310: 9123 023f 44aa 0838 dd01 8d3d 36a3 a2bb
00000320: 83d3 4aba d6b8 9abc 3fdf 91b8 c770 bbb1
00000330: a7a1 26ba dfec 2d3d 4956 e8bc 807d c4b6
00000340: 2759 f9b8 c806 86b9 b6d8 79bc f665 ee3b
00000350: 0707 753e 7981 4438 47b9 583c fa4f 9abc
00000360: 9f66 bf3b 62bf b2b8 237f 0d3f 97d3 533d
00000370: 2779 143b e67b ee3e f69d 4a3d 7697 b83e
00000380: 7076 a5bd 749a 2a2d cb1a 403f 83bb 03b9
00000390: e29e d13d 8b3a 103f 74d5 edbb 2f93 0d3f
000003a0: f3df a43e d786 b6b9 b611 f03e 31b2 8bbe
000003b0: adc2 0d3e 3d24 9d3d 7931 993e 12cf 073f
000003c0: 313d 12bd b9f1 a53b 0a90 0ebb 01be 8d3d
000003d0: 1dd7 7701 45c8 9f3e 74bf b6bb 7140 26ba
000003e0: c16b 833b e693 293c 623c e53d 0f7b 1b3c
000003f0: 2bce 60bc ca8f f1bb 9c07 b13c 648d 713d

encoder.4.bias f4 [12]
0.13137472 0.070206024 0.012569741 -0.04865583 0.026124006 0.057088934 0.03481644 0.06424872
0.087544434 -0.008968073 0.100986406 -3.0680458e-32
00000000: 1887 063e 2dc8 8f3d 51f1 4d3c 564b 47bd
00000010: 0302 d63c 16d6 693d af9b 0e3d d594 833d
00000020: 7f4a b33d d3ee 12bc f6d1 ce3d 534d 1f8b

encoder.6.weight f4 [2, 12]
-0.24258828 -0.06197424 0.34852856 -0.23619553 -0.08365033 -0.0036590686 -0.12806514 0.54582834
-0.1427031 1.0004841 -0.5384581 7.069516e-05 0.29382285 -0.06658932 -0.00034847565 0.20812383
-0.18359658 0.22498755 0.18114173 0.47250232 0.17796664 0.16211115 -0.019673863 0.0010176577
00000000: 1069 78be b3d8 7dbd 5672 b23e 3edd 71be
00000010: dd50 abbd fccc 6fbb 8223 03be 68bb 0b3f
00000020: c320 12be dd0f 803f 64d8 09bf 2d42 9438
00000030: f36f 963e fb5f 88bd 9cb3 b6b9 6a1e 553e
00000040: be00 3cbe 2363 663e 387d 393e d3eb f13e
00000050: e33c 363e 7700 263e 152b a1bc ed62 853a

encoder.6.bias f4 [2]
-0.18395808 -0.13292171
00000000: 825f 3cbe a11c 08be

decoder.0.weight f4 [12, 2]
0.1577712 -0.56535107 0.83969235 0.04702322 -0.6716217 -0.55989844 -0.012120109 0.09292359
0.8141718 0.07063918 -0.3657071 0.8161198 -0.0834562 -0.24896196 -0.1400523 0.53183764
0.05620977 -0.3762717 -0.69875014 -0.082230926 0.43875858 0.44912168 -0.34661272 -0.19103783
00000000: c68e 213e d9ba 10bf 14f6 563f 6c9b 403d
00000010: 66ef 2bbf 8155 0fbf 6c93 46bc b94e be3d
00000020: 906d 503f 46ab 903d f63d bbbe 3aed 503f
00000030: 16eb aabd e2ef 7ebe df69 0fbe 8326 083f
00000040: 373c 663d afa6 c0be 4ae1 32bf b068 a8bd
00000050: f7a4 e03e 47f3 e53e 3977 b1be 6c9f 43be

decoder.0.bias f4 [12]
0.65319705 -0.017566819 -0.44906032 0.9642183 0.45773923 0.2876677 0.5001208 -0.86016846
0.6566355 0.30343124 0.24510908 0.06725617
00000000: ec37 273f 4ae8 8fbc 3ceb e5be 03d7 763f
00000010: cc5c ea3e 2e49 933e eb07 003f 0034 5cbf
00000020: 4419 283f 575b 9b3e e0fd 7a3e 9abd 893d

decoder.2.weight f4 [64, 12]
-0.1248694 -0.58436185 0.14631602 0.13925707 -0.5537958 0.19106035 -0.040436033 -0.36559597
-0.28132704 0.26926133 -0.044281762 -0.3014775 -0.27051592 -0.07646662 -1.1146204 0.23901074
-0.08843606 0.3739865 -0.18082449 0.1313009 -0.2308362 -0.233202 0.22346014 -0.39580995
3.8681558e-10 -4.255863e-10 -3.231154e-07 -3.5635757e-08 -2.3326443e-09 -9.185918e-08 5.0112362e-08 -2.955139e-08
8.612122e-10 -3.655752e-07 -1.2299707e-10 -1.9028205e-07 0.16076024 0.13652813 0.16363454 -0.24564096
0.11400033 0.21509083 -0.06082168 0.05107467 0.17718047 0.069660656 -0.016901657 0.1503357
0.10016405 -0.07895118 0.052913047 -0.30414274 -0.071717024 0.20575646 0.1421303 0.37572435
0.16432977 0.017832752 0.17022994 -0.029636355 -9.101458e-10 -3.0678366e-19 -0.0004751916 -2.9476623e-05
-9.530801e-16 -0.0042756065 -5.3072324e-09 -0.0005494362 -2.602692e-12 -0.0014766305 -4.538443e-09 -0.00014724491
-0.049589653 0.057345126 -0.14818437 0.0037988469 0.03484919 0.21574071 -0.010497028 -0.2025011
-0.07810191 0.07451369 -0.1415117 -0.044493657 0.09178355 0.34774685 -0.41207287 0.07426254
0.07422649 0.2218933 0.00037333183 0.019107595 0.12893586 0.32861033 -0.30281672 0.04530482
6.8610415e-38 -4.3398912e-14 -1.4547814e-05 -5.839491e-09 -1.0596739e-12 -0.00058978156 -1.2815325e-37 -3.0425647e-06
-3.392354e-38 -0.00017238205 -9.195337e-08 -1.3272148e-07 0.13132994 0.121477775 -0.10174066 0.4178637
0.24466048 -0.24525699 0.5065156 -0.82223207 0.44965613 0.017810006 0.06750378 0.12221074
-0.07284903 0.033603325 0.06527761 -0.27860314 -0.017527178 0.13078474 -0.19179381 0.41472372
0.032797147 -0.06889152 0.16759285 0.03499195 0.1018031 0.21394913 -0.13067146 -0.043305732
0.17623699 0.09591173 0.023904989 0.15233693 0.10755059 0.1692617 -0.039107293 -0.17048591
1.4141209e-38 3.9364352e-38 -2.0719217e-05 -3.61075e-11 -2.2377537e-37 -0.00035638877 1.4873865e-38 -2.1766654e-07
1.0849923e-38 -0.00019874278 -1.0522757e-14 -1.3820393e-07 0.15530887 0.14873749 0.23495986 -0.08798951
0.25642133 -0.038529903 0.43124878 -0.53580904 0.17026757 0.08454516 0.30083162 0.044203687
0.17538421 -0.017997896 0.16361481 -0.19446221 -0.03082273 0.23208125 -0.11567106 0.49413309
0.21900085 0.02511387 0.13349904 0.0051794904 -0.22083312 0.119109504 -0.14047617 0.38352495
0.17324004 0.17328927 0.27379435 -0.26508048 -0.0634563 -0.09372377 0.008927101 0.22117263
0.7150452 0.07224598 -0.031969782 0.4160992 0.13243617 -0.529219 0.5154247 -0.104574956
0.77814966 -0.277857 0.0043272 0.09828217 -1.440198e-05 -0.004164017 -0.019043 -0.0022799922
-0.0059219142 -0.020014405 -0.00018504164 -0.0060353093 -1.0633107e-05 -0.023135051 -0.005291699 -0.010558813
0.2765304 -0.3693121 -0.3469161 0.33093622 -0.11255322 0.1006106 0.009076931 0.05266601
0.2707191 -0.42634612 0.4455337 -0.99582314 -0.08995696 -0.48033243 -0.16739579 0.43420008
-0.042738862 0.14608507 0.3640489 -0.40119752 -0.14262925 0.060875185 -0.08558428 0.10626457
-0.023614148 -0.3713304 0.13341737 0.377686 -0.44607657 -0.04311076 -0.045215525 -0.0861195
-0.06566701 0.23579165 0.0685167 -0.21513452 -0.036466494 -0.042774677 -0.0834506 0.16385193
00000000: 87bb ffbd bd98 15bf ded3 153e 6899 0e3e
00000010: 90c5 0dbf 53a5 433e 41a0 25bd 652f bbbe
00000020: 190a 90be 9fdc 893e cb60 35bd 425b 9abe
00000030: 1081 8abe 889a 9cbd e2ab 8ebf 3bbf 743e
00000040: f71d b5bd 297b bf3e 0e2a 39be be73 063e
00000050: 5360 6cbe 81cc 6ebe bcd2 643e 9aa7 cabe
00000060: 74a7 d42f f2f7 e9af a478 adb4 ee0d 19b3
00000070: 504c 20b1 1e44 c5b3 203b 5733 32d8 fdb2
00000080: 6cba 6c30 4644 c4b4 993c 07af 5550 4cb4
00000090: 559e 243e 08ce 0b3e d08f 273e 4e89 7bbe
000000a0: 0179 e93d c540 5c3e 2720 79bd ac33 513d
000000b0: cc6e 353e 3faa 8e3d 5875 8abc 9af1 193e
000000c0: cf22 cd3d 28b1 a1bd 5abb 583d 99b8 9bbe
000000d0: 60e0 92bd d2b1 523e 9b8a 113e f15e c03e
000000e0: 1046 283e fe15 923c c250 2e3e f1c7 f2bc
000000f0: d12d 7ab0 d617 b5a0 2323 f9b9 9144 f7b7
00000100: 735a 89a6 631a 8cbb e95a b6b1 0a08 10ba
00000110: ee25 37ac 7f8b c1ba 91f0 9bb1 c165 1ab9
00000120: 851e 4bbd b9e2 6a3d a5bd 17be 13f6 783b
00000130: 06be 0e3d 22eb 5c3e bafb 2bbc 735c 4fbe
00000140: e5f3 9fbd a29a 983d 71e8 10be fb3e 36bd
00000150: 04f9 bb3d e00b b23e 37fb d2be f516 983d
00000160: 0f04 983d ff37 633e c0bb c339 8887 9c3c
00000170: c307 043e 9d3f a83e cb0a 9bbe 8c91 393d
00000180: 7bc6 ba01 8a73 43a9 6312 74b7 b5a4 c8b1
00000190: c722 95ab 929b 1aba e46e 2e82 dd2e 4cb6
000001a0: 84b2 3881 74c1 34b9 e677 c5b3 3482 0eb4
000001b0: 5b7b 063e 57c9 f83d 685d d0bd 3bf2 d53e
000001c0: 4788 7a3e a624 7bbe 02ab 013f cd7d 52bf
000001d0: 5439 e63e 4ae6 913c 6c3f 8a3d a049 fa3d
000001e0: df31 95bd a4a3 093d 45b0 853d 12a5 8ebe
000001f0: 2895 8fbc 6fec 053e 9965 44be ab56 d43e
00000200: 4d56 063d ff16 8dbd 769d 2b3e b853 0f3d
00000210: 257e d03d 7b15 5b3e bdce 05be 5a61 31bd
00000220: 7877 343e 5e6d c43d 65d4 c33c 36fe 1b3e
00000230: 7c43 dc3d f052 2d3e f82e 20bd dc93 2ebe
00000240: f0fb 9900 e651 5601 2ece adb7 6ecd 1eae
00000250: 2b4b 9882 b1d9 bab9 49f6 a100 b9b7 69b4
00000260: 2c25 7600 9c65 50b9 a78f 3da8 3565 14b4
00000270: 4a09 1f3e a44e 183e 5199 703e d833 b4bd
00000280: a849 833e 88d1 1dbd a4cc dc3e c82a 09bf
00000290: 9f5a 2e3e 0326 ad3d 9a06 9a3e ed0e 353d
000002a0: eb97 333e 5370 93bc a48a 273e 1a21 47be
000002b0: f37f fcbc b5a6 6d3e f3e4 ecbd 03ff fc3e
000002c0: c241 603e 9abb cd3c f9b3 083e b7b8 a93b
000002d0: 1422 62be afef f33d fcd8 0fbe 625d c43e
000002e0: d665 313e be72 313e c62e 8c3e a1b8 87be
000002f0: 60f5 81bd 3ff2 bfbd fa42 123c 147b 623e
00000300: 340d 373f b3f5 933d bff2 02bd f40a d53e
00000310: 599d 073e e57a 07bf e0f2 033f 652b d6bd
00000320: d134 473f 4643 8ebe 2fcb 8d3b 2a48 c93d
00000330: 08a0 71b7 4e72 88bb 1100 9cbc ec6b 15bb
00000340: 9e0c c2bb 40f5 a3bc bd07 42b9 d8c3 c5bb
00000350: d964 32b7 b885 bdbc fd65 adbb dffe 2cbc
00000360: 6595 8d3e 7a16 bdbe fd9e b1be 7970 a93e
00000370: 4d82 e6bd ee0c ce3d 68b7 143c 50b8 573d
00000380: b29b 8a3e 0a4a dabe fe1c e43e 44ee 7ebf
00000390: 5b3b b8bd 22ee f5be cd69 2bbe 794f de3e
000003a0: f20e 2fbd 5397 153e 9e64 ba3e c369 cdbe
000003b0: 670d 12be 4258 793d d046 afbd 3da1 d93d
000003c0: 7572 c1bc 051f bebe 909e 083e 0f60 c13e
000003d0: 2664 e4be e994 30bd ea33 39bd 6c5f b0bd
000003e0: 6d7c 86bd 5e73 713e 7c52 8c3d 394c 5cbe
000003f0: e45d 15bd 8034 2fbd 26e8 aabd cdc8 273e

decoder.2.bias f4 [64]
0.440009 0.14947577 -3.3520106e-08 -0.21650918 -0.33787534 -1.1894947e-05 0.31752917 -0.002219284
-1.6752114e-10 0.5206567 -0.23260498 -0.22044067 -2.8536638e-13 0.12675223 -0.39836708 0.50336707
0.37748456 -0.0009704633 0.62076974 0.37247288 0.16603576 0.48401403 0.07302627 -0.37691647
-0.2585242 0.014060198 -0.0026923167 -0.1552176 0.44971746 0.4261312 -1.1841597e-07 0.06715565
0.12968512 -0.34700483 0.6208214 0.6740313 -5.231483e-07 0.4343377 -0.39956465 -0.11070015
0.21977511 0.09212051 -0.0034524088 -0.32112518 0.7683248 -0.027412932 -0.2184502 0.4276048
0.5728212 0.25512725 -0.06893529 -0.2541882 0.42187953 0.264724 -0.03334022 0.15780626
-0.0005574193 -0.4565065 0.35701725 -3.9187762e-05 0.059362218 -0.18302058 -0.34220448 0.15701297
00000000: dc48 e13e 2d10 193e bff7 0fb3 95b4 5dbe
00000010: fffd acbe 6990 47b7 2f93 a23e 6871 11bb
00000020: 0231 38af c249 053f 0030 6ebe 33bb 61be
00000030: a1a5 a0aa 56cb 013e c5f6 cbbe aadc 003f
00000040: a845 c13e b166 7eba c4ea 1e3f c4b4 be3e
00000050: 4705 2a3e b0d0 f73e cc8e 953d 32fb c0be
00000060: 495d 84be bf5c 663c 9471 30bb 5df1 1ebe
00000070: 5e41 e63e de2d da3e de4b feb3 e788 893d
00000080: 2dcc 043e 9eaa b1be 27ee 1e3f 518d 2c3f
00000090: 7a6e 0cb5 8361 de3e bd93 ccbe c3b6 e2bd
000000a0: ba0c 613e aea9 bc3d cf41 62bb 856a a4be
000000b0: efb0 443f 1691 e0bc 69b1 5fbe 04ef da3e
000000c0: 69a4 123f 0aa0 823e f22d 8dbd f524 82be
000000d0: 9800 d83e e789 873e c18f 08bd f797 213e
000000e0: c71f 12ba 38bb e9be f7ca b63e 8a5d 24b8
000000f0: cc25 733d bf69 3bbe 6d35 afbe 02c8 203e

decoder.4.weight f4 [128, 64]
0.02322424 -0.022170328 -1.3568297e-08 0.07924798 0.03728365 -5.5935203e-09 0.14680105 -0.06749918
-4.9807635e-14 0.047710296 0.0145045025 0.057366792 -1.7078251e-15 0.15625356 0.0104896035 0.04021387
0.12875184 0.00023811932 -0.06708413 -0.077687636 0.034670815 -0.0034148716 0.038307525 -0.06868935
0.08648214 -0.36619833 -0.01835529 -0.04705295 0.094851606 0.018252777 1.3968004e-12 0.01665992
-0.13106197 0.040500905 -0.04963099 -0.1028992 1.959576e-17 0.01888235 -0.06619733 0.10580859
0.08253019 0.04495898 -0.027362548 -0.0015308107 0.085848585 0.0003945244 0.0035057652 0.117553815
-0.08795465 -0.118840344 -0.29543927 0.029557038 0.15086047 0.035289995 -0.06945935 0.004705827
-4.206013e-08 -0.015110436 0.10124053 -5.304556e-06 -0.13621677 -0.025288198 -0.10356007 0.14788432
-0.024713026 0.084837586 6.1467496e-08 0.051242754 0.10594882 5.3567473e-11 0.046443872 -0.05350979
-1.537737e-38 0.008407307 0.07845446 0.05695739 5.800419e-38 -0.09766204 0.027611744 0.013946116
0.026032068 3.0898354e-05 0.0669198 0.058462474 0.13186502 0.007832292 -0.042844787 0.0048342007
0.074255995 -0.18372425 -0.08404831 -0.007922008 0.08426168 0.1131713 9.101556e-32 0.10233472
0.014895139 -0.06880347 -0.27347693 -0.23736459 -5.144947e-18 0.13009906 -0.0033502555 0.0142454775
0.04221248 -0.02133094 0.051353585 -0.06001565 -0.042658098 4.2871255e-07 0.09569509 -0.10049624
0.058177523 -0.004753551 -0.076213256 -0.12038012 0.12492326 -0.06437864 0.0051975385 0.02237864
1.4302631e-17 0.050620742 0.06560612 3.0133664e-17 0.08218434 -0.022806786 -0.053316105 0.09105959
-0.08570312 0.21249372 -1.4499022e-08 0.09645609 0.005584847 5.5224957e-11 0.12110323 0.101878665
-2.6116279e-15 -0.32818252 -0.104673944 -0.024802586 -1.5203088e-17 -0.14304042 0.0105601875 -0.0022692233
-0.016424421 0.0005815095 -0.043402936 -0.04792119 -0.009212347 -0.124367125 0.08241432 0.037238713
0.037809685 5.0182783e-12 -0.036335938 0.088782825 0.025032323 0.11723699 -4.1535645e-16 0.10505854
-0.008337618 0.00085994153 -0.0623573 -0.11352421 3.147708e-28 -0.07003941 0.034532156 -0.017259687
-0.031884946 0.03419807 0.104234524 -0.0018219013 0.060838193 0.0005061396 0.109305285 0.27945945
-0.14725117 -0.04494776 1.3981024e-38 0.00322721 0.1417346 -0.007012927 -0.010076057 -0.057476364
2.2988901e-14 0.01503731 0.1122835 -1.5135683e-18 -0.037983462 -0.007663884 0.046154376 -0.10246813
-7.579269e-06 -1.152362e-07 -3.6216974e-38 -1.891544e-05 -8.253417e-06 -1.797341e-38 -4.518747e-08 -6.224566e-06
5.416765e-38 6.7152436e-32 -1.1562538e-06 -6.31272e-07 4.6500128e-38 -9.338356e-12 -3.538607e-05 -6.4195014e-09
-7.680128e-31 3.6689508e-38 -5.1826005e-10 -4.5131206e-18 -1.3824383e-07 -4.231568e-07 -2.5772536e-06 -1.5491189e-05
-2.6448219e-05 2.1599046e-38 -1.6120299e-06 -3.2386986e-05 -2.8637824e-05 -2.8378893e-06 4.1191034e-38 -1.0643483e-05
-4.069843e-05 -7.900376e-05 -1.0608956e-09 -7.7971315e-08 -6.8892193e-38 -4.691863e-09 -3.1784477e-06 -5.2630617e-06
-1.4765002e-06 -2.1298339e-09 -1.2018532e-14 -8.094602e-05 -5.9766947e-10 4.6922277e-38 -7.781563e-06 -9.54114e-09
-2.5749203e-10 -2.967879e-06 -2.047815e-38 -1.1157564e-08 -7.844332e-11 -5.0299853e-08 -3.3504086e-06 -2.7046799e-11
4.6064627e-38 -8.078981e-06 -2.353723e-07 3.1942285e-38 -2.546966e-06 -5.776304e-07 -2.337466e-06 -6.4222542e-12
00000000: c340 be3c 8c9e b5bc 001a 69b2 c44c a23d
00000010: beb6 183d 2031 c0b1 0453 163e 033d 8abd
00000020: 4b50 60a9 df6b 433d 4ba4 6d3c 71f9 6a3d
00000030: a01f f6a6 ef00 203e 96dc 2b3c 4db7 243d
00000040: 86d7 033e abaf 7939 6863 89bd b21a 9fbd
00000050: fc02 0e3d 0acc 5fbb 5ae8 1c3d 00ad 8cbd
00000060: 8c1d b13d 597e bbbe d55d 96bc 98ba 40bd
00000070: 8f41 c23d d986 953c 0a95 c42b 627a 883c
00000080: 1c35 06be 47e4 253d dd49 4bbd d1bc d2bd
00000090: 2ebd b423 28af 9a3c 7792 87bd 2db2 d83d
000000a0: 9705 a93d e826 383d 6c27 e0bc 7ca5 c8ba
000000b0: 62d1 af3d 2bd8 ce39 fbc0 653b 0ec0 f03d
000000c0: 9121 b4bd 9162 f3bd d143 97be 9a21 f23c
000000d0: 2b7b 1a3e 3e8c 103d b440 8ebd 5733 9a3b
000000e0: 9aa5 34b3 c391 77bc 3257 cf3d cafd b1b6
000000f0: 697c 0bbe 3229 cfbc 4d17 d4bd fd6e 173e
00000100: f972 cabc 54bf ad3d 1d00 8433 ece3 513d
00000110: b2fb d83d 9d97 6b2e ee3b 3e3d 152d 5bbd
00000120: da71 a780 cdbe 093c bbac a03d 274c 693d
00000130: 05e7 9d01 0903 c8bd 0632 e23c 407e 643c
00000140: 3441 d53c db98 0138 400d 893d 5976 6f3d
00000150: a007 073e 0353 003c 047e 2fbd 3768 9e3b
00000160: 8713 983d 3622 3cbe 8521 acbd 4fcb 01bc
00000170: 6391 ac3d 5bc6 e73d 374a ec0b de94 d13d
00000180: be0a 743c d5e8 8cbd 2b05 8cbe b40f 73be
00000190: a7d0 bda2 b038 053e f68f 5bbb dd65 693c
000001a0: fee6 2c3d 39be aebc 2358 523d f8d2 75bd
000001b0: 42ba 2ebd ce29 e634 cafb c33d f9d0 cdbd
000001c0: 8e4b 6e3d adc3 9bbb b215 9cbd da89 f6bd
000001d0: c4d7 ff3d f3d8 83bd 1d50 aa3b 6953 b73c
000001e0: 22eb 8323 b257 4f3d 805c 863d 8df7 0a24
000001f0: 4350 a83d 4cd5 babc fd61 5abd 737d ba3d
00000200: 1e85 afbd f497 593e 6017 79b2 c58a c53d
00000210: 1801 b73b c6e1 722e f804 f83d c3a5 d03d
00000220: 0830 3ca7 8a07 a8be 4b5f d6bd cb2e cbbc
00000230: 4739 8ca3 3079 12be a304 2d3c 40b7 14bb
00000240: 828c 86bc 7170 183a 47c7 31bd 0249 44bd
00000250: 62ef 16bc 31b4 febd d7c8 a83d 9f87 183d
00000260: 54de 1a3d a290 b02c fed4 14bd c5d3 b53d
00000270: 9610 cd3c f219 f03d cb6f efa5 ef28 d73d
00000280: 819a 08bc b36d 613a 5e6a 7fbd 627f e8bd
00000290: 7b82 c711 d270 8fbd 9771 0d3d 3064 8dbc
000002a0: ca99 02bd 4713 0c3d e978 d53d ddcc eeba
000002b0: 7831 793d 74ae 043a 73db df3d 4f15 8f3e
000002c0: 03c9 16be 241b 38bd 683d 9800 997f 533b
000002d0: e022 113e b2cc e5bb 0c16 25bc 566c 6bbd
000002e0: cc10 cf28 0d5f 763c e4f4 e53d fe5c dfa1
000002f0: 8c94 1bbd 5221 fbbb 5f0c 3d3d d0da d1bd
00000300: 6d51 feb6 c577 f7b3 182f 4581 99ac 9eb7
00000310: 2878 0ab7 8eb6 c380 2614 42b3 9ddc d0b6
00000320: 5875 9301 7356 ae0b 9430 9bb5 ae74 29b5
00000330: b82b 7d01 3748 24ad 816b 14b8 8892 dcb1
00000340: 023c 798d b6c1 4701 4f75 0eb0 3881 a6a2
00000350: 2d70 14b4 3a2e e3b4 e1f4 2cb6 13f3 81b7
00000360: 1edd ddb7 5a31 eb00 ed5c d8b5 43d7 07b8
00000370: 423b f0b7 9172 3eb6 ec43 6001 6991 32b7
00000380: 9bb3 2ab8 d2ae a5b8 f2ce 91b0 2f71 a7b3
00000390: da8a bb81 1036 a1b1 514d 55b6 5b99 b0b6
000003a0: 292c c6b5 6f5c 12b1 b281 58a8 90c1 a9b8
000003b0: 4049 24b0 1c78 7f01 8f8d 02b7 61ea 23b2
000003c0: c88e 8daf c62b 47b6 c0fc de80 7caf 3fb2
000003d0: aa7f acae 4609 58b3 95d7 60b6 fae7 edad
000003e0: b8cc 7a01 f68a 07b7 a5ba 7cb4 0ce9 2d01
000003f0: 8bec 2ab6 750e 1bb5 5cdd 1cb6 86f6 e1ac

decoder.4.bias f4 [128]
0.034525193 0.12470387 0.053197052 -6.91203e-11 0.031713575 0.060960025 -2.2326913e-13 0.04275383
0.20401956 -7.515744e-08 0.07270616 0.0807342 0.18809679 0.08198505 0.10199061 -2.060475e-06
0.012013494 0.23827995 -8.535162e-05 0.0631933 -0.022549938 0.093389034 -1.9574269e-05 -5.5893156e-27
0.26216438 0.10188018 -2.4179562e-06 -2.480177e-12 -4.3057438e-09 -0.015405559 0.06534984 0.07443734
0.10447468 -2.6569245e-07 0.13866098 0.14854309 0.12133113 0.18451531 0.016005024 0.094067484
0.06187603 0.25295416 -0.07622821 0.12817587 0.06888123 0.04588453 0.1272892 -0.048526566
0.22244927 0.13735616 0.11785226 0.1418565 -1.5127213e-08 0.106722295 0.166175 0.13398877
-9.191389e-09 0.012550034 0.19700325 0.33703098 0.14287755 0.071647756 -4.5026533e-10 0.1434859
0.10879415 0.080018684 0.06585103 0.01960828 -1.5616774e-14 0.14550824 0.2102235 -1.5465222e-10
-1.6790746e-16 -1.588044e-07 0.19067739 0.14383872 -2.0810734e-12 -7.330342e-11 0.22933422 0.005407141
0.12695254 -6.842856e-05 -1.4911887e-10 -5.8598264e-08 -4.3233783e-10 0.16194636 0.034603026 0.13349651
-0.042520214 0.024077572 0.14523134 0.18827927 -0.24704082 0.07402637 -0.0009263141 0.34708062
-0.0008712386 1.3270051e-38 -5.6125327e-06 0.02242541 0.15591364 -2.3236167e-18 0.14565039 -4.2265085e-05
0.14857787 0.12471271 0.038060375 -0.1922871 0.05645101 0.106474675 0.18406132 0.086272985
-0.40486813 0.0143821025 -3.5947508e-07 0.30575144 0.10937126 0.09761298 -8.478657e-07 -0.018547233
0.119763345 0.11298877 0.21816133 0.2927386 -1.1361724e-07 -1.1348141e-16 -7.903389e-10 -0.00043257413
00000000: 4a6a 0d3d be64 ff3d 27e5 593d 45ff 97ae
00000010: 18e6 013d 38b1 793d f260 7baa a41e 2f3d
00000020: 81ea 503e 3d66 a1b3 f8e6 943d f957 a53d
00000030: 729c 403e c7e7 a73d 74e0 d03d b146 0ab6
00000040: 3fd4 443c a9ff 733e cdfe b2b8 7d6b 813d
00000050: a6ba b8bc c042 bf3d 6c33 a4b7 656a dd93
00000060: 693a 863e 8ea6 d03d 2c44 22b6 e686 2eac
00000070: b9f1 93b1 9967 7cbc 23d6 853d 9b72 983d
00000080: d2f6 d53d 7ea4 8eb4 25fd 0d3e ae1b 183e
00000090: 757c f83d 95f1 3c3e f81c 833c 74a6 c03d
000000a0: b871 7d3d 3583 813e 891d 9cbd 8940 033e
000000b0: 9a11 8d3d 6bf1 3b3d 1a58 023e cbc3 46bd
000000c0: bec9 633e 18a7 0c3e 875c f13d d542 113e
000000d0: 18f1 81b2 3891 da3d c729 2a3e 5a34 093e
000000e0: 28e8 1db2 a89e 4d3c 38bb 493e 538f ac3e
000000f0: 7e4e 123e 0fbc 923d 3689 f7af f8ed 123e
00000100: 78cf de3d d6e0 a33d e8dc 863d 8ba1 a03c
00000110: d4a9 8ca8 1d00 153e d444 573e bb0a 2aaf
00000120: 8995 41a5 d283 2ab4 ef40 433e 754a 133e
00000130: 4971 12ac 2832 a1ae 97d6 6a3e 632e b13b
00000140: d9ff 013e 4e81 8fb8 3bf5 23af 79ad 7bb3
00000150: 24ae edaf 44d5 253e e7bb 0d3d 4fb3 083e
00000160: ad29 2ebd 543e c53c 86b7 143e 48cc 403e
00000170: 45f8 7cbe 239b 973d e3d3 72ba 8db4 b13e
00000180: d563 64ba 817f 9000 4a53 bcb6 7eb5 b73c
00000190: d3a7 1f3e e173 2ba2 6025 153e ca45 31b8
000001a0: cc24 183e 6169 ff3d 32e5 1b3d e9e6 44be
000001b0: 2d39 673d 650f da3d 927a 3c3e e4af b03d
000001c0: e04a cfbe e9a2 6b3c e1fd c0b4 748b 9c3e
000001d0: 0afe df3d 50e9 c73d e398 63b5 5ef0 97bc
000001e0: 7c46 f53d a866 e73d af65 5f3e d5e1 953e
000001f0: bdfd f3b3 cdd5 02a5 283f 59b0 1ecb e2b9
