outputs/mnist/models/mnist_convae_epoch_10.pth (torch_old, 7807 bytes, 15 tensors)

conv1.weight f4 [16, 1, 3, 3]
0.13695128 -0.6554139 -0.70876074 0.5464484 0.069708064 0.73398346 -0.91427696 -0.45904124
-0.18298897 -0.031755168 -0.35114533 -0.01975984 0.17124447 0.11068008 -0.022453494 -0.11931202
-0.18284295 -0.25676644 -0.5601297 -1.1033461 -0.6955379 -0.6177174 0.34880358 -0.4551906
0.26211202 0.67205584 -0.9632725 -0.33460212 -0.6830173 -0.50899416 -0.26413125 -0.21348165
-1.0124879 0.5964267 0.098119296 -0.3630307 0.3241175 0.014825105 -0.9247554 0.14662904
0.032798663 -0.13927315 -0.33274782 0.23225304 -0.39705464 -0.029387666 -0.23245318 -0.20404291
-0.016007354 -0.011081765 0.122295655 -0.17694582 0.17063792 -0.35135773 -0.8102324 0.8605012
-0.7179006 -0.8192394 0.45695662 -0.5369689 -0.38964614 0.34225255 -0.42563167 -1.0833315
-0.5076173 0.5043189 -0.15459855 0.28120896 -0.12959118 0.22411405 0.28976515 -0.43397978
0.030173203 -0.74762714 -0.71692085 0.15137714 0.2534408 -0.11584919 0.16454932 0.3229971
-0.008091033 0.6490621 0.12669328 -0.3419936 -0.62796235 -0.30653107 -0.6804025 -0.65300566
-0.3270383 -0.8656015 0.054888207 -0.22589284 -0.5554789 0.45839006 -0.04955483 -0.36418125
0.29932624 -0.5616132 -1.8296397 -0.09353224 0.09694862 0.3124815 0.03757418 -0.15632609
0.32753628 -0.024379963 0.3888976 0.49260497 0.1351539 0.65054035 0.4112815 -0.1692451
-0.0456533 -0.27066913 -0.30838567 0.08784724 -0.4295978 -1.4104035 -0.44286498 0.709893
-0.75482863 -0.581077 -0.023598522 -0.2698807 -0.4665234 -0.07469518 -0.8169476 -0.055469036
-0.5108506 0.5877356 0.5390131 -0.16110583 -0.89406073 -0.37868702 -0.28410563 -0.36845168
0.0015547989 -0.014316408 -0.15607558 -0.2699407 0.2081311 0.1626556 -0.33404708 -0.30959255
00000000: f53c 0c3e 35c9 27bf 5871 35bf 0be4 0b3f
00000010: 1ac3 8e3d 57e6 3b3f 0e0e 6abf 7407 ebbe
00000020: 7661 3bbe b511 02bd 52c9 b3be 63df a1bc
00000030: b65a 2f3e 3dac e23d 64f0 b7bc dc59 f4bd
00000040: 2f3b 3bbe e476 83be a964 0fbf 723a 8dbf
00000050: c60e 32bf ba22 1ebf 6296 b23e be0e e9be
00000060: 8c33 863e da0b 2c3f 0799 76bf f850 abbe
00000070: 39da 2ebf 714d 02bf 363c 87be ef9a 5abe
00000080: 3499 81bf 6caf 183f c5f2 c83d 29df b9be
00000090: bbf2 a53e ffe4 723c c5bc 6cbf ec25 163e
000000a0: e457 063d 9f9d 0ebe ec5d aabe bed3 6d3e
000000b0: bf4a cbbe 67be f0bc 3508 6ebe a0f0 50be
000000c0: db21 83bc 4b90 35bc 2576 fa3d 4931 35be
000000d0: b5bb 2e3e 29e5 b3be 646b 4fbf cf49 5c3f
000000e0: 55c8 37bf acb9 51bf 38f6 e93e cb76 09bf
000000f0: b37f c7be ba3b af3e 65ec d9be 9baa 8abf
00000100: 35f3 01bf 0b1b 013f 154f 1ebe 9ffa 8f3e
00000110: 8db3 04be 277e 653e 195c 943e 9932 debe
00000120: cb2d f73c 7e64 3fbf 2088 37bf 9c02 1b3e
00000130: fec2 813e 5742 edbd 9e7f 283e e05f a53e
00000140: 4190 04bc ef28 263f e2bb 013e c919 afbe
00000150: 24c2 20bf a4f1 9cbe dc2e 2ebf 612b 27bf
00000160: 9071 a7be 0f98 5dbf 75d2 603d 7450 67be
00000170: dd33 0ebf 1ab2 ea3e 01fa 4abd f775 babe
00000180: 4a41 993e e2c5 0fbf a231 eabf d58d bfbd
00000190: 008d c63d 93fd 9f3e 62e7 193d f213 20be
000001a0: d6b2 a73e 7db8 c7bc 961d c73e b836 fc3e
000001b0: c965 0a3e d089 263f 7d93 d23e 964e 2dbe
000001c0: f4fe 3abd 2595 8abe bae4 9dbe 41e9 b33d
000001d0: 3ef4 dbbe 1a88 b4bf 33bf e2be 8cbb 353f
000001e0: 733c 41bf 76c1 14bf b051 c1bc ce2d 8abe
000001f0: 28dc eebe c9f9 98bd 7a23 51bf 8033 63bd
00000200: 1bc7 02bf d775 163f c3fc 093f edf8 24be
00000210: 2ae1 64bf 44e3 c1be 4b76 91be b3a5 bcbe
00000220: 65ca cb3a 5e8f 6abc 47d2 1fbe ab35 8abe
00000230: 5220 553e 318f 263e 3808 abbe ea82 9ebe

conv1.bias f4 [16]
-0.032850187 -0.3030213 0.055024087 -0.06287116 -0.032387294 -0.31317928 -0.17697534 -0.119452395
-0.08884998 -0.024091177 -0.008141516 -0.020076683 -0.047085337 -0.013220038 0.34574595 -0.28251407
00000000: eb8d 06bd 9c25 9bbe f060 613d 98c2 80bd
00000010: 8aa8 04bd 0959 a0be 0639 35be 75a3 f4bd
00000020: faf6 b5bd dc5a c5bc fe63 05bc db77 a4bc
00000030: 8edc 40bd dc98 58bc 9d05 b13e afa5 90be

conv2.weight f4 [4, 16, 3, 3]
0.31205615 -0.502208 -0.17342706 -0.33378422 0.17428564 0.12757082 0.05307482 0.21205083
-0.77806014 0.027545828 -0.0021488268 -0.031585354 -0.07199395 -0.047493897 -0.040976714 -0.021780359
-0.08472397 -0.09603816 0.33904672 -0.5321915 -0.22282627 0.22875562 -0.5357912 0.21175058
-0.008324275 0.017522948 -1.0793731 0.21636307 0.76217735 0.1817911 0.12905096 -1.170008
-0.2161343 -1.9730026 -0.5713644 -0.24407832 -0.48429605 -0.6796221 0.6573482 0.112815514
-0.17024164 0.113647744 0.820163 0.7011608 0.2301943 -0.060125373 -0.005891064 -0.070660956
-0.06629997 0.009204929 -0.07117465 -0.003620013 -0.05376668 0.038252704 0.8239881 0.06585591
0.82594717 -0.029758336 -0.10128043 -0.047711268 -0.20973578 -0.16590966 0.19636127 0.03217026
0.02692036 0.08435934 0.24331403 0.023995623 -0.15930489 0.13484088 -0.028468676 0.34233534
-0.15000406 -0.3647361 0.30975035 -0.006144455 -0.17004757 -0.6288043 -0.75420284 -0.9025639
-0.09808385 -0.13169983 -0.92821544 0.07572956 0.4883737 0.05352988 0.123868264 0.17265533
1.2436107 0.11432724 -0.4776197 0.555982 0.5910859 -1.1407416 0.09234496 0.37280935
-0.85039973 -0.20110841 0.25365162 -0.20937142 0.44839722 0.15551242 -0.35487974 -0.18697289
-0.21919632 -0.47336385 0.24763244 0.23882832 -0.111101456 0.3050559 0.15262288 -0.31850263
-0.31115514 -0.24525918 0.14650318 -0.0013319239 -0.21485901 0.2707313 0.4210713 1.3626856
0.21754992 -0.09801506 0.9789305 0.37182817 0.2397109 -0.2361373 0.44023743 -0.654715
-0.7598394 0.46842942 -0.3982901 -0.047291137 0.8253266 0.33191735 -0.8343075 -0.05832267
0.04718797 0.027012583 -0.047420505 -0.039656878 0.040328916 0.025954416 -0.08549154 -0.087036364
-0.023110446 -0.19856566 0.27064118 0.1469712 -0.25411254 -0.06899283 -0.85623 0.08582722
-0.4518861 -0.010666097 0.020501884 -0.076784514 -0.041262224 0.023197055 -0.12464782 -0.025230296
-0.07710398 -0.06311377 -0.19336554 -0.15179728 0.5901456 0.42873126 0.3232453 0.7987994
-0.20845693 0.009986289 -0.13499561 0.3895768 0.001423375 -0.3364225 0.004183479 -0.034115627
0.08359847 0.29778525 0.19065969 0.4449669 0.31289914 -0.26997823 -0.21792836 -0.27662233
-0.09808772 0.18756908 0.24166052 0.27648988 0.5165416 0.0015797961 -0.16452691 0.08459751
-0.015835613 0.002985603 -0.01592322 0.058026973 0.042909134 -0.053901333 0.7272163 0.60720414
0.17771772 0.16536373 -0.6341704 -0.22827029 -0.2818334 -0.40733725 -0.89298844 0.1410667
0.15382616 -1.0708714 -0.024506275 0.372438 0.3589777 -0.053556766 0.24876268 0.49584925
-0.15942891 -0.46169788 0.07976552 0.3298605 -0.076952614 0.11399436 -0.008208508 0.09803267
-0.15782046 0.6871767 -0.5138973 -0.44317856 0.059847385 -0.4255476 -0.031697415 -0.12056309
0.32321092 -0.3701681 0.46994558 0.035438407 0.037441336 0.19568323 0.17740563 0.28703725
0.56657046 0.18240422 0.2780591 0.5031303 0.36771634 0.08372985 0.25033322 -0.28050044
0.30597016 0.5044223 0.4098513 -0.030822515 0.004036108 0.7338224 -0.34851208 0.20155533
00000000: d3c5 9f3e b490 00bf dd96 31be c4e5 aabe
00000010: ef77 323e eda1 023e fc64 593d da23 593e
00000020: f32e 47bf caa7 e13c 55d3 0cbb a55f 01bd
00000030: 9071 93bd f688 42bd 33d7 27bd b96c b2bc
00000040: c383 adbd a8af c4bd 8897 ad3e b43d 08bf
00000050: 922c 64be ea3e 6a3e 9d29 09bf 25d5 583e
00000060: 8a62 08bc 498c 8f3c e628 8abf 488e 5d3e
00000070: 0e1e 433f 7227 3a3e ef25 043e d2c2 95bf
00000080: 4f52 5dbe 598b fcbf f044 12bf abef 79be
00000090: a7f5 f7be b7fb 2dbf f947 283f d20b e73d
000000a0: d353 2ebe 26c0 e83d 34f6 513f 467f 333f
000000b0: 0eb8 6b3e 0646 76bd d409 c1bb b1b6 90bd
000000c0: 47c8 87bd 45d0 163c 04c4 91bd bd3d 6dbb
000000d0: 733a 5cbd deae 1c3d e2f0 523f 77df 863d
000000e0: 4671 533f c1c7 f3bc 1d6c cfbd e46c 43bd
000000f0: fac4 56be 39e4 29be ee12 493e f6c4 033d
00000100: 1688 dc3c 97c4 ac3d 5027 793e 7892 c43c
00000110: d220 23be ba13 0a3e 2437 e9bc 9446 af3e
00000120: aa9a 19be b1be babe 9997 9e3e 6d57 c9bb
00000130: f320 2ebe 52f9 20bf 7013 41bf 6e0e 67bf
00000140: 30e0 c8bd 52dc 06be 879f 6dbf 1918 9b3d
00000150: 1e0c fa3e 2642 5b3d a5ae fd3d 8fcc 303e
00000160: a32e 9f3f 6624 ea3d 928a f4be d654 0e3f
00000170: 6851 173f d203 92bf 5b1f bd3d dee0 be3e
00000180: ccb3 59bf 5def 4dbe a0de 813e 7665 56be
00000190: 5294 e53e a63e 1f3e ccb2 b5be d275 3fbe
000001a0: 0075 60be bf5c f2be 5c93 7d3e 698f 743e
000001b0: 2989 e3bd 4930 9c3e 2c49 1c3e c712 a3be
000001c0: ba4f 9fbe 3925 7bbe ee04 163e f393 aeba
000001d0: 0004 5cbe 4b9d 8a3e a896 d73e 7b6c ae3f
000001e0: 68c5 5e3e 1fbc c8bd 309b 7a3f 4360 be3e
000001f0: c676 753e facd 71be cd66 e13e 679b 27bf
00000200: d684 42bf fbd5 ef3e aeec cbbe 5ab4 41bd
00000210: 9b48 533f 12f1 a93e 2d95 55bf c1e3 6ebd
00000220: 2c48 413d 7e49 dd3c 013c 42bd 406f 22bd
00000230: ef2f 253d 5b9e d43c 3016 afbd 1f40 b2bd
00000240: 1e52 bdbc cc54 4bbe 7b91 8a3e 9e7f 163e
00000250: 0a1b 82be 1d4c 8dbd e431 5bbf 2ec6 af3d
00000260: 9d5d e7be dac0 2ebc 91f3 a73c 3341 9dbd
00000270: 9402 29bd c007 be3c 5b47 ffbd c4af cebc
00000280: b1e8 9dbd cb41 81bd 9e01 46be bf70 1bbe
00000290: c813 173f aa82 db3e 6880 a53e 1e7e 4c3f
000002a0: bc75 55be 889d 233c 4a3c 0abe 9c76 c73e
000002b0: 8a90 ba3a 923f acbe 9115 893b d4bc 0bbd
000002c0: ad35 ab3d 4f77 983e 4b3c 433e b4d2 e33e
000002d0: 5134 a03e 963a 8abe 9d28 5fbe 71a1 8dbe
000002e0: 37e2 c8bd 1c12 403e db75 773e 1590 8d3e
000002f0: 123c 043f 2911 cf3a be79 28be 7641 ad3d
00000300: b0b9 81bc 1baa 433b 6a71 82bc b1ad 6d3d
00000310: 7dc1 2f3d a5c7 5cbd d92a 3a3f bb71 1b3f
00000320: a2fb 353e 1c55 293e fe58 22bf b0bf 69be
00000330: 784c 90be 828e d0be e49a 64bf ca73 103e
00000340: 9b84 1d3e 5012 89bf 62c1 c8bc 32b0 be3e
00000350: edcb b73e 575e 5bbd a5bb 7e3e f4df fd3e
00000360: 5541 23be aa63 ecbe 1b5c a33d 7ae3 a83e
00000370: 5599 9dbd e075 e93d fa7c 06bc 5ac5 c83d
00000380: b09b 21be d0ea 2f3f c68e 03bf 4de8 e2be
00000390: 8822 753d 60e1 d9be 26d5 01bd c8e9 f6bd
000003a0: e77b a53e ac86 bdbe b59c f03e dd27 113d
000003b0: 165c 193d 2f61 483e d2a9 353e 8cf6 923e
000003c0: c30a 113f 2cc8 3a3e c35d 8e3e 26cd 003f
000003d0: 5145 bc3e 8e7a ab3d ad2b 803e c19d 8fbe
000003e0: 1fa8 9c3e d221 013f 08d8 d13e 807f fcbc
000003f0: 5441 843b c9db 3b3f 2d70 b2be 8564 4e3e

conv2.bias f4 [4]
0.2887802 0.6280476 0.3634345 -0.27282733
00000000: 00db 933e bac7 203f 1614 ba3e 06b0 8bbe

conv3.weight f4 [4, 4, 2, 2]
0.15172815 -0.25548077 -0.27067345 -0.32451293 -0.120177455 0.0433465 -0.020485425 -0.27591655
0.106419645 -0.3148124 0.025413971 -0.047818698 0.18074226 -0.300253 -0.26757988 0.067344986
0.14093 -0.42130554 0.21502858 -0.12489757 0.21610548 -0.15674588 0.008211973 -0.11049288
0.3730451 0.18977219 0.121335134 0.14140716 0.5339315 0.23714857 -0.9417144 0.44214904
-0.238284 -0.028483722 -0.04927951 -0.24154037 -0.07952047 -0.27555913 -0.12891226 0.007876683
-0.1612344 0.034332268 0.15457015 -0.10632265 0.049955502 0.041607182 -0.22008327 -0.19508944
0.10669826 0.33017725 0.15364662 0.0946264 0.09610593 0.5233822 0.16838318 0.10147906
-0.12354177 -0.27209294 -0.24877825 0.31366867 -0.8193461 0.40560293 -0.16158669 0.038623944
00000000: a05e 1b3e 60ce 82be b695 8abe 8f26 a6be
00000010: 991f f6bd 198c 313d 0dd1 a7bc ef44 8dbe
00000020: 8bf2 d93d 172f a1be f630 d03c 8add 43bd
00000030: 8014 393e c3ba 99be 3b00 89be 2bec 893d
00000040: f44f 103e 5cb5 d7be 7430 5c3e 4cca ffbd
00000050: c14a 5d3e fe81 20be 838b 063c 174a e2bd
00000060: c4ff be3e a453 423e 8e7e f83d 0acd 103e
00000070: bcaf 083f 13d7 723e 3214 71bf 5c61 e23e
00000080: b900 74be b256 e9bc 50d9 49bd 5c56 77be
00000090: a1db a2bd 1616 8dbe 9301 04be 340d 013c
000000a0: a11a 25be fe9f 0c3d a347 1e3e b1bf d9bd
000000b0: 249e 4c3d 4b6c 2a3d 825d 61be 87c5 47be
000000c0: 9e84 da3d fe0c a93e 8a55 1d3e 7ccb c13d
000000d0: 30d3 c43d 60fc 053f a46c 2c3e 41d4 cf3d
000000e0: 7803 fdbd c44f 8bbe babf 7ebe 2e99 a03e
000000f0: aac0 51bf 30ab cf3e fb76 25be 2434 1e3d

conv3.bias f4 [4]
-0.29649967 1.0100703 -0.14785768 0.00090948585
00000000: cece 97be fc49 813f 0168 17be 906a 6e3a

conv4.weight f4 [2, 4, 3, 3]
-0.108366765 -0.19755414 -0.079022616 -0.2057587 0.14147222 0.18507607 -0.09691577 0.0982059
-0.053801302 0.06481931 0.2584235 -0.20366311 0.1380405 0.27712333 0.059888326 -0.07922316
0.38056335 0.37951353 0.098725036 -0.019386824 -0.12371211 -0.12415799 0.06372945 -0.105842516
0.16003455 -0.024728164 0.069069564 -0.03416557 -0.040291857 0.008877414 -0.23140654 0.3676505
-0.22754538 -0.24801475 0.57614017 -0.657304 -0.010533109 -0.0968106 0.11983394 0.10885374
0.008257389 -0.10705232 0.0663103 -0.1684132 -0.25166154 -0.08097407 -0.17000052 -0.17857836
-0.2232315 -0.26870272 -0.2278776 -0.037571467 -0.202628 -0.120162524 -0.13541317 0.076833114
-0.04081486 -0.16151452 -0.092575334 0.018451989 0.095967606 -0.1664607 0.0071525574 -0.14747536
-0.28090355 -0.0030172763 -0.028622195 -0.031147342 -0.0005476719 -0.11764043 -0.107200526 -0.08172275
00000000: 65ef ddbd a24b 4abe 9cd6 a1bd 69b2 52be
00000010: 18de 103e 9584 3d3e c67b c6bd 2d20 c93d
00000020: c15e 5cbd fdbf 843d 1650 843e 108d 50be
00000030: 7d5a 0d3e 1ce3 8d3e 764d 753d c13f a2bd
00000040: 33d9 c23e 994f c23e 5a30 ca3d 1ed1 9ebc
00000050: c65c fdbd 8b46 febd 9684 823d f6c3 d8bd
00000060: 19e0 233e b892 cabc 5874 8d3d 32f1 0bbd
00000070: 1309 25bd 9372 113c d6f5 6cbe b03c bc3e
00000080: a801 69be 94f7 7dbe ec7d 133f 1345 28bf
00000090: 1093 2cbc a344 c6bd 7f6b f53d b6ee de3d
000000a0: 004a 073c 3f3e dbbd b2cd 873d 8374 2cbe
000000b0: c8d9 80be bcd5 a5bd 9e14 2ebe 3fdd 36be
000000c0: cc96 64be 6793 89be bf58 69be 8ae4 19bd
000000d0: b77d 4fbe c517 f6bd c0a9 0abe ae5a 9d3d
000000e0: 7c2d 27bd 1064 25be 2398 bdbd a028 973c
000000f0: aa8a c43d ac74 2abe 0060 ea3b c803 17be
00000100: 97d2 8fbe 7fbd 45bb 1879 eabc b628 ffbc
00000110: a491 0fba 77ed f0bd f38b dbbd 425e a7bd

conv4.bias f4 [2]
1.547483 -0.03015285
00000000: ec13 c63f 1c03 f7bc

t_conv1.weight f4 [2, 4, 3, 3]
-0.8976029 0.5187947 0.28442207 -0.44371167 -1.2636073 -1.8459041 -1.125302 -0.57781935
-1.8250827 0.9735756 -0.5638752 0.29146168 -0.31391257 -0.42149004 -1.0743713 -1.3350734
-1.1348723 -0.08482928 1.4985994 -0.58015543 -2.2721837 0.45381787 -2.7024596 -0.3976267
0.43888614 -1.6765741 -0.50078887 -3.8658252 -0.39886612 0.2213557 -0.9512656 0.48201054
-0.28746518 -0.87376845 0.51788646 -0.44469526 0.101677775 -0.24118812 -0.24888729 0.24812296
-0.15520278 -0.06995726 -0.15098464 0.14317887 -0.009879231 0.085468546 -0.14258216 0.034157954
-0.15253572 0.33568934 -0.09723888 -0.29035962 0.037105396 -0.3086896 0.1665828 -0.019851312
-0.05359783 -0.06162999 -0.03669379 -0.007587746 0.017437337 -0.105273366 0.034816757 -0.046819113
-0.11743815 0.13009636 0.035760984 -0.122127876 -0.1133374 -0.028742388 -0.1358092 0.064233914
00000000: 4ec9 65bf bbcf 043f c59f 913e 2d2e e3be
00000010: e2bd a1bf 9646 ecbf e509 90bf f8eb 13bf
00000020: 4f9c e9bf 403c 793f 205a 10bf 773a 953e
00000030: 26b9 a0be 8bcd d7be 0085 89bf afe3 aabf
00000040: 7f43 91bf f9ba adbd 1bd2 bf3f 1185 14bf
00000050: 756b 11c0 d15a e83e 19f5 2cc0 ba95 cbbe
00000060: afb5 e03e fb99 d6bf b333 00bf ae69 77c0
00000070: 2e38 ccbe 12ab 623e 2486 73bf 16ca f63e
00000080: a32e 93be 4aaf 5fbf 3594 043f 19af e3be
00000090: 703c d03d 05fa 76be 4fdc 7ebe f213 7e3e
000000a0: 7aed 1ebe c045 8fbd b89b 1abe 7b9d 123e
000000b0: 80dc 21bc 220a af3d 0f01 12be 36e9 0b3d
000000c0: 5332 1cbe 79df ab3e 2e25 c7bd 04aa 94be
000000d0: d4fb 173d 900c 9ebe ae94 2a3e 389f a2bc
000000e0: 6689 5bbd ba6f 7cbd 3a4c 16bd a0a2 f8bb
000000f0: bfd8 8e3c 9099 d7bd 049c 0e3d 66c5 3fbd
00000100: 6a83 f0bd fb37 053e 1c7a 123d 2e1e fabd
00000110: 701d e8bd 2875 ebbc 9111 0bbe 128d 833d

t_conv1.bias f4 [4]
0.97470206 0.90110344 0.97613156 2.1948364
00000000: 1386 793f b7ae 663f c2e3 793f 3378 0c40

t_conv2.weight f4 [4, 4, 2, 2]
0.0037461678 0.7780674 -0.63935184 -1.157553 1.5114605 -0.18701656 0.67894083 -0.12385181
0.29154012 2.3591337 -0.051963326 -0.07905831 0.55940586 2.1155858 0.80346787 0.44373953
0.35386053 -0.3434094 0.35583356 1.4038925 0.23182285 -0.19044408 -0.46203268 -0.0019243212
-1.1523314 0.7182188 0.034726556 -0.1916677 -0.76286286 -0.82538724 -2.6162112 0.51718074
1.4369174 -1.1171963 1.5081859 -1.427817 1.8022255 -0.011748658 2.4375153 -0.11908062
0.4779658 0.47389558 0.53283095 0.44651577 0.66987026 -0.25610992 0.8357262 -0.44026563
-1.9573479 -0.29814148 -1.1753094 -0.3898463 0.46486408 -0.11576978 0.43915832 -0.09654073
-4.033693 -1.2330922 -1.2634704 -0.6667603 -2.2302713 -0.13375719 -1.5254735 -0.16157201
00000000: 4482 753b 6d2f 473f 90ac 23bf b22a 94bf
00000010: 8a77 c13f 4581 3fbe 11cf 2d3f 05a6 fdbd
00000020: bf44 953e 0cfc 1640 7fd7 54bd 53e9 a1bd
00000030: 3935 0f3f c265 0740 12b0 4d3f d431 e33e
00000040: 352d b53e 5bd3 afbe d12f b63e c0b2 b33f
00000050: f862 6d3e c603 43be 8c8f ecbe 8139 fcba
00000060: 987f 93bf 30dd 373f 6f3d 0e3d 8a44 44be
00000070: fb4a 43bf 944c 53bf 0170 27c0 f565 043f
00000080: e9ec b73f 4a00 8fbf 3c0c c13f b5c2 b6bf
00000090: 53af e63f 717d 40bc 4000 1c40 8ae0 f3bd
000000a0: efb7 f43e 71a2 f23e 9c67 083f b79d e43e
000000b0: 9e7c 2b3f d720 83be 27f2 553f 7f6a e1be
000000c0: 608a fabf 00a6 98be 8a70 96bf ef99 c7be
000000d0: aa02 ee3e b518 edbd 5cd9 e03e 25b7 c5bd
000000e0: 0314 81c0 f7d5 9dbf 66b9 a1bf ceb0 2abf
000000f0: c4bc 0ec0 a5f7 08be b742 c3bf 2273 25be

t_conv2.bias f4 [4]
1.5931195 -1.4745582 0.9620274 0.91874474
00000000: 57eb cb3f 53be bcbf 6d47 763f db32 6b3f

t_conv3.weight f4 [4, 16, 2, 2]
-0.039061207 -0.020861711 -0.029371012 0.92317027 -0.31509954 1.1452038 1.5665276 0.12342018
-0.15966226 -0.14721736 -0.19995734 -0.17220098 0.09953668 0.30205375 1.360673 0.12868975
-0.2103705 -0.031831086 -0.13085791 -0.1058836 1.0326343 -0.4390954 0.019063877 -0.43468577
-0.727262 0.6709183 1.5921957 -0.89067066 -0.009672716 -0.023075303 -0.68525624 -0.07133653
-0.05360027 0.03695036 0.0012086848 1.6205573 -0.110397324 0.44334972 1.3651254 0.30642244
0.17795072 -0.29496154 0.53334 0.14928275 0.006733805 -0.12539032 -0.10778425 0.048671573
1.0681318 1.6081016 -0.120407395 -0.062352434 -0.3534601 -0.4801762 1.3971828 0.27225572
-0.041332636 -1.753669 -0.37332836 -2.8859541 -0.15701419 0.0076178624 1.2848951 0.57245845
0.024882497 -0.086404845 1.6543586 1.2769685 -0.46707156 0.8637033 -0.2693197 0.098270185
-0.07638158 -0.07651585 -0.029639974 -0.065724984 1.1018108 0.47092965 0.82117057 0.36435536
-0.19297582 -0.11951037 -0.0054921955 -0.042369977 -0.90464085 -0.45981252 -0.5162516 -0.404689
-0.6134062 -0.13428578 -0.6951254 0.24905823 -0.03456688 0.04227773 0.038922317 0.01294766
-0.2088748 -0.00033179385 -0.0564759 0.39710477 0.7806835 0.22710288 0.5459495 -0.23289223
-0.26259458 -1.5225121 -2.2780895 -3.0966673 -0.082180634 -0.19627683 -0.12335564 -0.026790287
1.0199378 0.7488295 -0.27696833 -0.10570634 1.6007286 0.9414768 0.98883224 0.6792018
0.030597087 -0.16010752 0.14737813 -0.96366775 1.2286795 0.5264973 0.72387075 0.15750933
-0.19199729 -0.18492347 -2.6648896 0.6908354 -0.5692919 0.69979084 -0.7930164 -1.9534717
-0.20782617 -0.23417114 -0.051830277 -0.16434763 1.027057 0.097817935 1.1898515 0.08257358
-0.089576095 -0.025455147 -0.11251788 -0.06503892 -1.4799004 0.03476429 -1.6179518 -0.47075003
-0.52657986 -3.6261852 -0.5234243 0.63882524 -0.08130811 -0.04800667 -0.25651118 -0.029590726
-0.09224314 -0.2810647 -0.12504108 1.2509693 0.2969068 0.20614639 1.5218669 -0.12408439
-1.2033029 0.674487 -2.4643812 0.60974693 -0.0726873 -0.0428776 -0.052854136 -0.008284499
0.8351611 1.0134004 -0.053581446 -0.12791872 0.9699255 -0.75038743 1.4008627 0.8755857
0.19749728 0.76559794 0.8969685 0.58410805 0.33285412 -0.31191176 1.6456231 0.0095943
-0.10409373 -0.1624453 0.76317483 1.3757297 -0.33506325 1.0094473 -2.5594563 -1.2202977
-0.06747946 -0.08019063 -0.167726 -0.18703118 0.0077869147 -0.118151054 -0.17790118 0.33171356
-0.03437133 -0.12331121 -0.25706896 -0.025242627 -1.4594257 -0.2329439 0.35497406 -0.20519957
-1.5803624 -0.6372493 -2.8050244 1.0278715 -0.062050253 -0.023168594 -0.44541264 -0.08166478
-0.07375987 -0.56263375 -0.1668309 -1.3448492 -0.054260906 -0.46350905 0.17380258 -0.27220953
1.0838736 1.6336467 -0.06281 -0.27759048 -0.11048967 -0.026094541 -0.09095564 -0.17184871
0.7225309 -0.52228755 -0.2730326 -0.15928712 0.4114155 0.040298365 -0.009922003 0.21231769
-0.54980356 -0.7081776 0.32340243 -1.182589 0.1493524 0.10507199 0.10620447 -0.21013342
00000000: a5fe 1fbd 2ee6 aabc 7a9b f0bc e354 6c3f
00000010: ba54 a1be 0a96 923f fa83 c83f b8c3 fc3d
00000020: 817e 23be 26c0 16be 9ec1 4cbe 7455 30be
00000030: e3d9 cb3d caa6 9a3e 882a ae3f 3fc7 033e
00000040: 5d6b 57be 5061 02bd 9eff 05be 80d9 d8bd
00000050: 5c2d 843f 1dd1 e0be d92b 9c3c 228f debe
00000060: d82d 3abf 4dc1 2b3f 12cd cb3f fe02 64bf
00000070: 507a 1ebc 6b08 bdbc f46c 2fbf e318 92bd
00000080: f58b 5bbd 4359 173d bb6c 9e3a 6c6e cf3f
00000090: fe17 e2bd bcfe e23e 6ebc ae3f 67e3 9c3e
000000a0: b738 363e 3305 97be f888 083f 94dd 183e
000000b0: 40a7 dc3b 5266 00be fdbd dcbd d85b 473d
000000c0: 8bb8 883f 46d6 cd3f 2798 f6bd 4465 7fbd
000000d0: b9f8 b4be a8d9 f5be e3d6 b23f 1a65 8b3e
000000e0: 694c 29bd 3a78 e0bf e524 bfbe 79b3 38c0
000000f0: 54c8 20be 439f f93b 7177 a43f a38c 123f
00000100: 61d6 cb3c 06f5 b0bd 06c2 d33f b473 a33f
00000110: 0124 efbe a91b 5d3f 46e4 89be e141 c93d
00000120: f26d 9cbd 58b4 9cbd 88cf f2bc d29a 86bd
00000130: 2308 8d3f b11d f13e 3c38 523f c98c ba3e
00000140: 749b 45be dac1 f4bd e0f7 b3bb 248c 2dbd
00000150: 8b96 67bf 8c6c ebbe 1129 04bf 6633 cfbe
00000160: 3008 1dbf 3682 09be bdf3 31bf 1f09 7f3e
00000170: 0096 0dbd 6a2b 2d3d 026d 1f3d 6c22 543c
00000180: 47e3 55be 9ef4 adb9 4653 67bd 5151 cb3e
00000190: e0da 473f a88d 683e 59c3 0b3f 4d7b 6ebe
000001a0: cc72 86be ade1 c2bf 38cc 11c0 cc2f 46c0
000001b0: 524e a8bd cbfc 48be e2a1 fcbd 4e77 dbbc
000001c0: 528d 823f 4ab3 3f3f cbce 8dbe 917c d8bd
000001d0: ade4 cc3f a004 713f 1c24 7d3f 2be0 2d3f
000001e0: bea6 fa3c 3af3 23be 4bea 163e eeb2 76bf
000001f0: 5f45 9d3f 87c8 063f 984f 393f 204a 213e
00000200: f09a 44be 945c 3dbe 8d8d 2ac0 97da 303f
00000210: 1dbd 11bf 7e25 333f 1f03 4bbf 5c0b fabf
00000220: 62d0 54be 8fca 6fbe fc4b 54bd bf4a 28be
00000230: 9b76 833f c554 c83d 0e4d 983f 561c a93d
00000240: ac73 b7bd 5087 d0bc c66f e6bd 2033 85bd
00000250: 606d bdbf 0065 0e3d 0b19 cfbf 2606 f1be
00000260: f0cd 06bf 6b13 68c0 23ff 05bf 0d8a 233f
00000270: de84 a6bd a4a2 44bd 6f55 83be 4068 f2bc
00000280: f9e9 bcbd b6e7 8fbe c50a 00be c31f a03f
00000290: 2b04 983e 0a18 533e 89cc c23f f51f febd
000002a0: d405 9abf 2eab 2c3f 6cb8 1dc0 6018 1c3f
000002b0: 14dd 94bd 6ca0 2fbd 947d 58bd b5bb 07bc
000002c0: 1ecd 553f 1bb7 813f 3878 5bbd 20fd 02be
000002d0: 0a4d 783f 6419 40bf 784f b33f 6226 603f
000002e0: ba3c 4a3e 3afe 433f ba9f 653f 1b88 153f
000002f0: db6b aa3e e6b2 9fbe c7a3 d23f 6931 1d3c
00000300: 182f d5bd 1058 26be 6d5f 433f e917 b03f
00000310: 698d abbe 9235 813f 22ce 23c0 b732 9cbf
00000320: ac32 8abd fc3a a4bd 5dc0 2bbe 1a85 3fbe
00000330: 6029 ff3b 2ef9 f1bd ba2b 36be 5cd6 a93e
00000340: f4c8 0cbd 968a fcbd 8b9e 83be a0c9 cebc
00000350: 76ce babf d988 6ebe 29bf b53e d61f 52be
00000360: 5149 cabf c522 23bf 8585 33c0 4b91 833f
00000370: 6828 7ebd 10cc bdbc 200d e4be dd3f a7bd
00000380: 6a0f 97bd c408 10bf b8d5 2abe 0524 acbf
00000390: af40 5ebd 0f51 edbe 4ef9 313e 0c5f 8bbe
000003a0: 5fbc 8a3f 561b d13f 87a2 80bd 5720 8ebe
000003b0: 6848 e2bd 38c4 d5bc f346 babd 1cf9 2fbe
000003c0: c9f7 383f a3b4 05bf eeca 8bbe 2a1c 23be
000003d0: 0da5 d23e e60f 253d e68f 22bc cf69 593e
000003e0: edbf 0cbf 214b 35bf 0195 a53e 145f 97bf
000003f0: d6ef 183e fc2f d73d bb81 d93d 372d 57be

t_conv3.bias f4 [16]
-1.4374139 -0.931707 -0.044856172 0.14803573 -0.19635604 0.6066862 -0.005313483 -0.30723178
-0.28027487 0.2110743 0.33040002 -0.25812674 -0.79606324 0.15218952 0.26225647 0.12704566
00000000: 2efd b7bf 5a84 6ebf 1bbb 37bd ae96 173e
00000010: 8f11 49be c94f 1b3f ba1c aebb 7c4d 9dbe
00000020: 3080 8fbe dc23 583e 312a a93e 3029 84be
00000030: cdca 4bbf 92d7 1b3e 7b46 863e 4218 023e

t_conv4.weight f4 [16, 1, 2, 2]
-1.2552127 -1.4729873 -0.8883543 -1.0625827 -1.2895167 -1.9314346 -1.3638077 -1.7944458
-0.15833297 0.23597841 0.3965019 -0.43471223 -0.15717696 0.38299918 -0.68009084 -0.4070787
0.25821245 0.18650864 -0.12938257 0.18269011 1.1829984 0.802757 1.1140742 0.6778295
1.4314104 1.3070498 1.295162 0.97529835 -0.097791485 0.08288759 -0.15667683 -0.16137248
-0.45487005 -1.3481001 -1.1057299 -2.1742165 0.56555223 -0.41584253 -0.2399474 -0.62422746
0.26594865 0.5346638 0.4265808 0.6971278 0.18095365 -0.087791406 -0.10800789 -0.27047262
-0.67491513 -1.6075077 -0.8261652 -1.7612256 -0.82066864 -0.43011674 -0.46382385 0.47414237
-0.74823993 0.55352896 -0.4046288 0.7440031 -0.4126301 -0.58623433 0.4444681 -0.61386514
00000000: cfaa a0bf d98a bcbf 306b 63bf b602 88bf
00000010: e20e a5bf 4039 f7bf 4091 aebf 66b0 e5bf
00000020: 0a22 22be 53a4 713e 4c02 cb3e 9a92 debe
00000030: fff2 20be 7818 c43e 6f1a 2ebf 9f6c d0be
00000040: 6c34 843e 1ffc 3e3e dd7c 04be 1e13 3b3e
00000050: 7e6c 973f 7c81 4d3f fc99 8e3f 3c86 2d3f
00000060: 7538 b73f 684d a73f dec7 a53f 27ad 793f
00000070: e746 c8bd f8c0 a93d e46f 20be d43e 25be
00000080: bae4 e8be 8b8e acbf 8f88 8dbf 5d26 0bc0
00000090: 08c8 103f 50e9 d4be c5b4 75be 5fcd 1fbf
000000a0: 6c2a 883e badf 083f cc68 da3e f876 323f
000000b0: ea4b 393e fbcb b3bd 3e33 ddbd 637b 8abe
000000c0: 3dc7 2cbf d0c2 cdbf 907f 53bf d76f e1bf
000000d0: 5717 52bf 4338 dcbe 527a edbe cac2 f23e
000000e0: a78c 3fbf 13b4 0d3f 822b cfbe fd76 3e3f
000000f0: 4144 d3be 7413 16bf 5391 e33e 4426 1dbf
