outputs/mnist/models/mnist_sim_autoencoder_epoch26.pth (torch_old, 882017 bytes, 16 tensors)

encoder.0.weight f4 [128, 784]
0	0x3b5700aa	0.0032806792
1	0x3b58aa8c	0.0033060638
2	0x3b58870b	0.0033039476
3	0x3b5793ff	0.003289461
4	0x3b570072	0.0032806662
5	0x3b563042	0.0032682572
6	0x3b567510	0.0032723583
7	0x3b56f540	0.003279999
8	0x3b584215	0.0032998372
9	0x3b58fe0f	0.0033110415
10	0x3b57fcd4	0.0032957094
11	0x3b56f4ea	0.0032799789
12	0x3b78809f	0.003791846
13	0x3b88b179	0.004171547
14	0x3b50e1ce	0.0031872871
15	0x3b5684dc	0.0032733
16	0x3b5770f2	0.0032873717
17	0x3b587495	0.0033028473
18	0x3b5a26ef	0.0033287366
19	0x3b59186a	0.0033126124
20	0x3b56d02e	0.0032777893
21	0x3b56cf2c	0.0032777293
22	0x3b5a0c15	0.0033271362
23	0x3b54819f	0.0032425893
24	0x3b5a2833	0.003328812
25	0x3b56d4bd	0.003278061
26	0x3b56ffb2	0.0032806215
27	0x3b570368	0.0032808427
28	0x3b549f16	0.0032443455
29	0x3b5723cc	0.0032827733
30	0x3b56389d	0.0032687553
31	0x3b579157	0.0032893026
32	0x3b58a358	0.0033056345
33	0x3b4d6dea	0.0031346031
34	0x3ad1ff97	0.0016021606
35	0xba84c7bb	-0.0010130325
36	0xbb6baf9c	-0.0035962826
37	0xbb041893	-0.002015625
38	0x3b585694	0.003301059
39	0x3c2911f4	0.010319222
40	0x3b26df71	0.0025462771
41	0x3c067410	0.008206382
42	0x3c5db22e	0.013531251
43	0x3baed3b5	0.005335296
44	0xbae566cb	-0.0017501948
45	0xb9befc9a	-0.00036427827
46	0xbb5044b0	-0.0031779222
47	0x3a8bef90	0.0010676254
48	0x3b77115f	0.0037699563
49	0x3adc498d	0.0016806588
50	0x3b175480	0.0023091137
51	0x3b40b550	0.0029404946
52	0x3b5a058c	0.0033267466
53	0x3b56b947	0.0032764242
54	0x3b59c384	0.0033228109
55	0x3b56ea24	0.0032793367
56	0x3b5a23b9	0.0033285453
57	0x3b564464	0.0032694573
58	0x3b531133	0.0032206296
59	0x3b3885dd	0.002815596
60	0x3b3de346	0.0028974577
61	0x3b4a05af	0.0030826142
62	0xbb5a4f80	-0.0033311546
63	0xbc081040	-0.008304656
64	0xbc1c67eb	-0.00954626
65	0xbcdca7de	-0.026935514
66	0xbcc3deea	-0.023910005
67	0xbc048e80	-0.008090615
68	0x3cc08e19	0.023505257
69	0x3d0eb32d	0.034838844
70	0x3c1842a2	0.00929323
71	0xbc93dec0	-0.018050551
72	0xbc428d99	-0.01187458
73	0xbc164387	-0.009171373
74	0xbba5a091	-0.0050545414
75	0xbcd650f5	-0.02616165
76	0xbce5f589	-0.028071182
77	0xbce30c4c	-0.027715825
78	0xbcb12db0	-0.02162823
79	0xbbdc0753	-0.0067147403
80	0x3b0ef3e6	0.0021812855
81	0x3b92131e	0.0044578454
82	0x3b54434d	0.0032388747
83	0x3b57fbf0	0.0032956563
84	0x3b56fa64	0.0032803053
85	0x3b547f87	0.0032424645
86	0x3b41f920	0.0029597953
87	0x3af121a6	0.0018396869
88	0x3b39259d	0.002825118
89	0x3bb6b9ed	0.0055763633
90	0x3b5195be	0.0031980122
91	0x3b3d6dc9	0.0028904548
92	0xbc8c939b	-0.017160228
93	0xbd4bf755	-0.04979642
94	0xbd574b2a	-0.052561916
95	0xbce4e59e	-0.027941521
96	0x3cc7c9f2	0.024388287
97	0x3ab4c5ad	0.0013791822
98	0xbd3d90d8	-0.046280712
99	0xbdb47c4b	-0.088127695
100	0xbdcbed9e	-0.09957431
101	0xbdef06c1	-0.1167121
102	0xbe0c5690	-0.13704896
103	0xbdd44692	-0.10365023
104	0xbd7c9aad	-0.061670948
105	0xbd41de81	-0.047331337
106	0xbca88d6a	-0.020575244
107	0xbc52c4c0	-0.012864292
108	0xb928bbc8	-0.00016091682
109	0x3badcf2f	0.005304239
110	0x3b6b056a	0.0035861381
111	0x3b56e959	0.0032792895
112	0x3b59c597	0.0033229345
113	0x3b577e02	0.0032881503
114	0x3b43fa7e	0.0029903944
115	0x3b462962	0.0030237068
116	0x3c17b83d	0.009260234
117	0x3ca64237	0.020295246
118	0x3c030e1b	0.0079989685
119	0x3c1a419f	0.009415059
120	0xbc3e74c5	-0.01162452
121	0xbcdde33b	-0.027085891
122	0xbd06c44d	-0.03290205
123	0xbc9b9a21	-0.018994393
124	0xbd49d5f9	-0.049276326
125	0xbd408005	-0.04699709
126	0xbe010715	-0.12600358
127	0xbdbaa1ad	-0.091128685
128	0xbd838bef	-0.064231746
129	0xbdd599ec	-0.10429749
130	0xbe24be82	-0.16088298
131	0xbe0dd90a	-0.13852325
132	0xbde2161c	-0.11039373
133	0xbd5a3c8e	-0.053280406
134	0xbaf1f238	-0.0018459028
135	0x3b9d59ef	0.0048019807
136	0x3c1f9e6c	0.009742361
137	0x3bf2c00e	0.0074081486
138	0x3b1693c9	0.002297627
139	0x3b50efc4	0.0031881193
140	0x3b5572a1	0.0032569545
141	0x3b58ea16	0.003309851
142	0x3b512f8e	0.0031919214
143	0x3bfe3b4e	0.0077585345
144	0x3cba4210	0.02273658
145	0x3d2a7aaf	0.041620906
146	0x3d11ac76	0.035564862
147	0x3ce71036	0.028205972
148	0x3c49b61a	0.012311483
149	0x3cbd1e21	0.023085656
150	0x3c11e430	0.008904502
151	0xbd2eea80	-0.042704105
152	0xbd2c6f44	-0.0420983
153	0x3c73a801	0.014871598
154	0xbc90e94b	-0.017689368
155	0xbd34f577	-0.044179406
156	0xbdf86244	-0.12128118
157	0xbe1c27bc	-0.15249532
158	0xbe1e7bf6	-0.15476975
159	0xbe0f702c	-0.14007634
160	0xbd75070d	-0.059821177
161	0xbd949381	-0.07254697
162	0xbd4c8af6	-0.04993721
163	0xbb0452d2	-0.0020190966
164	0x3c2a5a5b	0.010397519
165	0x3c7cfb67	0.015440798
166	0x3baa8a4a	0.0052044736
167	0x3b5f8cb0	0.0034110956
168	0x3b576f74	0.0032872828
169	0x3b58c5fe	0.0033076997
170	0x3b81984a	0.003954922
171	0x3c38baa0	0.011274964
172	0x3d08a3bd	0.033359278
173	0x3d868841	0.06568957
174	0x3da2536f	0.0792607
175	0x3d77bcef	0.060482915
176	0x3d9bcea1	0.07607771
177	0x3dbc5914	0.09196678
178	0x3dcb1aac	0.09917197
179	0x3dcd98bf	0.100389
180	0x3d5e48bd	0.054268587
181	0x3d8a46f7	0.06751817
182	0x3d4fec43	0.050762426
183	0x3d1e366c	0.03862612
184	0xbd635bb0	-0.055507362
185	0xbde2bd71	-0.11071289
186	0xbd8abf8b	-0.06774815
187	0xbd01e3cb	-0.03171138
188	0x3cd0164b	0.025401255
189	0xbc4a3cca	-0.012343595
190	0xbd47655e	-0.048680656
191	0xbc907f36	-0.017638784
192	0x3c0504cc	0.008118819
193	0xb9b948ce	-0.00035340193
194	0xb88bef8a	-6.672654e-05
195	0x3b898bf7	0.0041975933
196	0x3b56c214	0.0032769488
197	0x3b3f9495	0.002923285
198	0x3ba74647	0.0051048133
199	0x3badf3df	0.0053086127
200	0x3d184685	0.037176628
201	0x3c853bf9	0.016263949
202	0x3ce71541	0.028208377
203	0x3d9509bf	0.072772495
204	0x3d2c99b7	0.04213878
205	0x3db6527b	0.08902451
206	0x3dc10dff	0.09426498
207	0x3dc01141	0.09378291
208	0x3dd32f95	0.1031181
209	0x3d0a003b	0.033691626
210	0x3d619862	0.055076964
211	0x3e497673	0.19674091
212	0x3d403251	0.046922985
213	0x3d983859	0.074326225
214	0x3c439d4a	0.011939356
215	0x3c9eafe7	0.019370986
216	0x3cc4d426	0.024026942
217	0x3ca93dde	0.020659383
218	0xbd2f3190	-0.042771876
219	0xbc72f92b	-0.014829914
220	0x3c9d6590	0.019213468
221	0xbb84c08e	-0.0040512746
222	0xbb4729d6	-0.0030389926
223	0x3b1298f8	0.0022369009
224	0x3b9087f0	0.0044107363
225	0x3b84d33d	0.004053502
226	0xbb116ae4	-0.0022188956
227	0xbc410d0d	-0.011782897
228	0x3b976a7f	0.0046208496
229	0x3be283dd	0.006912692
230	0x3cb9707e	0.022636648
231	0x3dadc624	0.08485058
232	0x3dd74ccc	0.10512695
233	0x3dbf5759	0.09342832
234	0x3db14586	0.08655839
235	0x3d268dff	0.04066276
236	0x3c41acdf	0.011821001
237	0xbd8830bf	-0.066499226
238	0xbc9cf623	-0.019160336
239	0x3e0d429d	0.13794942
240	0x3d4f6598	0.050633997
241	0x3def7ed2	0.11694111
242	0x3dd257fe	0.102706894
243	0x3d28f2df	0.041247245
244	0x3dbfdb8e	0.093680486
245	0xbc563c6f	-0.013075932
246	0xbd3d43a2	-0.046207078
247	0x3bc82346	0.0061077205
248	0x3d18945b	0.037250858
249	0x3b62d85a	0.003461382
250	0xbc1bf4a6	-0.009518778
251	0x3a157719	0.0005701646
252	0x3b560bc9	0.0032660833
253	0x3b3f0a8e	0.0029150578
254	0x3b9b40fb	0.004737971
255	0xbc47fdd9	-0.012206518

encoder.0.bias f4 [128]
0	0xbb566297	-0.0032712573
1	0xb30097aa	-2.994026e-08
2	0x3b00f317	0.0019676143
3	0xbbb014e1	-0.0053735827
4	0x39a7242c	0.00031879672
5	0xae216c87	-3.6703553e-11
6	0x3c780637	0.0151382005
7	0xb96e0d9d	-0.0002270252
8	0xaea71616	-7.598204e-11
9	0x3d2e9be1	0.042629126
10	0xafec789b	-4.3013845e-10
11	0xb7dd6c68	-2.6395734e-05
12	0xb951e92f	-0.00020018661
13	0xba8b79f5	-0.0010641204
14	0xbcea8dc2	-0.028632049
15	0xa570e15a	-2.0893034e-16
16	0xbbbf9a72	-0.0058472687
17	0x3d0305c8	0.031987935
18	0xb9d78653	-0.00041108075
19	0xa18d3814	-9.569375e-19
20	0xb927f61d	-0.00016018045
21	0xbc617a7c	-0.013762113
22	0xba09eb64	-0.0005261211
23	0xb793b2c7	-1.7607015e-05
24	0xb735f7c4	-1.0846128e-05
25	0xbbf38e01	-0.0074326997
26	0xa498c877	-6.625909e-17
27	0xbc232fed	-0.009960157
28	0x95da0e14	-8.807171e-26
29	0xb9771619	-0.00023563988
30	0xbc2d4d5c	-0.010577526
31	0xb5f8ce30	-1.8537448e-06
32	0xbca643bb	-0.020295968
33	0xbc933d2b	-0.017973503
34	0xbd1ac185	-0.03778221
35	0xbcc63f8e	-0.024200227
36	0xbc296f9f	-0.010341554
37	0xa76f2141	-3.318594e-15
38	0xb92d56a5	-0.00016530843
39	0xb7f5e851	-2.9314457e-05
40	0xbd0a5023	-0.03376783
41	0xbb8ff904	-0.0043936986
42	0xbbf1c491	-0.007378169
43	0xba9b8d39	-0.0011867649
44	0xb08f89bf	-1.0443769e-09
45	0xbb9e7a14	-0.00483633
46	0xbb9b5ef6	-0.004741545
47	0xbc91688a	-0.017750043
48	0xb4668b54	-2.1471106e-07
49	0xbb52ef1c	-0.0032185977
50	0x3a6032ec	0.000855251
51	0xbac0e88d	-0.0014717743
52	0xbb37e71c	-0.0028061336
53	0xa86c8ac8	-1.3130725e-14
54	0xbbb3e300	-0.005489707
55	0x3cd8a666	0.026446532
56	0xa561b643	-1.9577392e-16
57	0x3d0090cc	0.03138809
58	0xbb02b117	-0.001994198
59	0xbc1b2196	-0.009468457
60	0xb2583190	-1.2584124e-08
61	0x3ccb809e	0.024841603
62	0xbbd1f444	-0.0064072926
63	0xbcc6e96f	-0.024281232
64	0xb9541a0e	-0.00020227602
65	0xbc062931	-0.008188532
66	0xb91468a7	-0.00014153366
67	0xba2964b5	-0.0006461845
68	0xb8d77524	-0.00010273818
69	0x3b882761	0.004155085
70	0xbd104fc6	-0.035232328
71	0xba90fa84	-0.0011060988
72	0x3a9a0d64	0.0011753258
73	0x3c951875	0.018200139
74	0xbc04b045	-0.008098667
75	0xbca4d469	-0.020120816
76	0xbb47bd64	-0.0030477876
77	0xbc723d6a	-0.01478515
78	0xb985aea8	-0.00025497866
79	0xba51ff62	-0.0008010772
80	0xbc337f97	-0.010955713
81	0xbba0a8d4	-0.0049029384
82	0xab4072e7	-6.837156e-13
83	0xbab01c35	-0.0013436141
84	0xba44521e	-0.0007489043
85	0xb8694839	-5.561879e-05
86	0xbb2fb9ea	-0.0026813694
87	0xb490933a	-2.6929212e-07
88	0xbd3f5ea3	-0.046721112
89	0x3a266a08	0.00063481973
90	0xb84b8488	-4.85224e-05
91	0xb588808b	-1.01702e-06
92	0xbb12ad2a	-0.0022381046
93	0xbbb0f12e	-0.0053998446
94	0xbbc16a46	-0.0059025614
95	0xbbeee4ad	-0.007290444
96	0xbc876b23	-0.016530579
97	0xba11aed4	-0.00055573625
98	0xb8f7b358	-0.00011811283
99	0xbc50c7e1	-0.012742967
100	0xb501d37b	-4.836399e-07
101	0xbba71ee2	-0.005100117
102	0xbd2a4145	-0.041566152
103	0x9a36cbfc	-3.7801495e-23
104	0xb9057eb8	-0.00012731075
105	0xb8eb546c	-0.00011221398
106	0xbb053415	-0.0020325233
107	0xbcc329f7	-0.023823721
108	0xb5922efe	-1.0891524e-06
109	0xb6c917a8	-5.9930207e-06
110	0xbcb9e902	-0.022694115
111	0xa504e86d	-1.1527924e-16
112	0xbca133a7	-0.01967795
113	0xbc318822	-0.010835679
114	0xbb5b95ea	-0.0033506104
115	0xbcd16998	-0.025563046
116	0x3d2737d7	0.040824737
117	0x3b75a88a	0.003748449
118	0xbc9a081f	-0.0188027
119	0xbafab4c8	-0.0019127363
120	0xbd15888f	-0.036507186
121	0xb500437a	-4.7781907e-07
122	0xb04621f3	-7.2080225e-10
123	0xb7344e1c	-1.0747022e-05
124	0xb94cfa7f	-0.00019548273
125	0x3d3002cc	0.042971417
126	0xb9d64415	-0.00040867986
127	0xab2c9461	-6.131259e-13

encoder.2.weight f4 [64, 128]
0	0xbd437ed3	-0.04772837
1	0xbc7374a0	-0.014859349
2	0x3d8063c0	0.06269026
3	0xb6ab1fd2	-5.0999015e-06
4	0x3d4937f4	0.049125627
5	0xbba90015	-0.0051574805
6	0xbece0fc9	-0.40246418
7	0xbcec6770	-0.028857917
8	0x38a8c4a3	8.047491e-05
9	0xbd5dcebe	-0.054152243
10	0xbaaf76fb	-0.0013386899
11	0x3c9ccd24	0.019140787
12	0x3d462d87	0.048383262
13	0x3cb340d2	0.021881495
14	0x3de1bb21	0.1102202
15	0xbcc958b5	-0.024578432
16	0x3c130957	0.008974395
17	0xbe5210df	-0.20514248
18	0x3b9a547b	0.004709778
19	0xbaee8480	-0.0018197447
20	0x3d3e8eb3	0.046522807
21	0xbe1adf55	-0.15124257
22	0x3bf54bbc	0.007485835
23	0x3d1a04c7	0.037602212
24	0xbd0380b2	-0.032105155
25	0x3ca0dbea	0.019636113
26	0x38afc193	8.380706e-05
27	0xbe315297	-0.17316662
28	0x38a1dc9b	7.718169e-05
29	0x3bad7036	0.0052929176
30	0x3d0c60c1	0.03427196
31	0xbced6446	-0.028978478
32	0x3d82d927	0.06389075
33	0x3ebded01	0.37094882
34	0xbea9e781	-0.33184436
35	0xbe2aeb34	-0.16691285
36	0xbe244040	-0.16040134
37	0x3bd84712	0.006600269
38	0xba7ef444	-0.00097257295
39	0x2d2098b4	9.128854e-12
40	0xbe0a1e8d	-0.13488217
41	0x3d020946	0.031747125
42	0x3cca88d5	0.02472345
43	0xbc75eebc	-0.015010532
44	0xb7f67643	-2.9380555e-05
45	0xb8fd8171	-0.000120880904
46	0x3eb6d14d	0.3570656
47	0x3d7cde57	0.061735477
48	0x3a94ae2a	0.0011343409
49	0x3d84c55a	0.06482954
50	0xbd85f2fa	-0.06540485
51	0xbe8f1401	-0.2794495
52	0x3e87b7e5	0.26507488
53	0xbac6ddf0	-0.0015172344
54	0x3ca578c6	0.02019919
55	0xbe90ea7e	-0.28303903
56	0xba168f36	-0.0005743386
57	0x3e7fd938	0.24985206
58	0xbe1e7c89	-0.15477194
59	0xbda84749	-0.082167216
60	0x37903cbb	1.7194418e-05
61	0x3da4ddff	0.08050155
62	0x39cf7d96	0.00039575686
63	0xbdae56ce	-0.085126504
64	0xbca3f543	-0.02001441
65	0xbe2eb5c9	-0.17061533
66	0x3b14f89a	0.0022731186
67	0x3d124eff	0.035719868
68	0xb8f81e6d	-0.00011831229
69	0xbdbbd284	-0.09171012
70	0x3e24ff81	0.16113092
71	0xbd55c40e	-0.052188925
72	0x3e4cbfc9	0.19995035
73	0xbf118e3e	-0.5685767
74	0x3e38aead	0.18035384
75	0x3b5b806d	0.0033493296
76	0xbc1f94d7	-0.009740076
77	0xbd1b5a33	-0.037927818
78	0xbbafbaa0	-0.0053628236
79	0x3c4f9fd9	0.012672388
80	0x3ba7e089	0.005123202
81	0x3df16c7c	0.1178827
82	0xbbbff907	-0.005858544
83	0xbcd36149	-0.025803225
84	0xbc95d807	-0.018291486
85	0xbc5e49ef	-0.013567432
86	0xbc3b81cc	-0.01144452
87	0x3c9f0288	0.019410387
88	0xbd9bea01	-0.07612992
89	0xbde5c41a	-0.11219044
90	0xbcc2819d	-0.023743445
91	0x3ccde98e	0.025135782
92	0x3cc7220f	0.024308233
93	0x3c1399c5	0.0090088295
94	0xba01428a	-0.00049308746
95	0x3e5144ee	0.20436451
96	0x3c95ff6d	0.018310273
97	0xbb4dc75d	-0.0031399347
98	0xbd018d6f	-0.031629022
99	0xbdce1a4e	-0.10063611
100	0xbbb89429	-0.0056328964
101	0xbd946c03	-0.07247164
102	0xbd2f61d1	-0.042817894
103	0x3809ebc7	3.288293e-05
104	0x3b54ae0a	0.0032452368
105	0xbd061fc8	-0.032745153
106	0x3d0230ee	0.031784944
107	0xbd6498e4	-0.05580987
108	0xb9b2b359	-0.0003408443
109	0x3bab5c94	0.005229542
110	0x3d2de23f	0.042452093
111	0xbbb6c559	-0.005577725
112	0xbcdcd34e	-0.026956227
113	0xb9c6b2da	-0.00037898758
114	0x3b4bd5ac	0.00311027
115	0x3dbb5e7c	0.09148881
116	0xbce4d1d4	-0.027932085
117	0x3d9307a8	0.07179195
118	0x3d12d7f3	0.035850476
119	0xbdecaed2	-0.11556782
120	0xbc94e546	-0.018175732
121	0x3927218a	0.00015938855
122	0xba92036b	-0.0011139935
123	0x3c1d203d	0.009590206
124	0xbd078121	-0.03308213
125	0x3c83bd69	0.016081529
126	0x3cf4fa6b	0.029904565
127	0xbab37e2f	-0.0013694222
128	0x3d9f089e	0.077653155
129	0xbc49d1d8	-0.012318097
130	0xbdb1abfa	-0.0867538
131	0x3c1c14b8	0.009526424
132	0xbe913316	-0.28359288
133	0x38901f85	6.872326e-05
134	0x3d6eed62	0.058331855
135	0x3bd49f1e	0.006488695
136	0x3815cf02	3.571716e-05
137	0x3d2b6946	0.041848443
138	0x38ec27f3	0.00011260798
139	0xbb139f86	-0.0022525503
140	0x3c66fc48	0.0140982345
141	0xbc98a8bf	-0.018635152
142	0x3d946f82	0.07247831
143	0xbc3e4086	-0.011612063
144	0xbd42de10	-0.047575057
145	0x3d6a832f	0.057254013
146	0x3bb391a4	0.005480008
147	0x38c6d08b	9.48022e-05
148	0xbc8730cf	-0.016502766
149	0x3d042e2e	0.032270603
150	0x3b3871f5	0.0028144096
151	0x3c2216a6	0.009893095
152	0xbb324ae2	-0.0027205278
153	0xbe48e26b	-0.19617622
154	0x3b360c18	0.0027778205
155	0x3d92aeeb	0.07162269
156	0x32d20a97	2.4452033e-08
157	0xb70fc99e	-8.570407e-06
158	0xbce03674	-0.027369715
159	0xbc9e2c50	-0.01930824
160	0xbe149713	-0.14510755
161	0x3da33380	0.07968807
162	0x3e0340e4	0.12817723
163	0x3cb32623	0.021868771
164	0xb9cd81d1	-0.00039197368
165	0x3b87a6fd	0.0041397796
166	0x3b81bd65	0.003959345
167	0x32dbd81e	2.5593234e-08
168	0xbe5c8af1	-0.21537377
169	0x3ccf4f47	0.025306357
170	0xbbc2f753	-0.0059498935
171	0xbbc1ee80	-0.005918324
172	0x37da134c	2.5996611e-05
173	0xb88dad5f	-6.755697e-05
174	0x3da9afe6	0.08285503
175	0xbc6e1428	-0.014531173
176	0x3ad65793	0.0016353003
177	0xbd8643dd	-0.06555913
178	0xbe83dcf1	-0.25754502
179	0x3d472ef3	0.04862876
180	0xbdc4ded2	-0.09612812
181	0xba839341	-0.0010038392
182	0x3d1bbea7	0.038023617
183	0x3c9e6ebf	0.019339917
184	0x36adb869	5.17727e-06
185	0xbe2c4bdc	-0.16825813
186	0x3d93b7c8	0.07212788
187	0xbdad0b68	-0.08449441
188	0xb7b2d11e	-2.1316631e-05
189	0xbcfb411e	-0.030670699
190	0xbb36803a	-0.0027847425
191	0xbbe30ec4	-0.0069292504
192	0xbd3ac46d	-0.045597482
193	0x3dddc5bc	0.108287305
194	0x3b729a4f	0.0037018245
195	0xb9e5a885	-0.0004380384
196	0x39867a48	0.00025649578
197	0x3deba6dd	0.11506436
198	0x3eae47d5	0.34039178
199	0xbd1a2e06	-0.037641548
200	0xbdd991d9	-0.10623521
201	0x3ccded34	0.025137521
202	0x3e7a82ba	0.2446393
203	0x3c239731	0.009984777
204	0xbbc04026	-0.005867022
205	0x3c33bc5f	0.010970204
206	0x3c8e83d3	0.017396843
207	0xbb500bf1	-0.00317454
208	0x3c5527a8	0.013009943
209	0xbd263fe6	-0.040588282
210	0x3bdd4828	0.0067529865
211	0xbc953141	-0.018211963
212	0x3b178207	0.0023118274
213	0x3c5b363b	0.013379629
214	0x3c08ad05	0.008342032
215	0xbba49ac0	-0.0050233305
216	0xbe3901ca	-0.18067089
217	0xbd8378b4	-0.06419507
218	0xbd0ffed1	-0.03515512
219	0x3b1711ba	0.0023051337
220	0xbbfc271d	-0.0076950924
221	0xbc9607fe	-0.018314358
222	0x396436d2	0.00021764197
223	0xbe2819ae	-0.16416046
224	0x3c438321	0.011933119
225	0xbc93c2da	-0.018037248
226	0xbc38bf46	-0.011276072
227	0x3ccb0f6e	0.02478763
228	0xbc302b09	-0.010752448
229	0xbd111aa8	-0.035425812
230	0x3d9d5221	0.076816805
231	0x31962776	4.3700608e-09
232	0x3c015aa6	0.007895147
233	0xbc631aa3	-0.013861331
234	0x3c580344	0.013184372
235	0xbda2615c	-0.07928726
236	0xb88f7fe0	-6.84259e-05
237	0x3ba9e447	0.0051846835
238	0xbbaade4e	-0.005214489
239	0x3a4d5d45	0.00078340276
240	0x3da073a1	0.078345545
241	0xbd9c2ad3	-0.076253556
242	0x3cdedcee	0.027204957
243	0x3e4ffd1b	0.20311396
244	0xbc5f8d8c	-0.013644587
245	0xbe1ce612	-0.1532214
246	0xbdbb1c65	-0.09136275
247	0xbd3f0552	-0.046635933
248	0xbd47ccd9	-0.048779342
249	0x3763d5db	1.35800465e-05
250	0x3c9402dd	0.018067772
251	0x3c469414	0.0121202655
252	0x3c4b8361	0.01242146
253	0x3d97e215	0.074161686
254	0x3d36b8f8	0.044609994
255	0x3a234518	0.00062282523

encoder.2.bias f4 [64]
0	0x3bf4fa53	0.00747613
1	0xbc9dc384	-0.019258268
2	0xa9221ae8	-3.5994563e-14
3	0xbc6a5565	-0.014302586
4	0xbd0a9667	-0.03383484
5	0xb11ac1b9	-2.2520068e-09
6	0x3d094bf2	0.033519693
7	0xba7a1048	-0.0009539169
8	0x806fe3c8	-1.0275453e-38
9	0xbc691410	-0.014225975
10	0x00dd3e8d	2.0318084e-38
11	0xa6e58809	-1.5926939e-15
12	0xbb54a00c	-0.0032444028
13	0xaa02189e	-1.155486e-13
14	0x0113bf20	2.713676e-38
15	0x36f1af14	7.2027415e-06
16	0xbc148e0a	-0.009067068
17	0xbce9222c	-0.028458677
18	0x3e2a98ae	0.16659805
19	0x3dad27e7	0.084548764
20	0x3dbb8ec6	0.09158091
21	0x9e4f6c79	-1.098092e-20
22	0x3df858a0	0.12126279
23	0x013d3f94	3.4759433e-38
24	0xbcbbbe5e	-0.022917923
25	0x017650b5	4.5240969e-38
26	0xbcaedd1e	-0.021345671
27	0x3d62abd3	0.055339646
28	0xb319951d	-3.5758706e-08
29	0x3dfda17b	0.123843156
30	0x3a1e04df	0.00060279475
31	0x3cc78e1d	0.024359757
32	0x3c973d4c	0.018461846
33	0xbbe777ce	-0.0070638424
34	0x3babed20	0.0052467734
35	0x004bb98c	6.954224e-39
36	0x3de1ee01	0.11031724
37	0xbd12c8ec	-0.035836145
38	0xbdc45500	-0.09586525
39	0xbcb8f5ef	-0.022578208
40	0x3d86a0cc	0.06573638
41	0x014a06fc	3.7106551e-38
42	0xbcd04f87	-0.025428547
43	0x3d444ed3	0.047926735
44	0x3e2f8e10	0.17144036
45	0x3d2f02fe	0.042727463
46	0x3ded7b55	0.11595789
47	0xbbe713e8	-0.0070519336
48	0x3e5853b8	0.21125686
49	0x80d0341c	-1.9120477e-38
50	0xbaf05eda	-0.0018338815
51	0xbd79fac7	-0.061030176
52	0xbb8c0eac	-0.00427421
53	0x3d1acc50	0.037792504
54	0x32ad1639	2.0149956e-08
55	0x80ec49d6	-2.1699664e-38
56	0x3d5260d6	0.05136188
57	0x8196e182	-5.5424886e-38
58	0xbcfbc569	-0.030733781
59	0x1f473d78	4.2190735e-20
60	0x3d9b5416	0.075843975
61	0x3d3427b7	0.043983188
62	0x3e0a2cca	0.13493648
63	0x3cccdf3f	0.025008796

encoder.4.weight f4 [12, 64]
0	0x3d4989d0	0.049203694
1	0x3d6ef4e5	0.05833902
2	0xba95d2fa	-0.0011430674
3	0xbb92532a	-0.0044654803
4	0x3efcb818	0.49359202
5	0xbc8b617c	-0.017014258
6	0xbdcaddd0	-0.099055886
7	0x3c9ea321	0.019364895
8	0x313b8acf	2.7290985e-09
9	0xbce4c354	-0.027925171
10	0xb4630c04	-2.1145394e-07
11	0xb98bf459	-0.000266942
12	0xbcb51fa9	-0.022109823
13	0xb782c3ba	-1.558835e-05
14	0xb57d53ad	-9.437161e-07
15	0x35adbb5f	1.2944037e-06
16	0x3aea586c	0.0017879135
17	0xbe949a62	-0.29024035
18	0x3e212f86	0.15740785
19	0x3ded40e0	0.115846395
20	0x3e3b1399	0.18269195
21	0x3a716365	0.00092082313
22	0xbcb17ec1	-0.021666886
23	0x35db931e	1.6359588e-06
24	0x3c105cc7	0.008811182
25	0x2ac141f6	3.4329457e-13
26	0x3ef0ad87	0.4700739
27	0x3ca5b404	0.02022744
28	0xb938fcd9	-0.000176418
29	0x3e75babf	0.23997019
30	0x3c35753e	0.011075316
31	0x3e8e16c3	0.2775174
32	0x3cb61b4f	0.022229819
33	0x3d0e31b8	0.034715384
34	0x3ef7e734	0.4841858
35	0x813e0123	-3.4898304e-38
36	0x3df2366a	0.11826785
37	0x3f13a47f	0.57672876
38	0xbd8f71ce	-0.070041284
39	0x3ef2b198	0.47401118
40	0x3dd25f59	0.10272092
41	0xb6e64b9c	-6.8633362e-06
42	0x3dac4418	0.08411425
43	0xbe8f7409	-0.28018215
44	0x3e2954f5	0.16536315
45	0x3c8e6b22	0.01738507
46	0x3e5ea3ea	0.21742216
47	0x3ea8d34e	0.32973713
48	0x3e27e9b7	0.16397749
49	0x302e9412	6.351125e-10
50	0x3bf1a0c0	0.007373899
51	0x3e97ebf6	0.2967221
52	0xbc3ebcbe	-0.011641679
53	0x3ec7e9b8	0.390455
54	0x3b5cadaa	0.0033672848
55	0xb367f517	-5.4006787e-08
56	0xbd5ed41f	-0.054401513
57	0xbb32375a	-0.0027193637
58	0x3d97a59f	0.074046366
59	0xbc6970af	-0.014248057
60	0xbd4d0cc2	-0.050060995
61	0x3d9791b7	0.0740084
62	0x3dbab88e	0.09117232
63	0x3d6b1989	0.0573974
64	0xbbf92616	-0.007603417
65	0x3d98b8b1	0.07457102
66	0x36deddb7	6.6419266e-06
67	0x3c2e6ea4	0.010646496
68	0xbe0e822d	-0.13916846
69	0x3b910108	0.0044251718
70	0x3e1a06e9	0.15041699
71	0xbaec0a64	-0.0018008468
72	0x87425791	-1.4620671e-34
73	0xbcd29836	-0.025707345
74	0x150b324e	2.811051e-26
75	0xa9e5785c	-1.0190522e-13
76	0xbc09a3b7	-0.008400849
77	0xbb884bf9	-0.0041594473
78	0x1f392bd1	3.9211518e-20
79	0xb32d8e2f	-4.0409017e-08
80	0x3c874d92	0.01651648
81	0x3efc22e2	0.49245363
82	0x3d8d73e7	0.06906872
83	0x3c2db5c7	0.010602421
84	0x3d4a1a51	0.049341504
85	0x37b789e4	2.187951e-05
86	0x3e783bef	0.24241613
87	0xaaaffd7b	-3.1262132e-13
88	0xbec7e466	-0.39041442
89	0x81010dde	-2.3703507e-38
90	0xbe15a3eb	-0.14613311
91	0x3d2dc028	0.042419583
92	0x2aa547be	2.935967e-13
93	0x3e46ad50	0.19402051
94	0xbe118b61	-0.14213325
95	0x3e07ef95	0.13274987
96	0xbdb393ac	-0.087684005
97	0xbc97870a	-0.018497009
98	0xbebdcb7a	-0.37069303
99	0x91d36705	-3.335342e-28
100	0xbdb88539	-0.09009785
101	0xbe0ae097	-0.13562237
102	0xbe673767	-0.22579728
103	0xbdcf51cd	-0.10123024
104	0x3e553d19	0.20824088
105	0x22b88fc8	5.0025534e-18
106	0xbc9b869d	-0.018985087
107	0x3eb8fde2	0.36131197
108	0x3e17e6f2	0.14834192
109	0x3e125a39	0.1429223
110	0x3e39741b	0.18110697
111	0x3e1173af	0.14204286
112	0x3d8f5619	0.06998844
113	0x01aad940	6.2759876e-38
114	0x39997734	0.00029271247
115	0xbede8871	-0.43463472
116	0x3cbf0358	0.023317024
117	0xbe23763b	-0.1596307
118	0x3807f87e	3.2417935e-05
119	0x80cb2f99	-1.865968e-38
120	0xbc73de99	-0.014884614
121	0x2b623edf	8.037858e-13
122	0x3cab7e81	0.020934345
123	0x38263d48	3.9634557e-05
124	0xbdc8044a	-0.09766443
125	0x3bf35fde	0.0074271997
126	0x3df98767	0.12184029
127	0xbd43ad63	-0.047772776
128	0xbc7d021b	-0.0154423965
129	0x3e03aa5d	0.12857957
130	0xba08cdf5	-0.0005218678
131	0x3bc97d34	0.0061489586
132	0xbd9025d4	-0.07038465
133	0x3b8d6877	0.0043154317
134	0x3e49d394	0.19709617
135	0xbc84cb64	-0.016210265
136	0x31c9f6ab	5.877913e-09
137	0xbd7345ca	-0.059392728
138	0x349ee8c1	2.9599144e-07
139	0x37d8c814	2.5842375e-05
140	0x3d05f008	0.032699615
141	0x3c88ac2c	0.01668366
142	0x35eede05	1.7796998e-06
143	0x3575d5ec	9.158091e-07
144	0xbc35d25b	-0.011097516
145	0x3d53eb33	0.051737975
146	0x3e2d02d2	0.16895607
147	0xbd545536	-0.051839076
148	0xbf192163	-0.5981657
149	0xba3de644	-0.000724409
150	0xbd2c7a37	-0.04210874
151	0xb446dfde	-1.852163e-07
152	0xbe729402	-0.23689273
153	0x28770586	1.3712452e-14
154	0x3d2a8596	0.041631304
155	0x3c6e1506	0.01453138
156	0x38f61a85	0.00011735134
157	0x3e1ea9c5	0.1549445
158	0x3dd7079b	0.104994975
159	0xbe73a69f	-0.2379403
160	0x3d598f84	0.053115383
161	0xbcdcab59	-0.026937174
162	0xbe02366f	-0.12716077
163	0x2f2e9642	1.587859e-10
164	0x3dd189e0	0.10231376
165	0x3cfa43b7	0.030549867
166	0xbd73de4a	-0.059538163
167	0x3e402011	0.18762232
168	0xbf3ef8f2	-0.7459861
169	0x34b8351f	3.4311321e-07
170	0xbe07172c	-0.13192433
171	0x3e80f7f8	0.25189185
172	0x3d9c37d3	0.07627835
173	0xbf0e9c6e	-0.5570744
174	0x3d1a1cfe	0.037625305
175	0x3e015127	0.12628613
176	0x3e1169e5	0.14200552
177	0xad9a4afa	-1.754107e-11
178	0xbaac8280	-0.0013161451
179	0x3ddb2716	0.107008144
180	0x3b4b8767	0.0031056048
181	0xbe84272b	-0.25811133
182	0xbbf18bb8	-0.007371392
183	0x3121cde0	2.354561e-09
184	0x3d81f091	0.063447125
185	0x3aafad84	0.0013403152
186	0x3da812e4	0.08206728
187	0x3c297fec	0.01034544
188	0xbd8029a3	-0.062579416
189	0x3d44d3d8	0.048053592
190	0x3d249f44	0.04019095
191	0x3d565540	0.052327394
192	0x3dbb284e	0.09138547
193	0x3e248e03	0.16069798
194	0xb8649452	-5.449757e-05
195	0x3b55e323	0.0032636605
196	0x3f14bc37	0.58099693
197	0xbbd11c9d	-0.006381585
198	0x3dd0c694	0.10194126
199	0x3c816e56	0.015799683
200	0xb0b9999d	-1.3504181e-09
201	0xbdd66afa	-0.10469623
202	0xb28addcd	-1.6166178e-08
203	0x3885de2d	6.383318e-05
204	0xbcb845fc	-0.022494309
205	0xba30d4ae	-0.0006745559
206	0xb3ab9409	-7.9897355e-08
207	0xb60dd4a5	-2.1134413e-06
208	0x3bc92b8f	0.006139226
209	0xbe48097e	-0.19534871
210	0x3cd2c585	0.02572895
211	0x3ccec70f	0.025241403
212	0x3ea53ce4	0.32273018
213	0x39ba2254	0.0003550226
214	0x3dcb0e34	0.099148184
215	0x34f3ec23	4.543409e-07
216	0xbdf13107	-0.11776929
217	0xa76a9992	-3.2557274e-15
218	0x3f0e61be	0.5561789
219	0x3c68b1e4	0.014202569
220	0x39013d2f	0.00012325191
221	0x3f108ac6	0.5646175
222	0x3c24021f	0.010010271
223	0x3ed93e46	0.42430323
224	0xbdd1afa5	-0.1023858
225	0x3cf7e90b	0.03026249
226	0x3f22adaf	0.6354627
227	0xa287c036	-3.6795335e-18
228	0x3e12f58d	0.14351483
229	0x3f1ebaa3	0.62003535
230	0xbe68cdc2	-0.2273474
231	0x3f15696c	0.58363986
232	0x3e70c807	0.23513804
233	0xb35eb814	-5.185582e-08
234	0x3ed26e6f	0.4109988
235	0xbec7b7aa	-0.39007312
236	0x3e20f690	0.15719056
237	0x3d57ae35	0.05265637
238	0x3ed8ad55	0.42319742
239	0x3eed54ca	0.4635375
240	0xbd33c60c	-0.043890044
241	0x26167ec8	5.2213525e-16
242	0x3c33988e	0.010961665
243	0x3e3b55ee	0.18294498
244	0x3b98de1b	0.004665149
245	0x3efe7acd	0.49703065
246	0x3b79f498	0.0038140174
247	0x30042b38	4.808274e-10
248	0xbd10b082	-0.03532458
249	0xb8a370ea	-7.7934776e-05
250	0xbd227421	-0.03966153
251	0xbc5b9271	-0.013401614
252	0xbe05269a	-0.13003007
253	0x3c9533e5	0.018213222
254	0xb9e9868a	-0.00044541463
255	0x3c133cbe	0.00898665

encoder.4.bias f4 [12]
0	0x3e65dc1d	0.22447248
1	0x3ca83192	0.02053145
2	0x3d16790b	0.03673653
3	0x3d53b460	0.05168569
4	0xbd1e5e3c	-0.038664088
5	0x3e09b28a	0.13447013
6	0x3dac3522	0.08408572
7	0x3e17f1ce	0.14838335
8	0x3e3bbe82	0.18334392
9	0x3d463ae3	0.048396003
10	0x3e13e93c	0.1444444
11	0xbb5204de	-0.0032046358

encoder.6.weight f4 [2, 12]
0	0xbe8b861f	-0.27250764
1	0xbdb05da0	-0.086116076
2	0x3ec28adf	0.37996575
3	0xbe99531a	-0.29946214
4	0xbdb2f679	-0.08738417
5	0xbd30c10f	-0.043152865
6	0xbe7af32e	-0.24506828
7	0x3f2b7d4e	0.66988075
8	0xbe3a2e8e	-0.18181822
9	0x3fc00420	1.5001259
10	0xbf1b79e7	-0.60732883
11	0xbd199962	-0.037499793
12	0x3e9f4f00	0.3111496
13	0xbdeec9f4	-0.11659613
14	0xbd8b8ec8	-0.06814343
15	0x3e9cc9b0	0.30622625
16	0xbe677dc0	-0.22606564
17	0x3e9a1fc8	0.30102372
18	0x3ebc0fc6	0.36730784
19	0x3f2f1ee1	0.6840649
20	0x3e4caa36	0.19986805
21	0x3e386079	0.18005551
22	0xbda0a1e5	-0.07843379
23	0xbcd35cd1	-0.025801094

encoder.6.bias f4 [2]
0	0xbe6d7ac6	-0.23191366
1	0xbd33d97e	-0.04390859

decoder.0.weight f4 [12, 2]
0	0x3eb5e94d	0.35529557
1	0xbf478e8f	-0.779519
2	0x3f7e6dab	0.9938609
3	0x3ddde5a2	0.108348146
4	0xbf47fff2	-0.78124917
5	0xbf1d242a	-0.61383307
6	0x3b40121a	0.0029307664
7	0x3df8f53a	0.12156148
8	0x3f8158ef	1.0105265
9	0x3bf82c86	0.007573667
10	0xbec3226e	-0.38112205
11	0x3f5cc3a5	0.8623603
12	0xbdfcb853	-0.123398446
13	0xbea4d9ff	-0.32197568
14	0xbe5f3a7b	-0.21799652
15	0x3f1cb006	0.6120609
16	0x3e1f90c6	0.1558257
17	0xbf16c706	-0.58897436
18	0xbf3ed963	-0.74550456
19	0xbceb93d7	-0.028757019
20	0x3f0c90b0	0.54908276
21	0x3efb9862	0.49139696
22	0xbeef46b0	-0.46733618
23	0xbeadc9a7	-0.3394291

decoder.0.bias f4 [12]
0	0x3f296b5b	0.66179436
1	0xbe00a024	-0.12561089
2	0xbf03dea5	-0.51511604
3	0x3fadc799	1.3576537
4	0x3f0c0eaa	0.54709876
5	0x3f0e6d11	0.5563517
6	0x3f26dd07	0.6518101
7	0xbf5991ef	-0.849883
8	0x3f52464b	0.8213851
9	0x3ec201ae	0.37891906
10	0x3ea91943	0.33027086
11	0x3e897bf6	0.26852387

decoder.2.weight f4 [64, 12]
0	0x3c5daea8	0.013530411
1	0xbefe4615	-0.49662843
2	0x3e0dca5a	0.13846722
3	0x3e7b1150	0.24518323
4	0xbf391355	-0.72295123
5	0x3e30b1c7	0.17255317
6	0x3bd7f872	0.0065908963
7	0xbed47fa4	-0.41503632
8	0xbe5ec314	-0.21754104
9	0x3e5bde12	0.21471432
10	0x3d48cd06	0.04902365
11	0xbeb61dee	-0.3556971
12	0xbe43ad71	-0.19109131
13	0xbd5515eb	-0.052022856
14	0xc011debf	-2.2792203
15	0x3ea40bcb	0.32040247
16	0xbda40020	-0.08007836
17	0x3ed47793	0.41497478
18	0x3da19c2d	0.07891116
19	0x3e01f459	0.12690867
20	0xbe6861ec	-0.22693604
21	0xbdef2145	-0.116762675
22	0x3e4abaa0	0.19797754
23	0xbe736ba6	-0.23771533
24	0x01a15749	5.926731e-38
25	0x009b72e5	1.4275718e-38
26	0xafd7c7e0	-3.9250292e-10
27	0x8d4ba335	-6.275066e-31
28	0x01646138	4.1946737e-38
29	0xb57be997	-9.3844704e-07
30	0x8111db0b	-2.678945e-38
31	0xabcd57b2	-1.4590466e-12
32	0x010046f8	2.3560805e-38
33	0xb496f169	-2.8115326e-07
34	0x81142c3c	-2.7215043e-38
35	0xa7dd5bc0	-6.1439298e-15
36	0x3e20b03d	0.1569223
37	0x3e11c8eb	0.142368
38	0x3e8f240a	0.27957183
39	0xbe949509	-0.29019955
40	0x3e0f3d60	0.13988256
41	0x3e4fa0e4	0.20276219
42	0xbeb082e7	-0.3447487
43	0x3d80926e	0.06277929
44	0x3e173f08	0.14770138
45	0x3dbe0d7a	0.09279914
46	0xbd49329c	-0.04912053
47	0x3da9e26d	0.082951404
48	0x3e16b4e2	0.14717439
49	0xbe47caa5	-0.19510897
50	0x3e1469da	0.14493504
51	0xbeb676bc	-0.35637462
52	0xbe1aeed1	-0.15130164
53	0x3e4ddc30	0.20103526
54	0x3e2f2e13	0.1710742
55	0x3ed54782	0.4165612
56	0x3e52f1ac	0.20600003
57	0xbcb1f4cd	-0.021723175
58	0x3e8f7372	0.28017765
59	0xbc9fff49	-0.01953091
60	0x008b3858	1.2785346e-38
61	0x8109f326	-2.5337376e-38
62	0xafcef7f7	-3.764737e-10
63	0x9c33096d	-5.9238314e-22
64	0x811a7bb4	-2.8374085e-38
65	0xb5cfd6d0	-1.548522e-06
66	0x016f2ed4	4.3930965e-38
67	0xac7835d3	-3.5272798e-12
68	0x0164f1f6	4.2050585e-38
69	0xb3f37660	-1.13371016e-07
70	0x9916ef58	-7.803153e-24
71	0xa61fdd15	-5.546383e-16
72	0xbdd3bc51	-0.10338653
73	0x3de138d4	0.10997167
74	0xbdf6c65b	-0.12049552
75	0x3d6f9a0f	0.05849653
76	0x3d830ebc	0.06399295
77	0x3e32f9bd	0.1747808
78	0xbcc99153	-0.024605429
79	0xbe8c3262	-0.2738219
80	0xbe64f2da	-0.22358266
81	0x3dd6c28e	0.10486327
82	0xbe409a29	-0.18808807
83	0x3b3f8224	0.0029221857
84	0x3e1a112d	0.15045615
85	0x3ebc7f58	0.36815906
86	0xbec90b50	-0.39266443
87	0x3d855f5e	0.065123305
88	0x3d7f32bc	0.062304243
89	0x3e11ca65	0.14237364
90	0x3d9b3c86	0.07579903
91	0xbd269c76	-0.040676557
92	0x3e21efa1	0.15814067
93	0x3eb2a02b	0.34887823
94	0xbec165a4	-0.37772858
95	0x3d9a8408	0.07544714
96	0x81123860	-2.6856412e-38
97	0x9710763a	-4.667813e-25
98	0xa22f4416	-2.3752967e-18
99	0x06fbac81	9.466918e-35
100	0x97773422	-7.9875805e-25
101	0xae6231aa	-5.143056e-11
102	0x80cf9baa	-1.906579e-38
103	0x9abce9fc	-7.8133e-23
104	0x80e2f057	-2.084104e-38
105	0xaa4392ea	-1.737045e-13
106	0xa2717ce9	-3.2727717e-18
107	0x8f85d49b	-1.3196705e-29
108	0xbdd578a7	-0.10423403
109	0x3e225de3	0.15856127
110	0xbe9918a4	-0.29901612
111	0x3f04cc5e	0.5187434
112	0x3e9babf4	0.30404627
113	0xbe903824	-0.28167832
114	0x3f37d80c	0.71814036
115	0xbf95e8f7	-1.171172
116	0x3f17bf6c	0.5927646
117	0x3cc8f80d	0.024532342
118	0xbced2fb4	-0.02895341
119	0x3e30032f	0.17188714
120	0x3d5e2eee	0.054243974
121	0x3d440e5f	0.047865268
122	0x3e08ecbf	0.13371561
123	0xbec77b4e	-0.38961262
124	0xbd3c3cac	-0.0459563
125	0x3e2510a4	0.16119629
126	0xbe5f7c7b	-0.2182483
127	0x3f05a006	0.521973
128	0xbe768c5f	-0.24076985
129	0xbd0b0298	-0.03393802
130	0x3e4d5dab	0.20055263
131	0x3d25eeeb	0.040511053
132	0x3de30ad4	0.1108605
133	0x3e344981	0.17606165
134	0xbe8489fc	-0.25886524
135	0xbc0b28e4	-0.008493636
136	0x3deaad52	0.114588395
137	0x3d85a26b	0.065251194
138	0xbda67dc4	-0.08129457
139	0x3defea66	0.1171463
140	0x3e20083f	0.15628146
141	0x3e6f8be5	0.2339321
142	0xbe51c0aa	-0.20483652
143	0xbe5428bd	-0.20718665
144	0x81aae52c	-6.2776983e-38
145	0xb2993d94	-1.7839547e-08
146	0x00cb7771	1.8685453e-38
147	0x9e1b5fc3	-8.225435e-21
148	0xb26ee5ae	-1.3905646e-08
149	0xb1c00bc9	-5.5892753e-09
150	0x004bc451	6.958087e-39
151	0xa7a11d50	-4.4718257e-15
152	0x8129c072	-3.117847e-38
153	0x81242430	-3.0148006e-38
154	0xb2ace6b0	-2.012834e-08
155	0x00c7f1ce	1.8362007e-38
156	0x3da579a3	0.08079841
157	0x3dde0bbd	0.10842083
158	0x3e989dcc	0.2980789
159	0xbd3dca6d	-0.046335626
160	0x3e8975bc	0.26847637
161	0xbcb9f7a1	-0.022701086
162	0x3e9444d9	0.28958777
163	0xbf16c14a	-0.58888686
164	0xbce6fba2	-0.02819616
165	0x3d931f0c	0.07183656
166	0x3eae9c6d	0.34103718
167	0x3d5a4280	0.053286076
168	0x3e4bf557	0.19917808
169	0xbb247fe1	-0.0025100636
170	0x3e3df322	0.18549779
171	0xbe5cca92	-0.2156165
172	0xbd231586	-0.03981545
173	0x3e6aa2d2	0.22913674
174	0xbdfa48ee	-0.122209415
175	0x3ef4b5cb	0.47794947
176	0x3e578a2c	0.21048802
177	0x3c0e8dd3	0.008700806
178	0x3e11c7bd	0.1423635
179	0xbbee275a	-0.0072678747
180	0xbea9578b	-0.33074602
181	0x3da7e94c	0.08198795
182	0xbe066c58	-0.13127267
183	0x3ec6fded	0.38865605
184	0x3d6e8338	0.05823061
185	0x3e295dfb	0.16539757
186	0x3e526974	0.2054804
187	0xbe94c4b2	-0.29056317
188	0xbea73c60	-0.3266325
189	0xbd63af4f	-0.05558711
190	0xbd8dbb9c	-0.06920549
191	0x3e82edb1	0.2557197
192	0x3f3411af	0.70339483
193	0x3d8ba974	0.0681943
194	0xbe69ffcf	-0.2285149
195	0x3f00a68f	0.5025415
196	0x3e1b2cc4	0.15153795
197	0xbf49aff5	-0.78784114
198	0x3ef15d23	0.4714137
199	0xbd84adf9	-0.06478495
200	0x3f4544b2	0.77057946
201	0xbf013b2d	-0.5048092
202	0x3ccecded	0.025244677
203	0xbd5231cb	-0.051317018
204	0x1dc44c83	5.195988e-21
205	0x007b6393	1.1331487e-38
206	0xb89c8191	-7.462793e-05
207	0xb2801491	-1.4910514e-08
208	0x01a898a4	6.193248e-38
209	0xbaa9e6c2	-0.0012962448
210	0xa4731fd3	-5.2719182e-17
211	0xb6ebf212	-7.0317265e-06
212	0x1dd79030	5.7059113e-21
213	0xba6fe4a3	-0.0009151196
214	0x8b972b8c	-5.8228606e-32
215	0xb66b0f75	-3.5026726e-06
216	0x3e9854c7	0.2975218
217	0xbec72d25	-0.3890163
218	0xbe863c2b	-0.2621778
219	0x3efd21bb	0.49439797
220	0xbe1a8fa4	-0.15093857
221	0x3e01a3ea	0.12660185
222	0xbdb8d1d2	-0.09024395
223	0xbc97934b	-0.018502852
224	0x3e90a4e6	0.28250808
225	0xbf11964d	-0.56869966
226	0x3f08e155	0.5346883
227	0xbfa92059	-1.3212997
228	0xbd8fd945	-0.07023863
229	0xbf2521f2	-0.6450492
230	0xbe383b37	-0.17991339
231	0x3f0d9ae8	0.55314493
232	0xbd81b7e3	-0.06333902
233	0x3e461df6	0.19347367
234	0x3e950450	0.29104853
235	0xbed8cfea	-0.42346126
236	0xbde7b958	-0.113146484
237	0x3d528fe1	0.051406745
238	0xbd13b56a	-0.03606168
239	0x3e1a7886	0.15085039
240	0x3c4ef86b	0.01263247
241	0xbf0b0606	-0.54306066
242	0x3e07b462	0.13252404
243	0x3ee9fafd	0.456993
244	0xbf2b9335	-0.67021495
245	0xbd2fdbb7	-0.042934146
246	0xbc9d5334	-0.019204713
247	0xbdbcbcef	-0.09215724
248	0xbc0500f0	-0.008117899
249	0x3e45f2bb	0.19330876
250	0x3e2cd28c	0.16877192
251	0xbe92bed2	-0.2866121
252	0x3e21c9a3	0.15799575
253	0xbe786d45	-0.24260433
254	0xbed16849	-0.40899876
255	0x3e90aedf	0.28258416

decoder.2.bias f4 [64]
0	0x3f08c370	0.53423214
1	0x3e7b3496	0.24531779
2	0x81148d02	-2.7284475e-38
3	0xbe890c31	-0.26767114
4	0xbed36d65	-0.412944
5	0x812549f1	-3.0358764e-38
6	0x3eaeb910	0.34125566
7	0x3d013860	0.031547904
8	0x813c60ed	-3.4599687e-38
9	0x3f2259ee	0.6341847
10	0xbecde9b5	-0.40217367
11	0xbdfa28ab	-0.12214788
12	0x062aa1a4	3.20922e-35
13	0x3e24fad8	0.16111314
14	0xbed3a829	-0.41339234
15	0x3efed82e	0.49774307
16	0x3eecded0	0.46263742
17	0xacfd8f6e	-7.2066164e-12
18	0x3f48b91b	0.7840745
19	0x3f09cb21	0.53825575
20	0x3e8c5382	0.2740746
21	0x3f144344	0.5791514
22	0x3d8c0ac0	0.06837988
23	0xbeb8cc3c	-0.36093318
24	0xbe7b3239	-0.24530877
25	0xbe2cd923	-0.16879706
26	0xbc6c2279	-0.014412516
27	0xbe00326f	-0.12519239
28	0x3f05061d	0.51962453
29	0x3ee9bdeb	0.45652708
30	0x9fdf6fe8	-9.462931e-20
31	0x3da8bf70	0.08239639
32	0x3dea9de4	0.114558965
33	0xbec60f49	-0.38683537
34	0x3f352877	0.7076487
35	0x3f501d78	0.81294966
36	0x8c96f5ee	-2.3259173e-31
37	0x3efc4a90	0.49275637
38	0xbee19d94	-0.44065535
39	0xbdaeda75	-0.08537761
40	0x3e808c38	0.25106978
41	0x3e88c7ce	0.2671494
42	0xbe2e0531	-0.16994168
43	0xbee60727	-0.44927332
44	0x3f61a9eb	0.881499
45	0xb984945f	-0.00025287547
46	0xbe8164f0	-0.25272322
47	0x3f0058bc	0.501354
48	0x3f41a505	0.75642425
49	0x3e9ae732	0.30254513
50	0xbe87f634	-0.26555026
51	0xbe2817d6	-0.16415343
52	0x3ef3885b	0.47564968
53	0x3eaa8f6e	0.33312553
54	0xbe6b5375	-0.22981055
55	0x3e1a6698	0.15078199
56	0xbd3c9161	-0.04603708
57	0xbf0c174d	-0.54723054
58	0x3ecf0f58	0.40441394
59	0xbd1c5498	-0.038166612
60	0xbd54169d	-0.05177938
61	0xbe20baa1	-0.15696193
62	0xbed75614	-0.4205786
63	0x3e561947	0.2090808

decoder.4.weight f4 [128, 64]
0	0x3dd5168f	0.10404693
1	0xbd431758	-0.047629684
2	0x016dcdcc	4.3677677e-38
3	0x3db03176	0.08603184
4	0xbd2e66c5	-0.042578477
5	0x014343d6	3.5864513e-38
6	0x3d9ac0de	0.07556318
7	0x3c17d4dc	0.009267058
8	0x019b831c	5.712614e-38
9	0x3e04545c	0.12922806
10	0x3cd4fb04	0.0259986
11	0x3d89ebce	0.06734429
12	0x0149d6aa	3.7071883e-38
13	0x3e22b7ab	0.15890376
14	0x3c776d22	0.015101703
15	0x3c66af05	0.014079814
16	0x3e7cf04a	0.24701038
17	0xa91b4db2	-3.4484304e-14
18	0xbcf092fe	-0.029366966
19	0xbd61348f	-0.054981764
20	0x3de1b1fe	0.110202774
21	0x3d12d484	0.035847202
22	0x3d1c8a06	0.038217567
23	0xbd820e13	-0.06350341
24	0x3dd46afd	0.10371969
25	0xbedbeb43	-0.42952928
26	0xbd201ee5	-0.039091963
27	0xbd97cf08	-0.07412535
28	0x3db06915	0.08613793
29	0xbc452ac7	-0.012034125
30	0x139df03a	3.9869254e-27
31	0x3d264342	0.040591486
32	0xbdc4a13f	-0.09601068
33	0x3d702bbe	0.058635466
34	0xbd4f92f9	-0.050677273
35	0xbe3f33d0	-0.18672109
36	0x00afb1f2	1.6135047e-38
37	0x3c7697b2	0.015050815
38	0xbd52d728	-0.05147472
39	0x3df45ec4	0.119321376
40	0x3e2a7f39	0.16650094
41	0x3e0c5d22	0.13707402
42	0xbd0a2b3e	-0.033732645
43	0x3b8b5ef4	0.0042532627
44	0x3d92358a	0.07139118
45	0x3403f838	1.2290627e-07
46	0x3ca1c6dc	0.019748144
47	0x3dd391b0	0.10330522
48	0xbe14b91f	-0.14523743
49	0xbdc5ec45	-0.096642055
50	0xbf45f64f	-0.7732896
51	0x3d621b4f	0.055201825
52	0x3e033bfb	0.1281585
53	0xbd3ecc51	-0.04658157
54	0xbe078d52	-0.13237503
55	0xbcfbabd5	-0.030721584
56	0xbcd23d1c	-0.025663905
57	0x3ca171d0	0.01970759
58	0x3dd488c3	0.10377648
59	0xbcc121dd	-0.023575718
60	0xbe43ba55	-0.19114049
61	0x3bf04382	0.0073322663
62	0xbdc3a73d	-0.095533825
63	0x3e2803fe	0.16407773
64	0x3c82e1c1	0.015976788
65	0x3e31a9eb	0.17349975
66	0x815bb714	-4.03553e-38
67	0x398fa7be	0.00027400063
68	0x3dbcd1b1	0.09219683
69	0x0fef03b9	2.3568653e-29
70	0xbdd87106	-0.105684325
71	0xbe05ceb3	-0.1306713
72	0x00fdf413	2.3321938e-38
73	0x3e3f29ed	0.18668337
74	0x3da0c8ae	0.078507766
75	0xbd2c0ba3	-0.042003285
76	0x01b616be	6.6888875e-38
77	0xbe0d91ef	-0.138252
78	0x3b1b8a1c	0.0023733443
79	0xbcd12899	-0.025532054
80	0x3d83b8f3	0.06431761
81	0xa823a363	-9.0837465e-15
82	0x3e3ea710	0.18618417
83	0x3d78c0aa	0.060730614
84	0x3e31d5cd	0.17366715
85	0xbb9139e0	-0.004431948
86	0xbd405b4e	-0.046962075
87	0xbd01bd45	-0.031674642
88	0x3c9818a1	0.018566431
89	0xbe2e9ec1	-0.17052747
90	0xbde5b8c0	-0.11216879
91	0xbd5913f1	-0.052997533
92	0x3d517aa2	0.051142342
93	0x3d956f3d	0.07296608
94	0x817bc8e2	-4.6245545e-38
95	0x3cd4f6a6	0.025996517
96	0xbcbd4a04	-0.023106582
97	0xbdbbee91	-0.09176362
98	0xbf0b94f4	-0.5452416
99	0xbe8894b4	-0.2667595
100	0x018068f8	4.7170397e-38
101	0x3e4f4983	0.20242886
102	0xbd709edc	-0.05874525
103	0xbd83fb59	-0.06444425
104	0x3e079db9	0.1324376
105	0xbd9e89e0	-0.07741141
106	0x3d0b39f1	0.033990804
107	0xbda60dae	-0.08108078
108	0xbd1eef1e	-0.03880226
109	0x9302832e	-1.6472983e-27
110	0x3d9b0ba5	0.075705804
111	0xbd3566f0	-0.044287622
112	0x3db89d9b	0.09014436
113	0xbc668611	-0.01407005
114	0xbe22f01a	-0.15911904
115	0xbe0199fe	-0.126564
116	0x3dcf9e96	0.1013767
117	0xbe1df14d	-0.1542408
118	0x3b0063db	0.0019590768
119	0x3c804d11	0.015661748
120	0x3d387e21	0.04504216
121	0xbcdbe534	-0.026842691
122	0xbbedad58	-0.00725333
123	0x3b209c15	0.0024507095
124	0x3cd6c0b8	0.026214942
125	0x39ad570b	0.00033061983
126	0xbdadae5a	-0.084805205
127	0x3cce648e	0.025194433
128	0xbd9b381a	-0.0757906
129	0x3e9deeba	0.30846196
130	0x1c3b2f96	6.1934613e-22
131	0x3dd1c681	0.1024294
132	0xbd4521fe	-0.04812812
133	0x818fbe92	-5.280336e-38
134	0x3e1d0b61	0.15336372
135	0x3e0b2dd6	0.13591704
136	0x81041335	-2.425835e-38
137	0xbf1d6f6d	-0.6149815
138	0xbe0552b4	-0.1301983
139	0xbd6528a4	-0.05594696
140	0x016aa452	4.3096906e-38
141	0xbdd5f392	-0.10446848
142	0x3c18cee3	0.009326669
143	0x3dbda516	0.09260003
144	0xbe2eaee7	-0.17058907
145	0xb12424f6	-2.388615e-09
146	0x3c9f9491	0.019480022
147	0xbce9bea9	-0.028533297
148	0xbd186e9d	-0.037214864
149	0xbdff7176	-0.12472813
150	0x3d0903e6	0.033450983
151	0x3d4a0717	0.049323168
152	0x3d3f0195	0.046632368
153	0x01eeb358	8.768474e-38
154	0xbc993784	-0.01870323
155	0x3d856ae8	0.065145314
156	0x3d40dfc2	0.047088392
157	0x3e1d2dea	0.15349546
158	0x811c1092	-2.8664563e-38
159	0x3df9e855	0.12202517
160	0x3cc6f84d	0.02428832
161	0xbc77a553	-0.0151151
162	0x3cd6aae2	0.02620453
163	0xbdfe29b3	-0.12410297
164	0x931711c1	-1.9067633e-27
165	0xbe59427f	-0.21216772
166	0x3d30dd39	0.043179724
167	0x3d670f7d	0.056411255
168	0xbd865b15	-0.06560341
169	0x3ddac5bb	0.10682245
170	0x3de32be0	0.11092353
171	0xbc2cf6b0	-0.010556862
172	0x3e1acc4d	0.15116997
173	0x32544306	1.23552635e-08
174	0x3d59a575	0.053136308
175	0x3ec561dd	0.38551226
176	0xbebe755f	-0.37198922
177	0xbb96af7d	-0.0045985566
178	0x00983d68	1.3981024e-38
179	0x3cf85fc7	0.030319108
180	0x3e56647f	0.20936774
181	0x3c49d1a0	0.012318045
182	0xbd4be620	-0.04978001
183	0xbba7dc41	-0.005122692
184	0xbd082449	-0.03323773
185	0xbc21350b	-0.009839307
186	0x3e206e2d	0.15667029
187	0x3cadf5eb	0.021235427
188	0xbc822409	-0.015886324
189	0xba34364c	-0.0006874546
190	0x3c7d097b	0.015444155
191	0xbe53705d	-0.20648332
192	0xbba90b34	-0.005158806
193	0xbc0ea542	-0.008706393
194	0x801b04a0	-2.481218e-39
195	0xbc201e15	-0.009772797
196	0xbc0325b2	-0.008004593
197	0x00c64780	1.8209078e-38
198	0xb98fcfe5	-0.0002742998
199	0xbb905d0f	-0.0044056247
200	0x0113f4d4	2.7175291e-38
201	0xbb96a5d8	-0.004597407
202	0xbc0f51e7	-0.008747554
203	0xba245e34	-0.0006270141
204	0x81ae62ce	-6.4059283e-38
205	0xbc0ca9f0	-0.008585438
206	0xbc4d9f1b	-0.012550141
207	0xbb8efe00	-0.0043637753
208	0xba3e08f1	-0.0007249257
209	0x8101cb9c	-2.383964e-38
210	0xbbb1783b	-0.005415944
211	0xbb7be9c9	-0.0038438907
212	0xbb8b8a20	-0.004258409
213	0xbc3f69a8	-0.011682905
214	0xbb86cf04	-0.0041140337
215	0xbc2f45cc	-0.010697793
216	0xbbc1d96c	-0.0059158113
217	0xba9c1f60	-0.0011911206
218	0xba0f7dc8	-0.000547376
219	0xba37252c	-0.0006986435
220	0xbc0f1473	-0.008732903
221	0xbbc2d7e7	-0.0059461477
222	0x00d774e0	1.9786559e-38
223	0xbb61b987	-0.0034442858
224	0xbc05d4a7	-0.008168376
225	0xbc3c34f5	-0.011487235
226	0xbbd4d46e	-0.00649505
227	0xbc740764	-0.01489434
228	0x01b1fa7a	6.537895e-38
229	0xbacd7827	-0.0015676067
230	0xbc8d0935	-0.017216304
231	0xbb52cbfc	-0.0032165041
232	0xba729438	-0.00092536537
233	0xbb0a12ea	-0.0021068403
234	0xbb1de126	-0.0024090498
235	0xbc25fa7c	-0.010130521
236	0xbbd2e632	-0.006436133
237	0x81ba8d4d	-6.8528366e-38
238	0xbc090cea	-0.008364895
239	0xbb993bcb	-0.0046763173
240	0xbba60e4f	-0.0050676237
241	0xbbd4fdec	-0.0064999964
242	0xb8f48478	-0.00011659501
243	0xbbd49959	-0.006488007
244	0xbab164d0	-0.0013534073
245	0xba500886	-0.00079358404
246	0xbc00c99e	-0.007860569
247	0xbb202448	-0.0024435688
248	0x00e47c18	2.098301e-38
249	0xbc463efc	-0.012099978
250	0xbb8fbce4	-0.004386531
251	0x81bef9ea	-7.0153586e-38
252	0xbbbc7df1	-0.005752318
253	0xbbe1f129	-0.0068952036
254	0xbc27fcae	-0.010253115
255	0xbc0c42c2	-0.008560838

decoder.4.bias f4 [128]
0	0x3d5e0b2d	0.054209877
1	0x3dd634f9	0.104593225
2	0x3e133501	0.14375688
3	0xbaf314e6	-0.0018545657
4	0x3de48ec4	0.11160043
5	0xbcc52104	-0.024063595
6	0xbaef8dbb	-0.0018276492
7	0x3d2e66c1	0.042578463
8	0x3e184e51	0.14873625
9	0xbc72a27b	-0.014809246
10	0x3e0da174	0.1383112
11	0x3db42ace	0.08797227
12	0x3e1f247f	0.15541266
13	0x3dc05e93	0.093930386
14	0x3e53e6fb	0.20693581
15	0xba14841f	-0.00056654395
16	0x3d7e5d90	0.062100947
17	0x3e7bfde2	0.24608567
18	0xbb073d70	-0.0020635985
19	0x3e159978	0.14609325
20	0x3d945694	0.07243076
21	0x3e02ff71	0.12792756
22	0xba4b19e5	-0.0007747694
23	0xb9c059c3	-0.0003668797
24	0x3e581795	0.21102746
25	0x3dee1c38	0.11626476
26	0xbb825a75	-0.0039780685
27	0xb8823692	-6.2090476e-05
28	0xb7c5b49b	-2.3568331e-05
29	0x3dc2f6f0	0.09519756
30	0x3e10c939	0.1413926
31	0x3d8290c7	0.0637527
32	0x3db3242c	0.087471336
33	0xb8e513d1	-0.00010923262
34	0x3dfe5983	0.12419417
35	0x3e213e7e	0.15746495
36	0x3d7bc202	0.061464317
37	0x3e1529a9	0.14566673
38	0x3dc65ec2	0.09686042
39	0x3e1671a6	0.14691791
40	0x3d9def83	0.07711699
41	0x3e6ef42e	0.23335335
42	0x3d65417e	0.05597066
43	0x3e4e2db2	0.20134619
44	0x3cd75fd8	0.026290819
45	0x3d661101	0.05616856
46	0x3e102dd1	0.14079978
47	0xad6fb53a	-1.36258175e-11
48	0x3e87c748	0.26519227
49	0x3e57b8bd	0.21066566
50	0x3aa32420	0.0012446679
51	0x3dd68a46	0.10475592
52	0xbb4fe3fa	-0.0031721578
53	0x3dd4a953	0.103838585
54	0x3dc2913a	0.09500356
55	0x3dd8620f	0.10565578
56	0xb7bf1741	-2.2779803e-05
57	0x3cb9ad63	0.022665685
58	0x3e643a94	0.22287971
59	0x3ea530de	0.32263845
60	0x3e2674f4	0.16255552
61	0x3d1684b0	0.036747634
62	0xba13f305	-0.0005643818
63	0x3e48741e	0.19575545
64	0x3e2883c5	0.16456516
65	0xbe284049	-0.16430773
66	0x3da5c7b5	0.08094732
67	0x3e1b09e8	0.15140498
68	0xb960deb7	-0.00021445272
69	0x3e0261c9	0.12732615
70	0x3e8f7fa8	0.2802708
71	0xbb201241	-0.0024424943
72	0xba506753	-0.0007949967
73	0xbae5062b	-0.0017473152
74	0x3e692676	0.22768578
75	0x3e07f58c	0.13277262
76	0xb7c3529c	-2.328428e-05
77	0xbb1466af	-0.0022644212
78	0x3e8bfc41	0.27340892
79	0x3dd5441f	0.10413384
80	0x3de966c3	0.11396553
81	0xbc1bb12b	-0.009502689
82	0xb9ea488c	-0.0004468601
83	0xbaf8f817	-0.0018994835
84	0xb7cc2eba	-2.4340454e-05
85	0x3e5d4d87	0.21611606
86	0x3d863fdb	0.06555148
87	0x3dff602a	0.12469514
88	0x3c984f1b	0.018592408
89	0x3d8868f0	0.0666064
90	0x3e101ad2	0.14072731
91	0x3e6cf5e3	0.23140673
92	0xbe82fa7a	-0.25581723
93	0x3e47520d	0.19464894
94	0xb81aec7f	-3.6936715e-05
95	0x3e6ad3cb	0.22932355
96	0xba2a0780	-0.0006486103
97	0xb990af6f	-0.00027596529
98	0xba80aacc	-0.0009816526
99	0x3e0d3bc0	0.13792324
100	0x3e61cf0b	0.22051637
101	0xb9d11b1d	-0.00039883787
102	0x3e67b510	0.22627664
103	0xbb2d4a6e	-0.0026442069
104	0x3ddc6ba2	0.10762717
105	0x3de9da39	0.11418576
106	0x3e0437bc	0.12911886
107	0xbe90ff9c	-0.28320014
108	0x3d9ba46d	0.07599721
109	0x3e17fbf7	0.1484221
110	0x3e4dfed2	0.20116737
111	0x3e05d463	0.130693
112	0xbeca0bdc	-0.39462173
113	0x3cc50a19	0.024052667
114	0xb602f9fb	-1.9517017e-06
115	0x3e91f8cd	0.28510132
116	0x3e1be08b	0.15222375
117	0x3df0336b	0.11728557
118	0xbbc73a88	-0.0060799755
119	0x3d044acf	0.032297906
120	0x3dc8fdc7	0.09814029
121	0x3df0855c	0.11744186
122	0x3e8d8473	0.27640113
123	0x3e6d25f0	0.23159003
124	0xb53f4d28	-7.126532e-07
125	0xbb216d39	-0.0024631752
126	0xbb17e689	-0.002317818
127	0xb9724684	-0.00023105188
