outputs/mnist/models/mnist_sim_autoencoder_epoch12.pth (torch_old, 882017 bytes, 16 tensors)

encoder.0.weight f4 [128, 784]
00000000: 7157 1d3b cab5 1f3b 2c83 1f3b 6829 1e3b
00000010: ff56 1d3b 742d 1c3b 6e90 1c3b 1547 1d3b
00000020: 8a21 1f3b 382d 203b 30be 1e3b ad46 1d3b
00000030: 9474 323b 9969 213b 0fcd fa3a 36af 1b3b
00000040: 46f7 1d3b 4769 1f3b 2ad4 213b 6352 203b
00000050: b511 1d3b 3a10 1d3b e3ad 213b 5fc8 193b
00000060: d4d5 213b 3218 1d3b e155 1d3b 3c5b 1d3b
00000070: 98f2 193b 2e89 1d3b ac39 1c3b 6025 1e3b
00000080: c678 213b b6d6 163b f4b9 bb3a 2e59 e0b8
00000090: e65a 8cba 0842 15ba d77c 023b 2a82 6d3b
000000a0: 967d 41ba fd63 7d3b 9831 143c 69fb f53b
000000b0: dcd6 cbb9 97bb aaba b77a dbba c563 833a
000000c0: 766f 813b dce6 243b a009 053b c432 143b
000000d0: b7a4 213b 73f1 1c3b 8746 213b 2137 1d3b
000000e0: 99cf 213b 824a 1c3b 74d0 1d3b e090 db3a
000000f0: 3ded 0d3b fe8d 263b b8e5 23ba 4423 94bb
00000100: f25a 80ba b5c3 33bc 96b8 88bc 3105 abbc
00000110: 1762 01bc 4dd6 51bb cf32 9b3b 76d1 163c
00000120: bf2a b73b 860a d1ba 47c1 273a b4e0 1cbb
00000130: efd5 a73b e0da 763b 994a 963a 54fc 8bba
00000140: c937 303b d4cc 8d3b bf6f 193b f4bc 1e3b
00000150: 624e 1d3b 46c5 193b e30a 103b 48ca e639
00000160: d240 da3a d439 933b 626e 413b 5c39 8f3b
00000170: bdd4 a5bb 451e f3bc 9718 35bd ff79 c9bc
00000180: e614 86bc 4a19 08bd 9763 4dbd b577 83bd
00000190: ff1c a5bd 587f aebd 4247 aebd 4c3a 23bd
000001a0: e1db 37bb ff3e 363b 48d8 7fbb 9855 86bb
000001b0: 2034 383a 6045 aa3b 91b0 363b 0d36 1d3b
000001c0: 8949 213b 01be 203b 0790 0d3b 59b0 f33a
000001d0: e628 003c 1db0 373c d368 283c 66da 9b3c
000001e0: 19c8 1a3c e52e 913b a3fc 17bc f3d4 10bb
000001f0: 4a9b a7bc 8619 4bbd ce6d f0bd 1514 e8bd
00000200: 2db1 9ebd fffb 92bd 0afd dfbd 541d aebd
00000210: 5be4 84bd d068 d2bc d27a d03a cfa1 82ba
00000220: 3b7a ff3b 2d38 e83b f606 c83a 1caf 163b
00000230: 3c20 1b3b 6210 203b 4cd3 4a3b ce61 7a3b
00000240: f594 883c 2061 f23c 6fbc e83c 535e 393d
00000250: fa39 ee3c 360c f43c eda3 303c 81cc 093c
00000260: e1e5 8b3c b4b0 153d 4b75 cb3c 0a44 cebc
00000270: 310d 1ebd a5a9 9cbd a23a 02be 0e31 d0bd
00000280: 6701 7abd efe5 36bd ef62 7cbc d298 4e3c
00000290: 4101 b63c 2ea0 943c a527 9e3b c8da 213b
000002a0: 38f5 1d3b 3632 1c3b f5ed c83a deca c13b
000002b0: 6394 c03c 6eb2 243d 3c73 373d 19be 213d
000002c0: bd1a 9f3d c754 a73d add8 bf3d b48e c83d
000002d0: c7b9 8f3d 3972 a93d 3045 e63d 6f85 db3d
000002e0: e8ba 103d e701 6dbd 43d6 bcbd 6003 7bbd
000002f0: 8e01 30bd def7 dfbc 6947 d1bc 5af3 bf3a
00000300: 3acd 093d f17c ce3c c0b0 a63b 9038 243b
00000310: cb2f 1e3b 5af4 c73a 3a16 55ba 1a2a cfba
00000320: 1271 a73c 7d1b 373b b495 1e3d 5368 c43d
00000330: 210e b43d 87dd f13d bd3d 143e bc3b c03d
00000340: fa99 cd3d 9984 c23d 5deb a33d a2c3 253e
00000350: 7b07 863d e227 c13c 1825 e0bc 90f3 b4bc
00000360: 0f65 e5bc 0cdd 13bd 1f9c 3fbd 7452 17bc
00000370: 9f67 773d 1f75 0c3d 5b73 033b a7da 143b
00000380: 566e 483b 997d 823b d80d 3fbc d71a 00bd
00000390: 35a8 9bbc 61ad d8bb 2a89 1f3d 63e4 e83d
000003a0: d77f 353e cf19 283e e29c c93d 8508 573d
000003b0: e366 a33c 7b5b cbbc 541b 11bd 4af5 cf3d
000003c0: f3f6 a23d 7192 a23d f60c 6e3d 7b56 8e3c
000003d0: 55b9 68bb b6c5 98bd 297f 84bd ad8e 9ebb
000003e0: bac3 753d 310d d03c 7168 ac3a dc6c ab3a
000003f0: b212 373b 0ebe 4a3b 9ba2 82bc 6797 42bd
0.0024008418 0.002436983 0.002433966 0.0024133567 0.0024008153 0.0023830803 0.0023889798 0.0023998667
0.0024281465 0.0024441015 0.0024222247 0.0023998425 0.002723013 0.0024629591 0.0019134599 0.0023755557
0.0024103685 0.0024324225 0.002469311 0.0024463169 0.0023966853 0.002396597 0.0024670295 0.0023465378
0.0024694102 0.002397072 0.0024007487 0.0024010679 0.0023490544 0.0024038064 0.0023838086 0.0024131164
0.0024638637 0.0023016161 0.0014322386 -0.00010697763 -0.0010708242 -0.00056937383 0.0019910836 0.0036240914
-0.00073810795 0.0038664334 0.009045027 0.007506777 -0.0003887926 -0.0013025877 -0.0016744946 0.001002424
0.0039500548 0.0025162017 0.0020299926 0.0022613266 0.0024664828 0.0023947626 0.0024608688 0.0023989158
0.0024690388 0.002384812 0.0024080547 0.001675155 0.0021656298 0.0025414224 -0.00062521873 -0.0045208056
-0.0009792729 -0.010971953 -0.01668958 -0.020876499 -0.007896922 -0.0032018602 0.0047362815 0.009205213
0.0055898125 -0.0015948571 0.0006399345 -0.0023937644 0.0051219384 0.003766708 0.0011466324 -0.0010680058
0.002688872 0.004327396 0.0023412553 0.0024221512 0.0024003019 0.0023463531 0.0021979145 0.0004401973
0.0016651398 0.0044929776 0.0029515256 0.0043708514 -0.005060761 -0.02967752 -0.044212904 -0.024594305
-0.016367387 -0.033227243 -0.050143804 -0.06419317 -0.08062171 -0.08520383 -0.08509685 -0.039850518
-0.0028054642 0.0027808545 -0.0039038826 -0.004099559 0.000702681 0.0051962584 0.0027876238 0.0023988516
0.002461048 0.0024527314 0.002160074 0.0018591984 0.007822251 0.011211422 0.010278898 0.019025039
0.009447121 0.004430639 -0.009276542 -0.0022099584 -0.02045979 -0.049584888 -0.117396936 -0.11331955
-0.07748637 -0.07176971 -0.10936935 -0.08501688 -0.06488868 -0.025684744 0.0015905744 -0.0009966436
0.0077965534 0.007086775 0.0015260864 0.0022992557 0.0023670336 0.0024423827 0.0030948697 0.0038205269
0.01667259 0.029587328 0.028410165 0.04525597 0.02908038 0.029790979 0.01078127 0.008410574
0.017077388 0.03654547 0.024836203 -0.025178928 -0.0385868 -0.076495446 -0.12717679 -0.101656064
-0.061036494 -0.044652876 -0.015404447 0.012609677 0.022217395 0.018142786 0.0048265033 0.0024697054
0.002410246 0.002383364 0.0015329706 0.005914076 0.023508256 0.040209226 0.04478763 0.039487932
0.07768772 0.08170467 0.093674995 0.097928435 0.07017856 0.08273739 0.11243665 0.1071881
0.035334498 -0.057863142 -0.09220555 -0.061282516 -0.042970233 -0.027339872 -0.025546746 0.0014644668
0.033642985 0.025206061 0.005086988 0.0025058128 0.0024137374 0.0015255318 -0.0008128617 -0.0015805394
0.020439658 0.0027939968 0.038716987 0.09590211 0.087917574 0.11809831 0.14476676 0.093863934
0.10039134 0.09497947 0.08003876 0.16187909 0.065443955 0.023578588 -0.027361438 -0.022088796
-0.02800229 -0.03609948 -0.046779748 -0.009235967 0.060401555 0.034291383 0.002005777 0.0022713335
0.0030583343 0.0039822576 -0.011661015 -0.031275596 -0.019001106 -0.0066124653 0.03894917 0.11371686
0.17724548 0.16416095 0.09844376 0.05249836 0.019946521 -0.024823895 -0.035426453 0.10154207
0.07957258 0.07938088 0.05811783 0.017375221 -0.0035510857 -0.07459585 -0.064695664 -0.0048387856
0.060001113 0.025396915 0.0013153685 0.0013078707 0.0027934727 0.0030936035 -0.015946677 -0.04750767

encoder.0.bias f4 [128]
00000000: cd75 1cbb eccc 29ae e425 55bb fab0 8fb9
00000010: 29b7 e93b dd47 4ebc d854 773c 4b54 74ba
00000020: 19d7 aab5 245f 313d dae9 59bb 349f 52b7
00000030: bb74 65af 5128 22ac b96b 8cbc f5de aeb2
00000040: 200a f93b c006 1a3d e6e5 09bc a421 23bc
00000050: 906d acb1 e817 92bc d87a 24b6 988d 93b8
00000060: b0c5 95b8 1a67 18bb 3da9 4fb9 ccee 87bc
00000070: ef6c eeb0 127a 89ba 5709 93b8 ec80 64af
00000080: b656 bbbc 1167 84bc 68ab a4bc 2f6f a6bc
00000090: bbf6 88bb 016c 01b5 868f b2ba b0ea 95ab
000000a0: 485b 0ebd 5c32 21bb 970b 87b6 10e7 a6bb
000000b0: 7553 cdbb e413 20b8 9926 39bc 54b8 0ca8
000000c0: 960e acb5 6c7b b33b c856 023c 0695 00bc
000000d0: 2e27 743b 2f29 5cb5 295e 14b5 4ff1 033d
000000e0: 193b 99b0 42fe 183d f1ce 6d3c 26d0 90bc
000000f0: 8218 2dbc 75cc f83c defb 6ab8 37fd 80bc
00000100: 3e05 a3b3 5688 55bb 9df6 94b7 a6f3 9fbb
00000110: 5b78 e0b6 888f 9d3b 2c68 1abd cbfb 01b4
00000120: 99f7 c4bb db6b d53c b38c 7abc 53c5 14bc
00000130: 466e 27b6 b144 daaf f7c0 3fac 10a3 56bb
00000140: 580b b7b1 7e4e 5ebb ebff d9ba 4ba0 1db7
00000150: 035d 4dbc 63f3 f1ac 4720 46b9 5e5f 7db6
00000160: e652 05bd 9d1b ccbb c185 10ba a484 10b9
00000170: 24dd 59bc 835c cfbc 2317 2ab0 4b89 d63b
00000180: dbb1 ccba c60b c7ae 752d 45bc 4930 96bc
00000190: fd70 6dba 130a 04bc 5425 1bbd 4c83 83b8
000001a0: 1ab5 76b6 f554 47bb 2a01 10b7 1a43 8abc
000001b0: 99ec e5b6 8fe4 97b7 5346 15ba 27b7 3aae
000001c0: d7d4 2ebc a9f7 57bb 88c5 4cbb 0dce 70bc
000001d0: cfaa 173d c084 833c a0eb b0bb e164 58bb
000001e0: 1218 fdb7 2ba1 c8ad b061 5eb5 598a 66ae
000001f0: e77f feb9 26f4 123d d4b7 c7b7 43ef 22b9
-0.0023873926 -3.860816e-11 -0.0032523805 -0.00027406943 0.00713243 -0.012590376 0.015095912 -0.0009320422
-1.2728589e-06 0.043303624 -0.0033250959 -1.2554043e-05 -2.08689e-10 -2.3043965e-12 -0.01714121 -2.0357655e-08
0.007600084 0.037604094 -0.008416628 -0.009956751 -5.0183147e-09 -0.017833665 -2.4509409e-06 -7.03588e-05
-7.141696e-05 -0.0023254813 -0.00019804105 -0.01659336 -1.734774e-09 -0.001048865 -7.011246e-05 -2.0782281e-10
-0.022868495 -0.016162427 -0.020101264 -0.020316688 -0.004179803 -4.821341e-07 -0.0013623096 -1.0652226e-12
-0.03475502 -0.0024596667 -4.0246628e-06 -0.0050934628 -0.0062660524 -3.8165497e-05 -0.011300706 -7.811531e-15
-1.2819244e-06 0.0054773595 0.007955261 -0.00784803 0.0037254798 -8.2016317e-07 -5.527132e-07 0.03221255
-1.1149012e-09 0.037351854 0.014514671 -0.017677378 -0.010564925 0.03037093 -5.6024517e-05 -0.015745742
-7.5912325e-08 -0.0032582483 -1.7757813e-05 -0.00488134 -6.6897314e-06 0.00480837 -0.037697002 -1.2105663e-07
-0.0060109613 0.026052406 -0.015292334 -0.009080249 -2.4949127e-06 -3.9702777e-10 -2.724985e-12 -0.0032751001
-5.3272906e-09 -0.0033921297 -0.0016632056 -9.39525e-06 -0.012534383 -6.8766533e-12 -0.00018894776 -3.7755449e-06
-0.03254976 -0.0062288777 -0.0005513095 -0.00013782323 -0.013297353 -0.025312668 -6.187852e-10 0.0065471283
-0.001561697 -9.051564e-11 -0.012034764 -0.018333571 -0.0009057669 -0.0080590425 -0.037877396 -6.271023e-05
-3.6762272e-06 -0.0030415629 -8.58334e-06 -0.0168777 -6.8522754e-06 -1.8107034e-05 -0.0005694378 -4.2454176e-11
-0.010670862 -0.0032954013 -0.0031245667 -0.014697564 0.03702813 0.016054511 -0.0053991824 -0.0033019113
-3.0171159e-05 -2.280894e-11 -8.28436e-07 -5.2418823e-11 -0.0004854195 0.03587737 -2.380825e-05 -0.00015538656

encoder.2.weight f4 [64, 128]
00000000: 55ba c2bd 3ad4 543b 2f7d 4e3d 3b1e 1f3d
00000010: 1ce3 03bc 7183 ee3c 724f a9be ab60 2d39
00000020: bd82 66ba 4f15 84bd 3da5 be3c 2606 133c
00000030: e755 773b 95a7 8001 e639 d63c ecfb bb81
00000040: 7237 9ebc 437d 2ebe db90 7ebc e970 203d
00000050: 3d38 4db9 bfe4 26be 64de 213b d7c6 3ab9
00000060: e5c7 d139 81a0 14bd 0bd5 6eb6 4ac4 28bd
00000070: 24e5 1b3c 3173 5a3b 077a 9f3a 7ffb 293b
00000080: f9b0 3cbd 45f3 b23e 63e6 7fbe 237e 3fbe
00000090: b3e8 12be 4e1f 7dba 9641 283d 6c4c ea39
000000a0: cbb4 17be 46fe 443c 2950 46b9 9c24 293d
000000b0: d75d bdbc 343a 13bc 696f 573e 3b40 9b81
000000c0: af99 3abb abe4 c23d a74b abbd 4ef3 84be
000000d0: 8302 403e e5c2 9d3b 2d7f a83a ebcd 94be
000000e0: 9b8f 4136 4813 873e 22dc 04be 3e11 09be
000000f0: c2e1 d8bb 66a4 123e 91b1 943c 22e9 12be
00000100: 3365 c83a 48d1 abbc b209 073d 911e ba3d
00000110: 0efb 1f36 620f 14be d78f 4b3d 98e0 8b3c
00000120: 637c 3a3e f3ac bebe 4e61 513d 9c79 4cbc
00000130: 75c8 9b3b f7d2 b4bb 9c10 593a e8be dbbc
00000140: fac4 412d e86c 063e 0bed 96bc 4300 543c
00000150: 66ce 02bd 9313 91b9 4741 253d c7b8 573b
00000160: 1042 19bd e587 e3bd 7ad0 9dbb 3278 113a
00000170: bd62 113d 37d0 d139 6154 f5bb c8c7 7e3e
00000180: 4a51 acba d6cd eb3c 2c1a 0f3c 55a0 a8bd
00000190: a976 453b f566 5fba bc37 423d 0f18 cd3c
000001a0: 99f4 75bc 0101 0f3d 5cdf 96bc e135 92bd
000001b0: 16f4 4cbb 867e e53c 9bcf be3d 35d0 1c3b
000001c0: 3fa9 cfbc ef0a bf3c 05ec ee3c ac15 a03c
000001d0: c3f8 c5bc fbe3 e53d 162d 123e f95e 96bd
000001e0: f75f 2d39 f65d 8739 7ef1 ffbb 983c b1b8
000001f0: 54ab 2a3c 8fb2 27bc 3307 a43b fcf1 d13c
00000200: b27d 263c d421 1d3a 24eb eebc 4f79 993a
00000210: b01f 8fbd e3a1 583d 077b d83d 104a 2d38
00000220: 2869 82ba 1a0a f13b 384b 073c f83f 213c
00000230: 73a7 c23b 302f 7981 ba69 913a 2aa6 5a01
00000240: 5b98 8bbd e13a f03c 9b6b 223c 2065 493b
00000250: 0807 f1b8 d638 50bc 6ae6 1fbb 85da 2339
00000260: 234d 2b39 ba42 3fbd d94e bdb4 6650 85bc
00000270: a7db 69bb 5643 923b e8e7 4f3c 5889 ba39
00000280: a68c 5fbd 88ef e03d 2110 d13d 7e16 d73d
00000290: 22da 1bbd 8457 0cbb 1489 8d3c dbac 0738
000002a0: 4bb8 e8bd dbe6 52bc fc06 3635 a2cb 773b
000002b0: fb39 e0bb cca0 c8bc 13e6 a03d 00f8 761e
000002c0: 7428 53b9 e009 efbc a00a 47be fa8e b73d
000002d0: b377 3dbd 5d8c 233c 8134 023a 5bd2 323d
000002e0: 8a59 141f 6892 21be d0ca ac3d efd4 cfbc
000002f0: 59f7 813a 67fe 94bd 1597 863c cbbc 35bc
00000300: 0d20 3139 4539 b53d 6ceb c3ba 27a6 19bd
00000310: 8c87 d532 0a69 133e 944d a53e 2e77 71bb
00000320: 06d8 1bbd 1772 8f3d d8c2 e83d fd03 463c
00000330: 0f60 a3ba 93eb c7bb 31eb ae3a da31 1d3b
00000340: 70d8 f2ae 240e b9bd 82c2 0c3c 3a9c 70bc
00000350: bca4 9c3b fc71 40b9 f56c 153d 7c94 62bb
00000360: ccc0 5cbe ad45 383d 00ac f939 9a96 1fbc
00000370: 3efd 983b dd60 5a3b 2905 f3ba 2b88 1abe
00000380: 0456 813c 4cac db3a d80f bfbb 8351 9c3c
00000390: d22d 153d ed32 f6bd 5d5c dd3d 841d a03c
000003a0: e804 143c 9750 99bc e3fc 243b df84 433b
000003b0: 2718 20bc 4012 633b 98b1 233b f12d 473b
000003c0: 5fb8 e83c 145e a4bd 9807 373c f8c3 8d3e
000003d0: 0b92 c5bd c2fc 76bd 5245 debd 21f9 a7bd
000003e0: 8e98 80b7 b703 3436 fe57 2a3c 86e1 e63b
000003f0: 5c79 793c cef5 0ebd 5452 df3a c876 633b
-0.09508196 0.003247513 0.050412353 0.03884719 -0.008049753 0.02911541 -0.33068424 0.00016534577
-0.0008793285 -0.06449377 0.023272151 0.008973634 0.003774041 4.726024e-38 0.026150655 -6.905444e-38
-0.019313548 -0.17039971 -0.015537466 0.03917018 -0.00019571274 -0.16298197 0.0024699206 -0.00017812416
0.0004001252 -0.03628588 -3.558877e-06 -0.04120282 0.009515081 0.003333282 0.0012167104 0.0025937257
-0.04606721 0.34951225 -0.2499023 -0.18700461 -0.1434658 -0.0009655849 0.041078173 0.00044688897
-0.14815061 0.012023514 -0.00018912613 0.04129468 -0.023116035 -0.008986045 0.21038593 -5.7030174e-38
-0.002847295 0.09516271 -0.08364039 -0.25966877 0.18750958 0.004814493 0.0012855284 -0.29063353
2.884283e-06 0.26381898 -0.12974599 -0.13385484 -0.0066187093 0.14320526 0.018151077 -0.14346746
0.0015288949 -0.020973817 0.03296823 0.09087861 2.383898e-06 -0.14458993 0.049697723 0.017074868
0.18211512 -0.37241325 0.051118188 -0.012480166 0.004754121 -0.005518313 0.0008280368 -0.02682443
1.1014517e-11 0.13127482 -0.018423578 0.0129395155 -0.03193512 -0.0002767114 0.040345456 0.0032916532
-0.037416518 -0.11109904 -0.004816112 0.00055492215 0.035494555 0.0004001872 -0.0074868654 0.24880898
-0.0013146785 0.028784674 0.008734267 -0.08233706 0.0030130541 -0.00085221167 0.047416434 0.025035886
-0.01501193 0.034913067 -0.018417053 -0.07139183 -0.0031273416 0.028014433 0.09316941 0.0023927812
-0.025349258 0.023320643 0.029165277 0.019541584 -0.02416647 0.112251244 0.14275011 -0.07342333
0.00016534315 0.00025819213 -0.0078107705 -8.451304e-05 0.010416824 -0.010235443 0.005005741 0.025628082
0.010161804 0.00059941155 -0.029164858 0.0011709126 -0.06988466 0.052888762 0.105703406 4.131539e-05
-0.0009949552 0.0073559405 0.00825768 0.0098419115 0.0059403717 -4.5767932e-38 0.0011094131 4.0159493e-38
-0.06816169 0.02932495 0.00991335 0.0030730441 -0.00011493085 -0.012708863 -0.0024398812 0.00015626296
0.00016336566 -0.046694495 -3.5261363e-07 -0.016273689 -0.0035683902 0.0044635935 0.012689568 0.00035579014
-0.054577492 0.10983187 0.102081545 0.10502337 -0.038049825 -0.0021414468 0.017277278 3.2347492e-05
-0.11363276 -0.012872423 6.7810447e-07 0.0037810584 -0.0068428493 -0.024490736 0.07856383 1.3074417e-20
-0.00020137598 -0.029179513 -0.19437647 0.089628175 -0.046256732 0.009982196 0.000496693 0.04365764
3.1414284e-20 -0.15778506 0.08437121 -0.02537009 0.0009915634 -0.07275086 0.016429463 -0.011092375
0.00016891975 0.08848814 -0.001494748 -0.03751197 2.4858103e-08 0.14395538 0.3228575 -0.0036844718
-0.038047813 0.07004183 0.113652885 0.012085912 -0.0012464541 -0.0061010807 0.0013345239 0.0023986013
-1.1043333e-10 -0.090359 0.008591296 -0.014685685 0.00478038 -0.0001835301 0.036480863 -0.0034573367
-0.21557921 0.044988323 0.0004762113 -0.009740496 0.0046688607 0.0033321895 -0.0018540967 -0.15091006
0.015788086 0.0016759722 -0.005830746 0.019081837 0.03642065 -0.12021432 0.108086325 0.019545324
0.009034373 -0.018715186 0.0025175146 0.0029833836 -0.009771383 0.003464833 0.002497768 0.0030392373
0.028408227 -0.080257565 0.011171244 0.27688575 -0.09646996 -0.060299642 -0.108530656 -0.082018144
-1.5329828e-05 2.6824252e-06 0.010396956 0.0070459275 0.015226688 -0.034902386 0.0017038085 0.003470825

encoder.2.bias f4 [64]
00000000: 4a7e 123c 7ce5 d33a 58ba efab 72ef 0d9d
00000010: 4186 003c 0c7b 42a3 30b6 aa39 cc1b 64b4
00000020: 2fef c6b1 03ba c03b 6bd6 1718 ce98 8181
00000030: 8039 a0ae dd6b 84b1 442d a401 778a 4da8
00000040: 5e45 9082 64e5 87bc 97ae cd3d 9443 b03d
00000050: f1ef 7a3d 2c62 49a5 f930 973d b73c 7680
00000060: 6045 21bc 602e 3ba5 c675 d9bb eba7 3d3d
00000070: d678 3000 8bdf 003e 7262 5abc a16b 383c
00000080: 26ba febb 1efb ed9f 14a8 fc3c 18a5 63b1
00000090: da32 c93d 5ffe 4ebc facc 9bbc 236c a0bc
000000a0: 6ba6 323d 945e 2db8 8834 26ba 0a4d f63c
000000b0: 6e53 133e 6d79 133b 1d77 763d 4796 b33b
000000c0: 3628 233e dd0b 0cb7 88d2 9ab5 23fe 07bd
000000d0: ddd7 6d17 3ad8 c43c 7be6 0816 e822 c1b8
000000e0: f8f1 453d 4015 5cb4 eab4 95bc a9ce 9cac
000000f0: f894 cf3c 6716 173d f028 e43d db82 8a3c
0.0089412425 0.0016166414 -1.7033692e-12 -1.8784985e-21 0.007844509 -1.0542817e-17 0.00032560667 -2.1244267e-07
-5.7897505e-09 0.0058815493 1.9624546e-24 -4.760638e-38 -7.286172e-11 -3.8539683e-09 6.030904e-38 -1.1409811e-14
-2.1198713e-37 -0.016588874 0.10043066 0.086066395 0.061263982 -1.7467233e-16 0.07382388 -1.0858369e-38
-0.0098432 -1.6235377e-16 -0.006636354 0.046302717 4.451452e-39 0.12585275 -0.013329135 0.0112561295
-0.0077736555 -1.0078884e-19 0.030841865 -3.3126693e-09 0.09824152 -0.012633889 -0.019018639 -0.019582814
0.04361574 -4.1334497e-05 -0.0006340225 0.030066032 0.14387295 0.0022502795 0.06017219 0.005480561
0.15933308 -8.347412e-06 -1.1535167e-06 -0.033201348 7.685129e-25 0.024028886 1.1058719e-25 -9.209459e-05
0.048326463 -2.0496827e-07 -0.018274743 -4.4567306e-12 0.025339589 0.0368866 0.11140621 0.0169081

encoder.4.weight f4 [12, 64]
00000000: 613e 773d fc9b 543d b718 a43b 0ef2 48b9
00000010: a850 bd3e 660e 1dba dda1 6cbd 0d6f cc3a
00000020: a061 3d3b d46c a3bc 36c5 c7b9 4e28 e539
00000030: 9b97 b6bb cbee 5fbb 1301 2088 ab48 91bb
00000040: e6a4 9f39 5bfd 1bbe 747a 253e 6bfe d83d
00000050: 3c3c 0f3e 4206 82ba 490b 78bc 7827 382e
00000060: 4692 373d 25f0 5aba bed4 b83e 39d5 7bbc
00000070: 65c5 2f1e 49a7 2f3e b49f 543d c89f 713e
00000080: 2ac3 2a3c 8ac9 11ba b4ab 013f a28b 37bb
00000090: 558c f33d f627 f53e 3467 adbc 3d81 b73e
000000a0: 97dd 1f3e 63fa 23bc cfdf 973d 3374 80be
000000b0: 72b0 183e 8dde da3c e6bd 2d3e d87a 7f3e
000000c0: 3ea1 233e 84cf 6b3c 99e9 0039 12e0 853e
000000d0: c75c b1b9 a658 913e e5de abb8 b0be e13c
000000e0: f2ce 90bd 94d3 c63a ce62 b33d 7ab9 4bba
000000f0: 2c0d cdbd 1bad 953d f302 973d bd92 c63d
00000100: 545b e3bd 6ec2 713d cf07 3b3a 441b 46b6
00000110: fcce 17be f030 1fb8 2264 eb3d 02f0 8539
00000120: 91f0 84b9 af0e cebb 8527 392b 265c d8ad
00000130: bb72 8839 a101 51b7 4089 2a01 3184 6138
00000140: c365 95af 6ffe 7a3e 2fe6 6e3c 525a 503d
00000150: c4b3 5e3d 8b32 9ab8 6b5c 6c3e 0691 4a00
00000160: baba 68be e754 fab8 63eb 7ebe 2849 f63d
00000170: 1bf9 7400 9c7a 043e f833 b4bd 8204 313e
00000180: aa60 a0bd afd3 15b8 d3d2 0cbd 6f82 49b9
00000190: dd28 40bc 3b0b cb3b dd4f 85bd a96b a5bc
000001a0: ce8d 7e3e b7e3 3e3b c28f d4bd 5d9a e23e
000001b0: 7cf2 ef3d 4c90 603e f101 8bbc b756 643d
000001c0: d764 d93d e237 1bbc 3053 783a 7e91 a1be
000001d0: 5adb 91b7 6d1e 50bd 4c45 c5b8 80f2 f73b
000001e0: a3a6 fd3c fba5 8fb9 7f0d bf3d 34d0 c2b9
000001f0: 713b 5c3c 07d6 ce3b b7d5 933d 2c05 2c3d
00000200: d9f7 06bc 2ca2 f63d 7ee7 01bc b487 3f3a
00000210: aae0 69bd a56e ef3a 5449 143e 46c1 88ba
00000220: ab2c 3e3a f0ef 35bd 713a 2fb7 28e3 6db6
00000230: 0b79 603b 8dea 303b 3e05 a2a9 b2c7 023a
00000240: 4de0 8fb0 4be4 e5bb 4dcf 083e 6307 a5bd
00000250: eda7 e0be 7ded 1c3b 4ae2 babd 2b74 ca82
00000260: 2f10 95bc 234f 2c3b bb71 f7bb 893c 883c
00000270: fea7 2d81 41f9 063e 9aa3 0d3e 348c 24be
00000280: f866 7e3d 9d9f f53a feb1 46be 416f 7d3b
00000290: 9fbb 373d fb47 0dbe c288 ffbb 80b8 253e
000002a0: a834 29bf 9489 9bbb 07e8 48be f0a1 593e
000002b0: 72ac 773d 27d8 c5be c5a2 913d 3c46 f33d
000002c0: 7bed cd3d 438b 4f3c 8cbc 37bb 2f53 483e
000002d0: c2c6 bf3a bfbc 15be e558 293b e4ca 0dbd
000002e0: 0c4c 5f3d 3b0b 0bbb 2a20 103e 4ac8 1a3b
000002f0: 7fa7 bcbc bb68 e23c 2244 153c aab9 f03c
00000300: f211 153e f66d c53d 7a0f d73b acbb 08b9
00000310: abb6 0b3f 3e3f 0fba 1062 9a3d 68ed ba3a
00000320: 5e93 303b 2d35 7dbd 41f3 81b8 8fe6 5d39
00000330: 164c cdbb eb72 0ebb 654a fc11 da92 deba
00000340: f2b6 0a39 1afe 5dbd 16cc f6bb 9291 063c
00000350: 394d 8d3e 2a6b 6fba f442 713d 4916 1e1e
00000360: d806 8abd c807 68ba b9c1 0d3f 41c1 553c
00000370: fd2f 490d 85f0 fc3e 9237 af3c 65c8 cd3e
00000380: 41fd b3bd 7763 10ba db3e 483f 9782 9bbb
00000390: d28c b63d 74b8 203f 6d83 50bd 8be2 0e3f
000003a0: 8963 a03e d978 f6bb cfa1 e33e 0985 9fbe
000003b0: 84a2 1a3e e9f4 913d 6dc7 a93e 66cf 023f
000003c0: 7588 14bd cd0b 933b 3292 daba 336b 123e
000003d0: cdbb 89b9 32ea c43e abd4 70b9 c544 053d
000003e0: f592 fcbc f60e ba3a 201c b03d 8c00 99ba
000003f0: a08b 5bbc 64ea d8bb 3761 403c 8ebd e53c
0.060362224 0.05190657 0.005007829 -0.00019163659 0.36975598 -0.000599122 -0.057771552 0.001559706
0.00288973 -0.019949354 -0.0003810317 0.00043708313 -0.005572272 -0.0034169431 -4.814951e-34 -0.0044337115
0.00030449702 -0.15233366 0.16159993 0.105954014 0.13987821 -0.0009920078 -0.015139409 4.187181e-11
0.04481723 -0.00083518244 0.3609981 -0.01537066 9.305243e-21 0.17153658 0.051910117 0.23596108
0.010422507 -0.00055613427 0.50652623 -0.0028006812 0.118920006 0.4788205 -0.021167375 0.35840788
0.15611874 -0.010008427 0.07415735 -0.25088653 0.14911059 0.026717449 0.16966972 0.24949205
0.15979478 0.014392737 0.00012294053 0.26147515 -0.00033829195 0.28387946 -8.195433e-05 0.027556747
-0.07070722 0.0015169256 0.0875908 -0.00077714736 -0.10012278 0.07308408 0.073736094 0.09695957
-0.11101404 0.059023313 0.00071346475 -2.952017e-06 -0.14825052 -3.795413e-05 0.11493708 0.00025546557
-0.00025356238 -0.0062883715 6.578005e-13 -2.4597279e-11 0.00026025422 -1.245775e-05 3.132254e-38 5.3767293e-05
-2.7175248e-10 0.24511121 0.014581247 0.050867386 0.054370657 -7.3527066e-05 0.2308213 6.847851e-39
-0.2272748 -0.00011936743 -0.2489448 0.12025672 1.074228e-38 0.12937397 -0.08798975 0.17286876
-0.07830937 -3.5721514e-05 -0.034380745 -0.00019217444 -0.011728493 0.006196407 -0.06509373 -0.020192938
0.24858782 0.0029127428 -0.10378982 0.44258395 0.11716172 0.21930045 -0.0169687 0.05574676
0.10614937 -0.009473773 0.0009472845 -0.31556314 -1.738749e-05 -0.050810266 -9.4065996e-05 0.00756675
0.030963248 -0.0002739875 0.09328746 -0.00037157687 0.013441906 0.006312135 0.07218497 0.04199712
-0.008237802 0.120426506 -0.007928727 0.0007306293 -0.057099022 0.0018267228 0.14481097 -0.0010433577
0.0007254581 -0.044418275 -1.044442e-05 -3.5447974e-06 0.0034251835 0.0026995272 -7.1951546e-14 0.00049888634
-1.046837e-09 -0.00701574 0.13360329 -0.080580495 -0.43878117 0.0023945265 -0.091251925 -2.974791e-37
-0.018196194 0.0026292286 -0.0075513995 0.016630428 -3.189561e-38 0.1318102 0.1383194 -0.16069108
0.062109917 0.0018739585 -0.19403836 0.0038671049 0.044856664 -0.1379699 -0.007798285 0.16183662
-0.6609597 -0.004746625 -0.19619761 0.2125318 0.06046719 -0.38641474 0.07111124 0.118786305
0.100550614 0.01266748 -0.0028035967 0.19562982 0.0014631378 -0.14622782 0.0025840339 -0.03461732
0.054515883 -0.002121641 0.1407477 0.0023617917 -0.023029087 0.02763783 0.009110482 0.029385407
0.14557627 0.09640114 0.0065631242 -0.00013039884 0.54575604 -0.0005464441 0.07538235 0.0014261426
0.0026943306 -0.06181829 -6.196509e-05 0.00021162092 -0.0062651737 -0.0021735977 3.9804439e-28 -0.0016981021
0.00013228858 -0.05419741 -0.007531653 0.008213418 0.2759798 -0.0009133095 0.058901742 8.369059e-21
-0.067395866 -0.0008851257 0.5537372 0.013046564 6.199567e-31 0.49402252 0.021388803 0.4019195
-0.08788539 -0.00055079855 0.7822091 -0.004745792 0.08913578 0.62781453 -0.050906587 0.5581443
0.3132594 -0.0075217304 0.44459388 -0.31156185 0.15101057 0.07126791 0.33159962 0.51097715
-0.036262948 0.0044874907 -0.001667565 0.14298706 -0.000262706 0.38459927 -0.00022967409 0.032536287
-0.030831793 0.0014195133 0.085991144 -0.0011673137 -0.013399988 -0.0066197384 0.011741928 0.028044488

encoder.4.bias f4 [12]
00000000: 436e 213e be81 333d 6f3f a73c 571d e6bc
00000010: 4e5f dc3b b499 973d 2216 2d3d 1e67 b43d
00000020: 8ff3 e23d ddb5 a83b 3012 f33d 0862 3aa5
0.15764718 0.043824904 0.02041599 -0.028090162 0.0067252284 0.074023634 0.042257436 0.088087305
0.11081611 0.005148633 0.11868703 -1.6166143e-16

encoder.6.weight f4 [2, 12]
00000000: c83f 81be cf4d 6fbd 2553 b93e 751b 88be
00000010: b2b1 a4bd 0438 a7bc ac69 34be 0a33 193f
00000020: dda1 24be f715 953f 368f 0fbf b7ee 703a
00000030: a823 9a3e 058e 9bbd 973e 99bc a9d7 6d3e
00000040: 63e6 4bbe 37ef 823e 838d 883e 007c 073f
00000050: a08d 413e 6e86 e43d eb52 10bd 4db4 74b9
-0.25243974 -0.058423813 0.36196247 -0.26583448 -0.08041705 -0.020412453 -0.17618436 0.59843504
-0.16077371 1.1647328 -0.560779 0.0009190845 0.3010533 -0.075954475 -0.018706603 0.23226799
-0.19912104 0.2557313 0.26670465 0.52923584 0.18901682 0.11158453 -0.035235327 -0.0002333682

encoder.6.bias f4 [2]
00000000: a98f 45be c779 debd
-0.19293083 -0.10863071

decoder.0.weight f4 [12, 2]
00000000: 1cf1 733e c4c5 26bf 43c7 673f 8f53 b43d
00000010: 0464 34bf bf0b 11bf a04e d8bb de80 d23d
00000020: da0f 623f 0cd9 513d ef92 c1be 53e3 533f
00000030: 6160 c1bd 582c 92be 9f96 34be ff92 0e3f
00000040: da02 993d ffa0 e8be cd3f 37bf 3258 38bd
00000050: f174 f33e fd7a ef3e 1a58 bfbe ad1b 76be
0.23822445 -0.65145516 0.90538424 0.08805 -0.7046511 -0.5665855 -0.0066011697 0.10278486
0.8830544 0.051232383 -0.37807414 0.82768744 -0.09442211 -0.28549457 -0.17635582 0.5569305
0.07471247 -0.4543533 -0.7158173 -0.045005985 0.47550157 0.4677352 -0.37371904 -0.24033995

decoder.0.bias f4 [12]
00000000: 3423 243f 063a c3bc 10f9 e4be 33d8 8a3f
00000010: 1b7a 003f be90 b73e 7053 053f 36ef 5bbf
00000020: 5b12 363f bf0c a53e e755 8a3e 9af8 043e
0.64116216 -0.023831379 -0.4472127 1.0847229 0.5018632 0.35852617 0.5208044 -0.8591188
0.7112176 0.32236287 0.27018663 0.12985459

decoder.2.weight f4 [64, 12]
00000000: 687d 83bd e5e0 f6be ce7e 233e 2f9e 303e
00000010: 5aee 1cbf 3369 473e 3d24 093c d972 bcbe
00000020: bcac 7ebe 1ac3 863e 86d6 25bc 476a 9cbe
00000030: 30ce 69be 54af 80bd 2ab6 b8bf 2681 893e
00000040: dcd0 99bd bef1 c83e 4840 25be 919c 0f3e
00000050: 3112 7ebe a189 41be e705 6a3e ff9d 9fbe
00000060: 3fcd 4a0b 5042 28b1 1289 04b9 1919 08b6
00000070: 8cdf f5b2 4a71 a5ba 372a 53aa cc94 e2b8
00000080: b683 248d 1e2f b4b9 fe13 8eb7 aa76 41b7
00000090: eec5 233e 205e 0e3e e20c 553e b088 8fbe
000000a0: b49c f23d 7527 543e f7ab 1cbe a9fe 863d
000000b0: 1e4f 1e3e 95f7 8b3d 8a98 c3bc e8b8 023e
000000c0: bbf4 fc3d e12e 0fbe 5102 8c3d 679b a1be
000000d0: 6401 d5bd 567b 4a3e b015 f93d 9b8c c63e
000000e0: 5c61 603e 06a3 14bc 334f 643e dcc4 37bd
000000f0: 7418 54bc 8292 ddb9 6591 09bd 616a 20bd
00000100: 6692 44bb abe0 47bd 00f9 bbbc 9e39 43bd
00000110: 9750 48bc e874 0fbd 593b 10bd 0072 f5bc
00000120: 683b a1bd 29e5 b93d e3ba 09be 7107 753c
00000130: a276 4f3d 47c8 353e a9bc 803c 12b3 84be
00000140: e658 54bd a682 b03d c08c 2bbe fc28 b0bc
00000150: 7284 f83d 18cf be3e 7859 d0be 7ae9 933d
00000160: 8365 af3d 50f6 3f3e e7fc 003d 3368 bbbb
00000170: 4b3c 3f3e bc64 ae3e b448 a7be d5f6 773d
00000180: efc9 d608 f230 372b ae75 11b8 e557 50b4
00000190: 3d6e 1aae d1de 71ba b2f8 0da5 4169 28b8
000001a0: c1f2 5006 c550 28b9 f6e9 cbb6 324e 46b5
000001b0: 5753 803d c78b 0e3e 62ba 12be bdd6 e73e
000001c0: 08c8 8d3e 7dd8 88be 4a76 143f 8ea2 7abf
000001d0: f14b 063f 2d79 163c dfd4 6a3d fb85 093e
000001e0: 99d0 683d 2e3d 783c 0b85 933d 539f 91be
000001f0: 0a70 25bd b9d3 163e 4c77 64be 1f43 e43e
00000200: e53e d3bc d0ef 76bd 270a 2e3e ee97 f13c
00000210: f256 f73d d720 593e 4ea2 32be 2857 25bd
00000220: f768 253e 431a 973d a675 68bd fc5f 093e
00000230: d2a1 113e 0a0a 313e 2905 a1bd c255 46be
00000240: 71c5 1306 aefb b92a 7e07 81b7 40f4 25b4
00000250: 8afb 9aae 1d4b 5cba 2216 4ea0 9bc2 01b8
00000260: 4148 7903 9eb9 dfb8 f135 b7b6 39f7 81b4
00000270: 4437 ec3d 0871 0c3e 5322 883e cb5b abbd
00000280: 34c6 893e 1a00 0ebd 0679 c23e 6952 0fbf
00000290: 47e3 b93d 50a8 a93d 41f2 a33e 1221 4d3d
000002a0: cfe2 313e f779 093c 2919 3e3e d471 4dbe
000002b0: 5f6e aebc 22ca 723e 50e7 f0bd 4842 003f
000002c0: 62b1 573e 7e71 043d 2b3b 1c3e 3448 783c
000002d0: 9899 95be cd2d 003e 776c 05be 736d ca3e
000002e0: 03c4 1a3e 80e6 283e 1f14 833e 852f 95be
000002f0: d756 0abe ab93 9dbd 6b10 85bc 22f0 753e
00000300: 0781 313f 19cd 923d 3801 f0bd 4c6c ef3e
00000310: 9a70 153e 6d41 1cbf ea46 033f ada8 07be
00000320: d2ac 483f 6eb5 b2be d369 3f3c 841a 2d3d
00000330: a6bd a5b5 1fe4 37bb c5c5 9cbc ecca 85bb
00000340: cf49 82bb fa42 b5bc 1262 bfb9 62a5 13bc
00000350: 376c 44b5 339e aebc 3492 69bb bbef 51bc
00000360: 2908 803e 9e1a c1be 8623 7bbe 6327 c13e
00000370: e0fc 02be cea3 fa3d bb01 543c 6077 293d
00000380: 0820 873e aa25 fcbe 4440 003f daf4 8bbf
00000390: e10f 6cbd 1ae1 0ebf e988 39be 80c0 f73e
000003a0: 0d3c 9cbc eb74 303e 28f7 b63e 9931 d0be
000003b0: 6a27 01be 18aa 7e3d 025a 98bd 15df de3d
000003c0: 14a8 98bd d037 c4be 9086 093e 4e23 cb3e
000003d0: b342 0abf 728f 05bd 426a 56bd 6c52 97bd
000003e0: ee81 dbbd cc35 683e b16c ed3d 1eb0 74be
000003f0: 99ec aabc 2f4c e9bd 9ebe 16be 1c9b 483e
-0.06420404 -0.48218456 0.15966341 0.17247842 -0.61301196 0.19473724 0.008370456 -0.36806372
-0.2487058 0.26320726 -0.010121947 -0.30549833 -0.2283256 -0.06283441 -1.4430592 0.26856345
-0.0751054 0.39246935 -0.16137803 0.14024569 -0.24811627 -0.18900158 0.22853814 -0.3117523
3.9058195e-32 -2.4484912e-09 -0.00012639564 -2.0280188e-06 -2.8623411e-08 -0.0012622264 -1.8755211e-13 -0.00010804235
-5.0694943e-31 -0.0003436738 -1.6937029e-05 -1.1531325e-05 0.15993473 0.13903093 0.20805696 -0.28033972
0.11846295 0.20718177 -0.15299974 0.06591541 0.15459868 0.06834332 -0.023876447 0.12765849
0.12351366 -0.13982727 0.06836379 -0.31563875 -0.10400656 0.19773611 0.1216234 0.38779148
0.2191214 -0.009072071 0.22295837 -0.044865474 -0.012945283 -0.00042261562 -0.033585925 -0.03916395
-0.0029994487 -0.048798244 -0.02294588 -0.04766237 -0.012226245 -0.0350236 -0.03521285 -0.029961586
-0.07872659 0.09076912 -0.13450198 0.014955387 0.050650246 0.17752181 0.01571496 -0.2591787
-0.051842593 0.08618669 -0.1675291 -0.021503918 0.12134637 0.37267375 -0.4069326 0.072222665
0.08564284 0.18746305 0.031491186 -0.0057192086 0.18675344 0.3406123 -0.32672656 0.06053813
1.2927131e-33 6.5082586e-13 -3.468029e-05 -1.9403485e-07 -3.5113457e-11 -0.00092266226 -1.2314062e-16 -4.0152347e-05
3.92988e-35 -0.00016051818 -6.077108e-06 -7.3874537e-07 0.06265896 0.13920508 -0.14328912 0.4528102
0.27691674 -0.26727667 0.57992995 -0.9790429 0.5245963 0.009184164 0.057331916 0.13430016
0.05683956 0.015151305 0.0720311 -0.28441867 -0.040390052 0.14729203 -0.22311133 0.4458246
-0.025786826 -0.060287297 0.1699606 0.029491391 0.120771304 0.21203934 -0.17444727 -0.04036632
0.16153322 0.07378056 -0.056752823 0.13415521 0.14221886 0.17288986 -0.07862312 -0.19368652
2.7792684e-35 3.303724e-13 -1.5381487e-05 -1.545568e-07 -7.0477915e-11 -0.0008403527 -1.7456202e-19 -3.0937237e-05
7.3257467e-37 -0.000106680425 -5.4601046e-06 -2.4208e-07 0.115339786 0.13714993 0.26588687 -0.083671175
0.2690903 -0.034668066 0.3798296 -0.5598512 0.09076553 0.08284056 0.32020763 0.050080366
0.17371677 0.008390895 0.18564285 -0.20062953 -0.021292863 0.2370992 -0.11762869 0.5010114
0.2106376 0.032334797 0.15256946 0.015153933 -0.29218745 0.12517472 -0.13029657 0.39536628
0.15113835 0.16494179 0.2560129 -0.29137817 -0.1350969 -0.07694181 -0.01624318 0.24017385
0.69337505 0.071680255 -0.117189825 0.4676231 0.14593735 -0.6103733 0.5128008 -0.13247938
0.783887 -0.34904045 0.011682945 0.042261615 -1.2348653e-06 -0.0028059555 -0.019137273 -0.004083028
-0.003976084 -0.022126663 -0.00036503427 -0.009011598 -7.3173163e-07 -0.02131567 -0.0035640122 -0.012813504
0.25006226 -0.3771562 -0.2452527 0.37725362 -0.12791777 0.122382745 0.012939866 0.04137361
0.26391625 -0.49247485 0.5009806 -1.0934098 -0.05763233 -0.5581223 -0.18118633 0.48389053
-0.019071603 0.172321 0.3573544 -0.4066284 -0.12612692 0.062173933 -0.07439043 0.10882393
-0.07453933 -0.38323832 0.13430238 0.39675373 -0.54008025 -0.032607503 -0.05234743 -0.073887676
-0.107181415 0.22676772 0.11592997 -0.23895308 -0.020864772 -0.11391484 -0.14721152 0.1959042

decoder.2.bias f4 [64]
00000000: 34c5 f13e 719a 3b3e 8d64 6ab3 b730 85be
00000010: d00a b7be 8e68 00bd c83c ab3e da32 653c
00000020: aa27 8db0 0208 103f c62f 82be 1844 4cbe
00000030: 9511 56b0 b967 033e 4a94 d0be accf 053f
00000040: e92f dd3e b3ad a5ba 98d8 293f fdd6 e03e
00000050: 76a8 3e3e b943 013f d394 763d 918f c6be
00000060: ec6b 82be 0d13 1abd 3d20 b6bc 9250 10be
00000070: 5e45 ed3e f683 e33e 40c4 e8b2 00aa 8e3d
00000080: 1ed1 ea3d c4b1 bbbe 73e7 2d3f 3d3f 363f
00000090: 11f4 c8b2 a188 ef3e 72ed dbbe 1ba7 cbbd
000000a0: b552 723e 14d3 2e3e bff2 2dbd 2306 b6be
000000b0: 1745 533f ed30 c2b4 1799 60be c090 e83e
000000c0: aa4b 273f 0878 813e dfb6 07be 743c 75be
000000d0: afd1 e93e e602 893e 7142 f8bd 8312 2d3e
000000e0: ace9 10b3 014f f6be b65d c33e 1a86 afae
000000f0: 9aa9 023d 30fc 39be 53e4 b4be a7d0 223e
0.47220767 0.18320633 -5.457382e-08 -0.2601373 -0.35750437 -0.03134971 0.3344481 0.013989175
-1.0270373e-09 0.5626222 -0.25427073 -0.1994785 -7.787773e-10 0.12832536 -0.40738136 0.5227001
0.43200615 -0.0012640267 0.6634612 0.43914023 0.1861895 0.5049396 0.060200524 -0.38781407
-0.25472963 -0.037615824 -0.02223217 -0.14093235 0.46341985 0.44436616 -2.7097599e-08 0.06966019
0.11465667 -0.36659062 0.6793129 0.71190244 -2.3394053e-08 0.46783927 -0.42954594 -0.09943982
0.23664363 0.17072707 -0.04246783 -0.35551557 0.825273 -3.6170914e-07 -0.21933399 0.45422935
0.6534983 0.2528689 -0.13253354 -0.23948842 0.45667788 0.26760024 -0.12122048 0.16901593
-3.3740136e-08 -0.4810715 0.38157433 -7.9819e-11 0.031900026 -0.18162608 -0.35330448 0.15899907

decoder.4.weight f4 [128, 64]
00000000: b402 1e3d 5714 43bd c66d 522e 85b4 a33d
00000010: 6b36 0b3c 63ed a43c 9575 073e fc92 17bd
00000020: 492a e221 9ab8 973d 9db4 943c dc5d 873d
00000030: a45d 1122 fb6c 273e 3a1d 153c 4678 463d
00000040: 79e5 403e 44ea 9939 464a fabc 6f16 87bd
00000050: 50f8 3a3d b654 64bb f986 223d cd12 92bd
00000060: 0342 c03d 82af cbbe 8ef4 cdbc 1a88 2cbd
00000070: d2af c03d 359d 8a3c 6322 ec2d 95df be3c
00000080: 36ae 00be 5929 2e3d 2915 04bd 02da 01be
00000090: 4c0e d32d b01f 673c a442 78bd 36a0 f33d
000000a0: e5fa c43d 88fd b13d b0ac 2bbd 8016 a5b6
000000b0: efe0 bf3d 4ffc 9c80 f5a6 603b 5363 f83d
000000c0: 5a01 d0bd e968 f3bd d986 0bbf a8d8 453d
000000d0: 923f 143e 729a d33c 504a cbbd 6efd 83b9
000000e0: b63a 9d2d 6b78 86bb 7bef dc3d 43e5 0b21
000000f0: 5ee0 16be dc71 d9bb 55ba dabd 45e6 213e
00000100: bb0a 8cbc 357e 073e 8c80 5eb1 badd 123d
00000110: 82ff c83d 8f2e f3bc 0d46 213c e732 7dbd
00000120: d2d7 26a0 7c35 b43d 85fe ad3d 8aed de3c
00000130: 2a41 2c9e 94e6 f5bd fd35 ac3c e18f 3b3b
00000140: e52a 833d 7dc7 a4b9 c2d2 c23d b5b7 853d
00000150: 21d1 0f3e 0faa 96bc afc8 22bd 9f68 4bbb
00000160: 422a 853d a668 4bbe a030 b5bd a99e 87bc
00000170: 92aa 943d fa59 dc3d f0d6 9db0 d9ec a73d
00000180: d155 f53a ebd6 95bd 1f94 c2be 3b05 81be
00000190: a0b9 e7b0 1865 1e3e fcfe e9bc c4d6 713a
000001a0: 610e 7b3d fc42 f2bc c536 313d 740d 86bd
000001b0: 98a2 17bd 0f7c 1500 6cbb b93d 4ce8 a2bd
000001c0: 692e 9c3d 417a 6abc ee6d 08be f44d 1ebe
000001d0: 585e fe3d cd93 d1bd 562c 6a3c 1c26 4d3c
000001e0: eee9 f8b0 e37d b43c 9aff 573d 1aa7 21a7
000001f0: 3e54 883d 8e42 aebb b320 73bd c825 6a3d
00000200: 1779 afbd 71e8 853e 9e2f 9933 17b0 d53d
00000210: 6cb6 bcbb f316 abbc 8f11 083e 9e37 ed3d
00000220: 8efa 042b 6256 06bf bb05 ddbd 2ed8 fbbc
00000230: 9a6f 422b 37a2 0ebe 7187 823c 29d1 b13c
00000240: 7e5e 21be 96a3 12ba e4b3 35bc 7dd8 66bd
00000250: 2d85 55bc 253a e7bd 15db ae3d 63bb 3b3d
00000260: d999 393d 858e 94ba 3594 0fbd 8cd8 c63d
00000270: 134e ee3c 8ccb 033e 007b 1933 db2e ec3d
00000280: 8c13 1e3b 478a ecba 783b 0abd 76de d4bd
00000290: 7b6a 3333 06e7 dcbd 7f65 483d aa8f d03b
000002a0: 332d 10bd 8ef2 6f3d afdc 023e 8860 34bb
000002b0: f649 a13d 68c5 9d01 a5f6 c63d 271d aa3e
000002c0: bded 5bbe c31e f3bc 683d 9800 eb87 e53c
000002d0: 4dd6 3a3e 006b 1b3c 6df2 2bbc 4017 50bd
000002e0: c6d4 4733 7986 413c 93d1 ff3d 6b38 ce2c
000002f0: 98d1 14bd 39fd 173c 012e 4d3d 11d2 16be
00000300: b69a 00b8 d9a0 2cb9 8021 1f01 b0bc 57b9
00000310: d470 33b9 8047 c600 944a 27b4 c458 09b9
00000320: 181f 6601 6d00 43b5 0605 21b8 9ede f3b6
00000330: f081 6400 bcbf b4b6 3e04 38ba 904c 68b8
00000340: dff6 97b4 b6c1 4701 9193 dbb7 082e a5b3
00000350: b451 97b5 1bc0 6fb9 f454 86b8 4cff cdb9
00000360: dbef 8bb9 48b1 92ae 1387 42b6 007b 87b9
00000370: aa7c 39b9 94bc 4eb9 b0a4 bb80 964a 81b8
00000380: 4188 37b9 68b9 68ba f87e 6cb8 adb7 bcb9
00000390: d807 7c81 7f18 79b5 b863 0aba 3932 6bb8
000003a0: 248f 5cb7 4883 ebb4 72da 48b4 dd81 4eba
000003b0: 06c7 46b8 8a86 b401 eddf bcb9 dca5 e2b8
000003c0: c546 1db6 dc5b 9eb7 55ed c7a6 c175 c8b7
000003d0: 7e9e 18b7 e321 c3b4 4ae6 30b9 999d b2b2
000003e0: 602a 7f80 2ca3 84b9 7c84 89b7 0ce9 2d01
000003f0: 5099 10b8 544b 66b9 1943 50b9 26ac fdb6
0.038576797 -0.04762682 4.784597e-11 0.07993416 0.008496861 0.020132726 0.13228448 -0.03700541
1.5325548e-18 0.07408257 0.01815253 0.06609699 1.9700737e-18 0.16350166 0.009101206 0.048454545
0.18837537 0.00029356976 -0.030552994 -0.06596076 0.045646966 -0.003484053 0.0396795 -0.07132492
0.09387591 -0.3978234 -0.025141027 -0.042121984 0.09408535 0.016920665 2.6845364e-11 0.023299972
-0.12566456 0.0425199 -0.032246742 -0.1268082 2.3994272e-11 0.014106676 -0.06061043 0.11895792
0.09618167 0.086909354 -0.041912735 -4.9200025e-06 0.093690746 -1.4416849e-38 0.0034279202 0.121283196
-0.10156508 -0.118852444 -0.54502636 0.048302323 0.14477375 0.025830481 -0.09926283 -0.00025175087
1.7874906e-11 -0.0041037104 0.10787865 4.7398457e-19 -0.14734027 -0.0066358875 -0.10680071 0.15810497
-0.01709496 0.13231738 -3.2378322e-09 0.035855986 0.09814359 -0.029685287 0.009843362 -0.061816122
-1.4132156e-19 0.08799264 0.084958114 0.027212877 -9.11908e-21 -0.1200687 0.021021837 0.0028619694
0.06404666 -0.00031429148 0.09512855 0.0652918 0.1404462 -0.018391637 -0.039742168 -0.00310377
0.06502201 -0.19864139 -0.08847165 -0.016555147 0.07259096 0.10759349 -1.1484342e-09 0.08199472
0.0018717592 -0.07316383 -0.38003632 -0.25199303 -1.686022e-09 0.15468252 -0.028563969 0.0009225423
0.06129301 -0.029572956 0.043265123 -0.06545535 -0.037020296 1.973049e-39 0.09068951 -0.07954463
0.076260395 -0.014311374 -0.13323185 -0.15459424 0.124203384 -0.10233269 0.014292797 0.012521293
-1.8110862e-09 0.022032684 0.052733995 -2.2433824e-15 0.06656693 -0.0053179925 -0.059357356 0.057164937
-0.08568018 0.261539 7.133279e-08 0.10433977 -0.005759051 -0.020884966 0.13287948 0.11582874
4.7243535e-13 -0.5247556 -0.107921086 -0.030742731 6.9077524e-13 -0.13929068 0.015933724 0.02170618
-0.15758702 -0.0005593834 -0.011090253 -0.056358803 -0.01303224 -0.11290387 0.0853788 0.045833003
0.045312736 -0.0011333978 -0.03505345 0.09709272 0.029089963 0.12870616 3.5734956e-08 0.115323745
0.0024120538 -0.0018046581 -0.03374812 -0.103939936 4.177353e-08 -0.10786252 0.04892492 0.0063647823
-0.035199355 0.058580928 0.12779497 -0.0027523357 0.07875435 5.7955956e-38 0.097150125 0.33225366
-0.21477409 -0.029677754 1.3981024e-38 0.028018912 0.18245812 0.00948596 -0.0104948105 -0.050803423
4.6526814e-08 0.011811846 0.12491145 5.861136e-12 -0.036332697 0.009276682 0.0500927 -0.14728571
-3.0661664e-05 -0.00016463119 2.9227723e-38 -0.0002057429 -0.00017112802 1.8209078e-38 -1.5580218e-07 -0.00013098406
4.2266637e-38 -7.264378e-07 -3.839007e-05 -7.2678804e-06 9.230162e-39 -5.386739e-06 -0.0007019675 -5.5384415e-05
-2.8305564e-07 3.6689508e-38 -2.617555e-05 -7.691784e-08 -1.1274155e-06 -0.00022864381 -6.405442e-05 -0.00039290858
-0.00026690852 -6.670803e-11 -2.8986876e-06 -0.0002584085 -0.00017689416 -0.00019715942 -1.7232317e-38 -6.165092e-05
-0.00017502999 -0.00088777253 -5.6385034e-05 -0.00035995003 -4.6290718e-38 -9.2795375e-07 -0.00052791415 -5.607514e-05
-1.3146349e-05 -4.386768e-07 -1.8705921e-07 -0.00078776275 -4.7392234e-05 6.631461e-38 -0.00036024992 -0.000108074135
-2.3436016e-06 -1.8877843e-05 -1.3872728e-15 -2.3896691e-05 -9.096808e-06 -3.6346236e-07 -0.00016870457 -2.0793594e-08
-1.1678309e-38 -0.00025298574 -1.6393366e-05 3.1942285e-38 -3.447506e-05 -0.00021962571 -0.00019861422 -7.5600283e-06

decoder.4.bias f4 [128]
00000000: 6d95 3c3d 3bb7 033e 7a68 9c3d 5a90 88b6
00000010: 799e 723d 280f 373d aba7 9cb3 16ae 903d
00000020: 77df 573e 397e c0b4 e36d d63d a402 963d
00000030: 45d6 413e eee5 ca3d 37dc 073e 004f 52b5
00000040: 3d1a fe3c 8d16 7e3e 2745 04b4 5392 ee3d
00000050: 1ac7 9f3c 7d45 f73d d0c8 79b4 66fb 94b2
00000060: 4340 813e f5d1 f63d 230c 8ab4 10ac f2b3
00000070: 4ff3 a7b4 61a5 0b3c 4f68 ca3d 7be4 813d
00000080: 829e e53d ecff edb4 d2df 0a3e e1d8 2a3e
00000090: f051 e83d bee5 393e c7c6 353d e50d df3d
000000a0: 852f 9d3d 1129 7f3e 3052 3dbd 9085 1b3e
000000b0: bd8a 6a3d 71fe 2a3d f460 053e 3eed 12b8
000000c0: a15d 6d3e 46d6 1f3e af89 943d 100c 023e
000000d0: 84bc 05b5 16e1 d23d 0e55 223e ef01 0c3e
000000e0: 4e99 cab4 33fe 8b3c 3161 5e3e 8d10 b33e
000000f0: 192e 223e c062 713d c514 43b4 e53e 1a3e
00000100: 3cc9 f43d 41b6 413d 78ab a13d 1a2b 8e3d
00000110: 1abb 04b2 27db 193e f0be 773e d5da 95b4
00000120: 24ca 5fb2 2c8c 07b5 95fa 533e 064c 133e
00000130: 7ad7 aab4 aa19 b0b4 28f2 833e 2793 163d
00000140: 8783 0a3e 7d1b fcb3 416d 29b4 12cf f2b4
00000150: d869 78b4 8430 4a3e dc1b 5e3d e15a fc3d
00000160: 5c03 a6bc 4bdb 1a3d f385 0a3e 3452 643e
00000170: 6e34 79be 2c06 e03d 18c2 54ad 26c8 a03e
00000180: 4340 7baf 5bea 09b6 1660 04b5 5201 873d
00000190: 00b2 493e 261e 7ab2 1749 123e ae15 4eb1
000001a0: 1633 193e a636 033e a1da ae3d b8ff 63be
000001b0: f9c0 233d 71fb ee3d 5074 333e 4649 d93d
000001c0: e30b d3be cda6 0e3d b196 0bb5 1aec 9f3e
000001d0: a2f7 033e 87d0 dc3d 7411 85b4 8ab5 6bba
000001e0: 42d2 fd3d 1464 043e 8d8b 823e fc24 8a3e
000001f0: 9e58 02b5 3297 0bb3 3d7b 43b4 12ff 6fad
0.04604094 0.12862866 0.07637115 -4.0699206e-06 0.059233163 0.04469219 -7.294815e-08 0.07064454
0.21081339 -3.5854626e-07 0.10470178 0.073247224 0.18929394 0.09907137 0.13267599 -7.8346056e-07
0.03101837 0.2481329 -1.2318615e-07 0.11649003 0.019504119 0.12073801 -2.3262987e-07 -1.734379e-08
0.2524434 0.12051765 -2.5713334e-07 -1.1300301e-07 -3.1283204e-07 0.008523316 0.098831765 0.06342407
0.112118736 -4.4330898e-07 0.13561943 0.16684295 0.11343753 0.18154046 0.044379022 0.10891322
0.07675079 0.2491801 -0.04622096 0.15187669 0.057261217 0.04174656 0.13025266 -3.503006e-05
0.23180248 0.15609083 0.072528236 0.12699914 -4.982069e-07 0.10296838 0.15852758 0.13672613
-3.7736976e-07 0.017088985 0.21716763 0.34973565 0.15837897 0.058932066 -1.8168346e-07 0.15063055
0.11952445 0.04729295 0.07894033 0.06941815 -7.725953e-09 0.15025006 0.2419393 -2.7912634e-07
-1.302627e-08 -5.0495396e-07 0.20701058 0.1438447 -3.1821747e-07 -3.2801228e-07 0.25770688 0.03676143
0.13526736 -1.17396645e-07 -1.5779098e-07 -4.5226676e-07 -2.3135306e-07 0.1974507 0.054225788 0.12322021
-0.020265274 0.03780679 0.1352766 0.22296983 -0.24336407 0.10938677 -1.2093902e-11 0.314027
-2.2851147e-10 -2.0551004e-06 -4.9313655e-07 0.06592049 0.19696808 -1.455877e-08 0.14285694 -2.9989269e-09
0.14960894 0.12813815 0.08537794 -0.22265518 0.039978955 0.116690524 0.17524838 0.10609679
-0.41220006 0.034827042 -5.200082e-07 0.3123482 0.12887433 0.10781961 -2.478588e-07 -0.000899159
0.12393619 0.12928802 0.25497094 0.26981342 -4.855773e-07 -3.250097e-08 -1.8205624e-07 -1.3642214e-11
