yeeef_workspace/ckpt/e0000.pt (torch_old, 882114 bytes, 16 tensors)

_encoder.0.weight f4 [128, 784]
0.032425545 0.014218492 0.020754652 0.041429643 0.05146337 0.03982765 0.037196532 0.053192865
0.0015820187 -0.021928702 0.022636542 0.030607123 0.059978005 0.030200338 0.036101848 0.055146776
0.04283693 0.051058672 -0.010347445 -0.0064969733 0.012795901 0.03180039 0.016304249 0.031144315
0.017132895 0.026923127 0.05098982 0.014838537 0.017002817 0.043589912 0.05535589 0.03580352
0.04538793 0.047846437 0.024807256 0.017936237 -0.002362268 -0.06214456 -0.001950756 0.027231162
0.038607895 0.049929332 0.012944857 0.033862703 0.013852554 0.019553531 0.00019314353 -0.01232128
0.012696862 0.012794943 0.03692828 0.027006077 0.02478057 0.054648813 0.016096018 0.045526166
0.026291924 0.020594213 0.03836001 0.014195592 0.017729089 0.023409303 0.021581171 -0.0005135237
-0.005995224 -0.028815132 0.029546056 0.021005232 0.0108962385 0.01618966 0.013542439 0.0057198317
0.00574623 0.015197523 0.020301973 -0.016966308 0.0079960665 -0.012111956 0.005612125 0.018656217
0.0065521835 0.04528369 0.0529261 0.032563593 0.0511677 0.022660382 0.028556937 0.027730376
0.013849754 -0.0074297637 -0.006894511 0.009719587 -0.019796781 -0.01182601 0.035526372 0.01912305
0.023506213 0.020493342 0.019852886 0.042242296 0.04089986 0.02048151 0.013693667 -0.014024836
-0.0008644634 -0.014464221 -0.00055500714 0.008700009 0.02832309 0.0418576 0.02103666 0.024582889
0.040935315 0.044599462 0.014387088 0.03318543 0.010737292 0.018538896 0.013316421 0.010226958
-0.032356832 -0.004714641 0.027124485 0.015266363 0.032629598 0.028100854 0.013986978 0.0154106775
0.0132777775 0.015724989 0.011122669 -0.022628518 -0.038208056 0.00130707 -0.004540659 0.012035546
0.0030756865 0.0016336746 0.037865352 0.024589932 0.032714978 0.022128055 0.013836362 0.035699375
0.017807685 -0.00030279704 0.0088313995 0.0083469935 -0.017788837 0.00419953 0.014798342 0.013693137
0.013907024 0.012960381 0.038109817 0.036791604 0.03998138 0.018337354 0.021323593 -0.012011472
-0.0064809136 -0.007879414 -0.0068850373 0.018596483 0.0106697865 0.010603487 0.03925039 0.040856067
0.037517745 0.012236381 0.033459168 0.024461342 0.023978971 -0.0069962647 -0.016209092 -0.006641528
-0.014970382 -0.009199355 0.0118778115 0.020813067 0.026460402 0.018283807 0.019242857 0.032015793
0.020825114 0.0011428016 0.0076200473 -0.01472887 -0.032656476 0.0009499105 -0.019154178 0.006857851
-0.02050697 -0.014804677 0.005651071 0.03417472 0.010758177 0.007148899 0.02460003 0.0013914406
0.0038578296 0.0025696254 -0.017875863 0.0029469002 -0.027214188 0.0031391892 0.02594751 0.021669928
0.037302814 0.021324925 0.008918686 0.008796206 -0.0150613 0.010409673 -0.006868446 -0.02866886
-0.03790887 -0.020799682 -0.02982718 0.0026401614 -0.0038246543 -0.007845086 0.006108718 0.010215396
0.023387114 0.03468399 0.020454185 -0.00021963556 -0.011826386 -0.010431666 -0.011773342 -0.0006582657
-0.03427495 0.010720607 0.017617835 -0.0098354705 0.008967715 -0.004903891 -0.024854423 -0.024712078
-0.035871275 -0.015931202 -0.023111591 -0.042403888 -0.05627883 -0.06636245 -0.04981829 -0.03167745
-0.037725072 -0.031418413 -0.027658707 0.041172292 0.009364331 0.041015185 0.036972757 0.01693792
00000000: a6d0 043d aef4 683c a905 aa3c 21b2 293d
00000010: 41cb 523d 5122 233d 645b 183d c3e0 593d
00000020: bd5b cf3a d2a3 b3bc 4570 b93c cabb fa3c
00000030: 7fab 753d b366 f73c 88df 133d 96e1 613d
00000040: c775 2f3d e622 513d 5488 29bc 90e4 d4bb
00000050: e6a5 513c 2041 023d 7d90 853c 5d22 ff3c
00000060: 495a 8c3c e48d dc3c b4da 503d 561d 733c
00000070: 7e49 8b3c 568b 323d dcbc 623d b6a6 123d
00000080: b2e8 393d a0fa 433d 9638 cb3c 04ef 923c
00000090: 48d0 1abb 4b8b 7ebd 82b0 ffba e313 df3c
000000a0: 5023 1e3d b382 4c3d aa16 543c 9eb3 0a3d
000000b0: d3f5 623c ba2e a03c 9286 4a39 32df 49bc
000000c0: 8006 503c e1a1 513c 1c42 173d d93b dd3c
000000d0: 9f00 cb3c 6fd7 5f3d ccdb 833c a579 3a3d
000000e0: 2962 d73c 32b5 a83c 631f 1d3d a194 683c
000000f0: 983c 913c dec4 bf3c ffca b03c fe9d 06ba
00000100: 9673 c4bb b60d ecbc 920a f23c 2a13 ac3c
00000110: 2386 323c 2ea0 843c 1be1 5d3c 6d6d bb3b
00000120: df4a bc3b 08ff 783c 5350 a63c edfc 8abc
00000130: ef01 033c 3a71 46bc ebe5 b73b ecd4 983c
00000140: b3b3 d63b 647b 393d 0ac9 583d 6761 053d
00000150: 3995 513d 44a2 b93c 3df0 e93c d02a e33c
00000160: 14ea 623c 6075 f3bb 5aeb e1bb e73e 1f3c
00000170: dc2c a2bc e2c1 41bc 1a84 113d f1a7 9c3c
00000180: 1a90 c03c a7e1 a73c 85a2 a23c 4206 2d3d
00000190: 9d86 273d d7c8 a73c 675b 603c 6dc8 65bc
000001a0: 289d 62ba 57fb 6cbc e67d 11ba 7c8a 0e3c
000001b0: d305 e83c e072 2b3d 1355 ac3c 0e62 c93c
000001c0: caab 273d edad 363d d2b7 6b3c 72ed 073d
000001d0: 77eb 2f3c e2de 973c 1e2d 5a3c f98e 273c
000001e0: 9988 04bd 467d 9abb 2b34 de3c c41f 7a3c
000001f0: 9da6 053d c333 e63c a329 653c 117d 7c3c
00000200: 098b 593c b1d1 803c db3b 363c 715f b9bc
00000210: 0d80 1cbd fe51 ab3a cfc9 94bb bd30 453c
00000220: 7591 493b 0621 d63a b318 1b3d d370 c93c
00000230: 2400 063d e545 b53c e9b1 623c 8239 123d
00000240: 6ce1 913c bbc0 9eb9 93b1 103c d4c1 083c
00000250: e5b9 91bc 369c 893b bf74 723c 2e59 603c
00000260: 49da 633c c757 543c 0a19 1c3d cbb2 163d
00000270: 84c3 233d 3838 963c d1ae ae3c c4cb 44bc
00000280: d85d d4bb a818 01bc e19b e1bb a757 983c
00000290: 54d0 2e3c 3fba 2d3c 04c5 203d b158 273d
000002a0: 35ac 193d 1a7b 483c 7b0c 093d 2763 c83c
000002b0: 8c6f c43c ec40 e5bb eec8 84bc 2da1 d9bb
000002c0: 5546 75bc e4b8 16bc 279b 423c 2a80 aa3c
000002d0: 7cc3 d83c ecc7 953c 32a3 9d3c fe22 033d
000002e0: 6e99 aa3c 0fca 953a 97b1 f93b 5c51 71bc
000002f0: ccc2 05bd 6a03 793a 39e9 9cbc d3b7 e03b
00000300: 3cfe a7bc 518f 72bc 9f2c b93b cbfa 0b3d
00000310: 1143 303c 5041 ea3b 0186 c93c 0061 b63a
00000320: a4d3 7c3b 2967 283b 6770 92bc c820 413b
00000330: 4af0 debc dbba 4d3b df8f d43c 2285 b13c
00000340: d6ca 183d 9cb1 ae3c ae1f 123c f61d 103c
00000350: acc3 76bc 558d 2a3c b310 e1bb f5da eabc
00000360: 5546 1bbd 1864 aabc 2158 f4bc 8f06 2d3b
00000370: 0da7 7abb ad88 00bc a42b c83b 7a5e 273c
00000380: 5596 bf3c cd10 0e3d 898f a73c f94d 66b9
00000390: 75c3 41bc 94e9 2abc fae4 40bc 778f 2cba
000003a0: e463 0cbd 7ca5 2f3c 4753 903c f424 21bc
000003b0: 53ed 123c d2b0 a0bb 819b cbbc fc70 cabc
000003c0: c2ed 12bd 2782 82bc 8554 bdbc b3af 2dbd
000003d0: a184 66bd 09e9 87bd 430e 4cbd 37c0 01bd
000003e0: 9b85 1abd 98b0 00bd 8394 e2bc 47a4 283d
000003f0: da6c 193c 8aff 273d bf70 173d 65c1 8a3c

_encoder.0.bias f4 [128]
-0.048379578 -0.027892372 -1.6370041e-10 0.025605403 -0.07048544 -0.020368863 0.018849827 -0.09991011
-0.0047117723 -0.034418426 -0.034684174 -0.013031417 -0.036186457 5.654246e-13 0.014815822 -0.008930088
-2.0566772e-06 -0.03585533 -0.018412923 -0.030781757 -3.3125254e-08 -0.010642516 0.0029646817 -0.04886901
-0.022592325 0.028378416 -0.031992685 4.841554e-05 -0.031046225 -4.564093e-06 -0.017696068 0.0045274957
-0.033159453 0.036775652 -0.024912393 -0.010673868 -0.009647833 -0.042913012 -0.05676503 -0.014599922
-0.032324933 -0.033538375 -0.01703885 0.006198439 -0.0067198286 -0.027162759 -4.3545844e-18 -0.03931211
0.02425143 -0.06378597 -0.07006121 0.060483284 -0.020036086 6.2279025e-05 -6.6672534e-09 -0.07786871
-0.011636822 -0.0087128235 -0.0629616 -0.037035238 0.025660066 -0.05205294 -0.0662884 -0.050247654
0.026325518 -0.036100302 -0.0002074215 -0.018860528 -0.07808306 -0.009304268 -0.00091056083 -0.031212464
-5.459774e-22 -0.04289838 -0.028999915 -0.01473251 -0.01431598 -0.04958589 -0.017450672 -0.03595858
-0.0060102525 -0.017594969 -0.0082187 -0.0022180432 -3.0900574e-11 1.1034251e-09 -0.04222761 2.1363935e-18
-0.039010733 -8.096004e-07 -0.012347626 0.021672996 -0.05764447 -1.8101687e-14 -0.019700628 -0.048618134
-1.6883646e-20 -0.08335363 -0.017722629 -0.050854318 -0.052453063 -0.020368448 -0.07640097 0.05810147
-1.02069005e-16 -0.06076565 -0.0213901 -0.010143103 -0.03997931 -0.019658152 -0.027120177 -0.0054894895
-0.018413031 -0.01638918 -0.004323361 -0.028724594 -0.008334479 -0.023319062 -0.02526026 -0.034136567
-0.0038308888 -0.027903263 -0.064735815 -0.06778014 -0.051508386 1.5155869e-09 -0.03710199 -0.035980966
00000000: aa29 46bd 8b7e e4bc 92fd 33af 6cc2 d13c
00000010: ac5a 90bd 9adc a6bc f46a 9a3c ac9d ccbd
00000020: 3665 9abb 56fa 0cbd fe10 0ebd b981 55bc
00000030: 4038 14bd 2327 1f2b 10be 723c 814f 12bc
00000040: 7205 0ab6 0add 12bd b3d6 96bc 062a fcbc
00000050: 9a45 0eb3 f35d 2ebc 1b4b 423b df2a 48bd
00000060: 8a13 b9bc da79 e83c c30a 03bd ca11 4b38
00000070: a754 febc 4325 99b6 58f7 90bc 635b 943b
00000080: 35d2 07bd 11a2 163d 1315 ccbc 72e1 2ebc
00000090: f211 1ebc 8ec5 2fbd 7382 68bd 8334 6fbc
000000a0: 2667 04bd 895f 09bd 0f95 8bbc 461c cb3b
000000b0: 0232 dcbb 6f84 debc e3a7 a0a2 bc05 21bd
000000c0: efaa c63c 38a2 82bd 407c 8fbd 52bd 773d
000000d0: b822 a4bc cc9b 8238 c815 e5b1 a179 9fbd
000000e0: 5ea8 3ebc 3bc0 0ebc 03f2 80bd 43b2 17bd
000000f0: 0f35 d23c 7735 55bd 36c2 87bd 7cd0 4dbd
00000100: 9da8 d73c e9dd 13bd 497f 59b9 6581 9abc
00000110: 03ea 9fbd ee70 18bc b4b2 6eba 48b1 ffbc
00000120: f502 259c 36b6 2fbd 3b91 edbc a060 71bc
00000130: 928d 6abc 931a 4bbd b6f4 8ebc 4e49 13bd
00000140: a7f1 c4bb 5323 90bc baa7 06bc 975c 11bb
00000150: f4e6 07ae 52a7 9730 dcf6 2cbd 55a3 1d22
00000160: b8c9 1fbd 5153 59b5 b24d 4abc 918b b13c
00000170: 9c1c 6cbd a60b a3a8 3663 a1bc cf23 47bd
00000180: 2776 9f9e 4fb5 aabd 0c2f 91bc 9e4c 50bd
00000190: 06d9 56bd bbdb a6bc 1d78 9cbd cffb 6d3d
000001a0: e85a eba4 67e5 78bd 4a3a afbc 422f 26bc
000001b0: 58c1 23bd 220a a1bc 222b debc 2de1 b3bb
000001c0: edd6 96bc 9a42 86bc fbaa 8dbb d74f ebbc
000001d0: 578d 08bc 9e07 bfbc 9bee cebc c9d2 0bbd
000001e0: a60f 7bbb 6295 e4bc 3694 84bd 50d0 8abd
000001f0: 75fa 52bd f94c d030 42f8 17bd c760 13bd

_encoder.2.weight f4 [64, 128]
0.0332309 0.016827252 1.2814937e-10 0.015884602 -0.0028878108 -0.017627131 0.014740942 -0.021694822
0.007316573 -0.01567531 0.109621875 -0.0014237266 -0.018857557 -1.9820235e-38 -0.040391974 0.0006416774
-4.161282e-38 -0.0053661047 0.08788516 0.08990746 3.37823e-19 -0.0029262048 -0.0018313886 -0.0070942813
0.02028667 -0.015665665 0.16737778 6.4029665e-38 0.01979288 -2.0897871e-06 -0.00785673 -0.10890997
-0.014994684 -0.11840162 0.10137371 -0.040246762 -0.019739738 0.010092936 0.033062745 0.0015573628
0.020164534 -0.01930328 0.014478521 0.023288421 0.025176523 0.15610111 6.289857e-39 0.029816678
-0.059971754 0.10582991 0.0036393292 -0.08207224 -0.03717772 -1.9674815e-38 6.318632e-33 0.12580585
0.005113925 -0.017472733 0.0028584348 0.027147196 0.09723143 0.007348578 0.15803225 -0.004456131
0.057063144 0.034505695 0.0155002605 0.04019354 -0.0041852607 0.047221534 -0.0018535361 -0.011713261
1.3546406e-08 0.027552307 0.021637019 0.10016727 0.09445606 0.023949469 0.00052804255 -0.038575713
0.08992611 -0.026037043 0.10258435 0.0042198906 3.8733526e-38 5.395156e-39 0.054976523 -5.008301e-38
0.0016137081 5.1017953e-38 -0.0334528 0.007449319 -0.02346614 4.0646954e-38 0.008396524 0.009938885
-6.153465e-38 0.003201759 -0.018622216 -0.023195358 -0.024034884 0.060372274 -0.0015997133 -0.15608282
2.8534416e-15 0.050101843 0.0771998 -0.03491521 -0.027302079 0.019622793 -0.004604811 -0.020220064
-0.03374011 0.02230087 -0.07966298 0.020856611 0.0040887557 0.012623652 0.0006804994 0.00023707323
-0.011799405 -0.010152448 0.110728346 0.055004533 0.001420287 7.698154e-10 -0.018845921 0.0578127
0.041850355 0.017864171 -0.00046502255 0.015339247 0.042931944 0.0060800286 0.105288416 -0.013406994
-0.0028851198 0.066976294 -0.0015855669 0.002005481 0.08055466 2.1951193e-38 0.027720354 0.017330807
-5.278567e-38 -0.0017294441 0.027250927 0.053462736 6.890106e-09 -0.0013990746 -0.0053064087 0.070209086
0.08305444 -0.07962317 0.06573795 3.5787412e-08 0.011469507 1.7879952e-06 0.03963298 -0.028755827
0.08101562 -0.060058117 -0.041911148 0.0036578246 -0.02372004 0.11784256 0.14378147 -0.0065030726
0.015675751 -0.008889447 0.018058822 0.039635036 0.0070851087 -0.061541036 7.155372e-38 -0.09230459
0.05239702 0.07078614 -0.07539808 -0.12043407 -0.021949751 3.0299683e-38 6.3191544e-12 0.23552027
-0.005916582 -0.0064839087 -0.023142772 0.008472348 0.050202664 -0.023623988 0.04716205 0.014557084
0.045936465 0.07138692 -0.026282633 0.074501716 0.008773795 0.0052770004 0.06501099 0.052384075
0.00034307517 -0.0031926923 0.058440875 0.036981344 0.082213156 0.0038489725 0.008198706 0.026322717
-0.07096418 -0.018987447 0.08774073 0.012538845 -7.11194e-40 1.5979436e-18 0.1367627 2.3305533e-38
0.018060971 -1.9403186e-38 -0.060115345 -0.017088465 0.059013154 3.3229156e-38 0.039826345 0.109518036
-2.5010084e-38 -0.052940298 -0.004406481 0.05563644 -0.010588353 0.056095347 0.049730465 -0.04336238
6.2269607e-09 0.06648825 0.08385689 0.018042753 0.02130092 -0.019222347 0.10978145 0.008264443
-0.041665062 0.044167154 -0.015903266 0.010759516 0.0017858099 -0.028218621 0.0118295625 0.05873211
-0.003967665 -0.033745136 0.097191885 -0.030187307 -0.057687994 1.0681297e-38 -0.01789994 0.017837722
00000000: 201d 083d 4ed9 893c d7e6 0c2f 6d20 823c
00000010: 6d41 3dbb c666 90bc fe83 713c 57b9 b1bc
00000020: ddbf ef3b 8269 80bc 6f81 e03d 569c baba
00000030: 2a7b 9abc c0d2 d780 0e72 25bd 3e36 283a
00000040: ce8f 6281 26d6 afbb 23fd b33d 6721 b83d
00000050: 5e6a c720 92c5 3fbb 340b f0ba 2577 e8bb
00000060: 3b30 a63c 4855 80bc 1565 2b3e 2a4e ae01
00000070: ae24 a23c 453e 0cb6 84b9 00bc 310c dfbd
00000080: 43ac 75bc 8c7c f2bd 059d cf3d cad9 24bd
00000090: 3bb5 a1bc d85c 253c cd6c 073d 6d20 cc3a
000000a0: 1830 a53c ea21 9ebc 5237 6d3c 5cc7 be3c
000000b0: ff3e ce3c f8d8 1f3e 907d 4400 1b42 f43c
000000c0: f1a4 75bd 5abd d83d d081 6e3b 7e15 a8bd
000000d0: aa47 18bd 613d d680 9c3b 030a 40d3 003e
000000e0: b692 a73b fa22 8fbc 9454 3b3b cc63 de3c
000000f0: 4621 c73d 57cc f03b 35d3 213e bc04 92bb
00000100: 0bbb 693d d855 0d3d cef4 7d3c fba1 243d
00000110: 8324 89bb 5e6b 413d 5af2 f2ba fae8 3fbc
00000120: b9b9 6832 60b5 e13c 1e40 b13c 7f24 cd3d
00000130: 2e72 c13d ad31 c43c 566c 0a3a 9101 1ebd
00000140: 2e2b b83d a34b d5bc be17 d23d 0247 8a3b
00000150: a8e2 5201 80bf 3a00 102f 613d c456 8881
00000160: 0f83 d33a 53e2 8a01 ce05 09bd 6b19 f43b
00000170: 103c c0bc 964d 5d01 9391 093c b5d6 223c
00000180: 6483 a781 9ad4 513b 9e8d 98bc 3104 bebc
00000190: cee4 c4bc eb48 773d 79ad d1ba 2dd4 1fbe
000001a0: b59c 4d27 9737 4d3d ee1a 9e3d 4003 0fbd
000001b0: 9ca8 dfbc fbbf a03c f4e3 96bb 8ca4 a5bc
000001c0: 1233 0abd 50b0 b63c 5826 a3bd 7cdb aa3c
000001d0: f8fa 853b 6fd3 4e3c 8b63 323a dc96 7839
000001e0: 4b52 41bc 7456 26bc 8bc5 e23d 6f4c 613d
000001f0: ec28 ba3a f19a 5330 c362 9abc 02cd 6c3d
00000200: 476b 2b3d e257 923c 45ce f3b9 7751 7b3c
00000210: 68d9 2f3d fa3a c73b 74a1 d73d 02a9 5bbc
00000220: 4714 3dbb de2a 893d ccd2 cfba 636e 033b
00000230: d7f9 a43d ff06 ef00 cc15 e33c 56f9 8d3c
00000240: 3eb2 8f81 84ae e2ba 563d df3c befb 5a3d
00000250: 03be ec31 2761 b7ba 62e1 adbb c8c9 8f3d
00000260: 7218 aa3d 7911 a3bd 9ea1 863d adb4 1933
00000270: 99ea 3b3c 0cfb ef35 3156 223d 5791 ebbc
00000280: 84eb a53d 80ff 75bd 06ab 2bbd 1db8 6f3b
00000290: 8850 c2bc 7157 f13d 733b 133e ba17 d5bb
000002a0: 6f6a 803c 0ba5 11bc 18f0 933c 5958 223d
000002b0: 332a e83b 7412 7cbd aac9 c201 300a bdbd
000002c0: 429e 563d 53f8 903d 4f6a 9abd 23a6 f6bd
000002d0: f7cf b3bc 98f7 2401 e255 de2c 3a2c 713e
000002e0: e3df c1bb f876 d4bb e995 bdbc 9acf 0a3c
000002f0: 4fa1 4d3d 1887 c1bc fe2c 413d d680 6e3c
00000300: e027 3c3d 4e33 923d ad4e d7bc 5b94 983d
00000310: f7bf 0f3c b0ea ac3b 7b24 853d af90 563d
00000320: c5de b339 7d3c 51bb b35f 6f3d c079 173d
00000330: 5f5f a83d 0b3f 7c3b de53 063c bda2 d73c
00000340: ab55 91bd 908b 9bbc 69b1 b33d ba6f 4d3c
00000350: 85be 0780 9ad0 eb21 850b 0c3e 58c6 fd00
00000360: 9af4 933c 3048 d380 823b 76bd 1cfd 8bbc
00000370: c7b7 713d afea 3401 f320 233d fe4a e03d
00000380: f82a 0881 edd7 58bd 3e64 90bb 09e3 633d
00000390: c57a 2dbc 3cc4 653d 2cb2 4b3d c09c 31bd
000003a0: edf4 d531 fe2a 883d 29bd ab3d 65ce 933c
000003b0: 447f ae3c 2f78 9dbc 19d5 e03d 9667 073c
000003c0: fca8 2abd 9ee8 343d 9147 82bc ae48 303c
000003d0: d611 ea3a bd2a e7bc c8d0 413c 1591 703d
000003e0: 3003 82bb 5738 0abd 8a0c c73d 5f4b f7bc
000003f0: 3f4a 6cbd 1c4f 7400 e5a2 92bc 6a20 923c

_encoder.2.bias f4 [64]
-0.07523437 0.013955528 -0.0027899046 -0.08272517 -0.061626285 -0.07093383 -0.061596747 -0.121357135
0.058967903 0.055738054 0.030176528 0.05627695 -0.038747918 -0.0031803236 -0.018615188 -0.0011291519
-0.0003936508 -0.03901564 -0.037749145 0.05541057 -0.004188631 -0.011850331 -0.028237216 -3.609757e-14
-0.049340595 0.07988929 -0.09593415 -0.0577605 -0.0050679566 -0.0056345053 -0.03360598 0.050661594
-0.016416132 -0.11724758 -0.01626744 -0.010726447 -0.013277917 0.096602306 0.053902153 2.1386901e-08
-0.118804544 -0.085006185 -0.008216902 -0.001393877 -0.004334201 -0.048128456 -0.024167899 0.04040686
-0.07641311 -0.08510671 0.009889043 -0.0007145972 -0.007350737 -0.0029279771 0.045513097 0.046209656
-0.04787282 -0.020025365 0.06740071 0.0040057623 0.0033483596 -4.627217e-05 0.041640975 -0.00682193
00000000: 7a14 9abd baa5 643c d5d6 36bb d06b a9bd
00000010: d86b 7cbd c245 91bd df4c 7cbd 178a f8bd
00000020: 5488 713d 964d 643d c434 f73c a982 663d
00000030: 23b6 1ebd fa6c 50bb e17e 98bc 0d00 94ba
00000040: ea62 ceb9 ddce 1fbd d99e 1abd 32f6 623d
00000050: c940 89bb e427 42bc bc51 e7bc aa91 22a9
00000060: 5d19 4abd ff9c a33d 2079 c4bd 4696 6cbd
00000070: 1a11 a6bb a8a1 b8bb 6da6 09bd 8882 4f3d
00000080: 207b 86bc 801f f0bd 4b43 85bc fbbd 2fbc
00000090: 9f8b 59bc 6ed7 c53d 81c8 5c3d 4bb6 b732
000000a0: cc4f f3bd b917 aebd 2fa0 06bc c0b2 b6ba
000000b0: ea05 8ebb 5822 45bd c2fb c5bc aa81 253d
000000c0: 7a7e 9cbd 6d4c aebd a705 223c ce53 3bba
000000d0: 74de f0bb 4ee3 3fbb f16b 3a3d 5646 3d3d
000000e0: 4a16 44bd 3c0c a4bc 6209 8a3d c542 833b
000000f0: 2770 5b3b 5d14 42b8 ba8f 2a3d 7f8a dfbb

_encoder.4.weight f4 [12, 64]
0.02919755 -0.046268307 0.0016277827 0.08348663 -0.0430284 -0.04397846 0.039886173 0.009248974
-0.05604164 -0.06237507 -0.05282492 -0.15844063 -0.04790228 -7.824663e-05 -0.017285632 -0.010683957
0.0002942101 1.9122306e-06 -0.028248543 -0.0016224176 -0.033738848 0.111727394 0.024528598 4.943212e-38
-0.039511673 -0.13998437 0.0059212698 -0.026835857 0.010741011 -0.002719651 3.4433717e-05 -0.052065175
-0.0014264343 0.05038352 0.03242113 -0.07374048 -0.0078043817 -0.117038056 -0.04244934 -4.5275578e-38
-0.008578124 0.023015337 0.0050076623 -0.009506624 -0.0002886942 -0.017869702 -0.024859447 -0.023428079
-0.008579267 0.009866802 0.019979723 2.838687e-38 0.052432958 0.13131852 -0.0048846444 0.0028264152
-0.12643519 -0.07246128 -0.05469864 -0.025594732 0.021701828 5.327196e-38 -0.028683545 0.01575911
-0.10046748 -0.034749497 -0.04715604 -0.032647803 0.07762766 -0.008199735 -8.498319e-05 0.012358538
0.1053878 -0.11019832 -0.047061197 0.028033143 -0.03436233 3.6417908e-10 2.6049684e-38 0.014531856
-1.6385615e-18 -0.021617861 -0.068967745 0.010958764 -0.01332382 0.039564185 0.07402743 7.188114e-38
0.031623982 0.09303438 0.18010853 0.008013707 0.016358517 0.020715317 0.018970562 -0.038854163
-0.0009770907 0.053751294 -0.08511943 -0.03915768 -0.029981785 -0.024609335 -0.029757017 -4.846086e-38
0.13847093 -0.09588067 -0.007111491 0.013663568 2.6252047e-09 -0.010765785 0.0014413764 -0.05391431
-0.18791977 -0.12296947 -0.07450285 -0.0050298455 0.10220444 -0.06630898 -0.0013332551 -0.053927522
0.106313504 0.1287291 0.085872725 -0.04598751 -0.017538985 1.3920079e-38 0.047640707 0.011106894
-0.04491707 0.15804322 0.017057143 0.07545315 0.039116845 0.12588198 -0.041559726 0.10577089
-0.06554799 -0.031928 0.03221955 0.047941893 0.13681254 -0.006486352 -0.0024452708 0.021081053
-0.0017846794 0.108103275 0.08497445 0.09023089 0.12499671 0.04300809 -0.0017503393 -2.5269144e-38
0.040933266 0.07708252 0.08148789 0.13439293 -0.026218174 0.05548428 0.016999971 -0.13907766
-0.021980375 0.06880302 0.10532932 0.1293549 0.009916376 -0.05092481 -0.007915815 0.007896465
0.06167632 -0.035703048 0.0833252 0.02037424 -0.00011906087 0.09978053 -0.0043571107 0.1142391
-0.0166432 0.1412456 0.03450055 -0.012774073 0.018751407 -0.13515331 -0.110500574 -0.025782017
0.092282996 0.06471919 0.0035049394 0.13144855 0.04027323 0.023651566 -0.0185352 0.0017984785
-0.00016066122 0.0028992158 0.009191597 0.09796311 0.06768438 0.026084056 -0.021585438 0.044330884
-0.05783842 -0.088207886 0.054797474 -0.058019035 -0.03844676 1.1360736e-33 -0.021049265 -0.0121606765
-0.0067455745 -0.0012624938 0.089921616 -0.14483222 -0.029163104 0.0094853435 0.0487988 4.7574924e-38
0.030887024 -0.1360659 0.012989715 0.0003778009 -0.029686604 -0.06806048 -2.5250132e-38 0.0800774
-0.003780958 0.04508703 -0.06542488 -0.11540281 0.010251591 -0.1476969 -0.021351967 -6.7879436e-38
-0.083651826 0.03661321 0.04597175 -0.006258615 -0.00032041382 0.004775736 0.013538131 -0.03180691
0.00013491501 0.1168969 0.005763379 -4.0334717e-38 -0.016663246 0.10598558 0.0886522 -0.0074166213
-0.11571875 -0.15552993 -0.08284023 -0.089857556 -0.006454829 -1.3186944e-06 0.08554466 0.00028921617
00000000: b32f ef3c d683 3dbd 535b d53a 0afb aa3d
00000010: 8c3e 30bd c222 34bd af5f 233d 0289 173c
00000020: eb8b 65bd 007d 7fbd f15e 58bd 433e 22be
00000030: 2e35 44bd 5718 a4b8 999a 8dbc c30b 2fbc
00000040: 3640 9a39 df53 0036 7d69 e7bc 4da7 d4ba
00000050: bf31 0abd 55d1 e43d 33f0 c83c 2991 8601
00000060: fed6 21bd 1058 0fbe 3607 c23b dfd6 dbbc
00000070: 11fb 2f3c 2c3c 32bb ec6c 1038 4b42 55bd
00000080: 31f7 baba f35e 4e3d 05cc 043d 4005 97bd
00000090: e6bb ffbb a6b1 efbd 5cdf 2dbd f280 7681
000000a0: 438b 0cbc a98a bc3c 5117 a43b acc1 1bbc
000000b0: e15b 97b9 7b63 92bc 0aa6 cbbc 3eec bfbc
000000c0: 0e90 0cbc 5ea8 213c 84ac a33c 868d 1a01
000000d0: f1c3 563d 5d78 063e 5e0f a0bb 613b 393b
000000e0: 3a78 01be 9466 94bd ae0b 60bd 0bac d1bc
000000f0: 08c8 b13c 2305 9101 c1f9 eabc 4019 813c
00000100: e5c1 cdbd 7d55 0ebd b126 41bd b4b9 05bd
00000110: 40fb 9e3d 2e58 06bc 0139 b2b8 777b 4a3c
00000120: 8fd5 d73d a8af e1bd 3ec3 40bd c3a5 e53c
00000130: 84bf 0cbd a635 c82f f6d3 0d01 0617 6e3c
00000140: 1acf f1a1 f117 b1bc f63e 8dbd 638c 333c
00000150: 274c 5abc 0e0e 223d b19b 973d d8ad c301
00000160: 2688 013d cf88 be3d 5f6e 383e ec4b 033c
00000170: 4c02 863c 2bb3 a93c 2768 9b3c 8b25 1fbd
00000180: b911 80ba 512a 5c3d 1953 aebd ce63 20bd
00000190: 5c9c f5bc 8499 c9bc fdc4 f3bc 4aec 8381
000001a0: 53cb 0d3e 165d c4bd 8307 e9bb 28dd 5f3c
000001b0: 1767 3431 fa62 30bc 91ec bc3a 40d5 5cbd
000001c0: 0a6e 40be 6bd7 fbbd f394 98bd 67d1 a4bb
000001d0: 9050 d13d 01cd 87bd 9ec0 aeba 1be3 5cbd
000001e0: e5ba d93d 90d1 033e 0ade af3d 665d 3cbd
000001f0: ebad 8fbc 8493 9700 e722 433d b1f9 353c
00000200: f6fa 37bd 15d6 213e 6cbb 8b3c 2e87 9a3d
00000210: fc38 203d 35e7 003e 883a 2abd 699e d83d
00000220: 063e 86bd efc6 02bd a6f8 033d b85e 443d
00000230: 9618 0c3e 778b d4bb d640 20bb 2cb2 ac3c
00000240: e7eb e9ba 4065 dd3d 1607 ae3d f9ca b83d
00000250: 46fe ff3d 4029 303d a46b e5ba 0c94 0981
00000260: a4a9 273d 71dd 9d3d 1fe3 a63d 4d9e 093e
00000270: 7fc7 d6bc 7c43 633d 8643 8b3c 606a 0ebe
00000280: 3010 b4bc 99e8 8c3d e6b6 d73d 9c75 043e
00000290: 4c78 223c 8996 50bd 56b1 01bc 2d60 013c
000002a0: 4fa0 7c3d 5c3d 12bd 67a6 aa3d e1e7 a63c
000002b0: 51b0 f9b8 bc59 cc3d 18c6 8ebb 30f6 e93d
000002c0: 5257 88bc b0a2 103e 7350 0d3d 584a 51bc
000002d0: 8d9c 993c a165 0abe 204e e2bd cf34 d3bc
000002e0: defe bc3d 7f8b 843d 20b3 653b 739a 063e
000002f0: 8bf5 243d eec0 c13c 22d7 97bc edba eb3a
00000300: 2b77 28b9 c500 3e3b 5a98 163c e2a0 c83d
00000310: 1c9e 8a3d 3bae d53c f2d3 b0bc 4d94 353d
00000320: fbe7 6cbd 56a6 b4bd 5173 603d 5ea5 6dbd
00000330: 5a7a 1dbd 3ac3 bc08 826f acbc 933d 47bc
00000340: fb09 ddbb 437a a5ba d328 b83d e64e 14be
00000350: 76e7 eebc 6a68 1b3c 40e1 473d e282 8101
00000360: c906 fd3c dc54 0bbe d0d2 543c 9413 c639
00000370: 5231 f3bc 4b63 8bbd 8c79 0981 9fff a33d
00000380: f3c9 77bb 2dad 383d 7bfd 85bd 4f58 ecbd
00000390: 4af6 273c db3d 17be 52ea aebc 10c9 b881
000003a0: a651 abbd bcf7 153d e04c 3c3d 1115 cdbb
000003b0: 37fd a7b9 c77d 9c3b 09cf 5d3c f647 02bd
000003c0: f977 0d39 a467 ef3d bada bc3b 649a 5b81
000003d0: 5c81 88bc f80e d93d 498f b53d 2107 f3bb
000003e0: f4fd ecbd 3d43 1fbe 23a8 a9bd 3d07 b8bd
000003f0: 0883 d3bb fffd b0b5 0a32 af3d f0a1 9739

_encoder.4.bias f4 [12]
-0.050243713 -0.118352525 -0.096467346 -0.033112515 0.10581021 0.12788947 -0.013592089 0.038293768
0.1344297 -0.03511739 -0.0015260885 -0.036899213
00000000: 5acc 4dbd cf62 f2bd ac90 c5bd fda0 07bd
00000010: 06b3 d83d 75f5 023e 5ab1 5ebc edd9 1c3d
00000020: f0a7 093e 41d7 0fbd 0807 c8ba a123 17bd

_encoder.6.weight f4 [2, 12]
-0.22311638 0.15716225 0.09343197 -0.1958773 -0.039200414 -0.14681174 0.07992161 -0.094730146
-0.26522347 0.11292953 0.24398504 0.21778467 0.046974923 0.027794205 0.19108817 -0.010341882
0.3406977 0.07046233 -0.141904 -0.08946795 -0.1862895 -0.12407579 0.2327234 -0.08577279
00000000: 9f78 64be 24ef 203e 4359 bf3d 0f94 48be
00000010: 9d90 20bd d155 16be f1ad a33d e101 c2bd
00000020: 5fcb 87be 9947 e73d 37d7 793e f202 5f3e
00000030: c768 403d acb0 e33c 9eac 433e ff70 29bc
00000040: ee6f ae3e 8e4e 903d 484f 11be f93a b7bd
00000050: adc2 3ebe 731b febd 0b4f 6e3e a5a9 afbd

_encoder.6.bias f4 [2]
0.27483487 0.032972064
00000000: 28b7 8c3e b70d 073d

_decoder.0.weight f4 [12, 2]
0.04586917 0.6778148 -0.6248684 -0.7874302 -6.0394484e-38 -4.3631727e-27 1.8638747e-38 5.754813e-38
0.6483803 0.3403023 0.6739786 0.04113771 0.06259157 0.32061362 -0.424437 -0.011887881
-0.046150025 -0.069460794 0.114653565 0.43617073 0.54274553 -0.23389083 0.47032002 -0.0854285
00000000: 50e1 3b3d 4585 2d3f 60f7 1fbf 0795 49bf
00000010: d068 a481 d4d7 ac93 3ef5 ca00 31a9 9c01
00000020: 40fc 253f 1a3c ae3e dd89 2c3f 0480 283d
00000030: 0230 803d 7827 a43e ce4f d9be 63c5 42bc
00000040: cf07 3dbd 7641 8ebd 7dcf ea3d c551 df3e
00000050: 5ff1 0a3f 1481 6fbe c9cd f03e 23f5 aebd

_decoder.0.bias f4 [12]
-0.25484335 0.5233875 -2.6384784e-08 -8.3117654e-20 0.2501362 0.24131411 -0.7237863 0.08331985
-0.045104887 0.68330306 0.031586017 0.068860225
00000000: d47a 82be b9fc 053f c1a4 e2b2 8a41 c49f
00000010: da11 803e 0c1b 773e 0f4a 39bf 99a3 aa3d
00000020: e7bf 38bd f3ec 2e3f 5760 013d 9706 8d3d

_decoder.2.weight f4 [64, 12]
-0.025958799 -0.0060288734 -2.2128212e-38 2.9422043e-27 -0.025876233 -0.023021365 -0.0024422347 -0.014447847
2.1114324e-26 -0.031349733 -0.022233171 -0.019007593 -0.055011798 0.012521436 -3.216515e-39 6.5082044e-32
-0.05661244 -0.040069878 -0.022548456 -0.028764151 -0.021094188 -0.05268261 -0.033668924 -0.039946668
0.16818225 -0.2106823 6.961021e-38 9.526812e-39 -0.058711547 0.21242034 -0.059974704 0.11648306
0.0035898841 0.11224818 -0.32735005 -0.31537688 -0.011878838 -0.0043727704 -2.080179e-39 -5.302208e-38
-1.4303221e-06 -3.2025732e-06 -1.030109e-05 -0.019927425 -2.5174512e-38 -0.017252255 -1.9049315e-06 -1.2958046e-07
-6.2455525e-05 1.3184151e-14 -6.1497065e-38 -2.7295848e-38 -0.019920494 -0.021147747 1.5040955e-08 -4.0047556e-09
-1.11930745e-14 -0.010045359 -0.018005159 -0.017455295 -0.01833158 -0.023185944 1.4658535e-38 -2.7511698e-38
-0.14773618 0.15442166 -0.30262867 0.0062945327 -0.08923066 0.10777095 0.11607225 -0.011947289
-0.006375859 1.311733e-35 3.3731233e-38 -9.32062e-40 -0.013541353 -0.011311633 -0.00018447704 -6.8231736e-36
1.756483e-38 -0.00793702 -0.0063514938 -0.005726903 -0.05767165 0.04738788 -8.955694e-39 4.28089e-39
-0.043586124 -0.0025164753 -0.036622033 -0.025351841 -0.0029389502 -0.047332603 0.04301048 0.019260442
-0.108433604 0.057939127 2.17431e-40 -1.8978755e-38 0.21607451 0.07630128 -0.26719573 0.06350219
-0.05055611 0.16629346 0.119505525 0.07372264 -0.06521687 0.18934269 2.0664843e-38 5.312885e-38
-0.13841318 -0.051853284 -0.03903249 0.3043608 0.07759875 0.13928938 0.095137656 0.021079771
0.21129476 -0.07206567 6.740158e-29 -1.9653807e-26 -0.26064718 0.22268358 0.13230594 -0.12849866
-0.02936228 0.061137196 0.13217518 -0.053704172 -0.16928633 -0.044191133 -1.942142e-39 -1.8766486e-38
-0.12048553 -0.083263926 -0.18471128 0.14355323 0.11876355 0.12817085 0.15304455 -0.18474615
-0.103912145 -0.14139429 -5.1461655e-38 8.151196e-36 0.23205282 0.2257934 -0.3091337 0.066850826
-0.042229626 -0.32937968 -0.17464362 -0.0075190957 -0.023379406 0.0026781189 -1.7678929e-38 -1.9358388e-38
-0.02029728 -0.05126919 -0.00059242005 -0.006696241 -1.4461352e-26 -0.012549524 0.01867236 -0.01838428
-0.13280186 0.11566749 7.052315e-38 1.8497793e-38 0.23653716 0.16636191 0.2765589 -0.061710145
0.14985387 -0.05282393 0.3587585 0.06517961 -0.011576469 -0.06437778 1.3233506e-35 -2.2455243e-38
-0.02544902 -0.1865634 -0.054431666 -0.12347165 -0.048897926 0.1585089 0.20496435 0.1099228
0.04873966 0.095303245 -2.0088383e-27 -4.4615914e-38 -0.15123616 0.13378114 0.031892173 -0.17461279
0.02876958 0.17609085 0.25586367 -0.32149938 0.28743362 0.1078698 -3.9531232e-38 -3.3903826e-30
-0.18239501 -0.22988962 -0.12306781 -0.016577559 -0.012792569 0.21241665 -0.06899004 0.061042886
-0.025533263 -0.002849712 1.850808e-38 -4.810705e-38 -0.028211826 -0.020779999 -0.01604689 -0.011092245
2.3401449e-32 -0.03059941 -0.0049202545 -0.007701521 -0.28001967 0.03063952 -8.309191e-39 4.491409e-38
-0.25006986 0.023049125 -0.10273307 0.22800447 0.0033811824 0.21860074 0.0321562 0.23913217
-0.25569406 0.3834681 6.29599e-38 1.5427231e-28 0.03912862 0.10682199 0.021687305 0.036257535
0.0012507597 0.03181758 0.023083635 0.08610149 0.25810397 -0.2686741 -6.556429e-37 -4.0556447e-38
00000000: 8ca7 d4bc db8d c5bb 74f4 f080 fe1a 6913
00000010: 65fa d3bc 4d97 bcbc e60d 20bb aab6 6cbc
00000020: 2c1b d114 9468 00bd 5722 b6bc d0b5 9bbc
00000030: 0d54 61bd b626 4d3c 5606 2380 70f6 a80b
00000040: 72e2 67bd 5020 24bd 8ab7 b8bc cca2 ebbc
00000050: b8cd acbc b8c9 57bd 6de8 09bd 1e9f 23bd
00000060: f837 2c3e 1abd 57be 3c7f bd01 e0bc 6700
00000070: 857b 70bd b884 593e 09a8 75bd ac8e ee3d
00000080: 4344 6b3b 60e2 e53d 6d9a a7be 1479 a1be
00000090: 759f 42bc 7549 8fbb b1a6 1680 ff56 9081
000000a0: 7ef9 bfb5 caeb 56b6 d8d2 2cb7 d73e a3bc
000000b0: 2610 0981 9a54 8dbc f3ac ffb5 ce22 0bb4
000000c0: 8efa 82b8 2a81 6d28 3369 a781 dc9c 1481
000000d0: 4e30 a3bc 0a3e adbc 6933 8132 349a 89b1
000000e0: f2a2 49a8 4a95 24bc 8e7f 93bc 68fe 8ebc
000000f0: 1c2c 96bc 73f0 bdbc 089e 9f00 b6c9 1581
00000100: 2748 17be b620 1e3e 25f2 9abe 5e42 ce3b
00000110: 90be b6bd 04b7 dc3d 4ab7 ed3d 90be 43bc
00000120: 95ec d0bb c57c 8b05 7aa6 3701 3626 0a80
00000130: 8ddc 5dbc 6d54 39bc 2e70 41b9 e41c 1185
00000140: 9a43 bf00 460a 02bc 3120 d0bb bfa8 bbbb
00000150: 1c39 6cbd cb19 423d d584 6180 619d 2e00
00000160: 5d87 32bd 73eb 24bb fc00 16bd aaae cfbc
00000170: 679b 40bb d5df 41bd c22b 303d 13c8 9d3c
00000180: 7012 debd 9451 6d3d 1c5e 0200 0ca9 ce80
00000190: a342 5d3e d843 9c3d e1cd 88be 700d 823d
000001a0: ec13 4fbd d548 2a3e 50bf f43d e5fb 963d
000001b0: 6c90 85bd 0de3 413e 2d05 e100 68a1 9001
000001c0: 2fbc 0dbe 1c64 54bd 88e0 1fbd 2ed5 9b3e
000001d0: 18ec 9e3d e0a1 0e3e 88d7 c23d 7caf ac3c
000001e0: a75d 583e 2a97 93bd 20e2 aa10 52a4 c294
000001f0: 8c73 85be 2a07 643e 357b 073e 2795 03be
00000200: 2a89 f0bc ff6a 7a3d ee58 073e e8f8 5bbd
00000210: 6559 2dbe c301 35bd e725 1580 5459 cc80
00000220: 1ec1 f6bd 4786 aabd f424 3dbe 9eff 123e
00000230: 4e3a f33d 383f 033e b6b7 1c3e 182e 3dbe
00000240: e4cf d4bd aac9 10be 8a17 8c81 555b 2d05
00000250: 419f 6d3e 6336 673e c646 9ebe 16e9 883d
00000260: f9f8 2cbd 74a4 a8be c7d5 32be bf62 f6bb
00000270: 2b86 bfbc 6183 2f3b a981 c080 4fcb d280
00000280: 7b46 a6bc a4ff 51bd a34c 1bba 246c dbbb
00000290: e237 8f94 859c 4dbc c7f6 983c a19a 96bc
000002a0: 36fd 07be 14e3 ec3d 76fb bf01 526c c900
000002b0: cc36 723e c75a 2a3e 2199 8d3e c7c3 7cbd
000002c0: 4b73 193e e85d 58bd 32af b73e e37c 853d
000002d0: 3bab 3dbc 7fd8 83bd 08b9 8c05 1584 f480
000002e0: 777a d0bc 7a0a 3fbe bdf3 5ebd b4de fcbd
000002f0: 3149 48bd 2850 223e 2de2 513e 341f e13d
00000300: 3da3 473d 592e c33d 1528 1f93 82e9 7281
00000310: a7dd 1abe ecfd 083e 5ea1 023d b2cd 32be
00000320: 2fae eb3c 2951 343e 9000 833e 919b a4be
00000330: 802a 933e d7ea dc3d 7f3a 5781 bf87 898e
00000340: c2c5 3abe 2f68 6bbe fa0a fcbd a9cd 87bc
00000350: ec97 51bc c083 593e a64a 8dbd 1b08 7a3d
00000360: 222b d1bc 3cc2 3abb ff88 c900 b9f5 8281
00000370: 7d1c e7bc d13a aabc c474 83bc 3fbc 35bc
00000380: b903 f30a 9dab fabc 163a a1bb 0a5d fcbb
00000390: bd5e 8fbe bbff fa3c a57a 5a80 1b89 7401
000003a0: 2809 80be 85d1 bc3c b765 d2bd 017a 693e
000003b0: d496 5d3b dfd8 5f3e 38b6 033d 10df 743e
000003c0: 55ea 82be ee55 c43e a664 ab01 3a90 4311
000003d0: 5545 203d 7dc5 da3d 93a9 b13c c882 143d
000003e0: 88f0 a33a 2753 023d e419 bd3c fa55 b03d
000003f0: 3426 843e a78f 89be 8d1a 5f83 70cf 5c81

_decoder.2.bias f4 [64]
-0.018961456 -0.014743696 0.30584857 -0.01975452 -0.0042435154 0.24538983 -0.001661598 0.017107058
0.0002568288 -0.050925907 -0.36358705 0.42554873 0.27832192 -0.028025607 -0.2628069 -0.10804308
-0.2475343 -0.09506315 -0.024589142 0.040513817 0.22178738 -0.01251068 0.22866051 -0.3226794
0.2993613 -0.09914179 -0.26915753 -0.06694839 0.3610238 0.032925967 -0.16109951 -0.2637601
-0.004694445 -0.24249291 -0.2733288 0.04856428 0.07236765 -0.2591015 -1.2775071e-06 0.39610747
0.15200476 -0.025602829 0.17556228 -0.028357947 0.2703891 -0.30893785 0.32526588 -0.19918002
0.32675356 -0.031824257 0.14843187 0.33086213 0.22060998 -0.30403888 0.12577358 0.06401895
-0.1803988 -0.25567502 -0.03921401 -1.5329758e-19 -0.00035362988 0.39840797 0.1802233 0.12624685
00000000: 0e55 9bbc 8b8f 71bc 2f98 9c3e 3bd4 a1bc
00000010: 300d 8bbb 7947 7b3e fac9 d9ba 1a24 8c3c
00000020: faa6 8639 af97 50bd 1528 babe 86e1 d93e
00000030: 3680 8e3e f595 e5bc a08e 86be b145 ddbd
00000040: a279 7dbe 78b0 c2bd 2b6f c9bc d1f1 253d
00000050: 3b1c 633e 98f9 4cbc fb25 6a3e 3c36 a5be
00000060: e245 993e da0a cbbd 04cf 89be 3d1c 89bd
00000070: 1dd8 b83e 61dd 063d 45f7 24be 900b 87be
00000080: dcd3 99bb 1050 78be c1f1 8bbe 57eb 463d
00000090: 7e35 943d f4a8 84be cf76 abb5 99ce ca3e
000000a0: 23a7 1b3e 06bd d1bc 99c6 333e ed4e e8bc
000000b0: 7170 8a3e 1a2d 9ebe 4089 a63e d9f5 4bbe
000000c0: 3e4c a73e 275a 02bd 86fe 173e c366 a93e
000000d0: 95e7 613e fcaa 9bbe caca 003e 5e1c 833d
000000e0: 77ba 38be d6e7 82be df9e 20bd 5afb 34a0
000000f0: 6667 b9b9 21fc cb3e 758c 383e db46 013e

_decoder.4.weight f4 [128, 64]
2.5328849e-05 -0.03217062 0.09122875 3.836735e-07 -4.4770523e-08 0.19157723 -1.5184109e-21 0.011801994
-0.03233027 -0.111102946 -0.09243942 0.21752024 0.09172014 -0.0020338062 -0.124852136 -0.06395672
0.031670786 0.11845959 0.0010149584 0.08101091 -0.05919046 0.006034296 0.2494631 -0.12194774
0.17976178 -0.09615559 0.056963865 0.124765575 0.09605173 0.069400005 -0.1422336 0.027202139
-0.0016808786 -0.121045925 -0.04626845 -0.021943208 -0.0055162823 0.053617522 2.32475e-11 0.13625516
0.016067157 0.059812643 0.080596246 0.0099235205 -0.076055564 -0.117784746 0.12957527 -0.047310434
0.10664155 -0.013737683 0.044053074 0.12253412 -0.07478832 -0.022000333 0.017015204 -0.11424601
-0.046135303 0.055710305 -0.028160522 -6.852356e-38 -6.3680733e-07 0.08876381 -0.13260615 -0.052670155
-0.00049790525 -0.024184266 -0.103513174 -8.675975e-23 -0.016641889 -0.07119304 9.507261e-06 -0.032586902
0.07736072 -0.009735622 0.032675255 0.029202705 0.062059876 -0.00013542193 -0.040353842 -0.049385827
0.08302356 -0.082491174 0.0058673443 -0.10105743 -0.11532015 0.08422717 0.048156384 0.08887064
-0.12138228 0.1236049 -0.032515846 0.030391954 -0.06449964 -0.026077947 0.02148272 0.087557465
0.00069402414 -0.058331035 0.09199228 0.05929605 0.013171224 0.09577628 -2.0883403e-05 0.02707514
-0.03511801 -0.042143635 -0.0046555577 -0.029416885 0.0781797 -0.03336668 -0.036744405 -0.035822056
-0.0382431 0.0011118117 -0.035479803 0.10290883 -0.07390703 0.02566406 -0.058500823 -0.025295665
-0.032350473 0.10992247 0.034934383 -2.1241217e-38 6.485134e-05 0.14671382 -0.0486155 -0.03553333
0.0002224111 -0.014165183 0.03564918 4.056926e-06 -0.007299457 0.019740766 -7.699885e-15 -0.0016215774
0.11111733 -0.0756273 -0.022233866 0.13452747 -0.11958429 -4.291311e-05 -0.14939003 -0.0003574632
0.08948747 0.03740441 0.0062779384 0.006468238 -0.0717445 -0.08819251 0.25764477 0.10368474
-0.07675335 0.09348769 0.089638874 -0.09350304 0.085093275 -0.047051243 -0.06965281 0.03304548
0.00021970551 0.029828457 -0.044394672 0.104025856 -0.049348384 -0.014046398 -5.7025404e-06 0.05300213
0.0733415 -0.006906119 0.11356351 0.029432455 0.05484138 0.066220805 0.0062303576 -0.04323834
-0.023173777 -0.05524914 0.061628178 -0.04794731 0.06156308 0.00013618439 0.003576009 -0.061974455
-0.051090974 0.012734294 -0.07236121 6.7736834e-38 4.8702523e-06 0.23231271 0.13002981 -0.047843885
4.4345043e-38 5.552311e-38 -0.033208445 5.386295e-38 -6.091163e-38 -0.022557467 7.674758e-39 3.5758208e-38
-0.009474169 -3.703535e-05 -0.027498182 -0.00097204256 -0.015989527 4.101758e-38 -0.0035138153 -0.025329458
-0.027306782 -0.031444363 -5.766711e-38 -0.00012062443 -0.010459823 -0.037471857 -0.032935675 -0.018715454
-0.0334066 -0.023763899 -0.023321986 -0.025109844 -0.021605171 -0.03613835 -0.0018597257 0.0012254663
-7.906392e-39 -0.0290122 -0.032045387 -0.020322127 -0.0099988 -0.034045532 5.293921e-38 -0.02205145
2.3600409e-26 -0.021226948 -0.030354 2.5806114e-38 -0.008361555 -0.006912923 -0.03204198 -0.013836444
-0.0013425008 -0.014485288 -0.02398089 -0.007828735 0.0013490852 -0.028964415 -0.023004835 -0.0005578972
-0.013418576 -0.0127518885 -0.01164091 6.989079e-38 1.1592981e-38 -0.014887475 -0.0017824225 -1.0863404e-05
00000000: 4a79 d437 57c5 03bd 24d6 ba3d affb cd34
00000010: b649 40b3 d22c 443e ad74 e59c 275d 413c
00000020: bf6c 04bd f189 e3bd e150 bdbd a0bd 5e3e
00000030: c5d7 bb3d 9b49 05bb 7ab2 ffbd befb 82bd
00000040: 3ab9 013d f19a f23d 5a08 853a 0ce9 a53d
00000050: b271 72bd 58bb c53b 4173 7f3e bdbf f9bd
00000060: 7913 383e 39ed c4bd f152 693d 1885 ff3d
00000070: c5b6 c43d 9721 8e3d afa5 11be 05d7 de3c
00000080: ed50 dcba ede6 f7bd fc83 3dbd 3ec2 b3bc
00000090: eec1 b4bb 0c9e 5b3d b77c cc2d 7986 0b3e
000000a0: 459f 833c 1afe 743d a50f a53d 4396 223c
000000b0: 05c3 9bbd 2139 f1bd 61af 043e 96c8 41bd
000000c0: e366 da3d 0514 61bc ff70 343d 2bf3 fa3d
000000d0: 9e2a 99bd 0b3a b4bc 7863 8b3c d0f9 e9bd
000000e0: 5ff8 3cbd 7d30 643d e5b0 e6bc f489 ba81
000000f0: 11f1 2ab5 cdc9 b53d e8c9 07be a9bc 57bd
00000100: db85 02ba 151e c6bc b7fe d3bd afc5 d19a
00000110: 9254 88bc a8cd 91bd 6081 1f37 d879 05bd
00000120: 4c6f 9e3d 2982 1fbc 7dd6 053d 833a ef3c
00000130: 7f32 7e3d 0c00 0eb9 124a 25bd cb48 4abd
00000140: 4208 aa3d 22f1 a8bd da42 c03b 33f7 cebd
00000150: f92c ecbd 4b7f ac3d a13f 453d cf01 b63d
00000160: 4697 f8bd 9124 fd3d 562f 05bd 8cf8 f83c
00000170: 6318 84bd 6ba1 d5bc 87fc af3c 5451 b33d
00000180: 2cef 353a 86ec 6ebd 7366 bc3d 6ae0 723d
00000190: 1ecc 573c 5b26 c43d c42e afb7 afcc dd3c
000001a0: e7d7 0fbd ce9e 2cbd a68d 98bb aefb f0bc
000001b0: ae1c a03d 80ab 08bd 4d81 16bd 26ba 12bd
000001c0: cca4 1cbd 36ba 913a 4553 11bd ddc1 d23d
000001d0: 925c 97bd 6f3d d23c 8f9e 6fbd db38 cfbc
000001e0: ee81 04bd 081f e13d 5b17 0f3d df4b e780
000001f0: cc00 8838 263c 163e 0c21 47bd 668b 11bd
00000200: 0637 6939 1515 68bc e004 123d bb20 8836
00000210: 4930 efbb 63b7 a13c 74b5 0aa8 1c8b d4ba
00000220: 7c91 e33d 7ce2 9abd cc23 b6bc 92c1 093e
00000230: 9ce8 f4bd 9afd 33b8 b3f9 18be e669 bbb9
00000240: 3545 b73d 5e35 193d 2ab7 cd3b 83f3 d33b
00000250: c8ee 92bd 469e b4bd 04ea 833e aa58 d43d
00000260: dc30 9dbd 7976 bf3d 9694 b73d 867e bfbd
00000270: 6245 ae3d ceb8 40bd 22a6 8ebd b25a 073d
00000280: c060 6639 cf5a f43c 30d7 35bd 820b d53d
00000290: 8821 4abd dd22 66bc 7358 bfb6 c318 593d
000002a0: 1134 963d ba4c e2bb fc93 e83d 551c f13c
000002b0: 5ba1 603d c69e 873d 0728 cc3b b01a 31bd
000002c0: efd6 bdbc ec4c 62bd d46d 7c3d 6664 44bd
000002d0: 9129 7c3d b8cc 0e39 7a5b 6a3b edd8 7dbd
000002e0: c544 51bd 80a3 503c 1d32 94bd af65 b801
000002f0: 266b a336 62e3 6d3e 8926 053e f3f7 43bd
00000300: f86f 7101 f625 9701 9405 08bd ffa0 9201
00000310: 36d1 a581 70ca b8bc 1a92 5300 abaf 4201
00000320: 8c39 1bbc 6756 1bb8 de43 e1bc acd0 7eba
00000330: 78fc 82bc 2a52 5f01 0a48 66bb b97f cfbc
00000340: 79b2 dfbc cecb 00bd 1cfc 9c81 bff7 fcb8
00000350: ad5f 2bbc 177c 19bd 8fe7 06bd 2751 99bc
00000360: 5cd5 08bd 82ac c2bc c00d bfbc 29b3 cdbc
00000370: 54fd b0bc ce05 14bd 0ac2 f3ba d39f a03a
00000380: ce17 5680 feaa edbc 0642 03bd 977a a6bc
00000390: 02d2 23bc 5473 0bbd 3f1d 9001 3ea5 b4bc
000003a0: 25ba e914 23e4 adbc f4a8 f8bc 7980 0c01
000003b0: e7fe 08bc cd85 e2bb 743e 03bd 41b2 62bc
000003c0: daf6 afba b453 6dbc 9273 c4bc 1844 00bc
000003d0: cad3 b03a c846 edbc a374 bcbc d93f 12ba
000003e0: 96d9 5bbc 4ced 50bc 84b9 3ebc c642 be01
000003f0: 843c 7e00 99ea 73bc 2da0 e9ba f741 36b7

_decoder.4.bias f4 [128]
0.07472385 -0.08967352 0.19209214 -0.03956418 0.22369881 -5.5732064e-19 -0.0015102675 -5.7246626e-16
0.27724665 -0.013001449 0.0856803 -0.029113358 0.077613436 0.11320389 0.017382033 0.07273648
-0.012401037 0.10420321 -0.012080208 -0.022904644 -0.025619652 0.014835807 0.0823403 -0.025013458
-0.053820897 0.026965013 0.21031906 -4.427907e-09 -0.26137063 0.0121251475 -0.158091 -2.2631439e-06
0.10622204 -0.13713294 0.030086191 0.10754235 -0.030091222 -0.00445199 0.16618739 0.107986555
0.07883418 0.028323824 -0.017051667 -0.31944105 0.14405806 0.026112558 -0.03349088 0.071592174
0.053481027 0.10915746 -0.01942139 0.1566083 -0.0005751933 0.03874779 -7.861836e-08 -0.21134879
-2.397226e-13 -0.026570078 0.17244802 -0.015168733 0.13251807 0.20566663 0.0670133 -0.011104264
0.07963313 0.1756692 0.090374246 3.1522621e-24 -0.07659531 0.04153003 0.04527631 -0.022024607
-0.027870268 0.0007312767 -0.014317825 -0.103850216 0.153082 0.06284464 -0.03762345 0.032943826
-0.048131075 -0.054265045 0.116514675 0.118156694 -0.04373402 0.14116977 -0.004494378 -7.1795006e-07
0.061289463 0.08289838 0.20163134 0.10348948 0.14716545 -0.060135394 0.17829193 -0.27001423
-0.0068065794 -0.04983205 -0.2021864 0.077924095 0.2100196 -0.00079640344 -0.017142184 -1.8265252e-11
-3.4235666e-15 -0.00094076013 0.13478161 -0.03347617 -1.2195366e-10 0.18597837 0.05757783 -4.073138e-31
0.25655124 -0.13623278 -0.12643959 0.13689508 0.21269225 0.08601195 0.17838347 -0.0008122312
-0.00032890454 -0.08381922 0.23819983 -0.06356146 0.16615336 0.06452573 0.12106086 0.06737063
00000000: d108 993d c0a6 b7bd cdb3 443e 0d0e 22bd
00000010: 4d11 653e f57d 24a1 2bf4 c5ba 8e00 25a6
00000020: 46f3 8d3e 0804 55bc 2779 af3d 237f eebc
00000030: cbf3 9e3d 71d7 e73d c464 8e3c ddf6 943d
00000040: b82d 4bbc 7e68 d53d 11ec 45bc 85a2 bbbc
00000050: 4ee0 d1bc e211 733c 08a2 a83d 06e9 ccbc
00000060: 4d73 5cbd bbe5 dc3c e15d 573e 4824 98b1
00000070: 5fd2 85be 8ea8 463c 9be2 21be 84e0 17b6
00000080: f18a d93d 946c 0cbe 5177 f63c 2a3f dc3d
00000090: de81 f6bc 00e2 91bb 072d 2a3e 0e28 dd3d
000000a0: d173 a13d 5d07 e83c f0af 8bbc c78d a3be
000000b0: f583 133e 01ea d53c bc2d 09bd eb9e 923d
000000c0: ec0e 5b3d f28d df3d 9b19 9fbc ed5d 203e
000000d0: 92c8 16ba 01b6 1e3d e7d4 a8b3 d16b 58be
000000e0: abf3 86aa 7ea9 d9bc 3796 303e 4786 78bc
000000f0: d1b2 073e 469a 523e 453e 893d a9ee 35bc
00000100: b216 a33d a0e2 333e 2216 b93d fce4 7318
00000110: 00de 9cbd 651b 2a3d a773 393d f36c b4bc
00000120: 3050 e4bc 26b3 3f3a 5095 6abc 6caf d4bd
00000130: 87c1 1c3e b1b4 803d 0c1b 1abd 1bf0 063d
00000140: 1725 45bd 0645 5ebd 3f9f ee3d 23fc f13d
00000150: 7222 33bd cf8e 103e 9345 93bb 27b9 40b5
00000160: a90a 7b3d a0c6 a93d 7278 4e3e 4bf2 d33d
00000170: 8ab2 163e 8850 76bd 2992 363e 4e3f 8abe
00000180: ba09 dfbb b11c 4cbd f409 4fbe ab96 9f3d
00000190: 610f 573e bbc5 50ba c46d 8cbc b1a9 a0ad
000001a0: a8b1 76a7 589d 76ba 3104 0a3e 4f1e 09bd
000001b0: e716 06af 1d71 3e3e bbd6 6b3d 4e2e 048d
000001c0: af5a 833e 9b80 0bbe 6179 01be 392e 0c3e
000001d0: ffcb 593e 0927 b03d 28aa 363e eaeb 54ba
000001e0: d270 acb9 69a9 abbd a8ea 733e 832c 82bd
000001f0: 1b24 2a3e 1126 843d c2ee f73d 9df9 893d

_decoder.6.weight f4 [784, 128]
-0.058705565 -0.030727077 -0.0824694 -5.33631e-38 -0.09473743 -3.2460745e-38 6.577593e-38 -1.5463889e-38
-0.13643005 -5.216942e-38 -0.12788616 -4.793201e-37 -0.014627432 -0.0025788317 -0.04074087 -0.105972916
-0.05917073 -0.10360477 -6.452041e-38 -0.10476942 -5.189349e-38 -0.09217564 -0.08383548 7.3998806e-15
-0.017440915 -0.043965466 -0.12575042 -7.147946e-38 -0.0051994543 -0.095467955 -0.015856307 3.2512664e-38
-0.020358078 -0.07280333 -5.173014e-06 -0.07441314 -1.0758351e-37 -1.3370183e-33 -0.008631017 -0.06988025
-0.0780153 -0.04184925 -0.017098209 -0.022648694 -0.10526185 -0.10927007 -1.3218376e-36 -0.04538883
-0.014686636 -0.034079798 -0.05810967 -0.024414958 -6.773313e-38 -0.10495082 -2.5848172e-38 -0.0016809548
1.7194738e-38 6.5035304e-38 -0.1061438 -2.3160053e-38 -0.100563526 -0.08351944 -0.08655908 -1.7573927e-31
-0.014660058 -0.08691101 -0.00046860633 -5.0322214e-30 -0.05673865 -0.10642909 -0.051859222 -0.070498705
-1.4580252e-20 4.976132e-38 -0.09045619 -0.09523763 -0.107021935 -0.052997515 -1.0387341e-14 -0.08872419
-0.028458908 -0.06725771 -0.09192892 0.005992191 -0.06839327 -0.02933149 -1.451177e-18 -3.3732626e-38
-0.02813101 -0.08389739 -0.022357706 -0.0356336 -0.03575807 -0.033541042 -0.04266855 -0.006721017
-3.759565e-39 -0.074331805 -0.005559792 -0.10983318 -0.0674344 -1.6849569e-38 -0.027500844 3.1854563e-38
-5.461931e-38 -0.03678755 -0.007287343 3.439735e-38 -1.541182e-33 -0.1055318 -0.03792027 6.717126e-38
-0.053712554 -0.03441817 0.021728382 -0.11703797 -0.105894946 -0.03119973 -0.083441764 3.9928318e-38
-4.2912947e-38 -0.051152766 -0.16826233 -0.07553168 -0.023638597 -0.01583897 -0.120442204 -0.07826725
-0.05957502 -0.029804125 -0.1139143 1.5375666e-38 -0.105721846 -4.437043e-38 -1.1741889e-38 -5.6923804e-38
-0.13670643 -1.022958e-38 -0.13075656 -1.733671e-39 -0.021257874 -0.060261738 -0.03341357 -0.09691668
-0.07244982 -0.10977374 -5.745744e-38 -0.10760875 5.077548e-38 -0.053396244 -0.037577253 -4.2731e-14
-0.012057968 -0.06383964 -0.07664146 -6.6839734e-38 -0.00509711 -0.09064238 -0.012099832 -3.1210894e-38
-0.08061675 -0.07166494 5.0437255e-05 -0.060277812 1.4030486e-37 2.515875e-33 -0.05690407 -0.056529745
-0.0705057 -0.043404818 -0.02284086 -0.007182166 -0.0722529 -0.020773433 2.0538403e-37 -0.018881533
-0.06467597 -0.069141895 -0.0414977 -0.09001282 -4.2568586e-38 -0.098681785 -2.0863333e-38 -0.006900668
5.3291403e-38 -7.259414e-38 -0.13158564 -5.5193447e-38 -0.085605614 -0.08564398 -0.055312824 -1.1487823e-30
-0.04681712 -0.09372344 -0.02511844 -3.0146634e-30 -0.039780784 -0.11384771 -0.045984443 -0.07506672
-4.435005e-21 -3.373154e-39 -0.08774118 -0.07615909 -0.11319575 -0.071036845 1.7665421e-14 -0.07140752
-0.042780872 -0.06790414 -0.09247382 -0.087049946 -0.07264815 -0.06872354 -5.6690203e-19 -1.6513476e-38
-0.052707016 -0.06380315 -0.035655737 -0.033754766 -0.08853069 -0.020088097 -0.053334463 -0.0118232295
-6.97184e-38 -0.06399671 -0.008559204 -0.11192751 -0.047995042 5.116933e-38 -0.047647536 -1.5028377e-38
-4.0111967e-38 -0.06320382 -0.015182436 2.981189e-38 -1.4352498e-33 -0.045514375 -0.056625217 -4.8534353e-38
-0.012544553 -0.0080522 -0.03467316 -0.11335568 -0.09958363 -0.079968505 -0.08248337 -2.696323e-38
4.4241478e-38 -0.061092936 -0.17047912 -0.0717152 -0.040081177 -0.07560673 -0.069588386 -0.03402282
00000000: 3f75 70bd 5ab7 fbbc b7e5 a8bd a744 9181
00000010: b305 c2bd adbb 3081 220f b301 0863 a880
00000020: 52b4 0bbe c804 8e81 97f4 02be ab1a 2383
00000030: e6a7 6fbc 9e01 29bb e6df 26bd 5408 d9bd
00000040: 025d 72bd bd2e d4bd 2aa4 af81 5a91 d6bd
00000050: 7c44 8d81 95c6 bcbd f0b1 abbd ed4d 0528
00000060: 40e0 8ebc 2215 34bd b8c4 00be ea95 c281
00000070: 2f60 aabb b484 c3bd 16e5 81bc 0a04 3101
00000080: fcc5 a6bc ea19 95bd da93 adb6 eb65 98bd
00000090: 626f 1282 7826 de88 1c69 0dbc 601d 8fbd
000000a0: 7cc6 9fbd 1f6a 2bbd 8b11 8cbc c189 b9bc
000000b0: 8693 d7bd fdc8 dfbd 26e6 e083 a3e9 39bd
000000c0: 37a0 70bc 4297 0bbd 6804 6ebd e101 c8bc
000000d0: 1a63 b881 75f0 d6bd 18bb 0c81 7c53 dcba
000000e0: ef3b bb00 fe0a b101 ec61 d9bd ce30 fc80
000000f0: 40f4 cdbd 3d0c abbd e345 b1bd 641f 648c
00000100: bd30 70bc 66fe b1bd 47af f5b9 9321 cc8e
00000110: c966 68bd 7ff7 d9bd 566a 54bd a061 90bd
00000120: e3b4 899e 9476 8701 1841 b9bd f20b c3bd
00000130: 512e dbbd ec13 59bd 281f 3ba8 07b5 b5bd
00000140: a822 e9bc 69be 89bd 3b45 bcbd 245a c43b
00000150: c511 8cbd 9848 f0bc eb27 d6a1 6ba8 3781
00000160: 0173 e6bc 65d2 abbd 8227 b7bc 8af4 11bd
00000170: 0e77 12bd 5562 09bd 38c5 2ebd fa3b dcbb
00000180: 23f0 2880 463b 98bd ea2e b6bb 38f0 e0bd
00000190: 0c1b 8abd be79 b780 7349 e1bc c86e 2d01
000001a0: 1bb0 9481 8bae 16bd aaca eebb e946 3b01
000001b0: 5109 0089 0e21 d8bd 4952 1bbd 89db b601
000001c0: b201 5cbd 11fa 0cbd b8ff b13c 9ab1 efbd
000001d0: 73df d8bd 9396 ffbc 84e3 aabd f463 5901
000001e0: eba3 6981 9085 51bd f64c 2cbe 5ab0 9abd
000001f0: bba5 c1bc bac0 81bc 67aa f6bd 944a a0bd
00000200: f004 74bd c827 f4bc e74b e9bd 1a6d a700
00000210: b284 d8bd 5a93 7181 9cdb 7f80 1af6 9a81
00000220: c5fc 0bbe e863 6f80 0ce5 05be c5e0 1280
00000230: fe24 aebc 03d5 76bd abdc 08bd 417c c6bd
00000240: 9260 94bd 0ed1 e0bd fe69 9c81 fa61 dcbd
00000250: 5839 8a01 05b6 5abd 9bea 19bd 7d71 40a9
00000260: c98e 45bc 5bbe 82bd 33f6 9cbd 7ff4 b581
00000270: a805 a7bb b6a2 b9bd 603e 46bc a3ed 2981
00000280: 651a a5bd 11c5 92bd 978c 5338 dee5 76bd
00000290: 1cf9 3e02 be02 5109 3e14 69bd bc8b 67bd
000002a0: 4b65 90bd 40c9 31bd c11c bbbc 6058 ebbb
000002b0: 54f9 93bd 0c2d aabc f2c6 8b02 72ad 9abc
000002c0: d674 84bd 449a 8dbd 7ef9 29bd a458 b8bd
000002d0: f3c3 6781 ad19 cabd 7c2e e380 001f e2bb
000002e0: b012 9101 bb9e c581 63be 06be 3840 9681
000002f0: ff51 afbd 1c66 afbd b38f 62bd 8d66 ba8d
00000300: 4fc3 3fbd 13f2 bfbd 30c5 cdbc 1c94 748e
00000310: 2df1 22bd fd28 e9bd 2f5a 3cbd 95bc 99bd
00000320: bd8c a79d fbba 2480 a6b1 b3bd 4cf9 9bbd
00000330: 2cd3 e7bd c47b 91bd b01d 9f28 1b3e 92bd
00000340: ff3a 2fbd 5311 8bbd ea62 bdbd 3e47 b2bd
00000350: 8ec8 94bd edbe 8cbd e851 27a1 dad0 b380
00000360: 50e3 57bd 3aab 82bd c00b 12bd 7042 0abd
00000370: 944f b5bd cb8f a4bc 3d75 5abd 38b6 41bc
00000380: a2ca bd81 b510 83bd e73b 0cbc 403a e5bd
00000390: 7396 44bd d24b 8b01 102a 43bd 00a5 a380
000003a0: ec63 5a81 0171 81bd c1bf 78bc b64f 2201
000003b0: c678 ee88 486d 3abd d8ef 67bd 821f 8481
000003c0: ab87 4dbc 60ed 03bc 7205 0ebd 0627 e8bd
000003d0: 81f2 cbbd 87c6 a3bd 0bed a8bd 42cd 1281
000003e0: 9fdf 7001 963c 7abd 1492 2ebe 6bdf 92bd
000003f0: 292c 24bd b4d7 9abd 5b84 8ebd 835b 0bbd
