yeeef_workspace/ckpt/e0010.pt (torch_old, 882114 bytes, 16 tensors)

_encoder.0.weight f4 [128, 784]
0.007729745 0.008663158 0.012371732 0.011752783 0.011805114 0.011682384 0.011580793 0.01122998
0.012270461 0.011061438 0.008656631 0.008601001 0.014474062 0.013116632 0.012251783 0.010903858
0.0068312637 0.0112928115 0.011430275 0.009487226 0.009541594 0.010018064 0.011545682 0.012268249
0.012341396 0.011389482 0.011654711 0.010425882 0.0077414447 0.008809754 0.013059592 0.012417015
0.011848206 0.013071507 0.014387982 0.01234224 0.0108752735 0.008466352 0.005422171 0.010079642
0.0026999852 0.0027355177 0.004618409 0.0033506036 0.006253761 0.0037417752 0.00990675 0.011305483
0.014107788 0.010552617 0.010774228 0.011464419 0.013356198 0.011568497 0.0122409025 0.012211774
0.0077325315 0.0087184105 0.012443392 0.010371601 0.011222771 0.010683853 0.009110498 0.00886467
0.008867221 0.01067096 0.007883398 0.0045297323 0.0011279449 -0.00042043332 0.0014532069 0.0006030711
0.0012046263 0.0036463356 0.0098314565 0.012716851 0.012905243 0.012339089 0.010956907 0.009252362
0.009447348 0.009246276 0.011679686 0.011639983 0.0077381274 0.008675465 0.011435814 0.010648927
0.010010202 0.006789091 0.012745496 0.011151416 0.0066346987 0.005591134 0.0021571154 0.0013495797
0.0016509972 -0.0011185546 0.0018650781 0.0021778052 0.0036237803 0.003918858 0.0036474925 0.006898084
0.008717319 0.011568177 0.010200143 0.010145685 0.010137842 0.008331657 0.009307199 0.011624435
0.0077323215 0.008854691 0.011706868 0.010639478 0.0076296316 0.009729907 0.016931674 0.007707335
0.003845633 0.0032667383 0.003832041 0.005805252 0.0042168265 0.0036842418 0.002373487 0.0028968907
0.00311676 0.002943238 0.0063774483 0.009434003 0.0075899423 0.0080865845 0.0120307915 0.011781209
0.0119050825 0.009352125 0.009395413 0.011633208 0.007757539 0.00911 0.0123302145 0.010019498
0.006454509 0.012154214 0.010839549 0.007079322 0.0053732633 0.0045290217 0.0027423394 0.0049597193
0.0028846734 0.0043584066 0.0013797107 0.0023457308 0.0021017152 0.00026855923 0.0007173568 0.0032077087
0.00711619 0.010184255 0.008221604 0.0069442624 0.010196391 0.0067447554 0.009581642 0.011462258
0.007727818 0.009449313 0.011385458 0.005973281 0.003860784 0.009675711 0.0050813514 0.0026486842
-8.2140206e-05 -0.000264043 -0.000287371 0.0026713961 0.00021416043 0.00093977246 0.0021992044 0.0008851421
-0.000929498 -0.0005391969 -0.0016227328 -0.000991948 0.0002866571 0.00039963628 0.0017492132 -0.0030125207
0.002663358 0.002818854 0.004958945 0.011276536 0.007990564 0.009122795 0.00825878 0.0060550785
0.0043008532 0.012738252 0.008746323 0.0037915697 0.0016818882 0.0020333568 0.002637835 0.0014338952
0.0033817624 0.006231407 0.0023778062 0.0017031396 -0.0034098767 0.0020574105 0.0066097076 0.0044466276
0.004537916 0.00061596127 0.0053188293 0.0013334214 0.0022806446 0.0018218367 0.0034846303 0.011637513
0.0076581016 0.006340781 0.0069305673 0.0057284967 0.0036040777 0.008957824 0.0071676485 0.0050919508
0.0026990275 0.0030107005 0.002323081 0.0013310589 0.0009821979 0.0012113634 -0.0018122304 -0.001721335
0.0030100334 0.0027225546 0.0036702857 0.0062420648 0.01021986 0.010232643 0.011797883 0.004610875
0.0056960187 0.004464273 0.0020479793 0.011716609 0.006399565 0.0065183393 0.010175825 0.008171764
00000000: cd49 fd3b ebef 0d3c ceb2 4a3c bf8e 403c
00000010: 3d6a 413c 7867 3f3c 5ebd 3d3c f3fd 373c
00000020: 0b0a 493c 093b 353c 8bd4 0d3c 37eb 0c3c
00000030: 9e24 6d3c 24e7 563c b4bb 483c 18a6 323c
00000040: cbd8 df3b 7c05 393c 0c46 3b3c 4f70 1b3c
00000050: 5954 1c3c ce22 243c 1a2a 3d3c c400 493c
00000060: 9133 4a3c f39a 3a3c 67f3 3e3c 52d1 2a3c
00000070: f2ab fd3b c956 103c e6f7 553c bc70 4b3c
00000080: fa1e 423c e029 563c 92bb 6b3c 1b37 4a3c
00000090: 342e 323c 74b6 0a3c 78ac b13b 1525 253c
000000a0: 3cf2 303b 5f46 333b 0656 973b cd95 5b3b
000000b0: 59ec cc3b 9238 753b ec4f 223c a23a 393c
000000c0: 5a24 673c e2e4 2c3c 6386 303c 42d5 3b3c
000000d0: f4d3 5a3c cb89 3d3c 118e 483c e413 483c
000000e0: 2d61 fd3b aad7 0e3c 5edf 4b3c a6ed 293c
000000f0: b7df 373c 540b 2f3c 3344 153c 1f3d 113c
00000100: d247 113c 40d5 2e3c 5e29 013c 266e 943b
00000110: 8dd7 933a 9b6d dcb9 8879 be3a 6b17 1e3a
00000120: 8de4 9d3a 5cf7 6e3b 1e14 213c 575a 503c
00000130: 8370 533c e429 4a3c 9984 333c 3897 173c
00000140: 0dc9 1a3c b17d 173c 275c 3f3c a1b5 3e3c
00000150: 1e90 fd3b 8a23 0e3c 485d 3b3c d678 2e3c
00000160: d501 243c 0677 de3b 7cd2 503c 6eb4 363c
00000170: e367 d93b d535 b73b 645e 0d3b 61e4 b03a
00000180: 4666 d83a 779c 92ba a375 f43a 82b9 0e3b
00000190: f27c 6d3b c369 803b c50a 6f3b 5309 e23b
000001a0: 16d3 0e3c 7388 3d3c 801e 273c 163a 263c
000001b0: 3119 263c 8181 083c 397d 183c 6a74 3e3c
000001c0: 6a5f fd3b 4413 113c 2ace 3f3c 3551 2e3c
000001d0: fd01 fa3b 306a 1f3c 4bb4 8a3c d08d fc3b
000001e0: 0407 7c3b c616 563b fb22 7b3b fc39 be3b
000001f0: 4e2d 8a3b 5273 713b 818c 1b3b c3d9 3d3b
00000200: 8e42 4c3b 57e3 403b eaf9 d03b 1491 1a3c
00000210: 0db5 f83b 987d 043c cc1c 453c f905 413c
00000220: 890d 433c a839 193c 38ef 193c 3699 3e3c
00000230: f432 fe3b 1c42 153c ab04 4a3c d228 243c
00000240: 5980 d33b 7822 473c 5d98 313c a8f9 e73b
00000250: 3312 b03b 3068 943b d2b8 333b 2485 a23b
00000260: ca0c 3d3b f7d0 8e3b 69d7 b43a d5ba 193b
00000270: eebc 093b 69cd 8c39 000d 3c3a 6c38 523b
00000280: ee2e e93b dddb 263c e8b3 063c b28c e33b
00000290: c30e 273c 1c03 dd3b 52fc 1c3c 32cc 3b3c
000002a0: a339 fd3b 4bd1 1a3c 128a 3a3c 83bb c33b
000002b0: 3505 7d3b e086 1e3c 7781 a63b 8c95 2d3b
000002c0: b042 acb8 406f 8ab9 48aa 96b9 9712 2f3b
000002d0: 4190 6039 105b 763a 8720 103b e108 683a
000002e0: 8ea9 73ba e458 0dba e1b1 d4ba 4004 82ba
000002f0: 774a 9639 4686 d139 db45 e53a b66d 45bb
00000300: bc8b 2e3b 86bc 383b a57e a23b 38c1 383c
00000310: dbea 023c c777 153c d64f 073c ae69 c63b
00000320: 2cee 8c3b 1ab4 503c bd4c 0f3c fc7b 783b
00000330: ce72 dc3a 1142 053b 87df 2c3b 8af1 bb3a
00000340: 8fa0 5d3b d530 cc3b f8d4 1b3b e23b df3a
00000350: 3d78 5fbb 9fd5 063b 3f96 d83b 04b5 913b
00000360: ccb2 943b 7678 213a 9349 ae3b 33c6 ae3a
00000370: de76 153b b2ca ee3a 655e 643b 44ab 3e3c
00000380: d0f0 fa3b 54c6 cf3b d019 e33b 1db6 bb3b
00000390: 6432 6c3b d6c3 123c 98de ea3b 61da a63b
000003a0: 2be2 303b 2c4f 453b d53e 183b ed76 ae3a
000003b0: 18bd 803a 9cc6 9e3a 5d88 edba 6b9e e1ba
000003c0: fb43 453b e36c 323b 2d89 703b 3c8a cc3b
000003d0: 3371 273c d1a6 273c e84b 413c d316 973b
000003e0: aba5 ba3b 0949 923b 6437 063b 05f7 3f3c
000003f0: 71b3 d13b cb97 d53b 81b8 263c dde2 053c

_encoder.0.bias f4 [128]
-0.007729745 -0.0030014657 -0.018335436 -0.044871666 -0.16356982 -7.780905e-19 -0.0461646 -0.10974872
-0.008056852 -0.019571068 -0.04432386 -2.1294117e-07 -0.009200659 -0.003159243 0.011278769 -0.019751318
-0.017719546 -0.0026171864 -0.064365886 -0.012123884 -0.014892647 -0.0073313443 -0.008118735 -1.0082049e-06
-0.0072002006 -1.9536937e-18 -0.0567872 -0.0028901985 -0.011275556 -4.8168013e-06 -0.034126747 0.0034393438
0.0011852161 -0.019472787 0.14800912 -0.096121795 -0.015411556 -0.0007077433 -0.019574188 -7.9685694e-16
-0.0008656755 -4.4742163e-07 -0.033176597 -0.02976797 -0.004597805 -0.09032848 -0.012266013 -0.064806096
-0.01906539 -0.0003385392 -9.348148e-08 0.19711158 -0.013961567 -0.04125575 -0.009904645 -0.14581208
-6.455091e-20 -0.12162686 -3.1618035e-28 -7.5679265e-16 0.051154584 -0.12471861 -0.040955365 -0.114110075
-0.0069825067 -0.032686252 -0.0067146625 -9.60157e-05 -0.105401576 -0.021899393 -0.01644978 -8.9116064e-08
-5.246667e-15 -0.038347382 -0.050853144 -0.043509927 -0.06945484 -0.09757701 -0.053317275 -0.13229287
-0.028472273 -4.6933063e-17 -0.041428678 -0.013209512 -0.0028850231 -0.019588688 -0.0070151887 -8.1537006e-17
-0.065760255 -0.08413458 -0.043425795 -0.018381406 -0.11841479 -0.0014874019 -0.010162791 -0.050434783
-0.013778501 -3.443901e-07 -0.01834426 -9.016943e-06 -0.03668898 -0.07522986 -0.10319676 0.030753016
-3.995318e-15 -0.039721273 -0.0899979 -0.03947689 -0.049050428 -0.0015688624 -0.061235372 -1.9509242e-13
-0.014145714 -2.271721e-15 -0.004209613 -4.094908e-10 -1.4046445e-10 -0.0075213555 -0.005865429 -0.08457421
-0.078712486 -0.009329065 -0.1259095 -5.1607114e-09 -2.7249967e-25 -0.011731823 -0.045558337 -0.0066740653
00000000: cd49 fdbb 3db4 44bb 3234 96bc 5acb 37bd
00000010: d97e 27be dba6 65a1 1717 3dbd f0c3 e0bd
00000020: e300 04bc 8153 a0bc f08c 35bd d3a4 64b4
00000030: 5cbe 16bc 4d0b 4fbb 96ca 383c 84cd a1bc
00000040: 9528 91bc 1a85 2bbb 43d2 83bd 41a3 46bc
00000050: 4a00 74bc c63b f0bb 7104 05bc a851 87b5
00000060: a9ef ebbb 3b28 10a2 b299 68bd 7c69 3dbb
00000070: 1cbd 38bc 02a0 a1b6 7dc8 0bbd 9d66 613b
00000080: 4159 9b3a 6585 9fbc b48f 173e 81db c4bd
00000090: c080 7cbc d987 39ba 0c5a a0bc aaad 65a6
000000a0: 80ee 62ba 2935 f0b4 2fe4 07bd f5db f3bc
000000b0: 2fa9 96bb 23fe b8bd 63f7 48bc 0fb9 84bd
000000c0: 052f 9cbc f67d b1b9 fdbf c8b3 9ed7 493e
000000d0: 0ebf 64bc cafb 28bd 1847 22bc c34f 15be
000000e0: a26a 989f 8117 f9bd 3267 c891 7121 5aa6
000000f0: 7887 513d 786c ffbd d0c0 27bd 8bb2 e9bd
00000100: 83cd e4bb 05e2 05bd ac06 dcbb 095c c9b8
00000110: c8dc d7bd 5b66 b3bc b0c1 86bc 1360 bfb3
00000120: f607 bda7 2512 1dbd 634b 50bd 7737 32bd
00000130: 573e 8ebd 75d6 c7bd 3763 5abd c877 07be
00000140: af3e e9bc c870 58a4 1eb1 29bd b66c 58bc
00000150: a812 3dbb 7578 a0bc abdf e5bb f402 bca4
00000160: 50ad 86bd c04e acbd 3fdf 31bd 9a94 96bc
00000170: 7483 f2bd edf4 c2ba d681 26bc b494 4ebd
00000180: 39bf 61bc 9de4 b8b4 b446 96bc 7a47 17b7
00000190: 2f47 16bd 1d12 9abd d358 d3bd c0ed fb3c
000001a0: 4ef2 8fa7 c6b2 22bd d250 b8bd 85b2 21bd
000001b0: 1ae9 48bd 49a2 cdba f1d1 7abd 90a7 5baa
000001c0: 6dc3 67bc dbb1 23a7 cbf0 89bb b51e e1af
000001d0: 3a71 1aaf b475 f6bb c932 c0bb 3e35 adbd
000001e0: 0334 a1bd efd8 18bc 6cee 00be 1952 b1b1
000001f0: 4cab a896 d536 40bc 619b 3abd 1eb2 dabb

_encoder.2.weight f4 [64, 128]
-0.025254168 -0.03084208 -0.007526422 0.003078184 -0.13054334 4.7428608e-09 0.033352986 -0.05271655
-0.0054884306 0.03540104 0.21991871 -1.540797e-05 -0.000641976 -0.0036990794 -0.23384552 -0.009801512
0.021743704 -0.0105463285 0.015257426 0.019488456 0.012163127 0.0059504653 -0.015767198 0.014185636
0.030846814 5.9756575e-11 0.17975818 -0.0012109319 0.05818531 -7.5536466e-10 -0.0003225957 -0.058180302
0.03214569 -0.03294037 0.118023284 -0.007812813 -0.0019650846 0.012425924 0.016301528 -4.067004e-06
-0.008521061 0.0005642522 -0.028279921 -0.09479174 0.006386204 0.14300565 -0.011532156 -0.030746283
-0.3499334 0.009969963 1.972182e-06 -0.45422116 -0.009425169 0.0029139898 0.013669259 0.17991246
-0.0016637978 -0.0011826343 0.00044944137 -0.00020545871 -0.013651513 -0.0753653 0.12287607 0.000223787
0.020990495 0.09055132 0.047796242 0.0006407957 -0.12453265 0.085282944 0.029973295 0.0086493185
0.0010184128 -0.0013851929 0.031793136 0.04444235 -0.061046764 0.0394055 -0.017514938 -0.04136736
0.02609374 -5.5940664e-38 0.10955213 -0.023604127 -0.018636245 0.022273785 -0.0055954456 0.0002282549
0.10132426 -0.051543504 -0.03672678 -0.05648507 0.008350678 -0.058190547 -0.035049573 0.05089456
-0.009991997 4.222115e-39 0.00027540972 0.004922979 -0.05452762 0.0865368 -0.10023289 -0.0017894398
8.494644e-06 0.10792126 0.026985355 -0.0057657175 -0.0029617161 -0.0074636494 0.17728075 5.102619e-08
0.04350374 0.0022256337 -0.19856544 -0.00035584238 -0.0005048719 -0.012507227 -0.0051035048 0.020048555
-0.013766508 0.02471186 0.15483525 4.0648065e-27 0.00029950842 -0.0017858188 -0.1088212 0.012424629
0.0015944589 0.1300957 0.016917387 0.046019226 -0.1144441 9.808146e-05 -0.027953185 -0.0823192
-0.0022200998 0.0131795155 0.06305938 -9.537802e-07 0.019197144 0.008104653 -0.16356674 -0.0030020836
0.038899552 -0.00020257477 -0.051412255 0.020841194 -0.009223762 0.010608965 -0.001894263 0.039069008
0.018393422 9.8628234e-08 0.07642643 0.005387716 0.031233735 -3.0015197e-13 0.031792916 -0.0046834284
0.02914575 0.011253536 0.10241246 -0.027782891 0.0011548861 0.012995257 0.019421136 6.8695394e-06
-0.002241369 -0.00048144214 0.0015977403 0.028702732 0.0011994228 -0.2462801 0.01714284 0.0037401656
-0.2906954 0.015031602 -1.5215946e-05 -0.48295656 0.010075318 0.057480443 -0.0028469977 0.3370823
-0.0007779597 -0.0026686017 0.0013683503 -0.0016674439 -0.025188832 -0.072571255 0.05646428 -0.017486347
0.0115093775 0.04008403 -0.05661515 -0.009917254 -0.15136231 0.059329577 -0.0060398667 -0.0017251609
0.00039461124 -0.038808994 -0.030077536 0.047620088 0.008019925 0.27656388 -0.06819773 0.04763717
-0.11265546 5.2358665e-35 0.16005482 -0.016326068 0.0076178377 0.027755046 -0.050412454 -0.0030190332
0.20539047 -0.08536978 -0.06398983 -0.043113764 0.14540243 -0.009934503 -0.021267047 0.06810482
-0.004231958 1.316432e-39 0.008485212 0.004094502 -0.039072584 0.19734707 -0.114811726 -0.058594584
-0.00030087915 0.22514382 0.001438693 -0.0013092175 0.00030152235 -0.00032584261 0.33891878 -5.701269e-07
0.018106643 0.0034447627 -0.12185791 -0.00018021246 -0.00030964796 0.028591327 0.020618707 -0.00045538638
-0.08458921 -0.004681662 0.32471713 1.0823974e-38 -0.00043360944 -0.015264407 -0.05678599 -0.004943664
00000000: d4e1 cebc 88a8 fcbc 34a0 f6bb 5cbb 493b
00000010: 27ad 05be a5f6 a231 249d 083d 4fed 57bd
00000020: 4bd8 b3bb ae00 113d 5f32 613e 5d40 81b7
00000030: 484a 28ba 416c 72bb 3375 6fbe 8596 20bc
00000040: da1f b23c 82ca 2cbc 48fa 793c 41a6 9f3c
00000050: da47 473c 1ffc c23b 362a 81bc df6a 683c
00000060: 75b2 fc3c f667 832e 8712 383e 22b8 9eba
00000070: b853 6e3d 10a2 4fb0 1022 a9b9 784e 6ebd
00000080: 33ab 033d 7bec 06bd 31b6 f13d 5001 00bc
00000090: a6c8 00bb 1a96 4b3c c88a 853c 4c77 88b6
000000a0: ec9b 0bbc 53ea 133a 4bab e7bc 2c22 c2bd
000000b0: 5d43 d13b 1370 123e 5ef1 3cbc a1df fbbc
000000c0: 782a b3be 0e59 233c d459 0436 ad8f e8be
000000d0: 066c 1abc a3f8 3e3b 07f5 5f3c f93a 383e
000000e0: ca13 daba 9f02 9bba 00a3 eb39 6770 57b9
000000f0: 98aa 5fbc 1f59 9abd 73a6 fb3d 5ea8 6a39
00000100: 42f4 ab3c f872 b93d fec5 433d 12fb 273a
00000110: f90a ffbd d3a8 ae3d 8e8a f53c dfb5 0d3c
00000120: 437c 853a 5c8f b5ba 8539 023d 2e09 363d
00000130: 2c0c 7abd a967 213d 7d7b 8fbc d270 29bd
00000140: 8ac2 d53c f448 9881 de5c e03d 715d c1bc
00000150: 0aab 98bc 8377 b63c 005a b7bb b557 6f39
00000160: 1883 cf3d 481f 53bd d26e 16bd e45c 67bd
00000170: 48d1 083c 3659 6ebd 2490 0fbd d076 503d
00000180: 79b5 23bc 8af9 2d00 de64 9039 f150 a13b
00000190: 5b58 5fbd 353a b13d e746 cdbd a38b eaba
000001a0: 3884 0e37 d205 dd3d 6410 dd3c 58ee bcbb
000001b0: 5a19 42bb a191 f4bb 1689 353e e427 5b33
000001c0: fa30 323d f0db 113b bd54 4bbe 5b90 bab9
000001d0: 6159 04ba 1deb 4cbc 4d3b a7bb de3c a43c
000001e0: eb8c 61bc 8770 ca3c 228d 1e3e 0906 a113
000001f0: 5707 9d39 2312 eaba a6dd debd ac90 4b3c
00000200: 2afd d03a cf37 053e 5596 8a3c a87e 3c3d
00000210: ab61 eabd 15b1 cd38 14fe e4bc f896 a8bd
00000220: 187f 11bb e5ee 573c 4725 813d a303 80b5
00000230: 5443 9d3c 61c9 043c 0a7e 27be 9bbe 44bb
00000240: 2355 1f3d 406a 54b9 a895 52bd 27bb aa3c
00000250: 431f 17bc 39d1 2d3c eb48 f8ba d306 203d
00000260: cdad 963c 72cd d333 7685 9c3d 708b b03b
00000270: e4dd ff3c 75f8 a8aa 4a39 023d 7277 99bb
00000280: 11c3 ee3c c060 383c a0bd d13d f298 e3bc
00000290: 8c5f 973a 0fea 543c 1319 9f3c e580 e636
000002a0: efe3 12bb 126a fcb9 456b d13a fe21 eb3c
000002b0: f335 9d3a da30 7cbe 246f 8c3c 911d 753b
000002c0: 07d6 94be 1c47 763c fe47 7fb7 1546 f7be
000002d0: f212 253c 9d70 6b3d b294 3abb 0d96 ac3e
000002e0: feef 4bba b5e3 2ebb 385a b33a 228e daba
000002f0: cf58 cebc 3da0 94bd 1747 673d 873f 8fbc
00000300: d491 3c3c 272f 243d 4ae5 67bd fa7b 22bc
00000310: b9fe 1abe 9203 733d 13ea c5bb cb1e e2ba
00000320: d3e3 ce39 2ef6 1ebd 2a65 f6bc 480d 433d
00000330: 0166 033c c899 8d3e 40ab 8bbd 311f 433d
00000340: e8b7 e6bd 7631 8b06 69e5 233e 3fbe 85bc
00000350: 0e9f f93b 8d5e e33c 4a7d 4ebd f9da 45bb
00000360: e151 523e 5ad6 aebd 1a0d 83bd 0f98 30bd
00000370: 60e4 143e 53c4 22bc 3b38 aebc 8a7a 8b3d
00000380: 3dac 8abb ad55 0e00 8f05 0b3c 2c2b 863b
00000390: 930a 20bd 5a15 4a3e 6922 ebbd e000 70bd
000003a0: 51bf 9db9 1a8c 663e 8792 bc3a 0d9a abba
000003b0: a515 9e39 dbd5 aab9 c386 ad3e d20a 19b5
000003c0: 6254 943c 87c1 613b a490 f9bd 6af7 3cb9
000003d0: 3f58 a2b9 5c38 ea3c 90e8 a83c edc0 eeb9
000003e0: 1c3d adbd a168 99bb 5341 a63e d6dc 7500
000003f0: 1356 e3b9 9017 7abc 6d98 68bd 76fe a1bb

_encoder.2.bias f4 [64]
0.03955213 0.16792828 0.45282066 -0.13525176 -0.0071467143 0.1703031 -0.028283006 -0.1715976
0.22289106 0.32161388 -0.09277415 0.14368904 -0.18022676 -4.437076e-39 -0.07229848 -0.028625226
-0.016968086 -0.035443407 -0.057656158 -0.028514773 0.001969033 -0.224411 -0.09626699 -1.4018905e-38
-0.025647057 0.15226465 -0.077909045 0.0122434655 -4.2345096e-18 -0.0072728894 -0.002565036 0.21424893
-4.2966888e-38 -0.12501252 -0.07068662 -0.116023 -6.887605e-17 0.10807802 -0.049422737 -0.19708101
-0.12975717 0.054518487 0.019165304 0.021965919 -0.04557522 -0.045391038 -7.200118e-13 0.0072540194
-0.0072508464 0.025041224 0.32497436 -0.04526282 -0.15058881 0.08610085 0.036415827 0.13510077
-0.07879937 0.2595467 -0.030333484 -0.10209822 -3.439914e-06 -2.4487803e-23 0.23571901 -7.9238976e-19
00000000: 6a01 223d 64f5 2b3e 1cd8 e73e 707f 0abe
00000010: fc2e eabb f063 2e3e c3b1 e7bc 48b7 2fbe
00000020: 8e3d 643e 93aa a43e 6000 bebd 3823 133e
00000030: 5d8d 38be c350 3080 3a11 94bd 737f eabc
00000040: a800 8bbc 1b2d 11bd dd28 6cbd d097 e9bc
00000050: e40a 013b ffcb 65be a127 c5bd 01a7 9880
00000060: c719 d2bc 44eb 1b3e c78e 9fbd d198 483c
00000070: d039 9ca2 6b51 eebb 2a1a 28bb 1264 5b3e
00000080: 1aef 6981 4803 00be 26c4 90bd 779d edbd
00000090: 3ed1 9ea4 0258 dd3d 7f6f 4abd 9bcf 49be
000000a0: 10df 04be c74e 5f3d 8e00 9d3c dff1 b33c
000000b0: 15ad 3abd f4eb 39bd 51aa 4aab 20b3 ed3b
000000c0: 8298 edbb 4123 cd3c 0a63 a63e 8265 39bd
000000d0: f433 1abe a455 b03d c328 153d db57 0a3e
000000e0: 9061 a1bd 4ee3 843e ed7d f8bc df18 d1bd
000000f0: 46d9 66b6 ddd4 ec99 5360 713e 47df 69a1

_encoder.4.weight f4 [12, 64]
0.06241772 -0.14973055 -0.2527489 0.14090131 0.004362031 -0.11237443 -0.013908083 -0.041671123
-0.11880956 -0.20215268 -0.05848114 -0.22139224 -0.036484666 -4.228715e-38 0.062038913 0.001456382
-0.018536557 0.06309395 0.039893817 4.6795307e-05 -0.039255206 0.017289616 0.09339981 -3.40993e-24
0.117653124 -0.19529165 0.33129826 -0.118163295 -2.7682856e-38 -0.00013905391 -0.008577999 -0.24382177
-2.6404215e-12 -0.03565158 0.083435744 0.1013105 6.010365e-08 0.03399946 -0.0067655477 0.16784585
0.0103462115 0.121485464 0.00033244965 0.16032594 -0.0020101583 0.07312535 1.5733567e-05 -0.03803079
-0.00014747711 -0.01991104 0.11093637 0.0440349 0.0021962128 0.20456019 -0.21583012 -0.028888771
-0.0050051184 -0.15296279 -0.042891424 -0.096150704 0.0015743292 6.0775343e-24 0.050852157 -5.961719e-39
-0.09716652 -0.008590383 -0.10086408 -0.019131944 0.19925526 -0.0020760756 -0.039838064 0.007832814
0.13035128 -0.3139927 -0.049719796 0.17913711 -0.06289006 1.00487925e-11 -0.0037109617 0.014241205
-0.030570008 0.007948243 0.0037258358 0.061102103 0.009699648 0.0052863704 0.054185662 -2.0193757e-07
0.023419246 0.09035469 0.3934636 -0.059624914 -1.5717025e-18 -0.005458389 -0.011919415 -0.2959607
-2.7270255e-10 0.0029942528 -0.11817677 -0.11569708 -7.257577e-05 -0.11111603 -0.075857304 -0.12238107
0.27415377 -0.21203461 -0.015466902 0.12594883 0.0320938 -0.0008747543 3.971399e-24 -0.107711375
-0.32506323 -0.25881764 -0.3950229 -0.002854933 0.08112829 -0.4175544 -0.13042973 -0.19839144
0.22917615 0.027493086 -0.015624221 -0.065181695 -0.00023633706 -0.00015830842 0.21087725 -2.9436584e-38
0.00325906 0.21859698 -0.090523295 0.08702092 0.12248549 0.11345973 -0.2483051 0.2618828
-0.13149323 0.063778885 -0.031752262 0.12209988 0.15826456 -1.86926e-16 0.061902802 0.008190788
-0.016329736 0.079928175 0.15462308 0.037872665 0.087053284 0.22109544 -0.15578677 -1.2855117e-08
0.044024993 0.17406608 0.03800818 0.22642435 -1.5612158e-38 -0.020321338 -0.02251042 -0.26282606
-1.1639774e-07 -0.030750863 0.19374785 0.13885236 2.4418765e-05 -0.26201642 0.021206448 0.019664856
0.13068038 -0.07309272 -0.0049717426 0.05081829 0.013089743 0.20948176 0.0020938937 0.0823588
-0.002303454 0.19253746 -0.031038739 -0.012107267 -0.01865086 -0.029114619 -0.30447316 -0.2020135
0.160831 0.047753062 -0.04935152 0.094003186 0.007381779 1.6814802e-05 0.04355169 2.3845082e-14
-1.26235e-40 -1.210858e-11 -2.2221771e-38 -8.986469e-34 -5.290262e-15 -1.5451718e-10 -9.211822e-05 -6.3635703e-06
-0.00021646677 -9.053472e-12 -2.7376533e-05 -9.996485e-13 -0.00016242106 -5.411222e-39 -6.114138e-39 3.6590008e-38
-9.805714e-39 -2.0069509e-38 -1.8984988e-38 -7.695867e-07 -5.130872e-21 -9.282252e-07 4.5241975e-09 7.64073e-40
-1.53604e-38 -9.8369586e-05 7.51576e-17 -7.027544e-07 1.8013166e-38 -6.799392e-39 -2.5250132e-38 -7.5125e-29
-1.747131e-38 -5.984517e-05 1.104554e-39 -1.354225e-19 -1.2527718e-38 3.098655e-39 -1.2577975e-10 -9.129848e-09
9.088221e-16 -2.41762e-40 -3.57799e-39 -6.270134e-39 3.3811505e-38 -6.343194e-38 -1.5938653e-38 -4.0549163e-05
-5.814742e-10 -7.569604e-14 -1.9245212e-17 -4.0334717e-38 -0.0018094014 -1.0576228e-09 -9.42872e-40 -2.9546462e-38
4.7009503e-15 -0.0009518595 -2.680238e-39 -2.9724606e-12 1.7451042e-38 6.12772e-40 -4.4547415e-09 -3.3235285e-38
00000000: b9a9 7f3d f752 19be 4e68 81be 6f48 103e
00000010: 5eef 8e3b 9124 e6bd bade 63bc 57af 2abd
00000020: 6d52 f3bd 1d01 4fbe eb89 6fbd a6b4 62be
00000030: f270 15bd af3b 6681 841c 7e3d 12e4 be3a
00000040: fad9 97bc 6737 813d b367 233d 1446 4438
00000050: 11ca 20bd f4a2 8d3c 6648 bf3d 50ea 8398
00000060: 1ff4 f03d 89fa 47be ed9f a93e 99ff f1bd
00000070: 45b8 1681 00cf 11b9 bc8a 0cbc 6aac 79be
00000080: 9bcd 39ac 6407 12bd 5ce0 aa3d e17b cf3d
00000090: 5512 8133 0543 0b3d 87b1 ddbb c8df 2b3e
000000a0: 2883 293c 5fcd f83d a34c ae39 7c2c 243e
000000b0: dcbc 03bb bec2 953d 94fb 8337 2cc6 1bbd
000000c0: 16a4 1ab9 7a1c a3bc 9c32 e33d f05d 343d
000000d0: 56ee 0f3b 3a78 513e 9202 5dbe 25a8 ecbc
000000e0: fa01 a4bb 47a2 1cbe ebae 2fbd a9ea c4bd
000000f0: b959 ce3a fc1c eb18 5a4a 503d d9ea 4080
00000100: 3eff c6bd aebe 0cbc d491 cebd 98ba 9cbc
00000110: 9209 4c3e c50e 08bb 3d2d 23bd 3455 003c
00000120: ce7a 053e a7c3 a0be fca6 4bbd b86f 373e
00000130: 81cc 80bd bdc7 302d 9b33 73bb f153 693c
00000140: f46d fabc 5939 023c 272d 743b 3346 7a3d
00000150: 46eb 1e3c 4a39 ad3b c9f1 5d3d 2dd4 58b4
00000160: b8d9 bf3c e10b b93d 1074 c93e 4139 74bd
00000170: 3ef1 e7a1 49dc b2bb a649 43bc 2988 97be
00000180: 79eb 95af 3a3b 443b aa06 f2bd 97f2 ecbd
00000190: d233 98b8 cd90 e3bd 135b 9bbd eda2 fabd
000001a0: e25d 8c3e 9a1f 59be e468 7dbc bbf8 003e
000001b0: ca74 033d c44f 65ba d5a2 9918 c897 dcbd
000001c0: b06e a6be bf83 84be 7140 cabe d419 3bbb
000001d0: 9726 a63d b1c9 d5be 5f8f 05be 2027 4bbe
000001e0: 27ad 6a3e 2e39 e13c bcfc 7fbc fb7d 85bd
000001f0: 3fd1 77b9 98ff 25b9 35f0 573e 9c44 2081
00000200: f495 553b e3d7 5f3e 4764 b9bd 0638 b23d
00000210: acd9 fa3d 935d e83d b143 7ebe 8115 863e
00000220: 29a6 06be 819e 823d a90e 02bd 800f fa3d
00000230: 1b10 223e d182 57a5 cb8d 7d3d a832 063c
00000240: f0c5 85bc 62b1 a33d 8355 1e3e 5e20 1b3d
00000250: fe48 b23d d866 623e 9186 1fbe 67d9 5cb2
00000260: 8d53 343d 613e 323e 77ae 1b3d c9db 673e
00000270: 5800 aa80 ef78 a6bc c667 b8bc 2391 86be
00000280: 56f6 f9b3 3ce9 fbbc d665 463e 502f 0e3e
00000290: e6d6 cc37 0427 86be 25b9 ad3c 3118 a13c
000002a0: 14d1 053e a3b1 95bd 00ea a2bb d726 503d
000002b0: 5d76 563c 6382 563e b539 093b bbab a83d
000002c0: 8cf5 16bb 8a28 453e f444 febc 8f5d 46bc
000002d0: b0c9 98bc c881 eebc e8e3 9bbe a0dc 4ebe
000002e0: e2b0 243e b798 433d d224 4abd be84 c03d
000002f0: dae2 f13b 830d 8d37 4263 323d 04c7 d628
00000300: e45f 0180 3204 55ad 42f9 f180 3650 9588
00000310: 0e9a bea7 b8e4 29af 982f c1b8 a786 d5b6
00000320: 5bfb 62b9 3745 1fad a8a6 e5b7 22b0 8cab
00000330: 924f 2ab9 49ec 3a80 bb93 4280 0737 4701
00000340: 57c6 6a80 a089 da80 6cba ce80 9895 4eb5
00000350: c0d6 c19d 262b 79b5 4373 9b31 ed51 0800
00000360: 8c42 a780 c54b ceb8 374d ad24 eaa4 3cb5
00000370: 6125 c400 f009 4a80 8c79 0981 ea76 be90
00000380: e73e be80 4302 7bb8 0c07 0c00 f0e0 1fa0
00000390: 2e6a 8880 cabd 2100 da4b 0aaf 7fd9 1cb2
000003a0: 9ef9 8226 efa1 0280 fbf5 2680 9546 4480
000003b0: 5c16 3801 9cad ac81 7b8e ad80 5513 2ab8
000003c0: 9cd5 1fb0 cc73 aaa9 7981 b1a3 649a 5b81
000003d0: 7029 edba cb5b 91b0 5844 0a80 c2dd 2081
000003e0: 9d5e a927 3686 79ba 6a2f 1d80 172b 51ac
000003f0: 6806 be00 29ac 0600 5210 99b1 3af3 3481

_encoder.4.bias f4 [12]
0.054568928 0.11229572 -0.062091824 -2.113425e-09 0.11085052 0.29041547 -0.058590192 0.4845334
0.39642072 0.29258505 -0.1598555 0.07311755
00000000: ab83 5f3d 4cfb e53d ff53 7ebd c43b 11b1
00000010: 9905 e33d 56b1 943e 45fc 6fbd c314 f83e
00000020: a8f7 ca3e b5cd 953e 29b1 23be a7be 953d

_encoder.6.weight f4 [2, 12]
-0.27917337 0.2724875 0.06182731 0.0022830844 -0.06975682 -0.20262575 0.22802572 -0.15619251
-0.3038015 0.08489379 0.29774976 0.18220268 0.07980301 0.03402545 0.19146456 0.0015741797
0.34379655 0.1110558 0.021177853 0.071986094 -0.14066614 -0.15890867 0.21888544 -0.12999214
00000000: d0ef 8ebe 7b83 8b3e a23e 7d3d cd9f 153b
00000010: aadc 8ebd 207d 4fbe 937f 693e eef0 1fbe
00000020: df8b 9bbe ccdc ad3d a872 983e 5793 3a3e
00000030: c36f a33d 455e 0b3d 490f 443e b554 ce3a
00000040: 1a06 b03e 3971 e33d 2d7d ad3c 726d 933d
00000050: c90a 10be f4b8 22be 8123 603e a91c 05be

_encoder.6.bias f4 [2]
0.06668874 -0.012889762
00000000: 1b94 883d 952f 53bc

_decoder.0.weight f4 [12, 2]
0.03860837 0.6200295 -0.5139375 -0.9294438 0.0005030181 -0.013023866 -0.00083889975 -0.02535749
0.59291595 0.38258016 0.6797131 -0.0009993999 0.1793346 0.30344546 -0.47115082 -0.0040963017
0.088561594 -0.52335876 0.07201786 0.2365774 0.6008661 -0.2516788 0.43530652 -0.14340276
00000000: cf23 1e3d 41ba 1e3f 6891 03bf 07f0 6dbf
00000010: f9dc 033a 0e62 55bc 9ce9 5bba 83ba cfbc
00000020: 57c9 173f 8ce1 c33e ad01 2e3f 4cfe 82ba
00000030: 7da3 373e 345d 9b3e ae3a f1be 453a 86bb
00000040: c85f b53d d7fa 05bf 1a7e 933d 5941 723e
00000050: 5cd2 193f 0bdc 80be 7fe0 de3e 2cd8 12be

_decoder.0.bias f4 [12]
-0.28526732 0.4288859 -0.12430114 -0.11755833 0.24632458 -0.121702164 -1.1490308 0.23067449
0.24213609 1.0206646 -0.1750873 0.15918045
00000000: 8f0e 92be ef96 db3e 9991 febd 6cc2 f0bd
00000010: 833c 7c3e fc3e f9bd 7113 93bf ef35 6c3e
00000020: 86f2 773e 23a5 823f 164a 33be 3300 233e

_decoder.2.weight f4 [64, 12]
-6.425865e-05 -0.00024578895 -2.6593943e-38 -1.4777829e-38 -7.455357e-09 -3.8349925e-18 6.380883e-37 3.2328662e-05
-2.7420418e-08 -3.4290526e-05 5.140653e-38 2.0937354e-38 -1.0854488e-06 1.8233523e-38 3.4189012e-38 -1.3445944e-38
-5.2301164e-07 -5.0787214e-09 -4.70549e-13 -4.426005e-19 -1.4951738e-38 -4.374882e-09 -2.8747482e-12 -2.3550845e-14
0.059295133 -0.16157912 -0.019730797 -0.003809754 -0.028710965 0.3499189 -0.1765977 -0.120402366
0.31796214 0.03354108 -0.3456812 -0.26529178 -0.000291454 -7.2305035e-08 -2.080179e-39 -5.302208e-38
-0.00042702313 -3.7170354e-05 -2.6896805e-08 -8.5294005e-10 -7.270071e-16 -3.5425728e-05 -5.251544e-07 -2.8744097e-08
-0.025954586 -2.0654358e-07 2.0558977e-38 -2.7295848e-38 -0.0339774 -0.024459695 -0.02614462 -0.011059022
-2.7755584e-07 -0.038189005 -0.020114716 -0.018324355 -0.00811621 -0.13023248 -8.7892615e-05 -0.0017318184
-0.24716598 0.15458569 -0.45683563 0.09673328 0.007513738 0.09735256 0.07730358 0.0065237167
-0.027177755 -0.001791325 -1.6829157e-38 -9.32062e-40 -0.028270798 -0.027447501 -0.015687548 -0.034145735
-0.010150994 -0.037315328 -0.020463021 -0.020050762 -0.52201515 0.19366843 0.024118977 -0.0066432515
-0.09192354 0.08882694 0.22613887 -0.9507457 0.5794552 -0.120977774 0.22206156 0.21017759
-0.26961577 -0.17940381 -1.0102258e-05 -0.0014096681 0.17881496 0.040219095 -0.8490765 0.038217142
-0.33813584 0.27096322 -0.030159008 -0.0154442405 -0.034807295 0.02556271 0.006503605 0.02402735
-0.3068655 -0.18776856 0.06062111 0.31536245 0.17160846 0.1360955 0.05787971 -0.029852
0.20670648 0.006406456 0.0100494865 0.004371746 -0.24332513 0.34558126 0.35209882 0.305042
-0.17313656 -0.10493343 0.32064858 0.09569368 -0.19118708 -0.10662141 -0.0010392577 -0.0125121735
-0.4093695 -0.24470969 -0.34253654 0.13929273 0.23408724 0.122711696 0.035980277 -0.18688206
-0.2410891 -0.08289766 0.0071634725 0.019776186 0.24998744 0.30392313 -0.40275294 -0.48831898
0.13079917 -0.32940418 -0.05668657 0.1359429 -0.024685068 -0.08238423 -6.264643e-22 -0.0008014901
-0.030464351 -0.017192302 -0.0357433 -0.03840841 -0.0392141 -0.035240266 -0.014936713 -0.017082889
-0.122663654 0.15690257 0.018041259 0.05020843 0.26963136 0.19732912 0.2943283 -0.08437823
0.11757975 -0.12975393 0.26958138 0.021228269 0.09542861 -0.19735509 -1.9987324e-19 -0.0022365625
-0.22705986 -0.4549677 -0.3117726 -0.12130425 0.4263822 0.24041857 -0.10649656 -0.12403963
0.070867226 0.37449276 -0.0024156221 0.028665198 -0.11576719 0.16197059 0.2881767 -0.2704206
0.12659532 0.02311017 0.39288867 -0.23124616 0.311607 0.033220183 4.3711101e-10 -0.034283973
-0.12826067 -0.34371066 -0.21154678 -0.2914156 0.026695926 0.23079263 -0.0074890605 -0.56060576
-9.957733e-11 4.6981826e-23 4.707262e-38 1.0270503e-30 -3.1724066e-09 -8.618367e-15 -3.459428e-19 -1.5811295e-23
9.399525e-29 -1.5131512e-15 -3.2201801e-27 -5.795528e-31 -0.43715373 -0.21323627 0.011023936 -0.035544224
-0.36593437 0.026941871 -0.5581768 0.35531554 0.1305591 0.21723205 0.1133953 0.2977551
-0.4637433 0.4133141 0.018840807 0.027960263 0.11088851 0.20269457 0.05637263 -0.03690068
-0.3940082 -0.035088077 0.05396238 0.16039793 0.25854856 -0.35048515 -7.415686e-12 0.039553586
00000000: 9ac2 86b8 3cdd 80b9 8cca 1081 93ea a080
00000010: 0215 00b2 7b7c 8da2 5521 5903 a398 0738
00000020: 238a ebb2 2cd3 0fb8 1ff1 8b01 d3fc e300
00000030: bdaf 91b5 a58b c600 8724 3a01 d269 9280
00000040: 1665 0cb5 e880 aeb1 a172 04ab f3a1 02a1
00000050: 5dcf a280 de51 96b1 dc4a 4aac 8d20 d4a8
00000060: 74df 723d ff74 25be 7ba2 a1bc 11ad 79bb
00000070: 4233 ebbc 9228 b33e 07d6 34be 8495 f6bd
00000080: efcb a23e 5f62 093d 20fd b0be 53d4 87be
00000090: 4bce 98b9 1d46 9bb3 b1a6 1680 ff56 9081
000000a0: 13e2 dfb9 5de7 1bb8 b30a e7b2 5274 6ab0
000000b0: a88b 51a6 1696 14b8 56f8 0cb5 f0e8 f6b2
000000c0: b69e d4bc 44c6 5db4 10de df00 dc9c 1481
000000d0: e32b 0bbd b35f c8bc 3e2d d6bc e630 35bc
000000e0: fc02 95b4 136c 1cbd 9ec7 a4bc f51c 96bc
000000f0: daf9 04bc aa5b 05be fd52 b8b8 2ffe e2ba
00000100: 1419 7dbe b64b 1e3e 5ce6 e9be 191c c63d
00000110: cd35 f63b c760 c73d 5751 9e3d e7c4 d53b
00000120: e2a3 debc e5ca eaba d840 b780 3626 0a80
00000130: 2998 e7bc 95d9 e0bc 2c83 80bc 66dc 0bbd
00000140: 5b50 26bc f5d7 18bd 11a2 a7bc 7f41 a4bc
00000150: c9a2 05bf 0451 463e 2995 c53c a2af d9bb
00000160: 6942 bcbd e6ea b53d f390 673e 1264 73bf
00000170: 2d57 143f 32c3 f7bd 1b64 633e cb38 573e
00000180: 140b 8abe a2b5 37be de7c 29b7 9dc4 b8ba
00000190: 451b 373e c7bc 243d 145d 59bf 9489 1c3d
000001a0: 2420 adbe b1bb 8a3e 0610 f7bc d709 7dbc
000001b0: 1892 0ebd e368 d13c 311c d53b 01d5 c43c
000001c0: 7a1d 9dbe 6746 40be d74d 783d 3077 a13e
000001d0: 21ba 2f3e 9e5c 0b3e 4613 6d3d 2e8c f4bc
000001e0: ddaa 533e 40ed d13b 9aa6 243c dd40 8f3b
000001f0: 392a 79be 07f0 b03e 4c46 b43e 772e 9c3e
00000200: b64a 31be 57e7 d6bd 0d2c a43e 0cfb c33d
00000210: 8cc6 43be 535c dabd b437 88ba dcff 4cbc
00000220: e198 d1be 2d95 7abe f360 afbe c1a2 0e3e
00000230: 91b4 6f3e 4550 fb3d 0e60 133d 035e 3fbe
00000240: 10e0 76be 40c6 a9bd 90bb ea3b ab01 a23c
00000250: b5fc 7f3e d09b 9b3e a235 cebe f204 fabe
00000260: 38f0 053e aaa7 a8be 2d30 68bd 9e34 0b3e
00000270: 5738 cabc 10b9 a8bd 5456 3d9c 171b 52ba
00000280: 6090 f9bc dfd6 8cbc 9167 12bd 2352 1dbd
00000290: f79e 20bd 1958 10bd 1db9 74bc 6af1 8bbc
000002a0: 1537 fbbd 11ab 203e 43cb 933c 5ba7 4d3d
000002b0: 1f0d 8a3e a510 4a3e 33b2 963e 7ece acbd
000002c0: a7cd f03d 37de 04be 9206 8a3e e8e6 ad3c
000002d0: 1370 c33d 7417 4abe fbf7 6ba0 4b93 12bb
000002e0: 6182 68be 87f1 e8be a9a0 9fbe 5d6e f8bd
000002f0: c54e da3e 4930 763e de1a dabd 7d08 febd
00000300: d622 913d 84bd bf3e 6a4f 1ebb 47d3 ea3c
00000310: 5917 edbd 9edb 253e e58b 933e 9274 8abe
00000320: 34a2 013e 8a51 bd3c b428 c93e cbcb 6cbe
00000330: f48a 9f3e e311 083d e84d f02f 5a6d 0cbd
00000340: c456 03be d8fa afbe b89f 58be 6d34 95be
00000350: 6ab1 da3c e754 6c3e cb66 f5bb dc83 0fbf
00000360: 0ef9 daae af30 631a d424 8001 00a6 a60d
00000370: 9101 5ab1 3441 1ba8 6635 cca0 dfea 9899
00000380: 684e ee10 6d11 daa6 0321 7f93 5d13 3c8d
00000390: 9dd2 dfbe 9c5a 5abe bd9d 343c d296 11bd
000003a0: c05b bbbe 33b5 dc3c ade4 0ebf ebeb b53e
000003b0: 49b1 053e 1472 5e3e cc3b e83d 5b73 983e
000003c0: c36f edbe e89d d33e 0958 9a3c ec0c e53c
000003d0: 8419 e33d 2a8f 4f3e fde6 663d 2b25 17bd
000003e0: 71bb c9be 84b8 0fbd a807 5d3d 5b3f 243e
000003f0: 7a60 843e ca72 b3be 4875 02ad f102 223d

_decoder.2.bias f4 [64]
-5.1331076e-06 -2.2321174e-25 0.33559948 -6.739794e-09 -0.022696648 0.30859113 -0.04157642 0.29007345
0.2170618 -0.08750605 -1.1649399 0.5631861 0.46241006 -0.043877143 -0.6318868 0.016724987
-0.8344322 -0.122484185 -4.764047e-24 0.29801273 0.18805225 0.09189347 0.48160398 -0.11999731
0.38386044 0.112473175 -0.1676239 0.120763786 0.45009446 0.18733105 -0.39229318 -0.27234164
1.1942415e-38 -0.33481243 -0.14037849 0.24633047 0.40438965 -0.25573054 -1.6207887e-28 0.592278
0.3695916 0.25808805 0.22307387 -7.162715e-22 0.13206069 -0.18632516 0.5140386 -0.7014015
0.31140536 -0.023444975 0.2734265 0.37749392 0.3196636 -0.16288464 0.5596369 -0.14242002
-0.21869124 -0.07959265 -0.6952583 -2.3348727e-14 -0.0011993123 0.6129597 0.43059477 -0.04365843
00000000: 0f3d acb6 5029 8a96 b2d3 ab3e db93 e7b1
00000010: 52ee b9bc a8ff 9d3e 094c 2abd 8284 943e
00000020: 7345 5e3e 5f36 b3bd c01c 95bf f72c 103f
00000030: 03c1 ec3e 85b8 33bd 55c3 21bf d702 893c
00000040: 599d 55bf fdd8 fabd d64c b898 2095 983e
00000050: c590 403e a532 bc3d cc94 f63e 26c1 f5bd
00000060: 5b89 c43e 5658 e63d 9aa5 2bbe 0153 f73d
00000070: c872 e63e b6d3 3f3e a7da c8be 5d70 8bbe
00000080: 980a 8200 896c abbe 61bf 0fbe 0e3e 7c3e
00000090: 290c cf3e 1def 82be 9a75 4d91 889f 173f
000000a0: 1c3b bd3e 1e24 843e 7a6d 643e d37a 589c
000000b0: eb3a 073e 06cc 3ebe 0998 033f 0c8f 33bf
000000c0: 8670 9f3e ad0f c0bc 8ffe 8b3e e246 c13e
000000d0: f3aa a33e 3bcb 26be 5d44 0f3f 8ed6 11be
000000e0: 99f0 5fbe 7901 a3bd 73fc 31bf 804e d2a8
000000f0: 3e32 9dba edea 1c3f eb76 dc3e 2fd3 32bd

_decoder.4.weight f4 [128, 64]
-3.3380605e-08 4.2616678e-38 0.06718039 -1.819936e-38 -0.022052925 0.24622747 -0.0065768096 0.5218828
-0.3912651 -0.12564455 -0.7091008 0.23783293 0.1893098 -0.006512195 -0.5712629 -0.31319094
-0.344675 0.1420439 -1.1732247e-38 0.18771744 -0.2458792 -0.008705124 0.18850262 -0.35360596
0.19852489 -0.03800762 -0.16778162 0.13545461 0.018451272 0.09159504 -0.5599576 -0.14762151
-4.4086206e-38 -0.00361474 0.041083675 -0.09220854 -0.30809543 0.08676414 -3.2553368e-38 0.11065394
-0.13521194 -0.011526276 -0.018071245 -1.1330178e-22 0.008119436 -0.4464499 -0.047842026 -0.32908016
0.20783365 0.0046553933 0.04713402 0.013279549 -0.11792446 0.044622485 -0.18666644 -0.25170663
0.07763629 -0.17481835 -0.25260714 -2.571634e-21 -4.1914157e-07 0.08377812 -0.3418328 -0.14756007
5.00906e-38 -1.7185171e-38 -0.15802272 -4.265729e-19 9.8385986e-05 0.04195893 -0.0062683336 -0.17295437
0.34537995 -7.931803e-39 -0.46289432 -0.11567198 0.22671394 -0.043743383 -0.096253425 0.00047478825
-0.31232443 0.011002701 -7.092409e-39 -0.2662486 0.08834722 0.054245383 0.15931022 0.13149628
-0.08397347 0.15850057 0.039244324 -0.015295828 -0.2752997 -0.23328769 0.016821258 0.27668756
1.566668e-38 -0.33782426 -0.10778232 0.21520557 -0.067395456 -0.010472865 1.0614584e-38 -0.03656103
-0.058596052 -0.1963054 -0.29433218 3.78351e-39 -0.042084526 -0.014025105 -0.4382097 1.675652e-39
-0.03738073 2.17255e-38 -0.012566329 0.17409031 -0.058928967 0.0358964 -0.47238982 -1.3098761e-38
-0.07974791 0.21847916 -1.8653918e-38 -1.7070335e-38 1.5326855e-38 0.1955686 -0.10677436 -4.3768408e-38
3.4358417e-38 -1.7731055e-38 -0.052440207 -2.8892554e-23 0.0035086146 -0.045444287 -0.0029727705 -0.017955583
-0.06660965 -0.09034781 -0.31544024 0.04668213 -0.12874797 -0.016744664 -0.16639023 -0.045772664
-0.25079516 0.051533833 6.3805e-39 -0.030931082 -0.00921447 -0.059602182 0.13600965 0.089898795
-0.08856508 0.047682248 0.024853777 -0.034315027 -0.09952151 -0.015312164 -0.046670314 0.11897616
-4.2495318e-38 0.03528569 -0.033262607 0.039804317 -0.13398457 -0.019071393 4.710075e-39 -0.024820596
0.030277947 -0.031710222 -0.030304652 -2.701325e-38 -0.027897382 0.08719519 -0.21462822 -0.087778784
-0.0054223915 -0.005029518 0.010786001 -0.18012069 0.101559736 0.03205848 -0.21846098 -0.080548495
-0.08323906 -0.011699507 -0.020953802 2.3524348e-38 -5.6675576e-12 0.119488366 0.022458741 -0.08904274
4.4345043e-38 5.552311e-38 -0.0016714572 5.386295e-38 -6.091163e-38 -0.0028105401 7.674758e-39 -0.0007978487
-0.00080435554 -0.0022576088 -0.015885323 -0.0041733836 -0.0053528207 4.101758e-38 -0.024287261 -2.801862e-05
-0.0074622445 -0.0052681663 -5.766711e-38 -0.005507539 -0.002047266 -0.0051033213 -0.006172111 -0.014819988
-0.011916308 -0.00041808654 -6.72059e-05 -0.005687809 -6.534739e-05 -0.0008316771 -0.021502612 -2.654246e-09
-7.906392e-39 -0.0077771614 -0.00839683 -0.00050710194 -0.0140218735 -0.0073582544 5.417716e-38 -0.0016814461
8.3280334e-05 -0.0052539916 -0.011536494 2.5806114e-38 -9.723895e-08 -0.01713604 -0.014309977 -0.00047922868
-0.007891492 -2.1093286e-38 -0.010423887 -0.009170846 -9.1080125e-05 -0.0059940186 -0.0016215536 -0.0006949398
-0.007465401 -0.011516769 -0.00015836174 6.989079e-38 1.1592981e-38 -0.0034510994 -0.00033838538 -9.18358e-06
00000000: 5d5e 0fb3 fb06 6801 df95 893d 692c c680
00000010: 56a8 b4bc 0e23 7c3e 4782 d7bb 1c9a 053f
00000020: e653 c8be f7a8 00be a187 35bf 7a8a 733e
00000030: 6eda 413e 4064 d5bb 493e 12bf 905a a0be
00000040: 3e79 b0be f573 113e bbc0 7f80 0039 403e
00000050: c2c7 7bbe f09f 0ebc d506 413e d70b b5be
00000060: 1c4a 4b3e e1ad 1bbd f2ce 2bbe 9db4 0a3e
00000070: 1f27 973c 2e96 bb3d 6259 0fbf 182a 17be
00000080: 3407 7081 46e5 6cbb 5b47 283d d5d7 bcbd
00000090: afbe 9dbe 66b1 b13d c63c 3181 889e e23d
000000a0: 0075 0abe b5d8 3cbc 260a 94bc 34f9 089b
000000b0: 6207 053c 1595 e4be 00f6 43bd 327d a8be
000000c0: 58d2 543e 458c 983b 9a0f 413d 7792 593c
000000d0: 6182 f1bd 11c6 363d 7d25 3fbe b1df 80be
000000e0: c6ff 9e3d 9503 33be b955 81be a34e 429d
000000f0: 6106 e1b4 dd93 ab3d b504 afbe fd19 17be
00000100: 0e5c 8801 4421 bb80 b5d0 21be e0cd fba0
00000110: 9354 ce38 21dd 2b3d 9866 cdbb f31a 31be
00000120: a4d5 b03e a45e 5680 7c00 edbe 6ee5 ecbd
00000130: b327 683e 432c 33bd 8420 c5bd 00ed f839
00000140: fde8 9fbe ac44 343c c03a 4d80 bd51 88be
00000150: 63ef b43d 6830 5e3d 3822 233e f6a6 063e
00000160: 48fa abbd f94d 223e a8be 203d 5a9b 7abc
00000170: 15f4 8cbe f8e2 6ebe bccc 893c fea9 8d3e
00000180: 5498 aa00 4df7 acbe fabc dcbd d95e 5c3e
00000190: a106 8abd 6196 2bbc 2495 7300 05c1 15bd
000001a0: 6a02 70bd 4804 49be b5b2 96be e332 2900
000001b0: d360 2cbd 8ec9 65bc 065d e0be 093f 1200
000001c0: 891c 19bd db91 ec00 01e3 4dbc bb44 323e
000001d0: 805f 71bd 1b08 133d 14dd f1be 04a2 8e80
000001e0: df52 a3bd 00b9 5f3e 891f cb80 26e1 b980
000001f0: 09e5 a600 2343 483e 84ac dabd 424c 6e81
00000200: a510 3b01 f812 c180 8bcb 56bd 40b7 0b9a
00000210: c9f0 653b ca23 3abd d0d2 42bb 9617 93bc
00000220: a46a 88bd 4608 b9bd 6281 a1be c335 3f3d
00000230: 82d6 03be 1b2c 89bc 3362 2abe 1e7c 3bbd
00000240: 3968 80be 2415 533d 3d7a 4500 2e63 fdbc
00000250: 4af8 16bc 6b21 74bd 1d46 0b3e dc1c b83d
00000260: 9c61 b5bd 764e 433d 269a cb3c ea8d 0cbd
00000270: efd1 cbbd dfdf 7abc 5f29 3fbd c6a9 f33d
00000280: d45d 6781 ba87 103d 5f3e 08bd da09 233d
00000290: 4033 09be 9c3b 9cbc c649 3300 9054 cbbc
000002a0: 7509 f83c 94e2 01bd 7641 f8bc fa12 1381
000002b0: 0d89 e4bc 6493 b23d 80c7 5bbe 5dc5 b3bd
000002c0: 51ae b1bb a8ce a4bb c4b7 303c 8f71 38be
000002d0: 8dfe cf3d c14f 033d 3cb4 5fbe 9cf6 a4bd
000002e0: 3e79 aabd 4aaf 3fbc 4fa7 abbc 2814 0001
000002f0: d268 c7ac 51b6 f43d 65fb b73c 0a5c b6bd
00000300: f86f 7101 f625 9701 cc14 dbba ffa0 9201
00000310: 36d1 a581 0a31 38bb 1a92 5300 b826 51ba
00000320: 63db 52ba 64f4 13bb f021 82bc e1c0 88bb
00000330: b766 afbb 2a52 5f01 14f6 c6bc 8709 ebb7
00000340: d885 f4bb 95a0 acbb 1cfc 9c81 9678 b4bb
00000350: 6d2b 06bb c339 a7bb 6b3f cabb 89cf 72bc
00000360: 9e3c 43bc a032 dbb9 e5f0 8cb8 cd60 babb
00000370: 1d0b 89b8 e804 5aba 3f26 b0bc fd65 36b1
00000380: ce17 5680 8fd7 febb dc92 09bc 09ef 04ba
00000390: 00bc 65bc 831d f1bb f87b 9301 f863 dcba
000003a0: caa6 ae38 ad29 acbb 9003 3dbc 7980 0c01
000003b0: aed1 d0b3 e160 8cbc 6574 6abc fc40 fbb9
000003c0: 514b 01bc 80af e580 f3c8 2abc 5141 16bc
000003d0: 4502 bfb8 7969 c4bb 4f8a d4ba 9f2c 36ba
000003e0: 53a0 f4bb d5b0 3cbc e80d 26b9 c642 be01
000003f0: 843c 7e00 d72b 62bb 5169 b1b9 2d13 1ab7

_decoder.4.bias f4 [128]
0.10717954 9.8232646e-05 0.20111431 -0.00835816 0.107501596 -0.0068477765 -0.0006944779 4.095658e-39
0.2651038 -2.488419e-09 0.2593596 -0.016148688 0.11750499 0.2373819 0.16859774 -0.15142234
-3.1921083e-28 0.13013864 -1.3864279e-29 -0.045579284 -3.2707947e-05 0.048454136 -0.38302958 -3.2250082e-05
-0.09685851 -0.09472862 0.49997565 -6.919057e-21 -0.7881808 0.12790625 -0.026564548 -1.8565626e-07
0.06198675 0.003594694 -1.8578658e-09 0.14773642 -0.005836701 -0.009757742 0.29634106 0.22735804
0.146414 0.045707684 0.03158187 -0.037080597 0.15065902 0.041199375 -0.028708033 0.08412479
0.067475945 0.11162091 -0.0025611692 0.2910754 -0.03415164 0.13082932 -0.026011845 -0.1634278
-0.017876832 -0.017601345 0.20066798 -0.029254124 0.4207529 0.14830631 0.26851276 -3.4145683e-20
0.11800961 0.22357263 0.25329927 -0.006040203 0.07018327 -1.7640974e-05 0.17011672 0.21194896
-0.0039035368 -0.016109329 0.20626438 -0.011904589 -0.0026598664 -0.3250004 -0.00519615 0.087689586
0.036705066 0.058983155 -0.01062202 0.17937005 -0.004514389 0.27721164 -0.018991042 -3.8595003e-13
0.101746306 0.12526432 0.35434383 0.032409143 0.00054690277 0.03399717 0.2511068 -0.13575527
-0.010713827 -0.0075149024 0.021390218 -0.15877412 0.25366563 2.204551e-39 -0.2502723 -0.03233424
-0.035022717 0.08201543 0.19451013 1.0035576e-38 -3.0055573e-24 0.32400867 0.14067185 -5.2588944e-25
0.37939286 -0.076471865 -0.107808515 -0.0029379728 0.3292474 0.16610888 0.22289 -2.9514556e-22
-0.00071526313 -0.26667157 0.28959727 0.116734535 0.2102622 0.08596966 0.2667787 0.09289609
00000000: f280 db3d 4002 ce38 e9f0 4d3e aaf0 08bc
00000010: cc29 dc3d 5063 e0bb 9f0d 36ba 0799 2c00
00000020: afbb 873e bb00 2bb1 c8ca 843e 414a 84bc
00000030: 75a6 f03d 3e14 733e e3a4 2c3e 750e 1bbe
00000040: eb52 ca91 1043 053e ba99 8c8f 58b1 3abd
00000050: e42f 09b8 d877 463d 741c c4be 4344 07b8
00000060: c15d c6bd 1401 c2bd cffc ff3e 82b2 029e
00000070: 38c6 49bf dbf9 023e e59d d9bc ce58 47b4
00000080: d2e5 7d3d f594 6b3b d757 ffb0 3748 173e
00000090: cc41 bfbb f0de 1fbc 04ba 973e 8cd0 683e
000000a0: 8ded 153e fb37 3b3d fe5b 013d d3e1 17bd
000000b0: 5c46 1a3e adc0 283d 1c2d ebbc 9e49 ac3d
000000c0: d430 8a3d 8199 e43d 4ad9 27bb d607 953e
000000d0: 97e2 0bbd 1ff8 053e cb16 d5bc 9e59 27be
000000e0: 6f72 92bc b230 90bc e87b 4d3e 58a6 efbc
000000f0: ed6c d73e 9cdd 173e 817a 893e 993f 219f
00000100: 06af f13d 39f0 643e 71b0 813e e5ec c5bb
00000110: 3fbc 8f3d b4fb 93b7 1433 2e3e 2609 593e
00000120: 7bd2 7fbb b6f7 83bc f836 533e 770b 43bc
00000130: 2751 2ebb 7466 a6be 7744 aabb 9996 b33d
00000140: 0d58 163d 5298 713d fb07 2ebc c8ac 373e
00000150: 71ed 93bb afee 8d3e 1a93 9bbc 4345 d9aa
00000160: 5e60 d03d 4a45 003e 8e6c b53e 73bf 043d
00000170: 065e 0f3a 9e40 0b3d 1291 803e 6e03 0bbe
00000180: 0c89 2fbc 923f f6bb 8a3a af3c af95 22be
00000190: 76e0 813e 6401 1800 b123 80be e870 04bd
000001a0: fb73 0fbd b5f7 a73d aa2d 473e 1a47 6d00
000001b0: 328b 6898 77e4 a53e 480c 103e 41c1 2297
000001c0: c83f c23e 489d 9cbd b6ca dcbd 018b 40bb
000001d0: 1d93 a83e 7218 2a3e 473d 643e 9067 b29b
000001e0: 7f80 3bba 2d89 88be 1846 943e 8412 ef3d
000001f0: f94e 573e dc10 b03d 3897 883e 4e40 be3d
