yeeef_workspace/ckpt/e0020.pt (torch_old, 882114 bytes, 16 tensors)

_encoder.0.weight f4 [128, 784]
0	0x3b7ad130	0.0038271658
1	0x3b7625be	0.0037559117
2	0x3b76ca77	0.00376573
3	0x3b73b782	0.0037188237
4	0x3b74213e	0.003725126
5	0x3b73a15c	0.0037175035
6	0x3b740374	0.0037233504
7	0x3b72e9f9	0.0037065728
8	0x39ad77c1	0.00033086355
9	0x3a9a53ba	0.001177422
10	0x3b20ac7a	0.0024516867
11	0x3b08f5bc	0.0020898422
12	0x3b12445d	0.002231858
13	0x3b15c131	0.0022850747
14	0x3b365253	0.0027820065
15	0x3af729ae	0.0018857026
16	0x3ace5b86	0.0015743829
17	0x3b3d344c	0.0028870283
18	0x3b485275	0.0030566726
19	0x3a605f2c	0.00085591036
20	0x3a625d52	0.00086351216
21	0x3b734686	0.0037120893
22	0x3b7323c5	0.0037100178
23	0x3b73a8aa	0.003717939
24	0x3b740053	0.0037231639
25	0x3b739b5b	0.0037171456
26	0x3b743068	0.0037260298
27	0x3b72576a	0.0036978372
28	0x3b7ad130	0.0038271658
29	0x3b7566ac	0.003744523
30	0x3b7996ff	0.0038084385
31	0x3b74aa6b	0.0037333022
32	0x3b74fe7a	0.0037383125
33	0x3b74ebbf	0.003737196
34	0x3b6e7513	0.00363857
35	0x3b39de98	0.0028361436
36	0x3a0ce158	0.0005374155
37	0x390e4b5d	0.0001357025
38	0x3b156f20	0.0022801831
39	0x3af5a2f9	0.0018740586
40	0x3b110ac8	0.002213167
41	0x3afc0536	0.0019227627
42	0x3b2cd254	0.0026370483
43	0x3b058ac6	0.0020376905
44	0x3a78e35e	0.00094943296
45	0x3b2f6bfe	0.002676725
46	0x3b31ee3f	0.0027150062
47	0x39c38460	0.00037291925
48	0x3a224b5a	0.0006191038
49	0x3b3d0a02	0.0028845076
50	0x3b711671	0.0036787058
51	0x3b7654be	0.0037587131
52	0x3b764830	0.0037579648
53	0x3b766c9a	0.0037601353
54	0x3b765550	0.0037587471
55	0x3b761033	0.0037546277
56	0x3b7ad119	0.0038271605
57	0x3b75c451	0.0037501047
58	0x3b780bea	0.0037848898
59	0x3b740a9e	0.0037237774
60	0x3b7509f7	0.0037389973
61	0x3b5c248b	0.0033591117
62	0x3b417676	0.002952007
63	0x3b350320	0.002762027
64	0x3a49b0d4	0.0007693891
65	0xb8881c56	-6.490263e-05
66	0x3a4c3436	0.00077897625
67	0x3acb1a9d	0.0015495602
68	0x3a91a29f	0.0011111087
69	0x3aa7948f	0.0012785363
70	0x3aa24fee	0.001238344
71	0x3af87b5c	0.0018957662
72	0x3ab1839c	0.0013543251
73	0x3ac359e7	0.0014904112
74	0x3b44b673	0.0030015975
75	0x371d501c	9.376581e-06
76	0x3acaff1b	0.0015487404
77	0x3b3f14bb	0.0029156643
78	0x3b33b1cf	0.0027419215
79	0x3b6815b3	0.0035413324
80	0x3b7455f0	0.0037282668
81	0x3b731ff4	0.0037097903
82	0x3b74979a	0.0037321807
83	0x3b736b90	0.003714297
84	0x3b7a9829	0.0038237667
85	0x3b75ce90	0.0037507154
86	0x3b76605b	0.0037594053
87	0x3b6f86fe	0.0036548967
88	0x3b4ed0ce	0.0031557563
89	0x3b5b1542	0.0033429419
90	0x3b3632d8	0.0027801301
91	0x3b0aad4a	0.0021160417
92	0x3a5ebe27	0.0008496963
93	0x3887dab0	6.478035e-05
94	0xba1b9a74	-0.0005935796
95	0x3a752678	0.00093517406
96	0x3a86ce7a	0.0010284923
97	0x3a9cc6f1	0.0011961145
98	0x3aaaaa75	0.0013020771
99	0x3a82896c	0.0009959168
100	0x3a9eb9a1	0.0012109765
101	0x3a984b20	0.0011619069
102	0x38d7f0f3	0.00010296879
103	0x36abd415	5.1208867e-06
104	0x3a8c1cee	0.0010689774
105	0x3b389557	0.0028165185
106	0x3b322a8e	0.002718601
107	0x3b4ff4ed	0.003173168
108	0x3b668075	0.0035171781
109	0x3b742a27	0.003725657
110	0x3b749cfb	0.0037325013
111	0x3b736fc3	0.0037145473
112	0x3b7aa580	0.0038245618
113	0x3b72e3a6	0.0037061959
114	0x3b6f973d	0.003655865
115	0x3b6166ad	0.0034393475
116	0x3b50da3e	0.0031868364
117	0x3b49eff5	0.0030813192
118	0x3b153cfd	0.0022771948
119	0x3b09a57b	0.0021003175
120	0x37285104	1.0032443e-05
121	0xb8a6f812	-7.9617035e-05
122	0x379498d8	1.7714148e-05
123	0xb9546b00	-0.00020257756
124	0x39cd5aab	0.000391682
125	0x3a655c65	0.00087494246
126	0x3a768142	0.0009403416
127	0x3a6d21ff	0.00090458983
128	0x3a8a1654	0.0010535219
129	0x393bb24c	0.0001790013
130	0xb92e6776	-0.00016632475
131	0xb8beb217	-9.093078e-05
132	0xb903d25b	-0.00012571497
133	0x3ae96a81	0.001780823
134	0x3b253d2b	0.002521346
135	0x3b47f748	0.0030512381
136	0x3b4c05b0	0.003113132
137	0x3b72e4fe	0.003706276
138	0x3b7377c6	0.0037150248
139	0x3b737c6f	0.0037153026
140	0x3b7a6d39	0.0038212074
141	0x3b6f7a95	0.003654157
142	0x3b6859aa	0.0035453835
143	0x3b4c7fb3	0.0031204044
144	0x3b599c30	0.0033204667
145	0x3b3e0da7	0.0028999837
146	0x3b095c8b	0.00209597
147	0x3b09eeba	0.0021046833
148	0x37e62960	2.7437403e-05
149	0xb8a82aee	-8.0188605e-05
150	0xb7ec4d94	-2.8169517e-05
151	0x3820f90b	3.8378912e-05
152	0xb9a7e2b8	-0.0003202164
153	0xb975aad2	-0.00023428656
154	0x3885ed82	6.3861735e-05
155	0xb9575918	-0.00020537188
156	0xb98b7498	-0.00026599015
157	0xb987b5b6	-0.00025884592
158	0xb6a7f6e3	-5.0057292e-06
159	0x381c50f4	3.726869e-05
160	0x39414cb8	0.00018434494
161	0x3ad04d54	0.0015892186
162	0x3b1413bc	0.002259477
163	0x3b38572d	0.0028128133
164	0x3b579e1d	0.003290064
165	0x3b6558a4	0.003499546
166	0x3b7249ec	0.003697033
167	0x3b742ee4	0.0037259394
168	0x3b7a5d43	0.003820256
169	0x3b6fe472	0.003660467
170	0x3b64cc85	0.0034911942
171	0x3b4fc7ba	0.003170474
172	0x3b54ef76	0.0032491363
173	0x3b15256c	0.00227579
174	0x3b00f063	0.0019674532
175	0x3ae86b34	0.0017732144
176	0xb9acc185	-0.0003295058
177	0xb8748ef9	-5.8307287e-05
178	0x37bafd06	2.2290751e-05
179	0x3753082d	1.2578484e-05
180	0x37972034	1.8015598e-05
181	0xb9845a86	-0.00025244447
182	0xb8fe5852	-0.00012128115
183	0xb810116c	-3.43485e-05
184	0x380ae43a	3.3114316e-05
185	0xb81dd26c	-3.7627688e-05
186	0x381f6d45	3.801032e-05
187	0xb8836788	-6.265851e-05
188	0x39aec077	0.00033331264
189	0x3af9f12b	0.0019069066
190	0x3afca988	0.0019276598
191	0x3b250193	0.002517794
192	0x3b539e8a	0.0032290542
193	0x3b472a9d	0.003039039
194	0x3b65ebbd	0.0035083138
195	0x3b7454da	0.003728202
196	0x3b7a8d2a	0.0038231113
197	0x3b6f4be8	0.003651375
198	0x3b654975	0.003498641
199	0x3b50a5a6	0.0031837015
200	0x3b4fafb4	0.003169042
201	0x3b168dbe	0.0022972669
202	0x3b00dd87	0.001966329
203	0x3b0bec4b	0.0021350558
204	0x3994bff3	0.00028371773
205	0xb8b39f99	-8.5651125e-05
206	0x369a73ba	4.60303e-06
207	0xb89f8d56	-7.608037e-05
208	0xb86bc642	-5.6213008e-05
209	0xb88e1431	-6.7748486e-05
210	0xb889fb34	-6.579459e-05
211	0xb79a74d8	-1.841264e-05
212	0xb7d49bc1	-2.5344898e-05
213	0xb89d5c4c	-7.503535e-05
214	0xb800d4df	-3.071583e-05
215	0xb91a9e1c	-0.00014745485
216	0xb94bf274	-0.0001944991
217	0x3ab449c1	0.001375489
218	0x3b1dfcfd	0.0024107092
219	0x3b51ecf1	0.0032032097
220	0x3b4e5e68	0.0031489376
221	0x3b4c70f4	0.0031195255
222	0x3b71d814	0.0036902474
223	0x3b73c350	0.0037195273
224	0x3b7a8ecd	0.0038232089
225	0x3b710c69	0.0036781079
226	0x3b5a0670	0.0033267997
227	0x3b5751f7	0.0032855251
228	0x3b516109	0.0031948707
229	0x3b35856f	0.002769794
230	0x3b0f56ac	0.0021871729
231	0x3b1d3a30	0.0023990981
232	0x38445097	4.6805097e-05
233	0xba47cff1	-0.0007622233
234	0x390acbfd	0.00013236697
235	0x380bdc29	3.3345223e-05
236	0xb70b0b08	-8.287614e-06
237	0xb83fc3bb	-4.5720237e-05
238	0xb839929b	-4.4243974e-05
239	0xb4c1552c	-3.6011022e-07
240	0x36bf02dd	5.692577e-06
241	0x34a17c1a	3.0078883e-07
242	0xb8af313b	-8.35382e-05
243	0x38bc1b91	8.969673e-05
244	0x39ea2703	0.00044661024
245	0x3b0d5600	0.0021566153
246	0x3b22a2a6	0.0024816184
247	0x3b5058b8	0.0031791162
248	0x3b4f2276	0.0031606234
249	0x3b59bf41	0.0033225568
250	0x3b717b1f	0.0036847068
251	0x3b73c3d3	0.0037195578
252	0x3b7a8f9f	0.0038232577
253	0x3b6fea83	0.0036608286
254	0x3b5df4c0	0.0033867806
255	0x3b5fea05	0.0034166586

_encoder.0.bias f4 [128]
0	0xbb7ad130	-0.0038271658
1	0x3ca7c616	0.020480197
2	0xbc065929	-0.008199968
3	0xbd47c045	-0.048767347
4	0xbe36e7ae	-0.17861816
5	0xbbf9666b	-0.007611086
6	0xbd3a0c68	-0.045421988
7	0xbe177297	-0.14789806
8	0xbd320317	-0.043459978
9	0xbccc672b	-0.024951538
10	0xbc01d398	-0.007923983
11	0xb840cdc6	-4.596801e-05
12	0x9c2d2115	-5.7283656e-22
13	0xb9aaf2ce	-0.0003260583
14	0x3d1feb61	0.039042834
15	0xa2c997f7	-5.464206e-18
16	0xbd09d77c	-0.033652768
17	0xbbd3158a	-0.0064417766
18	0xbda93ac7	-0.08263164
19	0x94bfb5d1	-1.9357785e-26
20	0xbd59f95f	-0.053216334
21	0xbd269263	-0.04066695
22	0xbc86007e	-0.016357657
23	0xbc8fdf07	-0.017562402
24	0xbd14eaad	-0.036356617
25	0xbb8cabf3	-0.004292959
26	0xbd64514a	-0.055741586
27	0xbd5684f4	-0.052372888
28	0xab76c078	-8.766386e-13
29	0xb93eb56c	-0.00018187397
30	0xbae671fb	-0.0017581576
31	0xbcf03709	-0.029323118
32	0xbc9a32d8	-0.018823072
33	0xbd30d703	-0.0431738
34	0x3e5f05d7	0.21779571
35	0xbe15edc6	-0.14641485
36	0xb25e5759	-1.2941961e-08
37	0xb88574fa	-6.363723e-05
38	0xbcb58a40	-0.02216065
39	0xbcf0367a	-0.029322851
40	0xbca5c5dc	-0.020235948
41	0xbcb6bb3c	-0.022306077
42	0xbc2a6e7f	-0.010402321
43	0x3c02b321	0.007977278
44	0xb706ced7	-8.035181e-06
45	0xbda553f6	-0.08072655
46	0xbc36a6e2	-0.011148186
47	0xbd3b8805	-0.045784015
48	0xbd63e51b	-0.055638414
49	0xbd6b7982	-0.057488926
50	0xbc8402e5	-0.016114661
51	0x3e8c402c	0.2739271
52	0xbca2b883	-0.019863373
53	0xa8141153	-8.219407e-15
54	0xbc1f460e	-0.009721292
55	0xbe0b0ae7	-0.13578378
56	0xbd1a7b47	-0.037715223
57	0xbbacc629	-0.005272646
58	0xbd6240fc	-0.055237755
59	0xb721cacc	-9.643565e-06
60	0x3d50b113	0.05095012
61	0xbe05b5f9	-0.13057698
62	0xbd167f4d	-0.036742497
63	0xbd315609	-0.04329494
64	0xb81d239a	-3.7464873e-05
65	0xbda72273	-0.081608675
66	0xbd0ecf85	-0.034865875
67	0xbc20a913	-0.009805935
68	0xbe14be68	-0.14525759
69	0xbd4a47d1	-0.049384896
70	0x3c0629c0	0.008188665
71	0xa2834e03	-3.559022e-18
72	0xbd7c5262	-0.061602004
73	0xbd39dde6	-0.045377634
74	0xb6daf1e2	-6.525065e-06
75	0xbc961bbf	-0.018323777
76	0xbdc4941f	-0.09598564
77	0xbde0edf4	-0.10982886
78	0xbcb8f3b8	-0.022577152
79	0xbe2ae681	-0.16689493
80	0xbd8cc83a	-0.06874128
81	0xbccaf8be	-0.024776813
82	0xbd4e016d	-0.05029433
83	0xbd43b577	-0.04778048
84	0xbc925804	-0.017864235
85	0xb8829f26	-6.228527e-05
86	0xbc708105	-0.014679198
87	0xbcfa3e7d	-0.030547375
88	0xbd74293d	-0.05960964
89	0x3c1a3020	0.009410888
90	0xbd7a4467	-0.06110039
91	0xbca21823	-0.0197869
92	0xbe175ce5	-0.1478153
93	0xbd1602ea	-0.036623873
94	0xbd096d77	-0.03355166
95	0xa737f150	-2.5527167e-15
96	0xa1312af8	-6.00268e-19
97	0xbcb42de6	-0.021994542
98	0xbcc8e357	-0.024522467
99	0xbcf08bab	-0.029363474
100	0xae4bf83a	-4.6377326e-11
101	0xbd83f412	-0.06443037
102	0xbd113643	-0.03545214
103	0x3d0435a7	0.03227773
104	0xb68edada	-4.2574075e-06
105	0xaf7ac6f5	-2.2808051e-10
106	0xbd304e8a	-0.04304365
107	0x98858e68	-3.4523488e-24
108	0xae16c026	-3.4276713e-11
109	0xbd566f0a	-0.05235199
110	0xbd889ac7	-0.066701464
111	0x9acf1cca	-8.5659705e-23
112	0xbcde3aea	-0.027127702
113	0xbd1c1c48	-0.03811291
114	0x3ca286d2	0.019839678
115	0xae7a7cf4	-5.69544e-11
116	0x9e9e629b	-1.6769683e-20
117	0xbd47c747	-0.04877403
118	0xb3168359	-3.5044057e-08
119	0xbc434315	-0.011917849
120	0xbd8b4b01	-0.06801415
121	0x9f3e4e93	-4.029906e-20
122	0xbe0371ab	-0.1283633
123	0xbc8953af	-0.016763536
124	0xbcb7f097	-0.02245359
125	0xbd087941	-0.03331876
126	0xbc70b14f	-0.014690711
127	0xba32d162	-0.00068213616

_encoder.2.weight f4 [64, 128]
0	0x3c3030ee	0.010753853
1	0xbd3ad1e8	-0.04561034
2	0x3c6ffcc6	0.014647668
3	0xbb3dbeb0	-0.002895277
4	0xbd9fd853	-0.078049324
5	0xbc23d780	-0.01000011
6	0xbdf5433c	-0.119757146
7	0xbd80b925	-0.062853135
8	0xbd081dfc	-0.03323172
9	0x3cb4586d	0.022014821
10	0x3e931e61	0.28734115
11	0x3c08f710	0.008359686
12	0xac23a5e4	-2.325578e-12
13	0xba5324ad	-0.00080544763
14	0xbea791fb	-0.32728562
15	0xbb22892b	-0.0024800997
16	0xbd1b7a2e	-0.037958317
17	0xbcc43038	-0.023948774
18	0x3d7abe21	0.061216477
19	0x2e32b310	4.0631554e-11
20	0xbd064c9d	-0.032787908
21	0xbd119b90	-0.035548747
22	0x3aa0c5c4	0.001226597
23	0xbcd57973	-0.026058888
24	0x3a71b58f	0.0009220475
25	0x387fde7c	6.1003942e-05
26	0x3e61a535	0.22035678
27	0x3c6722e9	0.014107444
28	0xbb258b90	-0.0025260188
29	0x3c889f9d	0.016677672
30	0xbd39204d	-0.04519682
31	0xbab4b524	-0.0013786894
32	0xbca7658a	-0.02043416
33	0xbc6817ed	-0.014165861
34	0x3d166218	0.036714643
35	0xbd3f7c46	-0.046749376
36	0xb8046cc0	-3.1572534e-05
37	0xbcd461e5	-0.025925586
38	0x3b60c58b	0.0034297432
39	0x3c2afaa2	0.010435732
40	0xbce531af	-0.027977793
41	0x3c81dce5	0.015852401
42	0xbadf71df	-0.0017047486
43	0xbd68cf98	-0.0568386
44	0x3aef96a8	0.0018279152
45	0x3dfc458b	0.12317952
46	0x3acaa28e	0.0015459822
47	0xbdb9e648	-0.09077126
48	0xbec8931a	-0.3917473
49	0x3d2749a0	0.0408417
50	0xbcddc66e	-0.027072158
51	0xbf546e2c	-0.8298061
52	0x3cf38e06	0.029730808
53	0x39d8dc5a	0.00041362905
54	0xbb9377ca	-0.004500364
55	0x3e430376	0.19044289
56	0x3d87eeba	0.0663733
57	0xbb22c69b	-0.0024837616
58	0xbc6221a2	-0.013801964
59	0xbb27f16d	-0.0025626079
60	0x3bf1607f	0.0073662396
61	0xbd47c868	-0.048775107
62	0x3d62b57d	0.055348862
63	0xbcab1540	-0.020884156
64	0x37dbc1d7	2.6197098e-05
65	0xbaa73e91	-0.0012759735
66	0xbc77fba0	-0.015135676
67	0x3b07f210	0.0020743646
68	0xbd687810	-0.056755126
69	0x3cfdd73e	0.030986425
70	0x3dc5a64b	0.096508585
71	0xb8c51636	-9.397829e-05
72	0xbcebc4d9	-0.028780388
73	0xbc0b9f3a	-0.008521849
74	0x3b553032	0.0032529947
75	0xbdd24c14	-0.10268417
76	0xbe17b2df	-0.14814328
77	0x3d0f75c4	0.03502442
78	0xbda3ef9b	-0.080046855
79	0xbd2ace30	-0.041700542
80	0xbcb45f03	-0.022017961
81	0xbbd0bd46	-0.0063702194
82	0x3b290db9	0.0025795533
83	0x3d0fd51b	0.035115343
84	0x3bed4ede	0.0072420677
85	0x33b8a369	8.597892e-08
86	0xb846763c	-4.7316993e-05
87	0x38a1a85c	7.7084376e-05
88	0xbde74132	-0.11291732
89	0xbd20c2a8	-0.03924814
90	0xbd9e06eb	-0.07716163
91	0xbb18426a	-0.0023232945
92	0xbd6880ac	-0.056763336
93	0x3dc7ae2e	0.09750019
94	0x3d818ca4	0.06325653
95	0x36a27fbe	4.8428474e-06
96	0x3b1f01c9	0.0024262539
97	0x3ca6249d	0.02028113
98	0xbc1c02b9	-0.0095221335
99	0x3c40c2a3	0.011765155
100	0x8051bc7b	-7.506289e-39
101	0xbc057346	-0.008145159
102	0xbc0a1ab9	-0.008429223
103	0xbc214d29	-0.009845057
104	0x3c432ae1	0.011912079
105	0x1bee5f64	3.9435442e-22
106	0xbd7bc130	-0.061463535
107	0xbb98790c	-0.004653102
108	0x3cab57b5	0.020915845
109	0xbca622b8	-0.020280227
110	0x3e851ea6	0.25999945
111	0x329a8c7d	1.7991846e-08
112	0xbd211ac3	-0.039332163
113	0xbcc1c4ea	-0.023653466
114	0xbe3550ec	-0.1770665
115	0xb7a482dc	-1.961126e-05
116	0xbbd833e5	-0.006597983
117	0x3d0146e2	0.03156174
118	0x3ba0aa4a	0.0049031125
119	0xbd0cf615	-0.03441437
120	0xbabde459	-0.0014487609
121	0xb7a75ac8	-1.9950225e-05
122	0x3dfbfe93	0.123044156
123	0x3bc42d98	0.0059868805
124	0xbb686461	-0.003546022
125	0x3b228a9c	0.0024801856
126	0xbdbad66f	-0.09122931
127	0x3bf69983	0.0075256242
128	0x3bcac5f9	0.006188151
129	0x3d68c321	0.056826714
130	0xbb07acf1	-0.0020702446
131	0x3ccdb05a	0.025108505
132	0xbe9074a9	-0.28214005
133	0xbcfc8513	-0.030825173
134	0xbdd64598	-0.10462493
135	0xbd85caca	-0.065328196
136	0xbb2355c1	-0.002492294
137	0x3c7dce13	0.015491026
138	0x3ceac913	0.028660333
139	0xbca7d32d	-0.020486439
140	0xb48ccada	-2.6224626e-07
141	0xbbe9fafa	-0.0071405144
142	0xbe860628	-0.26176572
143	0x3bdc5843	0.006724389
144	0x3c9aa508	0.018877521
145	0x3cc44222	0.023957316
146	0x3c9b16d5	0.018931786
147	0x326cb8c7	1.37790215e-08
148	0x3c98aa52	0.018635903
149	0xbcea87a1	-0.028629126
150	0x3ac9b503	0.0015389029
151	0xbd231b64	-0.039821044
152	0x3c0bb746	0.0085275825
153	0x386630a6	5.488158e-05
154	0x3dcbf2a1	0.09958387
155	0xbd6c9062	-0.05775488
156	0x3b33685d	0.0027375438
157	0x3c2504e2	0.010071965
158	0x3c03296a	0.008005479
159	0xbc4cf253	-0.0125089465
160	0xbd1b6f48	-0.037947923
161	0x3bbefbb0	0.0058283433
162	0x3deb1551	0.11478675
163	0xbe0b0d5e	-0.13579318
164	0xbabb97bb	-0.0014312187
165	0x3d0f89ab	0.0350434
166	0xbad9cc80	-0.0016616732
167	0xbcafec8a	-0.021475095
168	0x3b484346	0.0030557676
169	0xbc8cc35c	-0.017182998
170	0xbca6c636	-0.020358186
171	0xbcaa2c0f	-0.020772962
172	0xbb1bc23d	-0.0023766898
173	0xbe4df299	-0.20112075
174	0xbcd8e242	-0.026475076
175	0xbc8821ab	-0.016617617
176	0xbebb41b1	-0.36573556
177	0x3d9ef0ad	0.07760749
178	0x3d22c97d	0.039742935
179	0xbf33a97c	-0.7018049
180	0x3d5eccb8	0.054394454
181	0xba880c0e	-0.0010379569
182	0xbc5582a3	-0.0130316345
183	0x3e994d89	0.29941967
184	0xbcb4887e	-0.02203774
185	0xbd0301f4	-0.031984285
186	0x3c4b49ca	0.012407729
187	0x3ba4fd11	0.0050350507
188	0x3da393c2	0.07987167
189	0xbe4756b3	-0.19466667
190	0x3d88ccca	0.066796854
191	0xbcf84058	-0.030304119
192	0xb73a3d83	-1.1100786e-05
193	0xbe07b72e	-0.13253471
194	0xbd346836	-0.044044696
195	0x3d28bd65	0.041196246
196	0xbe0dda6b	-0.13852851
197	0xbbd98569	-0.006638218
198	0xbd0bba36	-0.03411313
199	0x3be0d8b5	0.006861771
200	0xbc05feaa	-0.008178392
201	0xbb0a05b8	-0.0021060538
202	0xbca8e01c	-0.020614676
203	0xbe22fd14	-0.15916854
204	0x3d1b3cdb	0.037899833
205	0x3edf83c0	0.43655205
206	0xbc4904e7	-0.012269235
207	0xbc821744	-0.015880235
208	0xbe0acf47	-0.13555633
209	0xbb9a27eb	-0.0047044656
210	0x3e5ad358	0.21369684
211	0x3d76e0f7	0.060273137
212	0xbd22807c	-0.039673313
213	0x3902aa27	0.00012461153
214	0x3b688434	0.003547919
215	0xbc26b21b	-0.0101743
216	0x3e9ea65e	0.30986303
217	0x3bac7cf1	0.0052639176
218	0xbd6e353b	-0.058156233
219	0xbd047f77	-0.032348122
220	0x3cd2e8d2	0.025745783
221	0xbdb073c9	-0.08615834
222	0x3c5ebd7e	0.013594983
223	0x36eb454a	7.011612e-06
224	0xbca42e21	-0.020041527
225	0xbba4afb2	-0.0050258273
226	0xbd058d3f	-0.032605406
227	0xba908784	-0.0011026715
228	0x801f5a80	-2.879366e-39
229	0x3e98a98e	0.2981686
230	0xbca82999	-0.020527648
231	0xbb99cc22	-0.004693524
232	0xbab2fec9	-0.0013656254
233	0x2fea60c8	4.263312e-10
234	0x3d2a0229	0.041505966
235	0xbc09118c	-0.008366
236	0x3cb1976d	0.02167865
237	0x3ced1abd	0.028943414
238	0x3edbb750	0.42913294
239	0x36240c94	2.4445226e-06
240	0xbc187aab	-0.00930659
241	0x3bb31ecd	0.005466318
242	0xbe30b74b	-0.1725742
243	0xb930cef9	-0.00016861771
244	0xbbceef3d	-0.0063151405
245	0x3cccfd8c	0.025023244
246	0xbbe84596	-0.0070883734
247	0xbc34c36c	-0.01103292
248	0xbda0a85e	-0.078446135
249	0x39b71453	0.00034919623
250	0x3ea77e5c	0.32713592
251	0xbbba18af	-0.005679212
252	0x3b3c373b	0.0028719443
253	0xbca9ccc6	-0.020727526
254	0xbe039c0e	-0.12852499
255	0xbc0a4fec	-0.008441906

_encoder.2.bias f4 [64]
0	0x3d25793a	0.040398814
1	0x3e88f3b4	0.2674843
2	0x3ecdf66e	0.40227073
3	0xbd901fc4	-0.07037309
4	0xbb71f3aa	-0.0036918917
5	0x3ea666b5	0.32500234
6	0xbe0caa76	-0.137369
7	0xbe2a12cf	-0.16608737
8	0x3ea11707	0.3146288
9	0x3e968fbe	0.29406542
10	0xbd6eb471	-0.05827755
11	0xbbdb5641	-0.006693632
12	0xbe15d62c	-0.14632481
13	0xbcebfdae	-0.028807487
14	0xb8df7762	-0.000106557054
15	0x80f1e6de	-2.2215174e-38
16	0xb67ccdc1	-3.767069e-06
17	0x3c52fab5	0.012877156
18	0xbd3b47f3	-0.045722913
19	0xbd802a67	-0.062580876
20	0xbcbb0b46	-0.022832524
21	0xbe610406	-0.21974191
22	0xbe279619	-0.16365851
23	0xbb96f597	-0.0046069133
24	0xb51ef9d2	-5.9223123e-07
25	0x3d914c7f	0.070946686
26	0xbd9160d3	-0.07098546
27	0x3dadc61f	0.08485054
28	0xbce81cd4	-0.028334059
29	0xb9817d9f	-0.00024698392
30	0xbb03dd97	-0.0020121092
31	0x3e1dedc1	0.15422727
32	0x95d255cb	-8.495368e-26
33	0xbd9a343c	-0.07529494
34	0xbcaa3a78	-0.020779833
35	0xbdb7e9fd	-0.089801766
36	0xb188c1e4	-3.9801638e-09
37	0x3c5e251a	0.01355865
38	0xbd066ea1	-0.032820348
39	0xbe53c0d0	-0.20679021
40	0xbe290acc	-0.16508025
41	0x3df3db38	0.11907047
42	0xbe0a7f29	-0.1352507
43	0xb631589c	-2.6426633e-06
44	0xabe36888	-1.6158333e-12
45	0xbc9b739b	-0.018976023
46	0xbd803b6f	-0.06261336
47	0xbce14d75	-0.027502755
48	0x3e09830f	0.13428901
49	0x3e2c96dc	0.16854423
50	0x3edc34b6	0.43008965
51	0xbb998ea3	-0.004686193
52	0xbe89d39f	-0.26919267
53	0x3d9c6254	0.07635942
54	0x80b16c40	-1.6293716e-38
55	0x3e0bd9d6	0.13657317
56	0xbdab4d0f	-0.08364307
57	0x3e909589	0.28239086
58	0xbd8bf920	-0.06834626
59	0xbcdea28f	-0.027177123
60	0xbc89dfcb	-0.016830346
61	0x0a0759e0	6.516917e-33
62	0x3ebebf75	0.37255445
63	0x80e97792	-2.1440564e-38

_encoder.4.weight f4 [12, 64]
0	0x3b861b8d	0.00409264
1	0xbda1e089	-0.07904155
2	0xbec4f052	-0.384646
3	0x3e688c95	0.22709878
4	0xbdae7904	-0.08519176
5	0xbe26e5aa	-0.16298547
6	0xbd50eeba	-0.051008917
7	0xbce4ac36	-0.027914148
8	0xbe6934ce	-0.2277405
9	0xbe996ef0	-0.2996745
10	0xbdc97c01	-0.09838105
11	0xbcbdb142	-0.023155812
12	0xbd86f366	-0.06589393
13	0xbce200cf	-0.027588276
14	0x81522ffe	-3.860534e-38
15	0x005bd51f	8.433484e-39
16	0xb491b2e1	-2.7138506e-07
17	0xbda21053	-0.0791327
18	0x3d82b240	0.06381655
19	0xbd02754f	-0.031850155
20	0xbd5221ce	-0.05130177
21	0xbd89b76d	-0.06724439
22	0x3c479f9b	0.012184049
23	0x3b942fee	0.004522315
24	0xbb2797e1	-0.0025572705
25	0xbd25df42	-0.04049612
26	0x3e68cdcf	0.2273476
27	0xbda4ed4d	-0.08053074
28	0x3d46656a	0.04843656
29	0x817d73bf	-4.6551805e-38
30	0x3bb5b950	0.0055457726
31	0xbefe7fa3	-0.49706754
32	0xbb88f649	-0.00417975
33	0xbd9c8f28	-0.076444924
34	0x3d6be17b	0.05758808
35	0x3e526928	0.20547926
36	0xb0dfcec2	-1.628415e-09
37	0x3d099756	0.03359159
38	0xbd878c72	-0.06618585
39	0x3da28fd9	0.07937593
40	0xbd35cee3	-0.044386756
41	0x3dbbaab7	0.09163421
42	0xbe290580	-0.16506004
43	0xbc503950	-0.012708977
44	0xb066ff26	-8.40361e-10
45	0x3b0b3e7e	0.0021246965
46	0x3cf18190	0.029480726
47	0xbd93d88e	-0.07219039
48	0xbd700cb2	-0.058605857
49	0x3d00f233	0.03148098
50	0x3da8850e	0.08228503
51	0x00c8dd1d	1.844642e-38
52	0xbcc2642b	-0.023729404
53	0x3e2705d4	0.16310817
54	0x005c9815	8.503422e-39
55	0xbe4e4e3d	-0.20147033
56	0xbd9416fc	-0.072309464
57	0xbdac9870	-0.08427513
58	0x3dd60674	0.104504496
59	0xbdd79529	-0.10526497
60	0xbbc7bc3a	-0.0060954364
61	0xb2225e8c	-9.4511385e-09
62	0xbe23a720	-0.15981722
63	0x198b68f8	1.441466e-23
64	0xbd7e0c93	-0.06202371
65	0xbd216f79	-0.03941295
66	0xbdb58b64	-0.08864477
67	0x3da0a1c9	0.07843358
68	0x3ea5c63d	0.32377806
69	0x3d462e67	0.048384096
70	0xbd9559b9	-0.07292504
71	0xbe47b18c	-0.19501323
72	0x3e3b833f	0.18311785
73	0xbf00cceb	-0.5031268
74	0xbd982ec8	-0.07430798
75	0x3d8cc800	0.068740845
76	0xbcab9ca2	-0.020948712
77	0xbc6cdeea	-0.014457444
78	0x3c8abfe1	0.016937198
79	0x0f8f4485	1.4127281e-29
80	0xbc41cb7a	-0.011828298
81	0x3dac2159	0.08404798
82	0x3c60655a	0.013696039
83	0x39d40f77	0.00040447313
84	0xbd409548	-0.047017366
85	0xbe4b1ac1	-0.19834425
86	0x3e13d2eb	0.14435928
87	0x3c898a7b	0.016789665
88	0x3cc829ff	0.024434088
89	0x3e19ef7b	0.15032761
90	0x3ee0f8ac	0.43939722
91	0xbd2c1430	-0.04201144
92	0x3d2f36c8	0.042776853
93	0xbba4bcb9	-0.0050273803
94	0x3c1c6762	0.009546133
95	0xbea3185b	-0.3185452
96	0x3b148878	0.002266435
97	0xbd88abf3	-0.06673422
98	0xbda8670f	-0.08222782
99	0xbde63e26	-0.112423226
100	0xbbfb7719	-0.0076741097
101	0xbe1e4558	-0.1545614
102	0xbdb02056	-0.085999176
103	0xbda97c93	-0.08275714
104	0x3e351f3d	0.17687698
105	0xbe892f45	-0.26793876
106	0x3ce756e4	0.028239675
107	0xbc1e7441	-0.009671272
108	0x3c275173	0.01021229
109	0xbc3167ab	-0.010827939
110	0xbd37715a	-0.044785835
111	0xbd6d54b6	-0.057942115
112	0xbeeab6ca	-0.45842582
113	0xbde6f854	-0.112778336
114	0xbf1254df	-0.57160753
115	0xbd29507c	-0.04133652
116	0x3d625f95	0.055266935
117	0xbf0a6f4c	-0.54076076
118	0x368802b3	4.05343e-06
119	0xbeaba586	-0.33524722
120	0x3ea3b4d5	0.319739
121	0x3bca8c3c	0.006181268
122	0xbd40deba	-0.04708741
123	0xbd5aba7e	-0.05340051
124	0x3bf21de3	0.0073888167
125	0x29d841f0	9.603765e-14
126	0x3e7a9f30	0.24474788
127	0xb7c40058	-2.336518e-05
128	0xbbabffab	-0.005248984
129	0x3e698d5d	0.22807832
130	0xbdda1ae3	-0.106496595
131	0x3e0de89f	0.13858269
132	0x3d7bc233	0.0614645
133	0x3e19dcf7	0.15025698
134	0xbeb66398	-0.3562286
135	0x3e395da5	0.18102129
136	0xbe94ffc0	-0.29101372
137	0x3d411ba8	0.047145516
138	0x3da1349a	0.07871361
139	0x3d83fb0b	0.06444367
140	0x3e63a04c	0.22229117
141	0x3d315b6a	0.04330007
142	0xbc2db8ac	-0.010603111
143	0x0198eab6	5.6172775e-38
144	0x3cd41fe0	0.025894105
145	0x3d5e645d	0.054294933
146	0x3e65afad	0.22430296
147	0xbc89549d	-0.01676398
148	0x3da0f581	0.07859326
149	0x3e8925ac	0.26786554
150	0xbda26ff7	-0.07931512
151	0xbbb4e887	-0.0055208835
152	0xbbae8053	-0.005325356
153	0x3d7f6953	0.062356304
154	0xbd5f6c29	-0.05454651
155	0x3e33499e	0.17508551
156	0xbd4f4770	-0.050605237
157	0xba86a78a	-0.0010273319
158	0xbc52dc0e	-0.012869848
159	0xbea1219c	-0.31470954
160	0xb6f1b9de	-7.2039975e-06
161	0xbe4edb14	-0.20200759
162	0x3ea2558a	0.31705886
163	0x3dce6f6a	0.10079844
164	0x3a8520e3	0.0010156896
165	0xbe7ebc45	-0.24876507
166	0xbc43d793	-0.011953252
167	0xbd7c4c8d	-0.061596442
168	0x3e05867a	0.1303958
169	0xbd88d27f	-0.06680774
170	0xbda9cd41	-0.08291102
171	0xbc83a134	-0.016068079
172	0x3af62994	0.0018780702
173	0x3ea44ab6	0.3208825
174	0x3c20cf97	0.009815118
175	0xbc4ad979	-0.012380951
176	0x3d6e6734	0.05820389
177	0x3e2f932f	0.1714599
178	0xbe01342f	-0.12617563
179	0xbc3b6a72	-0.011438953
180	0xbcc113ee	-0.023569074
181	0xbd83867b	-0.064221345
182	0xb407dcc4	-1.2653169e-07
183	0xbef7f135	-0.48426214
184	0x3e3fabc4	0.18717867
185	0x3c6ab07a	0.014324302
186	0xbe18644f	-0.14882015
187	0x3ec25e6f	0.37962672
188	0x3a0b6a71	0.000531829
189	0xb0be1b0c	-1.3832007e-09
190	0x3d6c6d15	0.057721216
191	0x3310a09d	3.367369e-08
192	0xbc8d50d4	-0.017250456
193	0xb91b4fde	-0.00014811705
194	0x3c85af28	0.016318873
195	0x3a4fdca5	0.0007929302
196	0xba477cd4	-0.00076098484
197	0xbc37c7e8	-0.011217095
198	0x3b3d796c	0.0028911484
199	0xbc8df799	-0.017329978
200	0xbd6103c9	-0.05493525
201	0xbc8dece4	-0.017324872
202	0xbbe16ca5	-0.0068794065
203	0x391faa3f	0.00015226843
204	0xbd26cee0	-0.040724635
205	0x816d231a	-4.355521e-38
206	0x804293bb	-6.114138e-39
207	0x81bbbf88	-6.8967785e-38
208	0x0047dfa5	6.600549e-39
209	0xbb6ffeb8	-0.003662033
210	0xba00a424	-0.00049072714
211	0xba36e905	-0.00069774716
212	0x3a68ac97	0.00088758155
213	0xbc6e1a36	-0.014532616
214	0x81bb083c	-6.8704767e-38
215	0x80d82da7	-1.9852844e-38
216	0x80b98068	-1.703563e-38
217	0x3aadc3b1	0.0013257173
218	0xbb45fb86	-0.0030209734
219	0xbbcc6455	-0.0062375464
220	0xae688e26	-5.2876946e-11
221	0x804a09f0	-6.799392e-39
222	0x9b9b5a1a	-2.5700826e-22
223	0xbb14ae16	-0.002268677
224	0x8107f0ee	-2.4968443e-38
225	0xbb9e9ac0	-0.004840225
226	0xbb451bb8	-0.0030076336
227	0xbba8aa69	-0.0051472676
228	0x80557fd8	-7.851879e-39
229	0x3bdd22ea	0.006748547
230	0xbbd335f1	-0.0064456393
231	0xb45fdb9f	-2.0848391e-07
232	0xbac60366	-0.0015107214
233	0xbcdab165	-0.026695916
234	0x3c53c2e7	0.012924886
235	0x01680651	4.2616202e-38
236	0x811d638a	-2.8907762e-38
237	0xbb171e11	-0.0023058692
238	0x01629c28	4.162168e-38
239	0xbca18ce4	-0.019720502
240	0xbcf696c1	-0.030101182
241	0xbc826b35	-0.01592026
242	0xbd24ac39	-0.040203307
243	0x0019abb1	2.357479e-39
244	0xbcc03192	-0.023461137
245	0xbc3510f8	-0.011051409
246	0x00b3fd73	1.6529474e-38
247	0xbc16b079	-0.009197348
248	0xbc50ebe0	-0.0127515495
249	0xbcb30081	-0.021850826
250	0x3c3c146d	0.011479479
251	0xb18c2438	-4.078654e-09
252	0xb9a0c170	-0.000306617
253	0x0101ff7d	2.3876862e-38
254	0x3c51d8ab	0.012808005
255	0x00a53b51	1.5174136e-38

_encoder.4.bias f4 [12]
0	0x3e4661eb	0.1937329
1	0x3e66721e	0.2250447
2	0x3db6c4ea	0.08924277
3	0xbc3c430c	-0.011490595
4	0x3daf44c3	0.08558037
5	0x3ebba068	0.36645818
6	0xbde773c2	-0.11301376
7	0x3f18b2c9	0.59647804
8	0x3f03805d	0.5136774
9	0x3f20225a	0.62552416
10	0xbe0e4f26	-0.1389738
11	0x3de1da5d	0.110279776

_encoder.6.weight f4 [2, 12]
0	0xbe6ca868	-0.23111117
1	0x3ecefe5d	0.4042844
2	0x3d8a7eae	0.067624435
3	0x3b76a2f8	0.0037633758
4	0xbdc89fe8	-0.09796125
5	0xbe90b156	-0.28260297
6	0x3ed1cb76	0.4097554
7	0xbe9b0f2d	-0.30285016
8	0xbe9af34a	-0.3026374
9	0x3d8d1957	0.06889599
10	0x3ea5a953	0.32355747
11	0x3e4429e9	0.19156612
12	0x3e1f21d2	0.15540245
13	0x3dda7202	0.106662765
14	0x3e545737	0.20736395
15	0xbbb86ce9	-0.0056282175
16	0x3e9cd425	0.30630603
17	0x3e1818b7	0.14853178
18	0x3e10da1d	0.14145704
19	0xbdd5be29	-0.10436661
20	0xbddfe265	-0.10931853
21	0xbe4e1a12	-0.20127133
22	0x3e9b4ac2	0.30330473
23	0xbe44d9aa	-0.19223657

_encoder.6.bias f4 [2]
0	0x3d24411e	0.040101163
1	0xbd81c075	-0.063355364

_decoder.0.weight f4 [12, 2]
0	0x3ddf3261	0.10898281
1	0x3f173cbc	0.5907705
2	0xbf02b85a	-0.5106255
3	0xbf793d6b	-0.9735934
4	0x3b22417c	0.002475827
5	0xbbb7b200	-0.005605936
6	0xbb7be9cc	-0.0038438914
7	0xbdb4f1ea	-0.08835204
8	0x3f0e862a	0.5567347
9	0x3ebf206f	0.37329432
10	0x3f35b642	0.7098123
11	0x3c8f81a1	0.017517867
12	0x3e00f2b9	0.12592591
13	0x3e963958	0.29340625
14	0xbee8f49a	-0.45499116
15	0x3bc62308	0.0060466565
16	0x3e30e408	0.17274487
17	0xbf2bfaea	-0.6717974
18	0x3d6eebbb	0.05833028
19	0x3df83d39	0.12121052
20	0x3f210278	0.6289439
21	0xbe9d950f	-0.30777785
22	0x3eff9650	0.49919367
23	0xbe3159f5	-0.17319472

_decoder.0.bias f4 [12]
0	0xbe81fdd5	-0.2538897
1	0x3eeea33e	0.4660892
2	0xbd9ea718	-0.07746714
3	0xbeaf7c27	-0.34274408
4	0x3ebbbe49	0.36668614
5	0xbe8f60b1	-0.28003457
6	0xbfb40cf4	-1.4066453
7	0x3eaa9a47	0.3332083
8	0x3e77d89a	0.2420372
9	0x3f96778e	1.1755235
10	0xbe1342a3	-0.14380889
11	0x3e74f94f	0.23923229

_decoder.2.weight f4 [64, 12]
0	0xb7b5dd57	-2.167995e-05
1	0xb6c9c66e	-6.013367e-06
2	0x8110ca8c	-2.6593943e-38
3	0x35282b39	6.2647774e-07
4	0xb486e505	-2.512608e-07
5	0x3428007f	1.56464e-07
6	0xabbdba39	-1.3480945e-12
7	0x370315db	7.813297e-06
8	0xb77eaff5	-1.5180548e-05
9	0xb80af1ba	-3.312689e-05
10	0xb72b3701	-1.0205201e-05
11	0xb70c1661	-8.349861e-06
12	0xacedb658	-6.7561894e-12
13	0xabcb2a53	-1.4435765e-12
14	0x804c94f5	-7.032933e-39
15	0x012dc604	3.191715e-38
16	0xac8f37d3	-4.070502e-12
17	0x98cfbb34	-5.3697273e-24
18	0x0682ba76	4.9174545e-35
19	0x8be140fa	-8.6764613e-32
20	0x821538ca	-1.0963089e-37
21	0x969542df	-2.411445e-25
22	0x0072892d	1.0518456e-38
23	0x818b2e6e	-5.112716e-38
24	0x3d33698d	0.043801833
25	0xbe1b55db	-0.1516947
26	0xbb6c0564	-0.0036013955
27	0xbdd82bde	-0.10555242
28	0xbd256eb0	-0.040388763
29	0x3ed7dc45	0.4216024
30	0xbe382c10	-0.17985559
31	0xbd74bbbb	-0.059749346
32	0x3ebc69de	0.3679952
33	0x3d5c03a9	0.053714428
34	0xbeda03e6	-0.425811
35	0xbe8ff174	-0.28113902
36	0xbcd97874	-0.026546694
37	0xbca99d89	-0.020705001
38	0x8016a6b1	-2.080179e-39
39	0x0145ccac	3.633003e-38
40	0xbd2e2f17	-0.042525377
41	0xbc98ccc0	-0.01865232
42	0xbcbb48c1	-0.02286184
43	0xbad28076	-0.0016060013
44	0x3c2b100a	0.010440836
45	0xbcd20f5e	-0.025642093
46	0x3c1a0ebc	0.009402927
47	0x3b627293	0.0034553155
48	0xb6ab7b69	-5.110564e-06
49	0xa3d2fcfd	-2.287539e-17
50	0x00dfde10	2.0558977e-38
51	0x80b34ee3	-1.6466853e-38
52	0xb8e87dc5	-0.000110860485
53	0xb7b0bb64	-2.1068096e-05
54	0xb1236369	-2.377613e-09
55	0xab8f8d5b	-1.0199995e-12
56	0x20558714	1.8086495e-19
57	0xae0f2356	-3.254582e-11
58	0xb4928a29	-2.7295144e-07
59	0xb3cd2bf5	-9.554052e-08
60	0xbd4f3c72	-0.050594755
61	0xbe735305	-0.23762138
62	0xbc065b8b	-0.0082005365
63	0x3c6cf18b	0.014461885
64	0xbebbe0f8	-0.36695075
65	0x3ded2f38	0.11581272
66	0xbec81b8a	-0.3908351
67	0x3d134e0c	0.035963103
68	0x3acf6a3b	0.0015824506
69	0x3e0b1e6c	0.13585824
70	0x3dfbced1	0.122953065
71	0x3d839802	0.064254776
72	0xad434f29	-1.1102044e-11
73	0xb5b5056a	-1.3487127e-06
74	0x0054ed9c	7.79942e-39
75	0x81ba9185	-6.853442e-38
76	0xa4518f3c	-4.5440975e-17
77	0x0046b55f	6.493548e-39
78	0x88175694	-4.554168e-34
79	0xb2b7a8fb	-2.1380847e-08
80	0xaa26aa84	-1.4802921e-13
81	0x995011d5	-1.0756949e-23
82	0x0012a066	1.710579e-39
83	0x0030f2c9	4.495199e-39
84	0xbf0618f0	-0.523818
85	0x3e47b9da	0.1950449
86	0x3b23d8e7	0.002500111
87	0xbb1309bf	-0.002243623
88	0xbe1d6542	-0.15370658
89	0x3d9cf0a8	0.07663089
90	0x3e3b357d	0.18282123
91	0xbf9665bd	-1.1749798
92	0x3f2d154d	0.6761063
93	0xbe48e67d	-0.19619174
94	0x3e8af7ba	0.27142125
95	0x3e8df9a9	0.27729538
96	0xbecbab6f	-0.3977923
97	0xbedfd8c5	-0.4372007
98	0xbae17a61	-0.001720261
99	0xbd3a8fd6	-0.04554733
100	0x3e0c362d	0.13692541
101	0x3dd20ddf	0.10256552
102	0xbf46ea1b	-0.77700967
103	0x3de98a6e	0.114033565
104	0xbee30483	-0.4433938
105	0x3eb44421	0.35208228
106	0x3d01212b	0.031525772
107	0x3d4f493e	0.05060696
108	0xbb02666d	-0.0019897476
109	0xbdc3bd4a	-0.095575884
110	0x3d4d6c6d	0.05015223
111	0x3d1a2f4b	0.03764276
112	0xbeab3797	-0.3344085
113	0xbb539e05	-0.0032290232
114	0x3d3ba94e	0.04581576
115	0x3e8fdaa0	0.28096485
116	0xbc568ff0	-0.013095841
117	0x3e3390f7	0.17535768
118	0xbcf4dad6	-0.029889505
119	0xbd523a53	-0.051325154
120	0x3e5f55a1	0.21810009
121	0x3dcc2729	0.09968407
122	0x3b4e8d1f	0.003151722
123	0x3cc74708	0.024325863
124	0xbe4a2265	-0.19739683
125	0x3ecccbf7	0.39999363
126	0x3ee8021a	0.45314103
127	0x3eb3aac2	0.35091215
128	0xbe035db5	-0.12828715
129	0xbe4b05ad	-0.19826384
130	0x3ea06455	0.31326547
131	0x3d61c707	0.055121448
132	0xbe537c34	-0.20652848
133	0xbe403ea5	-0.18773897
134	0xbc55bb45	-0.013045137
135	0xbe0bc4f3	-0.13649349
136	0xbf3779cb	-0.71670216
137	0xbebc3a3b	-0.36763176
138	0xbf0988c9	-0.5372434
139	0x3e0ed689	0.13949026
140	0x3e72c210	0.23706841
141	0x3de4c9c2	0.11171295
142	0x3dd2e536	0.10297625
143	0xbdfc24a0	-0.12311673
144	0xbeaabb69	-0.33346108
145	0xbde42eed	-0.11141763
146	0xbb1cb1ca	-0.0023909681
147	0xbd0e298c	-0.03470759
148	0x3e42e8c6	0.19034109
149	0x3e890777	0.26763508
150	0xbed16523	-0.40897474
151	0xbd19d0b7	-0.03755256
152	0x3d4ad47a	0.04951904
153	0xbeb8253e	-0.35965914
154	0xbd35c6f6	-0.044379197
155	0x3dfbdfc7	0.122985415
156	0xb12f9a68	-2.5553621e-09
157	0x9617b7cc	-1.2255679e-25
158	0x01aee6d2	6.4248716e-38
159	0x92ffb2e4	-1.6136862e-27
160	0xae182672	-3.4594945e-11
161	0x03b00789	1.034608e-36
162	0xa1e18ace	-1.5283334e-18
163	0x95ebfc96	-9.5314254e-26
164	0x949d77bf	-1.590018e-26
165	0x9dc88e93	-5.3086977e-21
166	0x0049627f	6.739325e-39
167	0x006ce488	1.0000215e-38
168	0xbe017853	-0.12643556
169	0x3e4be698	0.19912183
170	0x3aa1ec09	0.0012353669
171	0x3e04c3ae	0.12965271
172	0x3ead197f	0.33808514
173	0x3e9275c0	0.2860546
174	0x3eb1694d	0.3465065
175	0xbdaaaffe	-0.08334349
176	0x3da0f011	0.07858289
177	0xbe591562	-0.21199563
178	0x3e551836	0.20810017
179	0xbd03f3df	-0.032214995
180	0x3e7193ee	0.23591587
181	0xbe2828c3	-0.164218
182	0x3c0aa88c	0.008463036
183	0x3d4a0dda	0.049329616
184	0xbeaee82d	-0.3416151
185	0xbf229571	-0.6350928
186	0xbea3697b	-0.31916413
187	0xbe0e73d9	-0.1391138
188	0x3f0eaff6	0.55737245
189	0x3e881ec0	0.2658596
190	0xbe926137	-0.28589794
191	0xbe31bd5e	-0.17357394
192	0x3d8fa0fe	0.07013129
193	0x3ee7cbfa	0.4527281
194	0xbd05054f	-0.032475766
195	0x3d6859d5	0.056726296
196	0xbd2186e3	-0.03943528
197	0x3e3c9d2c	0.18419331
198	0x3eba52a1	0.36391166
199	0xbe843fd5	-0.2582995
200	0x3c11a5dd	0.008889643
201	0xbdc133bf	-0.09433698
202	0x3ec84757	0.39116928
203	0xbe87ebe5	-0.2654716
204	0x3ecce036	0.4001481
205	0xbde74be1	-0.1129377
206	0xbd0ad936	-0.033898555
207	0x00437d33	6.197891e-39
208	0xbdaa7012	-0.08322157
209	0xbee66182	-0.44996268
210	0xbe22a12f	-0.15881799
211	0xbe8afc13	-0.27145442
212	0x802c8bca	-4.090909e-39
213	0x3e844bd7	0.2583911
214	0xb5133d69	-5.485113e-07
215	0xbf8099ea	-1.0046971
216	0xb6cd85ad	-6.125038e-06
217	0x2ac0ba89	3.4235486e-13
218	0x018024d4	4.707262e-38
219	0x0105b3c6	2.4557223e-38
220	0xb43cadf1	-1.7572144e-07
221	0xaa131a71	-1.3065396e-13
222	0x9eabd722	-1.8194306e-20
223	0xb76bc72c	-1.4053465e-05
224	0xa603064a	-4.545828e-16
225	0xb9b26100	-0.00034023076
226	0xac9c5604	-4.4433363e-12
227	0x2603b1f4	4.5690927e-16
228	0xbf0f3e78	-0.55954695
229	0xbe81d6ff	-0.25359342
230	0x3b7dd2e0	0.0038730428
231	0x3d2c9b41	0.04214025
232	0xbf09e53b	-0.538654
233	0x3ce0757e	0.027399775
234	0xbe376c6e	-0.17912456
235	0x3ed1bb53	0.4096323
236	0x3d46e940	0.04856229
237	0x3e647758	0.22311151
238	0x3e3f2e6d	0.18670054
239	0x3eaa94fc	0.3331679
240	0xbf13ab2b	-0.57683057
241	0x3ed6cd10	0.41953325
242	0x3c7d689e	0.015466837
243	0xbd25ac5e	-0.040447585
244	0x3e10e8ba	0.14151278
245	0x3e84c2d5	0.25929895
246	0x3d994162	0.07483174
247	0x3bf0f19b	0.0073530204
248	0xbf015f62	-0.5053617
249	0xbdc152e2	-0.09439637
250	0x3de01fa0	0.10943532
251	0x3e601412	0.21882656
252	0x3e639e63	0.22228388
253	0xbf13a6b7	-0.5767626
254	0xba9fe30d	-0.0012198404
255	0x01a5dab6	6.092526e-38

_decoder.2.bias f4 [64]
0	0xb6966d95	-4.4831054e-06
1	0x81843af2	-4.8573724e-38
2	0x3ece5d12	0.40305382
3	0xbc35a705	-0.011087184
4	0x99a02b39	-1.656107e-23
5	0x3ecd3f7d	0.400875
6	0x802be630	-4.031502e-39
7	0x3e5919a6	0.2120119
8	0x3eab8b3b	0.33504662
9	0xbc86a60d	-0.016436601
10	0xbfc73409	-1.5562755
11	0x3f14d2a9	0.5813394
12	0x3ec49e52	0.3840204
13	0x94702a57	-1.21252536e-26
14	0xbf56633f	-0.8374519
15	0xbc85c0ec	-0.016327344
16	0xbf910821	-1.1330606
17	0xbde8a947	-0.11360412
18	0xb88e3f6a	-6.7828994e-05
19	0x3ed4191f	0.41425416
20	0x3e02f801	0.12789918
21	0x3e3d3c1e	0.18479964
22	0x3f019bae	0.50628173
23	0xbd0e7c1e	-0.034786336
24	0x3ed8ccc6	0.4234373
25	0x3e3b4a4c	0.18290061
26	0xbd83f21c	-0.06442663
27	0x3d238ea0	0.03993094
28	0x3efe3be8	0.4965508
29	0x3e62b267	0.22138368
30	0xbed379ff	-0.41304013
31	0xbe0a3e46	-0.13500318
32	0xb8cae188	-9.674119e-05
33	0xbe84bf9a	-0.2592743
34	0xbdee41f8	-0.11633676
35	0x3eb84698	0.3599136
36	0x3ef0f6ce	0.47063297
37	0xbe700860	-0.23440695
38	0xbd53f364	-0.051745787
39	0x3f1cdfde	0.61279094
40	0x3ebcdc6d	0.36886922
41	0x3e9d61c1	0.30738643
42	0x3e8bf3e5	0.27334514
43	0xbdba02bc	-0.09082553
44	0x3e496dce	0.19670793
45	0xbe11c6cb	-0.1423599
46	0x3f1c127e	0.60965717
47	0xbf7ba26e	-0.98294723
48	0x3e8314cd	0.25601807
49	0xba544d83	-0.00080987083
50	0x3e8cee29	0.27525452
51	0x3eda1503	0.42594156
52	0x3ecba07c	0.39770877
53	0xbdff1b54	-0.12456384
54	0x3f1b1e01	0.6059266
55	0xbe0e5b3a	-0.13901988
56	0xbe293e64	-0.16527706
57	0x3da85b15	0.082204975
58	0xbf6f5351	-0.93486506
59	0xb2067d84	-7.8283655e-09
60	0xb9413619	-0.00018426067
61	0x3f29381c	0.6610124
62	0x3efd5ea5	0.4948627
63	0x3d102fc6	0.03520181

_decoder.4.weight f4 [128, 64]
0	0x3394e75b	6.9338704e-08
1	0x801a99ff	-2.442966e-39
2	0xbc4e8106	-0.012604004
3	0x3c313274	0.010815252
4	0x80191037	-2.301704e-39
5	0x3ec5f8d9	0.38666418
6	0x13032da2	1.6557023e-27
7	0x3f07b34c	0.5300796
8	0xbe5cd017	-0.21563755
9	0xbd85fda9	-0.065425225
10	0xbf362821	-0.7115498
11	0x3e87001a	0.26367265
12	0x3c284d23	0.010272297
13	0x00373b74	5.07228e-39
14	0xbf2d050f	-0.67585844
15	0xbf021a53	-0.5082142
16	0xbf0a8e59	-0.54123455
17	0x3e0c3eae	0.13695785
18	0x9c1f8a06	-5.278708e-22
19	0x3e451f22	0.19250157
20	0xbea60737	-0.3242738
21	0xbddf4c99	-0.10903282
22	0x3e0d9f40	0.1383028
23	0xbec549f1	-0.38532975
24	0x3e85cd35	0.26133123
25	0xbd20feec	-0.039305612
26	0xbe85d151	-0.26136258
27	0x3bcddb08	0.006282214
28	0x3d9186db	0.071058
29	0xbd029f78	-0.031890363
30	0xbf05d890	-0.52283573
31	0xbc1c555a	-0.009541834
32	0xb34129b1	-4.4974232e-08
33	0x3d384723	0.044989716
34	0x3dbad112	0.09121908
35	0xbe417e4b	-0.18895833
36	0xbe9e5d14	-0.30930388
37	0x3e02cbbc	0.12773031
38	0x3cc289cb	0.023747345
39	0x3def332c	0.11679682
40	0xbd7ad61c	-0.061239347
41	0xbd42344b	-0.04741315
42	0xbc44d8a7	-0.012014545
43	0x3ba7b6fb	0.0051182485
44	0x3d843d74	0.06457034
45	0xbf28fffa	-0.6601559
46	0xbda740b1	-0.08166636
47	0xbe945b21	-0.28975776
48	0x3e53d285	0.20685776
49	0xb607fc82	-2.0263547e-06
50	0x3dd6ff7f	0.10497951
51	0x3db0fbd3	0.08641782
52	0xbe2bf655	-0.16793187
53	0x3dcee930	0.10103071
54	0xbe4b5dc6	-0.1985999
55	0xbe6a37b7	-0.22872816
56	0x3d873ad9	0.06603021
57	0xbe7c0248	-0.24610245
58	0xbd9aef2d	-0.075651504
59	0x354dddd6	7.6691265e-07
60	0x3ada7b3e	0.0016668809
61	0x3cd14de3	0.025549835
62	0xbf041117	-0.5158858
63	0xbc841ee2	-0.016128007
64	0x0007fbff	7.33248e-40
65	0x0035073e	4.86988e-39
66	0xbe652d7c	-0.22380632
67	0xbc18d8a5	-0.009328996
68	0x000063eb	3.5844e-41
69	0x3d7bd367	0.061480906
70	0x006c691b	9.955938e-39
71	0xbe4acad4	-0.19803935
72	0x3ed428f3	0.41437492
73	0xbb6396ca	-0.0034727328
74	0xbecb48cf	-0.39703986
75	0xbdac720e	-0.08420192
76	0x3e570c73	0.21000843
77	0x80e49a33	-2.099381e-38
78	0xbe4aab55	-0.1979192
79	0xbbd44682	-0.0064781317
80	0xbe634a35	-0.22196276
81	0x38200b5d	3.8157556e-05
82	0x209037d9	2.4431506e-19
83	0xbe6640b4	-0.2248562
84	0x3e6a2014	0.228638
85	0xbd49422d	-0.049135376
86	0x3e04d047	0.12970077
87	0x3dfc8d42	0.1233163
88	0xbe24c3b0	-0.16090274
89	0x3d9a5509	0.075357504
90	0x3de1bb35	0.11022035
91	0xbbaff490	-0.0053697303
92	0xbf0307e5	-0.5118392
93	0xbe787a05	-0.24265297
94	0xbcfc8361	-0.030824365
95	0x3e8fc481	0.28079608
96	0x00bab720	1.7147095e-38
97	0xbee73828	-0.4516003
98	0xbe8abeb4	-0.2709862
99	0x3e536726	0.20644817
100	0xbe31037e	-0.17286488
101	0xbc5de5cf	-0.01354356
102	0xbc63087b	-0.013857002
103	0xbcb1735a	-0.02166145
104	0xbbe98d75	-0.0071274587
105	0xbdcf8b16	-0.101339504
106	0xbddc50f2	-0.107576266
107	0x3ce27052	0.02764145
108	0xbda4622a	-0.08026536
109	0xbc3d77a4	-0.011564169
110	0xbe35d453	-0.17756777
111	0x9b29cc35	-1.4045335e-22
112	0xbcc8b341	-0.024499537
113	0x013895e1	3.3902995e-38
114	0xbd79f334	-0.061022952
115	0x3e295316	0.16535601
116	0x3e3f66ad	0.18691511
117	0xbd93d6cc	-0.07218704
118	0xbf044001	-0.5166016
119	0xb75103e1	-1.2458274e-05
120	0xbb938a26	-0.0045025526
121	0x3e45cb70	0.19315886
122	0x80cb1f89	-1.8653918e-38
123	0xa2ee4a25	-6.4588533e-18
124	0x37afd1b3	2.0959274e-05
125	0x3e3fdd8f	0.18736862
126	0xbcf46704	-0.029834278
127	0xb9e9dd14	-0.0004460594
128	0x80ef457b	-2.1973608e-38
129	0x805c97fa	-8.503385e-39
130	0xae9fbd52	-7.264113e-11
131	0x811dd37c	-2.8988078e-38
132	0x8070b837	-1.035166e-38
133	0xa71d99ba	-2.1871462e-15
134	0x00238a23	3.263796e-39
135	0xa80c411f	-7.785682e-15
136	0xa79eb6d1	-4.405202e-15
137	0x28fb7d63	2.7920976e-14
138	0xb007913d	-4.931911e-10
139	0x28634b6c	1.2617386e-14
140	0x26a5b3a1	1.1497863e-15
141	0x007f5c7d	1.1696287e-38
142	0xaff72a0b	-4.4958912e-10
143	0xa2e013e6	-6.073639e-18
144	0x2f8bf578	2.545837e-10
145	0xb02f4231	-6.375869e-10
146	0x009a79bb	1.4186335e-38
147	0x29166886	3.339735e-14
148	0xa7d083e8	-5.787461e-15
149	0xad938e05	-1.6775034e-11
150	0xaf0d2401	-1.2836666e-10
151	0xaa610a63	-1.9987618e-13
152	0xafa3331a	-2.9685837e-10
153	0xaf33db3f	-1.6357847e-10
154	0x27c38d87	5.4276817e-15
155	0x01276d4f	3.075148e-38
156	0xa60776fa	-4.6998777e-16
157	0xa65d4453	-7.6767374e-16
158	0xae648cf1	-5.196638e-11
159	0x26ae23ea	1.208341e-15
160	0x01acebe6	6.352132e-38
161	0xb0c5358c	-1.4348855e-09
162	0xb08c11d2	-1.0191405e-09
163	0xaec85f85	-9.111915e-11
164	0xab05b28c	-4.7498875e-13
165	0xaf82dd0b	-2.3803923e-10
166	0x81adfb66	-6.39109e-38
167	0x2ef6fad8	1.12313436e-10
168	0x28fd1a72	2.8100111e-14
169	0xae7fd2bb	-5.8167453e-11
170	0xab504242	-7.3988396e-13
171	0x0189a2fa	5.055971e-38
172	0x8021732f	-3.071891e-39
173	0xaaace4f8	-3.0712217e-13
174	0x28a52143	1.8333105e-14
175	0xaf565e56	-1.9496701e-10
176	0xa8a7536d	-1.8576905e-14
177	0x81033d65	-2.4104948e-38
178	0xaf598a9b	-1.9785278e-10
179	0x280e5615	7.9012495e-15
180	0xa7d08d97	-5.788511e-15
181	0xb000745a	-4.6731474e-10
182	0x2138da68	6.2630683e-19
183	0xa8d17cab	-2.3257727e-14
184	0xb07761c8	-8.999703e-10
185	0xaea0010f	-7.276146e-11
186	0xaebecd55	-8.676674e-11
187	0x00d151eb	1.9223005e-38
188	0x018a33c4	5.0767474e-38
189	0xaf223210	-1.47516e-10
190	0xa8400fb6	-1.0661548e-14
191	0x28e9a91b	2.5941534e-14
192	0x01716ff8	4.4345043e-38
193	0x019725f8	5.552312e-38
194	0x3bc74fd9	0.0060825166
195	0x3077ce31	9.015109e-10
196	0x817594c0	-4.5106116e-38
197	0x3b7fa98a	0.0039010965
198	0x0053921a	7.674758e-39
199	0xbba83947	-0.005133781
200	0xbc451433	-0.012028742
201	0xbcff1dad	-0.03114208
202	0xbd2c2181	-0.04202414
203	0xbc69e58d	-0.014275921
204	0xbb84a791	-0.004048296
205	0x015f522a	4.101758e-38
206	0xbc1cbc26	-0.009566342
207	0xbb285fe3	-0.0025691919
208	0xbc31c325	-0.010849749
209	0xbbcbac62	-0.006215618
210	0x0049df00	6.783989e-39
211	0xbc8db3da	-0.017297674
212	0xbcf0a7f6	-0.029376965
213	0xbb371347	-0.0027935074
214	0x3b8aa0f6	0.004230614
215	0xbc92b660	-0.017909229
216	0xbcaa3d43	-0.020781165
217	0x3b8435c4	0.0040347297
218	0xbb031a16	-0.0020004562
219	0x3557b78d	8.0360843e-07
220	0x3a4d357b	0.00078280986
221	0x3bd65bc3	0.0065417006
222	0xbc78b552	-0.015179949
223	0xb9afaac7	-0.0003350584
224	0x805617ce	-7.906392e-39
225	0xbc457eb0	-0.01205413
226	0xbc7c1d15	-0.015387793
227	0x3addbec8	0.0016917819
228	0xbd078fed	-0.033096243
229	0xbc6ee567	-0.014581061
230	0x819ae7b0	-5.690312e-38
231	0x3c79cfb3	0.015247273
232	0xbc82705a	-0.015922714
233	0x3ba919e9	0.0051605594
234	0xbd1ca07a	-0.03823898
235	0x010c8079	2.5806114e-38
236	0xbbe91835	-0.0071134814
237	0xbcbb97e8	-0.022899583
238	0x3c4da87e	0.012552379
239	0xbbbd7b65	-0.005782532
240	0xbcf51052	-0.029915009
241	0x1e14b0ef	7.871644e-21
242	0xbcfa1c09	-0.030530946
243	0xbc8d7b80	-0.017270803
244	0x3b02f90b	0.0019984867
245	0xbc066615	-0.008203049
246	0x3cc6e00e	0.02427676
247	0xbbe40093	-0.0069580763
248	0xbc13bfb4	-0.009017874
249	0xbc2046d1	-0.009782509
250	0xbba24b79	-0.0049528447
251	0x01be42c6	6.989079e-38
252	0x007e3c84	1.1592981e-38
253	0x3b7f3d2d	0.0038946376
254	0xbbf7ae78	-0.00755864
255	0xbc968a33	-0.018376445

_decoder.4.bias f4 [128]
0	0x3e084dca	0.13310924
1	0x3cb88df8	0.022528633
2	0xaed433ba	-9.649832e-11
3	0xbc6ba297	-0.014382026
4	0x3e07c4fa	0.13258734
5	0xb229b616	-9.878496e-09
6	0xb75d7644	-1.3200162e-05
7	0x0fb3d9a0	1.7734589e-29
8	0x3e6be25c	0.23035568
9	0xb87ae7eb	-5.9820635e-05
10	0x3e89bee6	0.26903456
11	0xbcebd369	-0.028787332
12	0x3e022793	0.12710409
13	0x3e631dd9	0.22179355
14	0x3e0ab5aa	0.13545862
15	0xbed42e2f	-0.41441485
16	0xbdbf3e80	-0.09338093
17	0x3e11e16f	0.14246152
18	0x00582d31	8.097735e-39
19	0xbe0332ac	-0.12812299
20	0x016e31a4	4.3749312e-38
21	0xbbfb0a8d	-0.00766117
22	0xbf10bfda	-0.5654274
23	0xabdd57d2	-1.572737e-12
24	0xbca49a95	-0.020093242
25	0xbdf372a7	-0.118871026
26	0x3f1a75d5	0.6033605
27	0xbbf8789a	-0.007582736
28	0xbf6f053e	-0.93367374
29	0x3da06ccf	0.078332536
30	0xbd324e23	-0.04353155
31	0x81ab6d36	-6.297219e-38
32	0x3d86bf2d	0.06579433
33	0x3d53d24f	0.051714238
34	0xbcb8329b	-0.022485068
35	0x3e002d7c	0.12517351
36	0xa88dad23	-1.572923e-14
37	0xb723ea83	-9.770159e-06
38	0x3e9bff61	0.30468276
39	0x3e40562c	0.18782872
40	0x3dedc607	0.11610036
41	0xbc235a35	-0.0099702375
42	0xbcd533c9	-0.02602567
43	0xbdacf32d	-0.084448196
44	0x80b48ee9	-1.6581656e-38
45	0xbc49e9ce	-0.01232381
46	0xbcc1ca0f	-0.02365592
47	0x3e06c814	0.13162261
48	0x3d82e834	0.063919455
49	0x3df6ecfc	0.1205692
50	0xbd410391	-0.04712254
51	0x3eacfd33	0.33786926
52	0xbbcaf263	-0.0061934455
53	0xae6537e3	-5.211821e-11
54	0xa10ec28c	-4.836895e-19
55	0xbd967858	-0.073471725
56	0xb4a91d13	-3.1499857e-07
57	0xbd57f762	-0.052726157
58	0x3e6ec051	0.2331555
59	0xb71eadf9	-9.45804e-06
60	0x3f091bc6	0.53558004
61	0x3dca925f	0.09891199
62	0x3ea58d0a	0.32334167
63	0xbcd9d904	-0.026592739
64	0x3dccc67f	0.099987976
65	0x3dd175ba	0.10227533
66	0x3e9670c1	0.293829
67	0xbc98be5a	-0.018645454
68	0x3cb2f2e8	0.021844342
69	0xb8f9fde9	-0.0001192054
70	0x3e77e9f5	0.24210341
71	0x3e733f19	0.23754539
72	0xa6b88b64	-1.2805347e-15
73	0xbc513a84	-0.012770299
74	0x3e63786e	0.22213909
75	0xbccd1085	-0.025032291
76	0xbcf110eb	-0.029427012
77	0xbed13c56	-0.40866345
78	0xbc7a1905	-0.015264754
79	0x3da5abff	0.08089446
80	0x3c6aa539	0.014321619
81	0x3d86b577	0.065775804
82	0xa536e451	-1.586334e-16
83	0x3d9d659e	0.076853976
84	0xaf8bb361	-2.541141e-10
85	0x3ed2f4f3	0.41202506
86	0xbcb1c844	-0.02170194
87	0xbd1458b8	-0.03621742
88	0x3e121a6b	0.1426789
89	0x3dd6a8ec	0.10481438
90	0x3ea15aef	0.3151469
91	0xbcc77301	-0.02434683
92	0xbd3a1030	-0.045425594
93	0x3d81182d	0.06303439
94	0x3e91c680	0.28471756
95	0xbda72aac	-0.08162436
96	0x089eae54	9.550263e-34
97	0x398d0927	0.00026900435
98	0x3c27c3c2	0.010239543
99	0xbbccbece	-0.0062483316
100	0x3e83438a	0.25637466
101	0xb186b7e5	-3.9208197e-09
102	0xbec8ac37	-0.3919389
103	0xbcd74f8b	-0.026283046
104	0xbaf29a93	-0.0018509201
105	0x3e034463	0.12819056
106	0x3e4b76b7	0.19869505
107	0xbbc1100c	-0.0058918055
108	0xb2f641cb	-2.8668088e-08
109	0x3e6ae598	0.22939146
110	0x3df27978	0.118395746
111	0xba2dce92	-0.00066302076
112	0x3ecff849	0.40619114
113	0x3d0620d7	0.032746162
114	0xbc2f041f	-0.010682135
115	0xb522ebef	-6.069303e-07
116	0x3eb1aff3	0.3470455
117	0x3d7f21d7	0.06228813
118	0x3e6fcc5b	0.23417799
119	0xac8a1028	-3.9239896e-12
120	0xbd02723d	-0.031847227
121	0xbecf0a4b	-0.4043754
122	0x3e9d480a	0.30719024
123	0x3e5389ca	0.20658031
124	0xbd107e34	-0.035276607
125	0x3df4dafe	0.11955832
126	0x3e7d6a0e	0.24747488
127	0x3e167636	0.14693531
