yeeef_workspace/ckpt/e0030.pt (torch_old, 882114 bytes, 16 tensors)

_encoder.0.weight f4 [128, 784]
00000000: 0cd5 8cbd faef 89bd 406f 72bd d893 76bd
00000010: 83a7 64bd 487d 62bd bc06 13bd 0fa9 78bc
00000020: 6bed c8bc 8bab 3a3c cbb4 093d b4d7 113d
00000030: 1efb 38bb f331 683c 2101 193d 420f bb3d
00000040: 10e7 a23d 8a0e b73d 8b3c 253d a530 7b3b
00000050: 5356 46bd bd20 6cbd f32b 6fbd 39c7 79bd
00000060: 746a 6abd 60d7 76bd ccb5 77bd 33a0 82bd
00000070: 3e14 8cbd cf41 7bbd 8fb9 49bd 12e7 0cbd
00000080: f4b8 b9bc f01a a53c 1aa1 063e 9327 0a3e
00000090: 7edb 193e 55dd 073e f16b 093e a81f 413e
000000a0: 5236 3a3e f05c 133e 33de 993d 3ece 4f3d
000000b0: 747e 9a3d 9839 3f3e 9bd7 543e 507a 413e
000000c0: 2ac1 033e 6ce1 a13d 6cb2 b8bc 0e4e 5cbd
000000d0: 72ce 53bd 1a30 79bd 8aa3 39bd 014f 6dbd
000000e0: 7be4 8bbd 376e 5fbd 72ee bcbc b8db 303c
000000f0: 268a 5d3d 4fcc 313e c531 563e 6daf 413e
00000100: 7c5f 303e 6f2a 1e3e e293 003e b3d6 a53d
00000110: 18d9 813d c95a 8d3d 6146 653d 3725 193d
00000120: ae53 a83c 1fc3 913d cecd a03d 8b8d 183e
00000130: 8715 3a3e f192 373e fbd9 363e df4c f3bc
00000140: 5ef9 20bd a8da bebc fa2d f5bc a3de 70bd
00000150: 00b3 8ebd d84a 15bd 0c2b 05bc 77b5 b43c
00000160: adf3 0f3e 0a98 333e 7df7 f43d eae6 493e
00000170: a4a8 5a3e 54d8 713e d1fb 253e 4071 823d
00000180: 8f92 023d 752f 893d f7b7 c43d f89d 993d
00000190: 58b3 233d e9af 073d 94a2 dc3d e1c3 fb3d
000001a0: 3562 e73d c2cb 8f3e 7ef9 803e ac87 5a3d
000001b0: 7dbe 14bd 9c5b 19bd cdf1 eabc 26a8 59bd
000001c0: 8633 85bd 858d 35bc 3ef8 04bc 5b88 933c
000001d0: 2c55 c03d c9a3 9c3d 9340 d53d 9861 063e
000001e0: beae 053e e976 ac3d 2fae e73b d266 453d
000001f0: fc84 783c 4be5 543d d425 173e c4f6 843d
00000200: a26f ff3c 09b1 333c 06ef ff3c a0ad 3d3d
00000210: 53cd 753c 9ba4 023e ccb0 913e c3b6 2d3e
00000220: c0dc 78bd 7f8c 65bd 611f 8a3b 647f c6bc
00000230: f149 87bd 7cbd 4fbc bab7 933c b658 273d
00000240: cb57 0d3d 07dc 673d a316 4a3e a8b7 f23d
00000250: b8cc 253c 047a 883c c973 69bd e75d 2abd
00000260: 03fc e3ba 7fff d73d 09fe e33d b4de 753d
00000270: 6932 49bd 4c01 a8bd 8ca9 1fbd 1b98 32bc
00000280: f7b7 08bd c777 233d 6130 233e 4481 0e3e
00000290: 2940 a53a 149b 863c 35af 583b 0563 f9bc
000002a0: 7617 83bd 740d 6ebc 19fa 233c 8af2 95bb
000002b0: 3a43 813c a1a9 c93d 74ed 223e 1dc5 533d
000002c0: 1865 e23c b9f0 123d 4198 d9bc 6b16 9b3c
000002d0: 93a8 2a3d 7700 693d de00 313d be2a 0b3d
000002e0: d8f3 ed3c a8ee c1bc 07f4 38bd 7d0f 94bc
000002f0: f683 0cbd f216 a6bc 9748 013e 8520 873d
00000300: 4b7d 97bc 0e9f c03c 0132 073c 2f5d 05bd
00000310: a007 4dbd 819b 49bc 532d b2bc b9b4 32bc
00000320: 2b3d 523c 8ab6 043e 84a4 e13d 9e9e 323d
00000330: a684 c7bc 7e2e 9d3c 14ea a3bc fbd2 25bc
00000340: b10b 0a3d 8d64 4c3d d6bc ec3c 81de 2dbc
00000350: 589a 053d 9d7b 8bb9 185a 5fbd ce27 b6bb
00000360: 1f4d 1dbd 297d d5bb 0c14 c63d 3bab 663d
00000370: 2e67 56bd ac64 1bbd 8e79 18bd ecfc 03bd
00000380: e9ed 41bd 2cd8 18bd 7195 8cbd 72ed eebc
00000390: 3ab7 323c befe e73d c01c 073e 6eb6 a63d
000003a0: 873d 4b3d 606f 563d 1a4c 06bd 3a04 b0bc
000003b0: a95c d9bc d54f 8dba 11ed 03bd 317e c6bc
000003c0: 6e19 833b a1f7 8ebc acc9 1cbd d729 29bd
000003d0: 0c99 b43a e3b4 ca3b 02d5 8c3d 1b32 1d3e
000003e0: c60f 53bd 6ff3 b2bd 3622 83bc efaf 01bd
000003f0: 105f 2cbd cc14 46bd 2dee afbd a9ea 77bb
-0.06876573 -0.06735225 -0.059188128 -0.06019959 -0.055823814 -0.05529526 -0.035895094 -0.015177025
-0.024527272 0.011393438 0.033619683 0.0356061 -0.002822585 0.014172065 0.037354592 0.091337696
0.07954228 0.0893832 0.04034094 0.0038328555 -0.04842217 -0.05764841 -0.058391523 -0.06098101
-0.057230428 -0.06026399 -0.06047611 -0.06378212 -0.068397984 -0.061342057 -0.049249228 -0.034400053
-0.0226712 0.020154446 0.13147393 0.13491659 0.15025136 0.13268025 0.13420083 0.18859732
0.18184784 0.14390922 0.07513084 0.050733797 0.0754365 0.18674314 0.20785372 0.18894315
0.12866655 0.07904324 -0.022546016 -0.053785376 -0.051710553 -0.06083689 -0.04532198 -0.057936672
-0.068306886 -0.05454847 -0.023062918 0.0107945725 0.054086827 0.17363094 0.20917423 0.18914576
0.17223924 0.15445875 0.12556413 0.08097591 0.063402355 0.069020815 0.05597532 0.037389006
0.020547714 0.071172945 0.07851754 0.14897744 0.18172275 0.17927147 0.1785659 -0.029699741
-0.039300315 -0.023297623 -0.02992915 -0.058806073 -0.06967735 -0.03644833 -0.008127939 0.022059185
0.14057799 0.17538467 0.11961267 0.19716993 0.21353394 0.23617679 0.16209342 0.06369257
0.03187805 0.06698505 0.09605401 0.07500833 0.039965957 0.033126745 0.10773197 0.1229322
0.112980284 0.28085142 0.25190347 0.053352043 -0.036314476 -0.03744088 -0.028679753 -0.053138874
-0.06503968 -0.011081104 -0.008115826 0.018009355 0.09391245 0.07648427 0.10412707 0.13123167
0.1305494 0.08421118 0.007070325 0.04819376 0.015168425 0.051976483 0.14760524 0.06492379
0.03118116 0.010967501 0.031241905 0.04630816 0.015002566 0.12758105 0.28455198 0.1696425
-0.0607574 -0.05604219 0.0042151664 -0.024230666 -0.066059 -0.012679454 0.018031944 0.040856086
0.034507554 0.05660632 0.19735198 0.11851436 0.01011961 0.016659744 -0.056995187 -0.04159346
-0.0017393831 0.10546779 0.11132438 0.06002684 -0.04912034 -0.08203372 -0.038980052 -0.010900523
-0.033378568 0.03990915 0.15936424 0.13916498 0.0012607622 0.016431369 0.0033063416 -0.030442724
-0.06400959 -0.014529575 0.010008358 -0.004576032 0.015779126 0.09846807 0.15910894 0.051701654
0.027636096 0.035874102 -0.026561858 0.018931588 0.04166467 0.05688521 0.043213718 0.03397631
0.029046938 -0.02367337 -0.045154598 -0.018073792 -0.034305535 -0.020274613 0.12625347 0.065979995
-0.018492362 0.023513343 0.008251668 -0.03255957 -0.0500561 -0.012305141 -0.021750128 -0.010907345
0.012831966 0.12960258 0.11017707 0.0436083 -0.024355244 0.019187208 -0.020009078 -0.010121102
0.033702556 0.04990058 0.028898638 -0.010612131 0.032617897 -0.00026604245 -0.05452928 -0.0055589443
-0.038403627 -0.0065151644 0.096717924 0.05631564 -0.052344494 -0.037937805 -0.0372253 -0.032223627
-0.04734603 -0.037315533 -0.06864441 -0.029165957 0.010907942 0.11327885 0.13194561 0.081402645
0.049619224 0.05235231 -0.03278742 -0.02148639 -0.026533442 -0.0010781238 -0.032208506 -0.024230095
0.004000834 -0.017452063 -0.038278267 -0.041299667 0.0013778522 0.006186114 0.068765655 0.15351145
-0.051528715 -0.087378375 -0.016007524 -0.031661924 -0.042082846 -0.048359677 -0.0859035 -0.0037829077

_encoder.0.bias f4 [128]
00000000: 1ad5 8c3d 63bd a93c a4cc 09bd 7cfb bebb
00000010: 8742 3abe e1e2 17bd 46d8 51bd 381a 10be
00000020: e899 a1bc 2ce3 8cbc b8a3 d8bb 0093 5fb4
00000030: 6a96 5d9d 7388 e3bc 2f33 263b 7350 41b9
00000040: f748 febb 17ef 053d e00a 0abd 32ac 84bb
00000050: db89 61aa 82a1 0ebd a0b7 17be 5506 7abc
00000060: bb46 06bd 0115 0cbd 9072 94bd 483a 2cbd
00000070: 6079 00bd 765b 483d a946 e3bc 0f70 283d
00000080: d0aa fabb 7f43 88bc a6d4 163e 6cc7 13be
00000090: b1f1 eebc f479 cb8d 3fa8 813d 0827 ccbc
000000a0: bcc6 fdb8 8c5f a7a1 938e 1cbc c7d6 29bd
000000b0: 0e08 83bc b403 9fbb c621 9cbc 2177 2fbd
000000c0: 1e92 8e3c 6d93 8db9 1519 83bb 0545 a73e
000000d0: e0a2 f3bc 3553 63bd 8efd f8bc 8b75 19be
000000e0: c040 4bbd f6b2 c1bc e5ab 20bd 2297 3ebc
000000f0: 1300 a2bc 738e 45be ce47 7bbc 9422 bebc
00000100: f938 89bc 99e0 dbbc 3d79 c6b7 807b a6bc
00000110: d213 1cbe 0446 38bb a85e 3dbc 7581 463c
00000120: 68c9 20bd 41ce 8c3c f310 a4bc 5624 dcbd
00000130: 63c4 64bd 607c 12be 8792 1dbd f276 1cbe
00000140: f6da a9bd 5bdf 60bd 37bd 9bbd bad2 30bc
00000150: eb10 e23b bc77 c4b6 bb25 afbc 767f cca0
00000160: b3ee d9bd 7c95 8fbd e3a6 acbd ec62 41bd
00000170: 9e01 1abe 8c52 a1bd 3e37 5abc cda5 143d
00000180: c76b a43d 0a5a 11bd ce80 0cbd 28d2 fbbc
00000190: 7340 0fbd 1c73 67bd 202e 82bb 7045 373d
000001a0: 359f febc 17bd f8bc 1732 bfb9 0677 0abb
000001b0: efc9 30bd f739 b9bb 83a4 b2bd 13bc bca3
000001c0: f1e1 10bd 709b 383b f5e4 d3bc 14c6 43bc
000001d0: 5c4b 16b3 b23a ac9e 9410 10b3 7ffc 01bb
000001e0: 1141 a9bc 0003 5fb2 8322 2bbe 198e 53a5
000001f0: c713 2bbd cc2f 2fbc dbd3 83bb e25e 1abd
0.068765834 0.02072019 -0.033642426 -0.005828319 -0.1818944 -0.037081603 -0.051231645 -0.14072502
-0.019726709 -0.017198168 -0.0066113137 -2.0821972e-07 -2.9326869e-21 -0.027775025 0.0025360098 -0.00018435884
-0.007760163 0.032698717 -0.033701777 -0.0040488476 -2.0031843e-13 -0.034821995 -0.14816141 -0.015260299
-0.032782298 -0.03419972 -0.072484136 -0.04204777 -0.031365752 0.04891535 -0.027743654 0.041122492
-0.007649757 -0.016633747 0.14729556 -0.14431542 -0.029167982 -1.25402e-30 0.063309185 -0.024920955
-0.00012100997 -1.1341651e-18 -0.009555477 -0.041464593 -0.015995052 -0.0048527364 -0.019059073 -0.04283822
0.017403658 -0.00027003456 -0.0040007927 0.32669845 -0.02974075 -0.055499274 -0.030394342 -0.14986245
-0.049622297 -0.023644906 -0.03922643 -0.011632713 -0.019775426 -0.19292621 -0.015336944 -0.023209848
-0.0167508 -0.026840495 -2.3659895e-05 -0.020322561 -0.15241936 -0.0028117904 -0.011558212 0.012115826
-0.039254576 0.017188193 -0.020027613 -0.10749118 -0.05585135 -0.14305258 -0.038469817 -0.15279749
-0.082937166 -0.05490051 -0.07604449 -0.010792429 0.0068989894 -5.855194e-06 -0.021380296 -3.464329e-19
-0.106412314 -0.07010934 -0.084302686 -0.04721348 -0.1503968 -0.07877073 -0.013318835 0.036290932
0.080283694 -0.03548626 -0.034302525 -0.030739859 -0.034973573 -0.05650626 -0.0039727837 0.044743955
-0.031081775 -0.030363603 -0.0003646768 -0.0021128072 -0.04316133 -0.005652662 -0.08722784 -2.0462653e-17
-0.035371725 0.002816882 -0.025866011 -0.011949081 -3.4993136e-08 -1.8235484e-20 -3.354269e-08 -0.0019834337
-0.020660909 -1.29809905e-08 -0.16712384 -1.8349477e-16 -0.041766908 -0.010692548 -0.004023058 -0.037688144

_encoder.2.weight f4 [64, 128]
00000000: fee7 7c3d 7ea7 2bbe 6d2c 3b3d 6fed 533d
00000010: 6d87 cbbd 5f36 66bc 227a 8ebd acf0 52be
00000020: 595a 91bd e918 bc3b 0199 c73d ecfd 599f
00000030: b907 9c39 886a 6c3c e023 aabd e68c f23a
00000040: 247b abbc 9320 56be e7a7 f4bc 5607 f63b
00000050: 06a6 012f 2deb 803c 66ae 9d3d 067f abbc
00000060: cd73 38bd ab3a 8cbc 57d7 803e 06d3 27bd
00000070: 4ccb 6abc fac5 90bd 68f6 aa3c d00c 9bbd
00000080: ece2 35bd 989b d0bc 64ba d23d 4a8c 7ebd
00000090: 0409 94bc 9fa4 c9ba 9c57 eb3c 7b01 d03c
000000a0: 1611 3e3c a082 4b37 6dba 38b9 69f7 29bc
000000b0: 60f8 cabc 224c 2b3d f605 f1bb 4050 9fbd
000000c0: 650f 08bf d4ba 5ebb e283 e7bc d4a6 69bf
000000d0: 9731 19bc 7075 cfbc 34c8 093d a5ad 773e
000000e0: 5514 d13d 46b4 43bd 2274 17bc 8ee8 fa3c
000000f0: eda0 7fbd 7143 62bd 00db 763b f755 e8bc
00000100: 31f4 b9bc 2289 d83d 5f8d 0ebc 12c4 7d3d
00000110: 99fe 96bd 11c0 44ba 017e 0e3c 5ab2 7e3d
00000120: b6cf b93b da2a 10bd a291 803d aba9 c6bc
00000130: 9943 adbd 2268 bc3c 0ebd 233d e76b d0bd
00000140: 89f3 d53c 7692 0bbd 515d 08be e6b9 4cbd
00000150: 998c 633d 709f 013a 7ace 8fbb d553 642d
00000160: b30e 51be 29de 3d3e 5aa5 00be 58ab e7bc
00000170: d1f2 0abe eee1 893e a65e a2bc e4f9 4c3e
00000180: 5c21 013e 87c4 013e 8ff0 633c 50ff a03c
00000190: 71ff 573b 377a f0bd c9f9 5d3c b9b6 483c
000001a0: 91aa adbc c95f 53bc 4429 a43b a7c4 8dbd
000001b0: 4e46 66bc 7482 30bb 6000 e23e 009c 54b3
000001c0: f9f3 c03d f444 0bbe 0044 bdbd 2424 ac3b
000001d0: 4a46 58bb f146 1d34 61c2 6080 eed3 053c
000001e0: d6a6 adbd 702c ff3c 95c6 fbbc 1b0a 11b8
000001f0: ed1c edbc 7e70 203d 6588 d13c cdfc 27bb
00000200: 491b dd3c dc9a c03c 0953 9cbd 1809 c93d
00000210: 11fa aebe 4fa8 303d a646 5d3b c67f b9bd
00000220: 61b9 92bc 3a82 5dbb e2e8 f73d dac6 b9ba
00000230: fd9e 5b39 8a65 6d3c 748b 40bd b7bb b63b
00000240: 6289 20bb e57d 3abe 92d3 87bd fbed 9139
00000250: f082 2c11 5a19 21bd 6962 3f3a 23b8 beb9
00000260: c18c b63c 4b58 4abc b806 143e f180 d13b
00000270: dab5 37bd b73d c23d 4629 14bb 6380 d13c
00000280: b27b 85bd 816b 41bd bf60 253e 4318 1ebe
00000290: 9fbc fa3b 1ee4 80ba a887 da3c 3733 84bb
000002a0: 50bf 84bb f28b c0b8 917b fb23 cc44 f1bb
000002b0: ed0c 0c3d c7b7 70bc a5f4 efbc cca8 4b3d
000002c0: e231 fabe 858a 903b 8bfd f9bc ac84 51bf
000002d0: 7b40 ea3b f420 8f3d 3c72 2bbd a73e 7d3e
000002e0: 3e56 e23d b798 50bd 8786 32bd 4381 6e3c
000002f0: 6fd6 dfbd 1033 31be a159 b03c 277d f33c
00000300: c58b 13bc 6317 8b3b 013e c4b9 2d09 b0bc
00000310: 88d1 86be d702 d3bb 7ac7 4c3c 44cf b3bd
00000320: fae5 353c 7162 573c cca9 4abd 0fcf 86be
00000330: 7a54 4a3d 9f95 c63e 1b39 253d 38e3 e6bd
00000340: cab7 afbd 3d10 8ebc 62dd 593e 4eb4 58bd
00000350: cd15 01bd 6a07 efb9 ba5e 4a3c fa1f 8e32
00000360: 1588 003d 9aad 303d ab0a 45be fa70 463c
00000370: 05c4 aabd fab4 9abd c017 30bc 21e9 313e
00000380: 251d 1f3e 5d2a be3c 2cb0 34bc 62db 05bc
00000390: 3dfe 50bd 4c30 d23e d63c 8e3c eaa2 b13d
000003a0: 5825 623b 9e8b 2e3a 2016 57bb c17d d53b
000003b0: 8342 2dbd 8c9d 1a3c 13f9 e43e fa45 0835
000003c0: cd9c aa3c ccf2 76bb 4bf1 26bd ad0a 113b
000003d0: 1e5b 1a3a dee4 2636 59a5 0681 9baa 193d
000003e0: 2fda 5abe 0fa5 023d 68c7 d63e e14b 89b9
000003f0: d5a0 45bd 8f79 cfbc effa d0bd 9a79 263d
0.061744682 -0.16763112 0.045696665 0.051740106 -0.0993794 -0.014051049 -0.06956889 -0.20599622
-0.070973106 0.005740274 0.0974598 -4.6161577e-20 0.00029760392 0.014429696 -0.08307624 0.0018505126
-0.020932741 -0.20910864 -0.029865218 0.0075081987 1.1791465e-10 0.01573714 0.076992795 -0.020934593
-0.04503231 -0.017117819 0.2516429 -0.040972732 -0.014330696 -0.07069011 0.020869449 -0.07570803
-0.044405863 -0.025464818 0.102894574 -0.06214551 -0.018070705 -0.0015384144 0.028728299 0.025391331
0.011600753 1.2130156e-05 -0.00017617056 -0.010373929 -0.024776638 0.041820653 -0.007355447 -0.07778978
-0.5314849 -0.003398587 -0.028261129 -0.91270185 -0.009350202 -0.025324553 0.033638194 0.24187334
0.10208956 -0.047779344 -0.009243997 0.030628469 -0.06240933 -0.0552401 0.0037667155 -0.028361304
-0.022699447 0.10573031 -0.008700698 0.061954565 -0.073727794 -0.0007505427 0.008697034 0.062181808
0.005670513 -0.035197116 0.06277777 -0.024250826 -0.08460159 0.022998873 0.03997522 -0.10176831
0.026117103 -0.034075223 -0.13316847 -0.049981974 0.055554006 0.00049447175 -0.0043886276 1.2978914e-11
-0.20415764 0.18541779 -0.12563077 -0.028279945 -0.1356919 0.26930183 -0.019820523 0.200172
0.12610382 0.12672625 0.013912334 0.019652992 0.0032958651 -0.11742061 0.013548323 0.012250596
-0.021199496 -0.012901255 0.005009802 -0.06922274 -0.014054848 -0.0026933225 0.4414091 -4.9501978e-08
0.09421534 -0.13600522 -0.092414856 0.0052533317 -0.003300088 1.4647573e-07 -8.885938e-39 0.008168204
-0.08479087 0.03114912 -0.03073434 -3.4580105e-05 -0.028944457 0.03916978 0.025577733 -0.0025632859
0.02699055 0.023511343 -0.07633025 0.098161876 -0.3417516 0.04312926 0.0033764034 -0.09057574
-0.017910661 -0.0033799545 0.12104966 -0.0014173642 0.00020944695 0.014489541 -0.047007993 0.0055765766
-0.002449595 -0.18212087 -0.06632151 0.00027833864 1.3608756e-28 -0.039330818 0.0007300736 -0.00036376817
0.022283914 -0.012350152 0.14455688 0.006393545 -0.04485116 0.094844274 -0.0022607609 0.025573915
-0.06517734 -0.047221664 0.16150187 -0.15438943 0.00765188 -0.0009833609 0.026676014 -0.0040344256
-0.0040511265 -9.18134e-05 2.7265807e-17 -0.0073629376 0.034192014 -0.014692253 -0.02929146 0.049721524
-0.48866183 0.004411044 -0.030516407 -0.81843066 0.0071488 0.06988707 -0.04185699 0.24730931
0.11051606 -0.05092689 -0.043585327 0.014557186 -0.10929572 -0.17304635 0.021527113 0.029722763
-0.009005492 0.0042447313 -0.0003743023 -0.02148875 -0.26331735 -0.0064395475 0.012498731 -0.08779767
0.011102194 0.013146029 -0.049478337 -0.26329848 0.04939697 0.38786027 0.040337663 -0.11273807
-0.08579977 -0.017341727 0.21275857 -0.052906327 -0.03151493 -0.00045591156 0.012351686 1.6545517e-08
0.031379778 0.04313431 -0.19242351 0.012111897 -0.08338169 -0.0755405 -0.01074785 0.17374088
0.15538462 0.02321356 -0.011028331 -0.008169981 -0.05102371 0.41052473 0.017362993 0.086736515
0.0034507122 0.0006658378 -0.0032819584 0.006515235 -0.04229976 0.009436976 0.4472128 5.076578e-07
0.020826722 -0.003768134 -0.04075746 0.0022131607 0.00058882113 2.4869146e-06 -2.4730544e-38 0.037516218
-0.21372293 0.031895693 0.4194901 -0.0002618721 -0.048249085 -0.025326518 -0.10204112 0.040643312

_encoder.2.bias f4 [64]
00000000: 5027 023d 5023 7a3e 2f19 cb3e 60c9 7abd
00000010: 04b1 bdbd b8ba 9c3d f69b 2abe 98c3 0ebe
00000020: b4c0 e53e 391d 883e 0de3 81bd 7fd9 b6bc
00000030: 68ca 0bbe a577 17bd eb9a 8e9c 672f 663d
00000040: 244e fbb8 213d acbd e9f1 2bbd 4b54 b73b
00000050: d16c 8dbd c3f8 83be d45f bcbd d3a3 79bd
00000060: d2fb 2800 3e2b f53c 1654 39be 1b2a cb3d
00000070: b063 233c c2b0 f4bc 1c6d bb99 0ad4 703d
00000080: f529 24b6 7e48 2dbd 27a3 9abc aaf5 13bd
00000090: bc0e 78bd 5a44 e33d 86bd 34bd a2cf 92bd
000000a0: 99fc d6bc e8cf 843e c1ed 9ebc 4e9b 4800
000000b0: 8940 5ead 94f6 07be 964d f6bc 23b1 85bd
000000c0: 411b 2a3e 41ff 2f3e c485 ed3e fd03 8e81
000000d0: 01dd 9abe 7b70 0b3e 1a1d 41bd a0bb 903c
000000e0: 51fa c9bd 8620 983e 06f8 32be 7c5f c7bd
000000f0: 4627 0fbd bd27 89bc b533 993e 9478 91b9
0.031775773 0.24427533 0.3966765 -0.061227202 -0.09262279 0.07652801 -0.16661057 -0.139418
0.44873583 0.26584795 -0.063421346 -0.022320507 -0.1365143 -0.036979336 -9.436817e-22 0.05619755
-0.000119831675 -0.08410097 -0.04197875 0.0055947653 -0.06905521 -0.25775728 -0.09197965 -0.06094725
3.763756e-39 0.029927846 -0.18098482 0.0992014 0.009972498 -0.029869441 -1.9379416e-23 0.058795966
-2.4462327e-06 -0.042305462 -0.018876625 -0.036122955 -0.060560927 0.110970214 -0.044126056 -0.07168509
-0.026243495 0.2593987 -0.01940048 6.667869e-39 -1.2633569e-11 -0.13277656 -0.030066293 -0.06527927
0.16611959 0.17187215 0.46391118 -5.2168285e-38 -0.30246738 0.13617127 -0.047146894 0.017667592
-0.09862197 0.29712313 -0.17477426 -0.09735009 -0.034949563 -0.016742582 0.29922262 -0.00027746393

_encoder.4.weight f4 [12, 64]
00000000: e27d c43c 95f3 34be f399 09be ec27 b23e
00000010: 19fc d1bd ef61 4abd 5d65 8abe 879b 133c
00000020: 62f3 15bb cf22 a0be 1d73 bdbd 28ab 96ba
00000030: 8e57 54bd d94a c3bc a4f2 223b 36d1 8a3e
00000040: 58ec 853a c455 cfbd 1c56 253e 323d 4ebd
00000050: e322 4fbc 5aab 32be d5b2 f33c d95b aebd
00000060: 4ada 0801 a958 4c3e 963d 043e 18cc 51be
00000070: 13b9 2d3d 6672 59bd b12c 962f 6733 c73d
00000080: a43c 3bbb 644f d13c bb35 d43d 18a1 133c
00000090: 58b6 55bc 9a79 593e f5de 04be da7e 863e
000000a0: cef2 6d3d acd1 303e 13d4 74be ae61 aa39
000000b0: 2504 fc35 d1f5 243d 1834 76bc b8c9 ddbd
000000c0: d9b6 93bc 9a80 183e 7355 3f3b 1ddd c800
000000d0: bf43 99bd ee02 523c 74cf 9f3d 1369 2cbe
000000e0: c2f8 fbbd 7ce1 2d3c ccdc 56be 14dd 67be
000000f0: e07d d5bb 17a8 5abc a137 0abe d1a8 a6bc
00000100: e6a8 1bbe 5dc8 e3bd 6672 a5bd 8f50 a0bd
00000110: 37ab 8d3e e3dc 29bd 8807 d0b8 f144 9cbe
00000120: 8b28 183e e5a3 0dbf 2aa2 92bd 354f 2abd
00000130: 67d2 b9bd 99c9 99bc 3513 eb3b f1cb 57be
00000140: 54d5 c1bc 977e c0bb 84aa 2ebe 457c 4dbe
00000150: baee de3c 9780 a1be 1be7 7d3e c3af bcbd
00000160: a937 b088 a710 343e 7184 c53e 2394 68be
00000170: 63fd fcbd aa02 c23c 5b93 8e3b 50ac 78bd
00000180: a1a1 f800 8f79 dfbd 5cf9 2cbe 49c8 dfbc
00000190: af66 5abd 39b0 5bbe 5242 8ebd ea89 2bbe
000001a0: b500 7bbe 56ff 9cbe b879 2cbd 5b64 983b
000001b0: 4413 3e3a 38dc c0bd a314 813d 9d03 3abe
000001c0: d7da d8be 9eed b0be 7a37 29bf 58f2 f82b
000001d0: 12cd 893d c9ec 2abf 38cd 1bbe a051 e9bd
000001e0: 07e2 813e e534 bb3b abdb a03c 8534 f5bd
000001f0: 7e5f f9bc 8752 10bc 2624 c53d ca8e 8a3b
00000200: d534 90bd 6545 503e 4bad 0fbe b283 383e
00000210: df1a 92bd d7b2 5c3d 985a f0be 4c9b 123e
00000220: 8d28 9bbe d43f 823c c65e 253d f636 16bd
00000230: ec24 283e c69c a0bc d374 8fb9 eb76 1abd
00000240: 1e4b 59bc c451 1d3e b636 523e e684 5f3d
00000250: c5cd 633e d461 163e 0499 39bd 0e74 1dbd
00000260: ac88 ca17 7582 85be 8069 adbd 173d c93d
00000270: c6a5 603d 285a 8bbd c0f5 c3b7 ec01 a8bd
00000280: 3f0a cbbc 683d 70be c6eb b63e 7264 dcbd
00000290: 8587 b73c 0b69 8cbe 2c24 0ebe e80d b3bd
000002a0: a54f 743e 1ebb aabd 90ce 3abd 6ff9 32ab
000002b0: 51e7 10ba e63e c43e 9fbc 0a3c faee 3abb
000002c0: 264e 8a3d 5c6d b03d 4f64 86be 7d0c a801
000002d0: 4c2b 74bd 8399 993d 0bb5 31bd 9be6 1f3c
000002e0: 3ebe f93d 252d 5bbd 7ff4 2dbb acf3 ef3e
000002f0: ab43 8fbd 7446 91bc 733a a6ba b760 3b3b
00000300: 3f31 0bbc b1c7 2dbc 2eb4 c23a 1ac3 b7ba
00000310: 7d7c 5290 4d88 86b2 32c6 2601 eef9 6034
00000320: 42d6 bbbc 5130 8cbb 4bcf 8eba b96b 4180
00000330: bc9a 2abb 18ba 1601 bb93 4280 5151 2bbc
00000340: 605c 1181 5fdf 51b7 731d a881 1ce1 b108
00000350: cd89 36b6 4e82 b2bb 861a e4bb 2251 8580
00000360: 6880 b980 bc19 d287 7208 3e80 5196 07bc
00000370: 3d55 1db6 f009 4a80 659b ac01 fa2a 34bc
00000380: eef0 0781 16ee 9cae 4a18 99ba 9459 33bc
00000390: d44e 4600 3ea1 95bb 9843 49bb 574f 9abb
000003a0: cf38 5bae e89f 83bb ccd3 0bba 5106 6801
000003b0: 8a63 1d81 eae1 6581 289c 6201 0a18 6f01
000003c0: 45c1 53bc 8e9e cbbb d1bf 23bc 0c4a 9481
000003d0: 93d1 d4bc cfa6 6abc 3c76 1d80 a2a3 66b8
000003e0: 3a43 19b5 fccd aebc 9909 4fb7 2ff3 94ba
000003f0: be0b 0781 fa1d 6801 d855 cdbb 513b a500
0.023985807 -0.17671044 -0.13437633 0.34796083 -0.10253162 -0.049409803 -0.2703046 0.009009249
-0.0022880663 -0.31276557 -0.09250472 -0.00114951 -0.05184131 -0.023839401 0.0024863863 0.2711274
0.0010217531 -0.1012378 0.1614613 -0.05035133 -0.012642595 -0.17448178 0.02974836 -0.08513612
2.513587e-38 0.19955696 0.12914118 -0.20488012 0.04241283 -0.053087614 2.7316596e-10 0.09726601
-0.002857008 0.025550552 0.10361811 0.009010576 -0.013043962 0.21237794 -0.12975676 0.26268655
0.058092885 0.17267483 -0.23909025 0.00032497704 1.8776669e-06 0.04027349 -0.015027069 -0.108294904
-0.018031524 0.14892808 0.0029195219 1.844642e-38 -0.07483625 0.012818081 0.078032404 -0.16836958
-0.12303306 0.010612842 -0.20982665 -0.22642928 -0.0065152496 -0.01334574 -0.13497783 -0.02034417
-0.15201148 -0.11122201 -0.080784604 -0.07827865 0.2766969 -0.04147042 -9.919616e-05 -0.30521348
0.14859216 -0.5532821 -0.071598366 -0.041579444 -0.09073334 -0.018772887 0.0071739205 -0.21073891
-0.023661293 -0.0058744657 -0.17057234 -0.20066936 0.027213443 -0.3154342 0.24795191 -0.092132114
-1.06057e-33 0.17584477 0.38577607 -0.2271276 -0.12353017 0.023682911 0.0043510622 -0.060711205
2.2833185e-38 -0.10911857 -0.16891998 -0.027317183 -0.053320583 -0.21453942 -0.06946243 -0.16751829
-0.24511988 -0.30663556 -0.042108268 0.004650635 0.00072507956 -0.094170034 0.06302764 -0.18165441
-0.42354462 -0.34556288 -0.66100276 1.7688724e-12 0.06728567 -0.66767555 -0.15215003 -0.11392522
0.25367758 0.0057130926 0.019635996 -0.11972908 -0.030441042 -0.008808739 0.096260354 0.0042284476
-0.07041327 0.20338972 -0.1403095 0.18018988 -0.071340315 0.053881492 -0.46944118 0.14317054
-0.30304375 0.015899576 0.040373586 -0.03667351 0.16420335 -0.019606005 -0.00027362126 -0.037711065
-0.013262538 0.15363222 0.20528683 0.0545701 0.22246464 0.14685756 -0.045311943 -0.038440756
1.3088445e-24 -0.26076093 -0.08467388 0.09826105 0.054845594 -0.06804305 -2.3360248e-05 -0.082034916
-0.02478516 -0.23460925 0.35726756 -0.10761346 0.022403488 -0.2742389 -0.13880986 -0.08742887
0.23858507 -0.08336471 -0.04560715 -6.358446e-13 -0.0005527633 0.38329238 0.008467822 -0.0028523789
0.06753187 0.08614609 -0.26248404 6.1731373e-38 -0.059611604 0.07499983 -0.043385547 0.0097595705
0.12194489 -0.05350985 -0.0026543436 0.46865594 -0.069953285 -0.01773379 -0.0012682214 0.0028591582
-0.008495628 -0.010606692 0.0014854723 -0.0014019937 -4.15111e-29 -1.5661636e-08 3.0631583e-38 2.095255e-07
-0.022929315 -0.0042782207 -0.0010895518 -6.007951e-39 -0.002603217 2.7684165e-38 -6.114138e-39 -0.010456399
-2.669857e-38 -1.2509378e-05 -6.175571e-38 1.0705723e-33 -2.7200324e-06 -0.0054476624 -0.0069611697 -1.2243226e-38
-1.703563e-38 -3.1612413e-34 -5.69683e-39 -0.008275584 -2.3444438e-06 -6.799392e-39 6.34058e-38 -0.010996575
-2.4968443e-38 -7.136351e-11 -0.0011680212 -0.01094665 6.456763e-39 -0.0045663407 -0.0030710455 -0.004709165
-4.984529e-11 -0.004016865 -0.00053339894 4.2616202e-38 -2.8907762e-38 -4.2222743e-38 4.162168e-38 4.3914614e-38
-0.012924497 -0.0062139696 -0.009994463 -5.4472866e-38 -0.025978839 -0.014321997 -2.705644e-39 -5.4988668e-05
-5.709477e-07 -0.021338455 -1.2340396e-05 -0.0011363978 -2.4804009e-38 4.2633177e-38 -0.006266337 1.5174136e-38

_encoder.4.bias f4 [12]
00000000: 47e1 1c3e 55cf dd3e d1da 1b3e 86b7 ccba
00000010: b7a7 963d d4fd a63e 8fba f0bd 421d 283e
00000020: d262 553f ed93 393f 6d20 0fbe 462f dc3d
0.15320311 0.43322244 0.1522019 -0.0015618659 0.07356208 0.3261553 -0.11754333 0.16417411
0.8335391 0.7249134 -0.13977213 0.10751204

_encoder.6.weight f4 [2, 12]
00000000: 6516 acbe deb2 d53e 56d5 553c 66bd 5ebc
00000010: f9e5 f2bd 50bd 89be 0e29 223f 815f 34be
00000020: d573 56be b131 c73d ca61 ae3e 9ab6 313e
00000030: 305f 023e 4edc 663d 529d fe3d 528c d23c
00000040: fb21 883e 82aa 253e d582 0fbe d21f 813d
00000050: 3257 9fbd bca0 89be 3335 b33e f67c 4bbe
-0.33610836 0.41738027 0.0130513515 -0.013594961 -0.1186027 -0.26902246 0.63343894 -0.17614557
-0.20942624 0.09726275 0.34058982 0.17354813 0.12731624 0.056362443 0.1243235 0.025701676
0.26588425 0.16178325 -0.14014752 0.06304897 -0.07780303 -0.26880443 0.35001525 -0.19871888

_encoder.6.bias f4 [2]
00000000: 7beb 063e c937 0abe
0.13175766 -0.13497843

_decoder.0.weight f4 [12, 2]
00000000: f643 0b3e e27e 133f abd8 cabe d98b 82bf
00000010: 557d fc3a 5e90 cabb 730b afbd a9b5 f3bd
00000020: 9aa5 f43e 2780 b93e 60fe 423f 8436 f33c
00000030: 6289 ef3d 0d03 873e 7dd8 c5be b1c9 d4bc
00000040: a041 6e3e be4e 23bf a2a6 203d d4f7 5d3d
00000050: d9b9 373f 7dcd a1be 1d98 093f cce5 40be
0.13600144 0.5761548 -0.3961843 -1.0198928 0.0019263426 -0.0061817607 -0.08547106 -0.11899883
0.47782594 0.36230585 0.76169395 0.029689081 0.116961256 0.26369515 -0.3864173 -0.02597508
0.23267221 -0.63792026 0.039221413 0.054191425 0.71767956 -0.31602088 0.5374773 -0.1883766

_decoder.0.bias f4 [12]
00000000: 8f60 82be d8f6 e33e 558f dcbd 8c98 08bf
00000010: 6cb8 d23e c983 54be b1ab d8bf 1aac 6e3e
00000020: d47d 843e d641 aa3f 61ad acbd 3484 ba3e
-0.25464293 0.44524264 -0.10769526 -0.5335777 0.41156328 -0.20753397 -1.6927396 0.23307839
0.2587725 1.3301342 -0.08431507 0.36428988

_decoder.2.weight f4 [64, 12]
00000000: 70f7 38bd d7db 84bb d065 ad80 54f2 4abd
00000010: 74d1 38bd 4266 34bd 0b63 fcbc 25bb 94bc
00000020: bbba 923c 8899 0abd ccc9 8bba 236e 84bc
00000030: 02e1 38aa 5954 1700 dd4f cd80 e893 8d80
00000040: f0bb a6b0 b49b 2eb1 c4a7 899a ec80 d79c
00000050: dd08 7c00 d514 4580 45f8 29ab bf4f b4a4
00000060: a8c6 b83b 9182 e2bd beca 53b5 441d bf3c
00000070: 0afb 20bd 11cf f73e fe8d 62be c34a 95bd
00000080: f444 ba3e cb78 d53d 7cc0 29bf f411 a8be
00000090: 7e5c 58bc 0088 33bc d0ee 2a00 680a 8980
000000a0: 14dd a1bb 64f8 58ba 5a79 aebb f2a0 27bd
000000b0: 0bcb 3d01 83e9 93bc 8cf1 dc0e bc83 8ea2
000000c0: a8ab dfbd d3ad fabc afc6 7535 7619 d9ba
000000d0: 159c 61bd 3875 093d a973 82bd 462b eabb
000000e0: 2df2 81bd 1410 f5bd 734e 7c3d 6a2a 84bb
000000f0: d069 06bd e66a 5abe 87df af37 8070 d4bb
00000100: d965 dfbe 65c5 3b3d effa 53be 7d04 46bc
00000110: ef39 06bd 70a2 203e 89d1 063e 8865 5f3d
00000120: 9fd4 7dbb 5499 d9bb 887f 7781 c70a 8c01
00000130: 2afe a4bb 82a8 03bc f036 09bc 67b6 96bb
00000140: b16c 1ab9 8255 1cbb cd72 93b9 4e42 f7b9
00000150: 0e46 00bf 6c2e a53d 16e6 09bc 5257 1cbd
00000160: 9d14 34be bead cc3d 1537 063e e4e3 acbf
00000170: cbe5 1d3f c942 6bbe ede0 af3e 3af7 a93e
00000180: 031b d3be 0844 0cbf d828 ec37 f2ad 6cbd
00000190: e43c 123e 9693 283e 46b9 20bf 33db 143e
000001a0: 6fba 1cbf 2144 c63e f9c2 da3d 9bb0 df3d
000001b0: faa2 61bc 9726 37bd e9b7 06b9 adaa 16bd
000001c0: 7c3e 8fbe cb5f 483d cb26 e43c dee2 703e
000001d0: dd9d 6a3d b8a2 013e 49d4 d83c 1178 b0bd
000001e0: 4150 2b3e 42f5 953d ab35 993c a04c 3a3e
000001f0: bbd1 05be 6193 ed3e b902 e93e b51b 963e
00000200: f62e 25be a2a0 9ebe 791c c93e 3877 c63d
00000210: 71b7 4dbe f433 2cbe 66c3 32ba 9445 31be
00000220: 3948 4dbf 605b f4be 8c8d b5bd 51b6 923d
00000230: 031f 8e3e 0bbf 8e3d de6b 0e3e f338 b1bd
00000240: a32d aebe fb06 2bbe 0f45 ef37 f753 a93a
00000250: 65e5 2a3e f79d 7c3e 2eb3 e4be 9e8d 11be
00000260: ea9f 123e a49f 9fbe 0965 29bd 9904 e93d
00000270: 274e 40ba 7efb 3a00 3746 cc80 34b3 2481
00000280: ebdb 53ba 193e 9fb6 60e8 9737 00b8 ecab
00000290: 0c2b 72a0 2745 6eb2 22cf 82b4 8a28 b1b1
000002a0: 204a 01be eb2e 203e dd29 17bb 99f1 163e
000002b0: 736d b83e d609 853e f5b5 a93e d1ea 17be
000002c0: 9d7d 9c3d df54 84be aae2 d93d 55a5 f3bd
000002d0: a58f 603e c4ab c0bd cffc 3d3a 594b 83bd
000002e0: 6a56 ffbe 9ae9 12bf a0a9 ecbe cd8c 87bd
000002f0: de72 193f b051 8d3e c3b8 bcbe 5d55 1fbe
00000300: 4307 243d d830 b13e a869 abbc 43fc 1c3d
00000310: 9685 d2bb c378 663e d7d0 a73e 8d6b 37be
00000320: 7fd8 01be 47b1 37be 1b63 003f 5c27 3abe
00000330: cfcc e73e 9dc5 aabe 1ebc 9bae f2d7 833c
00000340: f239 58bd 612b fabe 7fa4 d7bd e934 99be
00000350: 8834 4500 2e69 6f3e 5201 d7bc 690a b0bf
00000360: a335 40b7 79f9 25b4 5c13 b780 4347 7a80
00000370: aaed 8fb7 c8dc a0b6 9793 11b0 08ef c3b3
00000380: 1d0e 859a fd3a e1a5 612d a6b3 748c dbb0
00000390: 1a75 21bf 9e34 84be 3368 953b 9a94 0b3d
000003a0: cdee 17bf 95fc 6bbd 3bb5 40bd 9d4c dc3e
000003b0: 6db6 943c 16c5 843e b6e1 0f3e 24c4 863e
000003c0: 79d3 17bf dd63 a93e a502 e4bb 3326 45bd
000003d0: 5af1 2f3e 4328 963e ede2 b33c a7b7 b1bd
000003e0: 4a9c febe 016d 61bd 17e9 393e 227e 963e
000003f0: b43b 633e 2655 01bf c986 7193 1e15 073c
-0.04515785 -0.0040545273 -1.5924064e-38 -0.04954751 -0.045121625 -0.044042833 -0.030808946 -0.018155644
0.017911306 -0.033837825 -0.0010664999 -0.016165799 -1.6420548e-13 2.142475e-39 -1.8854926e-38 -1.3001864e-38
-1.2131505e-09 -2.540884e-09 -5.693291e-23 -1.4260832e-21 1.1390781e-38 -6.344122e-39 -6.0385404e-13 -7.819765e-17
0.005638916 -0.1106006 -7.8898654e-07 0.023329385 -0.03930191 0.48400167 -0.22124478 -0.0728965
0.36380732 0.1042343 -0.6630933 -0.32826197 -0.013205646 -0.010957718 3.94276e-39 -1.2585196e-38
-0.0049396846 -0.0008276759 -0.005324525 -0.040924974 3.4859494e-38 -0.018055683 5.446679e-30 -3.8628656e-18
-0.10921413 -0.030600464 9.1558735e-07 -0.0016563374 -0.055080492 0.033559054 -0.06369717 -0.007146272
-0.063450195 -0.11965957 0.061598253 -0.0040333765 -0.032815754 -0.21329841 2.0965714e-05 -0.0064831376
-0.4363239 0.045842547 -0.20701192 -0.012086031 -0.032770094 0.15686965 0.13165869 0.054540187
-0.0038731468 -0.0066405926 -4.5458234e-38 5.144334e-38 -0.0050351815 -0.008035781 -0.0083749145 -0.004599381
-0.00014727075 -0.0023854678 -0.00028123558 -0.00047160912 -0.50106895 0.08065495 -0.008416673 -0.038169213
-0.17585988 0.09994076 0.1310695 -1.3507047 0.6167876 -0.22974695 0.34351292 0.3319643
-0.41231546 -0.5479131 2.8152412e-05 -0.057783075 0.1428104 0.1646255 -0.62782705 0.14536743
-0.61221975 0.38723853 0.10681719 0.10922357 -0.013771767 -0.044714537 -0.00012847748 -0.036783863
-0.2797736 0.04891948 0.02785053 0.23524043 0.057279456 0.12659729 0.026468413 -0.08616651
0.16729833 0.0732217 0.018702349 0.18193293 -0.13068287 0.46401504 0.4550989 0.29318014
-0.16131195 -0.30981928 0.39279535 0.09690708 -0.20089509 -0.16816694 -0.0006819278 -0.17311698
-0.8018833 -0.47725964 -0.088648885 0.0716368 0.27758035 0.06970032 0.13908336 -0.0865344
-0.34019193 -0.16701882 2.8523178e-05 0.00129187 0.1668907 0.24669634 -0.44667953 -0.14214179
0.14318815 -0.31176484 -0.04135612 0.1137783 -0.00073358644 5.416677e-39 -1.875963e-38 -3.0250615e-38
-0.00080817816 -4.7457984e-06 1.810881e-05 -1.6819879e-12 -2.051244e-19 -1.3869147e-08 -2.4365096e-07 -5.1559867e-09
-0.12625933 0.15642898 -0.0023065724 0.147406 0.36021003 0.25984067 0.33146635 -0.14835669
0.07641146 -0.25846002 0.10638936 -0.11896769 0.21929796 -0.09407762 0.0007247449 -0.06410856
-0.49870616 -0.573877 -0.46223164 -0.066186525 0.599409 0.27601385 -0.36859712 -0.15559907
0.040045988 0.34607577 -0.020924404 0.038326513 -0.006424616 0.22507004 0.3277652 -0.17912121
-0.12680243 -0.1793872 0.5015122 -0.18179077 0.45273444 -0.33353892 -7.082e-11 0.016094182
-0.052789636 -0.4886122 -0.10529422 -0.2992318 6.355494e-39 0.23379967 -0.026245747 -1.3753177
-1.145658e-05 -1.545758e-07 -1.681284e-38 -1.1229494e-38 -1.71576e-05 -4.794074e-06 -5.296043e-10 -9.1238746e-08
-5.503031e-23 -3.907125e-16 -7.738232e-08 -1.5974266e-09 -0.6306931 -0.25821394 0.0045595407 0.034077264
-0.59348756 -0.057613928 -0.047047835 0.430272 0.018153394 0.25931615 0.14050946 0.26321518
-0.59307057 0.33084002 -0.006958323 -0.048132133 0.17181912 0.29327592 0.021958793 -0.08677607
-0.49728614 -0.055035595 0.18155323 0.29393107 0.22190744 -0.5052055 -3.048493e-27 0.008244781

_decoder.2.bias f4 [64]
00000000: 8434 5abc d809 0081 5a2f e43e 37ae 20bc
00000010: 19d0 a4bd bef1 df3e f7f9 73ba 57b6 533e
00000020: aaec cb3e ee0a 9c3c 3e1c e9bf f9af 0f3f
00000030: de5e be3e 3a0d 0b9e 0dfe 68bf 4c3e 463d
00000040: e5fd a2bf 7944 d0bd 6384 4d90 9259 013f
00000050: 54da 003e 42a7 183e caeb 193f b736 1c3d
00000060: e5cb 063f 8993 633e 1a55 6e3c 5aaf 28bc
00000070: 756c 183f 6f48 5d3e d847 a7be 06b0 e6bb
00000080: fc3c 54bc 86ee 67be 7586 bebd ac4d 9f3e
00000090: 34dd 0d3f b565 3abe 1149 2abc 6aee 383f
000000a0: 1312 bc3e d090 cf3e b3e4 d33e bc93 e6bc
000000b0: 341e 843e 6522 1fbe 30e2 373f 7508 a8bf
000000c0: 1e49 813e c983 81bb 4493 cd3e d42c 053f
000000d0: 9238 023f 6c87 8f3d dda0 1c3f bac9 07be
000000e0: b1fd 0ebe 0426 583e 605c 9cbf ee00 f887
000000f0: a946 1bba bf44 253f 124f 063f 9892 fbbc
-0.013318185 -2.351695e-38 0.44567376 -0.009807161 -0.08047504 0.43739122 -0.0009306962 0.20675026
0.39828998 0.01904818 -1.8211744 0.5612789 0.37181753 -7.361334e-21 -0.9101265 0.048399255
-1.2733732 -0.1016931 -4.0531108e-29 0.505273 0.12583286 0.14907554 0.6012541 0.038138118
0.5265487 0.22224249 0.014546657 -0.010295713 0.5954049 0.21609662 -0.32672 -0.0070400266
-0.012953993 -0.22649583 -0.093029894 0.31113946 0.55415654 -0.1820286 -0.010393397 0.7223879
0.3673254 0.4054017 0.4138542 -0.028146617 0.25804293 -0.15540464 0.7182951 -1.3127581
0.25251096 -0.0039524776 0.40151417 0.5202153 0.5086757 0.070082515 0.6118296 -0.13260546
-0.13963963 0.21108252 -1.2215691 -3.731544e-34 -0.000592331 0.64558023 0.524644 -0.03070955

_decoder.4.weight f4 [128, 64]
00000000: d08d 07bd 75ae a200 800f 693c aadd 7d3b
00000010: 0b6b 2b3c 1b2c 573d 9cb7 0937 28e4 f73e
00000020: a86e debd 5ec4 3ebe 478d 46bf 922d 1d3e
00000030: cbca 01be 029e 63ac 4159 1bbf 0d56 0dbf
00000040: 9d86 11bf e58b fc3d 7283 b780 1337 bb3d
00000050: 929d 52be 4649 e0bd 4bc4 c83d 1ea3 46be
00000060: 6a9c 663e 658f 5abd d89f 14be 2219 b9bc
00000070: 4d9d ffbd a9be b3bd 39cd 08bd 6bb1 6e81
00000080: 1b91 97bb 346b 233d 5c11 993d 55af 0cbe
00000090: 9b26 92be 2cdf 943d 6d55 94bc d183 633d
000000a0: 0c62 8abb a289 5dbd 2c6a c9bd b0b3 0a3c
000000b0: c719 0abe 66fc 36bf 3dc0 59be cd04 adbe
000000c0: f6e8 0b3e 71bf 1cbc 2a84 783d ae08 b8be
000000d0: cd75 30be 1b00 9b3d ca66 53be d622 47be
000000e0: 0827 293d 41cd 1bbe d87d 8fbc bf61 95a5
000000f0: 2e1c 90b0 7b36 0ebc 7c66 11bf 8852 f5bd
00000100: 8a02 cc3c 419b 0f80 1b45 ccbe a620 3a80
00000110: e24d 18bd db26 573b 1a29 0da9 47b5 aebe
00000120: 4bf1 063f b84a c1bc e71c 01bf 0d60 72bd
00000130: d026 4b3e f928 2201 a446 c2be 0877 a4bc
00000140: d365 abbe 9629 2abb b53f c300 1d0c b8be
00000150: 61f8 953e 095e 91be b23d 0f3e 9d14 083e
00000160: c20c 7ebe 68ab ed3d 018e 623d 2859 d0bc
00000170: c0d7 0cbf e796 76be b724 c2bd 8889 be3e
00000180: cd1c b839 22d1 f1be bd3a ecbe 9df7 763e
00000190: 29b9 93be 1a0d bdbd 261d 063d 941b 0e3a
000001a0: d4a7 ffbc 83f6 e83c 7b36 59be ad11 b53b
000001b0: 334c 56bd a7cf 9abb 83dd febd 76f6 f500
000001c0: f992 9abc d091 403b 0b09 f4bd d6b4 2d3e
000001d0: dcbb 8a3e b67b 57be f571 04bf 6bd5 0880
000001e0: 71b9 12bd abce 593e 891f cb80 4c67 9901
000001f0: 096a 4eae ce51 6f3e 20f1 9dbd 32f3 2200
00000200: 7b45 ef80 fa97 5c80 492d e6b9 f278 8f81
00000210: 10a2 0680 2c64 c7b8 238a 2300 d307 0837
00000220: bab1 2fbc d45c 4fb9 d8fd 0dbc cb9a 13ba
00000230: 6662 fdba 7d5c 7f00 a5e0 d6bb 1942 29b9
00000240: 1b26 0dbb 01dd b8b9 bb79 9a00 26a6 47b9
00000250: be64 37bc b08e 92b9 370b 4fbc 6149 19bc
00000260: b2e1 a8bb f5dd 26b7 7f25 d11b 1254 c0aa
00000270: 4b2b afb9 9466 3cb9 d2c4 dbaa c627 d9b9
00000280: e6eb ac01 1a00 bcbc 3a37 cfbb 7a85 bdbb
00000290: ade3 98bb 1e12 6aba 66fb ad81 6d08 95b9
000002a0: 5868 0ebb 6f7b 1db7 d9b1 36bb d08b 8900
000002b0: 87cb 52b7 71a7 cdbc 72ff b7bb a9d8 9f35
000002c0: 6a33 eabb 653d 0381 88c1 a7ba 1159 0ebb
000002d0: 69fd 0cbb bafe f4ba 8efc 27bb 2660 5a31
000002e0: f791 78bb f193 22bc 4c61 cfb2 eb51 d100
000002f0: c433 8a01 733e b3bb 9928 f5ba c13c 4e36
00000300: f86f 7101 f825 9701 61c3 2cbc 1126 2101
00000310: a23e cfb8 969a 4e3a 1a92 5300 0ddd 14bb
00000320: f8bc d53a 8bb1 09bc 92f6 32bd 920d ab3b
00000330: 4570 d2ba 2a52 5f01 ea42 ecbc 576a 9dbc
00000340: e3eb cfbc e2df 8fbc 00df 4900 7ac7 b3b7
00000350: 2d15 64bc 80c1 d3bb 598e edbc 6105 f4ba
00000360: 46ee fabc 9d2a a939 d95d f7b6 d06d 9838
00000370: 67c7 8fba 5928 3d3c 7a9a 25bb c976 7833
00000380: ce17 5680 47d6 00bd 8424 b8bc faa5 84bc
00000390: e7d3 6cbc 109a b1bc b0e7 9a81 f0c7 eaba
000003a0: fd49 273c 7371 82bc 6271 77bc 7980 0c01
000003b0: b173 87b7 782f a7bc b5e2 e0bb 4688 02bc
000003c0: e395 0ebc 5f52 9981 b67d a6bc 02a2 03bc
000003d0: 5337 04ba 18b1 61bc 547a 923b eb28 3e3c
000003e0: ddf4 09bd 1913 fbbc b258 91bc c642 be01
000003f0: 843c 7e00 daa2 90bc 04eb 20bc 346f 113c
-0.033094227 1.4939934e-38 0.014224887 0.0038736858 0.010462533 0.052532297 8.208586e-06 0.48416257
-0.1086095 -0.18629596 -0.7755932 0.15349415 -0.12675016 -3.2346352e-12 -0.60683066 -0.5520943
-0.5684603 0.1233137 -1.685305e-38 0.09141364 -0.20567921 -0.10951476 0.09803065 -0.19398162
0.22520605 -0.053359408 -0.145141 -0.022594992 -0.124811746 -0.087766 -0.03339884 -4.3840987e-38
-0.004625452 0.03989716 0.07474014 -0.13738759 -0.2854508 0.07269129 -0.01810714 0.05554563
-0.004223114 -0.054086335 -0.09834704 0.008465692 -0.13486396 -0.7147888 -0.2126474 -0.33792725
0.13663086 -0.009567128 0.060672916 -0.35944122 -0.17232437 0.075683795 -0.2064468 -0.19446883
0.04129699 -0.15215017 -0.017516062 -2.5913615e-16 -1.0485388e-09 -0.008679981 -0.56797004 -0.11978632
0.024903554 -1.433227e-39 -0.39896473 -5.338171e-39 -0.03718365 0.0032829556 -3.134394e-14 -0.3412268
0.52711934 -0.023595199 -0.50434726 -0.059173632 0.19839025 2.9784097e-38 -0.3794452 -0.02007629
-0.33476123 -0.0025964729 1.7930776e-38 -0.35946742 0.2929106 -0.28392056 0.13988379 0.13289113
-0.24809554 0.11604959 0.055311207 -0.025433138 -0.5501671 -0.24081002 -0.09479659 0.37214303
0.00035116673 -0.47229868 -0.46138564 0.24117894 -0.28852203 -0.092310145 0.032742642 0.00054209796
-0.031207956 0.028437858 -0.21212189 0.0055257888 -0.052318763 -0.004724461 -0.12444594 2.258811e-38
-0.01886891 0.0029383786 -0.11915787 0.16963515 0.2709645 -0.21043286 -0.51736385 -8.11244e-40
-0.035821382 0.21270244 -1.8653918e-38 5.635155e-38 -4.6933155e-11 0.2337105 -0.077120066 3.209649e-39
-2.1973608e-38 -8.503385e-39 -0.0004390276 -5.270345e-38 -6.0915e-40 -9.507718e-05 3.263796e-39 8.108053e-06
-0.010723526 -0.0001977564 -0.008666478 -0.0005630671 -0.0019331693 1.1696287e-38 -0.0065575414 -0.00016141719
-0.0021537605 -0.00035259876 1.4186335e-38 -0.00019040014 -0.011193452 -0.000279536 -0.012636951 -0.009355874
-0.005153858 -9.946049e-06 3.460038e-22 -3.4164387e-13 -0.00033410857 -0.0001796729 -3.9038786e-13 -0.000414191
6.352132e-38 -0.022949267 -0.006323722 -0.005783734 -0.004665813 -0.0008929091 -6.39109e-38 -0.00028425772
-0.0021729674 -9.386668e-06 -0.0027877002 1.2631618e-38 -1.2564363e-05 -0.025104256 -0.0056151683 1.190948e-06
-0.0071472423 -2.4104948e-38 -0.0012798766 -0.0021720568 -0.002151335 -0.0018691637 -0.0025632712 3.177783e-09
-0.0037928799 -0.009922967 -2.4142217e-08 1.9223005e-38 5.0767474e-38 -0.005470091 -0.0018704116 3.0731755e-06
4.4345043e-38 5.552312e-38 -0.010544629 2.959834e-38 -9.8821954e-05 0.00078813115 7.674758e-39 -0.0022714764
0.0016306927 -0.008404146 -0.04369218 0.0052201236 -0.0016055187 4.101758e-38 -0.0288405 -0.019215746
-0.025381034 -0.01756281 6.783989e-39 -2.1431351e-05 -0.013921064 -0.006462276 -0.02899854 -0.0018617326
-0.030631196 0.0003226594 -7.372099e-06 7.268379e-05 -0.0010969461 0.011545264 -0.0025269077 5.7850034e-08
-7.906392e-39 -0.03145435 -0.02247835 -0.016192425 -0.014454818 -0.021679908 -5.690312e-38 -0.0017912369
0.010210511 -0.015923237 -0.015102716 2.5806114e-38 -1.6147127e-05 -0.020408377 -0.006862963 -0.00796706
-0.008702728 -5.632152e-38 -0.020323616 -0.008034231 -0.00050436443 -0.013775133 0.004470149 0.011606435
-0.033680785 -0.030648755 -0.017742489 6.989079e-38 1.1592981e-38 -0.017655779 -0.009821657 0.008876611

_decoder.4.bias f4 [128]
00000000: c1f1 cc3d 6a0e ad3d de7a 68bc d692 fdbc
00000010: f631 bf3d 482d 6ab5 efb6 40b9 5002 d7b1
00000020: 65b3 253e 3097 97b3 8daa 8a3e 3142 c4bc
00000030: ae32 3b3e 4425 4b3e c2e5 953d dcb1 d6be
00000040: a866 139b a272 133e 5f22 7eb3 d545 f63c
00000050: 7abc 4bb4 37dc 22bd 5683 2fbf 8a12 3603
00000060: 8309 973c 5328 e3bd 281b 433f 04ff 5abc
00000070: b685 7fbf db5a c23b c683 39bd ce65 a8b9
00000080: 93eb 813d f0f6 9b3d e629 aba6 3038 c93a
00000090: 79be 54b8 8913 41bd 80a6 833e 96df b83d
000000a0: 5b93 c03d 4dd3 83b9 b50b 14bc af05 3a00
000000b0: 5fee 76bc 177e 32bd 2d34 e5b2 897e 4d3e
000000c0: ad10 5c3d 2298 d83d 61ab 8cb5 29bf ac3e
000000d0: 78ed 41b6 54be 21bc 6d6b df93 22f2 3c3d
000000e0: 395f 94bd eb2f cda2 dc11 5e3e 3ed3 4ca1
000000f0: e4b6 023f 9df8 15bd 63d3 b13e fb87 9ea1
00000100: 8454 aa3d 2df0 933b eb83 923e cd62 28bc
00000110: 2f52 7fba be11 3fa8 7b3a a03e ee44 963e
00000120: db68 ad95 ab4b 41bc 1bab 633d 7083 8bbb
00000130: 14f7 eebc 6dbf aebe 4494 18b9 e0d7 de3d
00000140: 913d 793d 46ff 873d 5ca7 29bb 0b4b 0e3c
00000150: b10e db97 63aa fa3e 6716 8f89 9524 6eaf
00000160: 4f1a 0e3e 6f79 f83c 4a85 d73d e900 d8b6
00000170: cb32 99bb 53a0 173e d83a 9a3e 2f97 90bd
00000180: 6d98 cebb c4d2 babc 06e5 6e80 be3d 87bb
00000190: dc24 883e bfba f4bc 46f5 14bf 02db eeba
000001a0: 3101 a9bb bd38 153e 85ff f53d 754a 93b9
000001b0: 134e 87bc d694 373e 5c40 823d 29cd 92bc
000001c0: 9983 af3e fece 843e 3f93 64af be4b 56ba
000001d0: 243c a93e 97ce 2fb9 427e 803e 1430 ceb1
000001e0: 832c 90bc 3095 ebbe f593 db3e 9e1c 423e
000001f0: 8167 13ad e159 8c3d 959e 243e cdb3 4e3e
0.100070484 0.08450015 -0.01418945 -0.030953806 0.09335701 -8.7237686e-07 -0.00018378695 -6.2575864e-09
0.16181715 -7.058986e-08 0.27083245 -0.023957344 0.18281052 0.19838434 0.073192134 -0.4193257
-1.2192725e-22 0.14399198 -5.9170244e-08 0.030062595 -1.8974416e-07 -0.039760794 -0.6855978 5.3506275e-37
0.018437153 -0.110916756 0.7621331 -0.0133664645 -0.998134 0.005931241 -0.045291685 -0.00032119307
0.0634376 0.07615459 -1.1876865e-15 0.0015351828 -5.072213e-05 -0.04713777 0.25712967 0.09027021
0.09403106 -0.00025143698 -0.009035994 5.328498e-39 -0.015071481 -0.04357728 -2.6682835e-08 0.200678
0.05372684 0.10575892 -1.0480691e-06 0.33739594 -2.8897466e-06 -0.009872038 -5.6399044e-27 0.046129353
-0.07244725 -5.5616096e-18 0.216865 -6.9397465e-19 0.5106032 -0.03661405 0.34731588 -1.074249e-18
0.08316901 0.004514715 0.2861627 -0.010277462 -0.00097397243 -1.0606477e-14 0.31294617 0.29349464
-7.0039576e-26 -0.011797826 0.0555831 -0.004257612 -0.02917055 -0.3413042 -0.00014551083 0.10881019
0.06084973 0.066404864 -0.0025887107 0.008684884 -1.4156252e-24 0.4895812 -3.4447065e-33 -2.165897e-10
0.13877223 0.030331342 0.1052347 -6.4374076e-06 -0.0046752444 0.14807253 0.3012302 -0.07060086
-0.0063047917 -0.022805579 -1.0184063e-38 -0.0041272333 0.2659062 -0.029874204 -0.5818676 -0.0018223228
-0.0051576127 0.14572425 0.12011627 -0.000280935 -0.01651672 0.1792787 0.06359932 -0.017920094
0.3428009 0.25939173 -2.0788792e-10 -0.00081747386 0.33053696 -0.00016766261 0.25096327 -6.000855e-09
-0.01759935 -0.4601226 0.4288632 0.18956229 -8.378965e-12 0.068530805 0.16076119 0.20185776

_decoder.6.weight f4 [784, 128]
00000000: 0f91 53bb 77d7 dfbc 0245 9301 b2d0 0581
00000010: acc3 78b9 6c9e 8f80 98cd a400 64e5 2300
00000020: 722e d5bd f8f9 52ae a8e5 9cbd 8bd1 1c01
00000030: c92b 98bc 295d 12bc c21b a2bc 4e70 aebb
00000040: b069 b780 f937 b2bc 042f 6681 d29f 84be
00000050: e00e 4701 0bc2 b484 75be 58ba 8641 5f01
00000060: baa1 c4bd b84e 01bc a32c 7abe 03de 8780
00000070: 0c2d 26bd d685 12bc 1c0c 0f2c 7308 dab2
00000080: 24bb 8aba 014f 00bd 70b7 3181 9d94 adbb
00000090: 6ac5 a401 ccd7 59a0 ff6a bebc 7912 f3bb
000000a0: 626b 9dbb 88b8 3e01 145c 0c81 df7e 1781
000000b0: f74d 6981 8096 5fbc 0d44 490a cc2e 84bd
000000c0: 30db 50bc f3da 90ba d823 3ca1 231f 5dbe
000000d0: d2e0 5e86 2037 7100 ac53 1e00 48c9 7fbd
000000e0: 3288 38bc 56bc ee9a ed04 24bc 2d1d 0d1b
000000f0: bd66 41bd 2345 2fbc 1d2c 70bd d888 0901
00000100: cb46 54bc ef0c 0039 758a 4cbd 9bab 8a01
00000110: 49da 9e86 6871 ae00 47ea a3be 6c0f 5cbd
00000120: 01e0 bd01 1fb3 9b00 eee0 81b9 6caf 0cbb
00000130: 207d 0cbe 39a1 afbb 70e4 f480 2605 9dbd
00000140: d4ce 87bd be78 7ebb a0e1 ae00 a699 bdb9
00000150: 20aa 4401 9dc3 4ebe 74bd 8581 3ce3 2201
00000160: 4586 a9bc 0884 4bbc 98d9 1eb9 d8c9 bc81
00000170: 94f5 8381 ea8f 5dbc cc8d 13bd 6db5 05ba
00000180: d881 93ba 6383 1fbd 3859 5481 2e93 db80
00000190: 842b 09bd 61ec 1b04 d591 6abd ccef 1901
000001a0: 611d 9101 d76d 64bd 06b1 e9bc 55a9 4001
000001b0: 868b cf18 7351 a0bd 459b 13b9 b425 6d01
000001c0: 0121 a5bc 2047 3dbe 3e30 4481 04a8 8601
000001d0: 9955 4cbd e004 6200 8082 efbd bea9 1801
000001e0: d2d7 aabc 5160 f3b9 a742 05be 81d9 08bc
000001f0: 860f 0281 d62a aebb af5f f1bb eeb2 41be
00000200: 5c74 53bb d650 dfbc 3ae9 5f01 7dc6 e380
00000210: 3824 6db9 1553 4f80 cda0 5300 810e ae81
00000220: 7315 d2bd 49e3 54ae ef13 9dbd c3a7 1081
00000230: e097 97bc 0c41 12bc 0a45 a1bc e60e b8bb
00000240: 900e 5300 11c8 b1bc 3837 2081 b0ab 84be
00000250: 50ca 2f80 fab8 b684 fc1f 55ba 97e7 8801
00000260: 8836 c4bd 0baf 02bc 7275 7abe c8c5 8580
00000270: 56e3 25bd daa4 12bc 78f4 0e2c 141a d7b2
00000280: f429 8aba f8f7 ffbc 68ba 1681 c935 afbb
00000290: b2b8 0d81 6e02 57a0 295a bebc e209 f5bb
000002a0: d571 9cbb 4b7f 8901 d6ff 3981 16a5 9e00
000002b0: 7724 6981 5342 5fbc 2359 490a 27c8 85bd
000002c0: 4fac 51bc 2d73 91ba 103a 19a1 dc2d 5dbe
000002d0: b983 6286 6d26 8981 caa6 2080 87a9 7fbd
000002e0: f303 30bc 1c4d ed9a e110 25bc 900e 0c1b
000002f0: 8710 41bd 1e8b 30bc 0c98 70bd 80e6 0201
00000300: 45e5 54bc dbc7 ff38 17a8 4cbd 16b7 8601
00000310: 2304 9686 ec54 4e81 697e a3be 56f0 5bbd
00000320: aced af01 33cf 2600 7930 81b9 3664 0cbb
00000330: 238b 09be d990 afbb e3f2 9c81 ad39 9dbd
00000340: e5dc 87bd 8e3a 7ebb 838e 9a01 3540 bcb9
00000350: c818 0e80 c615 4fbe 841d 3e01 e612 9681
00000360: cdcb a8bc 866e 4abc a8f1 1eb9 1cc0 4181
00000370: 7604 a881 6a06 5dbc 50b0 13bd d932 01ba
00000380: e037 95ba d6ea 21bd 68b2 9c81 a8bd 8480
00000390: af68 09bd da02 1a04 3ecf 5fbd 94d7 8281
000003a0: 14d2 4001 8f61 66bd 9ef3 e8bc 268d 4201
000003b0: 7a47 cb18 1eba a0bd a806 13b9 894d 8101
000003c0: 121d a5bc 6f49 3dbe f8b3 9880 9a65 e600
000003d0: 3b55 4cbd 98b3 7a00 5d68 f1bd 1039 0580
000003e0: 1b38 a5bc cbe1 f2b9 713d 05be 1908 08bc
000003f0: a191 8980 5bfc acbb 5efc f1bb 6a76 42be
-0.0032282507 -0.027324421 5.4098293e-38 -2.4577974e-38 -0.00023724017 -1.3189307e-38 1.5134775e-38 3.296532e-39
-0.10409249 -4.797049e-11 -0.07660991 2.8803015e-38 -0.018575566 -0.008933344 -0.019788627 -0.0053234464
-1.684381e-38 -0.021755205 -4.227806e-38 -0.25903183 3.65612e-38 -4.2495997e-36 -0.00082681264 4.1005642e-38
-0.096011594 -0.007892303 -0.2443109 -1.2477435e-38 -0.040570304 -0.008943042 2.0328244e-12 -2.5382382e-08
-0.0010584337 -0.031325344 -3.2641376e-38 -0.005297257 6.052736e-38 -1.8452016e-19 -0.02324438 -0.0074179736
-0.004804061 3.5029883e-38 -2.5780002e-38 -2.7825345e-38 -4.2851278e-38 -0.013646722 9.690597e-33 -0.06454238
-0.012747571 -0.001105158 -6.3744316e-19 -0.21593909 -4.191873e-35 1.0397186e-38 2.78508e-39 -0.062447816
-0.01126294 -9.8738766e-23 -0.01001094 1.1672674e-22 -0.04721712 -0.010697636 -0.05863582 2.5261107e-38
-0.0129563315 0.0001221185 -0.04993673 5.0939436e-38 -5.9753736e-35 1.6020059e-38 -0.32014677 -0.053725645
6.9749065e-38 1.4298758e-38 -0.00024772383 -0.0021466864 -0.13719606 -0.0053597954 -2.2489809e-38 -0.076669976
-0.06631246 -0.0038829292 1.6060315e-38 -0.00036163366 3.6121573e-38 -0.20191808 -4.9128336e-38 2.9917733e-38
-0.020693908 -0.012421615 -0.00015149114 -6.9349925e-38 -4.847419e-38 -0.013523081 -0.0360239 -0.0005100582
-0.0011253906 -0.03894366 -3.9002262e-38 -2.0164772e-38 -0.033488765 1.8328702e-36 -0.057267983 2.8273708e-38
5.3306744e-38 -0.055768814 -0.028526794 3.538632e-38 5.364913e-24 -0.07828035 -0.00014076855 4.3557076e-38
-0.020157339 -0.18484163 -3.6034127e-38 4.9464917e-38 -0.04988632 9.001627e-39 -0.11694813 2.8039775e-38
-0.020854864 -0.00046420333 -0.13013707 -0.008352638 -2.3888367e-38 -0.005315165 -0.0073661427 -0.18915913
-0.00322654 -0.027260225 4.1125963e-38 -2.0917862e-38 -0.00022615574 -7.284808e-39 7.68003e-39 -6.393832e-38
-0.10257997 -4.840509e-11 -0.07669818 -2.6568986e-38 -0.018505037 -0.008926641 -0.01968624 -0.0056170104
7.62757e-39 -0.021701844 -2.9426976e-38 -0.25912237 -4.388844e-39 -4.295787e-36 -0.0008130071 5.0290825e-38
-0.095807135 -0.007976304 -0.24458864 -1.2285072e-38 -0.040500008 -0.0089504365 2.0315121e-12 -2.5041153e-08
-0.0010541067 -0.03124617 -2.768439e-38 -0.005346988 -2.6030122e-38 -1.8212012e-19 -0.023236351 -0.0074779848
-0.004774312 5.050851e-38 -3.4162687e-38 1.456923e-38 -4.2821503e-38 -0.013626653 9.694563e-33 -0.06532317
-0.012797429 -0.0011096947 -5.191526e-19 -0.21599525 -4.260265e-35 -5.038099e-38 -2.998569e-39 -0.062417533
-0.010743129 -9.814548e-23 -0.010074825 1.1585234e-22 -0.047134902 -0.010775356 -0.058738753 2.4042605e-38
-0.012994115 0.000121965735 -0.04996499 4.948654e-38 -5.642981e-35 -3.7897153e-38 -0.3193238 -0.053696
6.462589e-38 3.564078e-39 -0.00024640912 -0.0021422035 -0.13431983 -0.0053578434 -5.7653875e-38 -0.076770164
-0.06633929 -0.0038792226 5.677516e-38 -0.00035905992 -1.294587e-39 -0.2022315 3.4918665e-38 -5.5128416e-38
-0.020604992 -0.012355452 -0.00015158078 -3.5586333e-38 -6.1719855e-38 -0.013490299 -0.036056817 -0.00049285364
-0.001138445 -0.039530598 -5.756135e-38 -1.2190321e-38 -0.0335471 1.8103922e-36 -0.054641 -4.80638e-38
3.5415554e-38 -0.056245383 -0.028436478 3.5733442e-38 5.2546443e-24 -0.07847999 -0.00014021492 4.7498374e-38
-0.020155463 -0.18485044 -1.4023556e-38 2.1158612e-38 -0.04988597 1.1268357e-38 -0.11787484 -4.79648e-40
-0.020168355 -0.00046326066 -0.1301172 -0.008302712 -1.2633705e-38 -0.0052791066 -0.007384821 -0.18990484
