yeeef_workspace/ckpt/e0040.pt (torch_old, 882114 bytes, 16 tensors)

_encoder.0.weight f4 [128, 784]
0.013529082 0.013024752 0.011100976 0.0114623755 0.011375983 0.011462582 0.01144695 0.011767445
0.013732134 0.015314899 0.008619095 0.01216023 0.008624418 0.0058359974 0.0077685914 0.0095773665
0.010509801 0.009203556 0.01137125 0.012004265 0.010327132 0.010593916 0.011628461 0.011513908
0.011429139 0.011555574 0.011425573 0.012060116 0.013529025 0.012944049 0.010744615 0.011310401
0.011160272 0.011098754 0.011124279 0.011052546 0.010469288 0.008674433 -0.0025462955 -0.0023728593
-0.0037051085 -0.005579657 -0.0032026318 -0.0036914984 -0.004180931 -0.006344927 0.005429727 0.005720365
0.0013338841 0.0033518204 0.010881144 0.011082886 0.011053809 0.011122874 0.011151044 0.0111875655
0.013527868 0.01297343 0.010863636 0.01140676 0.011175808 0.010759688 0.010237801 0.00921057
0.0075238543 0.0025714831 -0.0021203458 -0.0013126783 -0.0011119642 -0.0010009608 -0.0022386643 -0.006966698
-0.0026135286 -0.0042357338 -0.0014704969 0.005280758 0.001565526 0.0018015098 0.0038704101 0.007804188
0.009343719 0.010736983 0.011419806 0.011514368 0.013505111 0.012552573 0.01045088 0.010953672
0.011064804 0.011073918 0.010802588 0.0066679297 0.007998692 0.0006654819 -0.0067745633 -0.0010542213
-0.0023069982 -0.001671555 -0.003945482 -0.0052275434 -0.0038982178 -0.004653203 -0.004178957 0.004206791
-5.524208e-05 0.0011414815 0.0035603675 0.0044163405 0.0069148876 0.0066709733 0.0072205397 0.010194255
0.0134517 0.011701155 0.009232637 0.009087544 0.009437401 0.008330705 0.0077796914 0.002820193
0.005839182 -8.9912435e-05 -0.0044636866 -0.003617856 -0.0054232655 -0.005901324 -0.006806738 -0.0067590335
-0.006713861 -0.004815965 -0.004309689 0.002359769 -0.0025434063 -0.0023650706 0.001212772 0.0028230452
0.0049677338 0.005736859 0.0055146846 0.010076029 0.013365921 0.010720869 0.0076873577 0.008257795
0.008365214 0.0073013455 0.0073256046 0.001923991 0.007396608 -0.0031964974 -0.0013523541 -0.0011560649
-0.0031438533 -0.005375115 -0.0059850425 -0.0033350962 -0.0026966499 -0.0035319298 -0.0034346085 0.00079822657
-0.0018811198 -0.0016592211 0.0015746887 0.0022042992 0.0025996708 0.004788843 0.004884326 0.010611639
0.012875667 0.010024502 0.007585269 0.008609377 0.0072350125 0.0076964814 0.007037323 0.0013102635
0.002714504 -0.0054281186 -0.0042284415 -0.0023440772 -0.002004009 -0.0029071795 -0.0046340693 -0.0018194598
-0.0031904848 -0.003864937 -0.0047613475 0.0008673385 0.0005858841 0.0005914445 0.0025772539 0.0040521976
0.003583713 0.0058931 0.006032131 0.010170136 0.012947414 0.009732271 0.0076464326 0.008741597
0.0060870075 0.0055875 0.002780489 0.0016937293 0.0038008373 -0.004038387 -0.0048149903 -0.0025239193
-0.004443625 -0.004098429 -0.00015254617 -0.0030835948 -0.003620298 -0.0029611324 -0.0028462205 0.0026151522
-0.00014913776 0.0017362775 0.004872474 0.0038132395 0.006513296 0.005427897 0.011125162 0.011157256
0.012674806 0.009441749 0.007883877 0.008487285 0.0044047274 0.005075018 0.0019093297 0.0030185243
0.005072104 0.0024696644 -0.004793852 -0.0023010813 -0.004416306 -0.0008613606 -0.0017466057 -0.0036559247
-0.0026183485 -0.002739475 7.1879555e-07 0.011532804 0.0038874683 0.0036555547 0.010920844 0.0080077015
0.0072309896 0.010372217 0.014024647 0.010239422 0.012222051 0.009414769 0.0072792997 0.007303183
00000000: 15a9 5d3c c565 553c dee0 353c b0cc 3b3c
00000010: 5562 3a3c 8ecd 3b3c fd8b 3b3c 3ecc 403c
00000020: bffc 603c 58eb 7a3c 1b37 0d3c b43b 473c
00000030: 6e4d 0d3c e53b bf3b ab8f fe3b 63ea 1c3c
00000040: 4d31 2c3c 83ca 163c 7b4e 3a3c 89ad 443c
00000050: 2233 293c 1b92 2d3c 4d85 3e3c d5a4 3c3c
00000060: 4941 3b3c 9753 3d3c 5432 3b3c cb97 453c
00000070: d8a8 5d3c 4713 543c 2f0a 303c 434f 393c
00000080: 93d9 363c 8cd7 353c 9c42 363c bd15 353c
00000090: 6087 2b3c 361f 0e3c c0df 26bb f981 1bbb
000000a0: 68d1 72bb 8ed5 b6bb 3fe3 51bb 11ed 71bb
000000b0: 3100 89bb 1be9 cfbb daeb b13b e671 bb3b
000000c0: b9d5 ae3a 37aa 5b3b d346 323c fe94 353c
000000d0: 091b 353c b73c 363c deb2 363c 0d4c 373c
000000e0: fea3 5d3c 828e 543c 64fd 313c 6be3 3a3c
000000f0: bc1a 373c 6749 303c 73bc 273c eee7 163c
00000100: aa8a f63b 5486 283b 80f5 0abb 2d0e acba
00000110: 54bf 91ba ac32 83ba 8eb6 12bb e648 e4bb
00000120: bc47 2bbb e9cb 8abb b0bd c0ba 350a ad3b
00000130: 5632 cd3a a320 ec3a b5a6 7d3b 46ba ff3b
00000140: 6616 193c 2cea 2f3c 231a 3b3c c2a6 3c3c
00000150: 8b44 5d3c 4fa9 4d3c 2b3a 2b3c 0877 333c
00000160: 2749 353c 616f 353c 57fd 303c a67e da3b
00000170: f20c 033c bc73 2e3a 28fd ddbb cc2d 8aba
00000180: 0231 17bb 1418 dbba 1a49 81bb d04b abbb
00000190: 3e79 7fbb e579 98bb a2ef 88bb 1fd9 893b
000001a0: bbb3 67b8 c39d 953a 0e55 693b f3b6 903b
000001b0: 4896 e23b 2e98 da3b 479a ec3b ce05 273c
000001c0: 8564 5c3c 34b6 3f3c 7c44 173c ece3 143c
000001d0: 549f 1a3c 827d 083c c8ec fe3b fdd2 383b
000001e0: 9c56 bf3b 5f8f bcb8 1e44 92bb 8d19 6dbb
000001f0: a6b5 b1bb e55f c1bb 0f0b dfbb e27a ddbb
00000200: f3ff dbbb 3ecf 9dbb 4b38 8dbb 5ba6 1a3b
00000210: 47af 26bb 4dff 1abb e0f5 9e3a d702 393b
00000220: 5fc8 a23b 43fc bb3b 87b4 b43b ee15 253c
00000230: bcfc 5a3c 95a6 2f3c 3be6 fb3b b44b 073c
00000240: 400e 093c 2040 ef3b a00b f03b 6d2e fc3a
00000250: 3f5f f23b 547c 51bb 7941 b1ba 1a87 97ba
00000260: 1b09 4ebb bc21 b0bb 2d1e c4bb a191 5abb
00000270: 47ba 30bb f377 67bb 2b17 61bb 1440 513a
00000280: e88f f6ba 397a d9ba c965 ce3a 0176 103b
00000290: 3d5f 2a3b baeb 9c3b b20c a03b 71dc 2d3c
000002a0: 76f4 523c cf3d 243c d98d f83b 580e 0d3c
000002b0: af13 ed3b c432 fc3b 5899 e63b 26bd ab3a
000002c0: d2e5 313b 5cde b1bb bd8e 8abb 179f 19bb
000002d0: b155 03bb 6186 3ebb 64d9 97bb f17a eeba
000002e0: 7417 51bb e24a 7dbb 1405 9cbb 1a5e 633a
000002f0: 0496 193a 2b0b 1b3a 25e7 283b 4cc8 843b
00000300: badc 6a3b e81a c13b 2fa9 c53b a4a0 263c
00000310: 6421 543c 1a74 1f3c ed8e fa3b ea38 0f3c
00000320: 8575 c73b 5917 b73b dd38 363b 2000 de3a
00000330: 7817 793b 7254 84bb 11c7 9dbb 5768 25bb
00000340: d49b 91bb 1d4c 86bb cdf4 1fb9 2316 4abb
00000350: 8642 6dbb 8f0f 42bb a887 3abb f962 2b3b
00000360: dd61 1cb9 ce93 e33a 46a9 9f3b 8be7 793b
00000370: 7d6d d53b 80dc b13b 5046 363c eccc 363c
00000380: fda9 4f3c 91b1 1a3c 602b 013c 410e 0b3c
00000390: 8855 903b 564c a63b 7942 fa3a 6fd2 453b
000003a0: e433 a63b 18da 213b bf15 9dbb bdcd 16bb
000003b0: a9b6 90bb eecc 61ba 5dee e4ba 3d98 6fbb
000003c0: 9998 2bbb c488 33bb 41f3 4035 16f4 3c3c
000003d0: e5c4 7e3b 0892 6f3b 57ed 323c bc32 033c
000003e0: f0f1 ec3b 3bf0 293c a2c7 653c 40c3 273c
000003f0: ff3e 483c 6740 1a3c 3187 ee3b 8a4f ef3b

_encoder.0.bias f4 [128]
-0.013529082 0.064706355 -2.8808269e-18 0.030334169 -0.05588257 -0.0136990985 -0.006117214 -0.13743694
-1.3125374e-18 0.0091503775 0.01596568 -0.010090625 -0.01751655 -1.1941662e-05 -0.03481182 -0.028634407
-0.0017500396 0.041866843 -2.1127597e-10 -0.027717475 0.015200683 -1.5406133e-05 -0.0015686415 -0.021724457
-0.022610711 -0.0048974333 -0.07833419 -4.1590218e-05 -4.419979e-11 -0.05131623 -0.037405364 -0.02263517
-1.6836171e-16 -0.042795595 0.25412515 -0.112220064 0.009335953 0.002659428 -0.030386198 -9.975298e-08
-4.985986e-05 -0.051046867 -0.011441109 -0.00023653642 -0.0009851394 -0.004609464 -0.008736715 -0.01221924
-0.038977705 -6.8169305e-15 -0.03449959 0.37995178 -0.008913156 -0.0008339893 -0.03351544 -0.10634854
-2.199552e-31 -2.5737734e-06 -0.004984276 -2.6360174e-15 -3.288682e-13 -2.6305995e-24 -0.0038667864 -0.01922409
-0.016558181 0.0019153093 -0.0050325566 0.01662701 -0.014380464 -0.05472933 -0.018290041 -0.0036868695
-1.4367006e-10 -0.067598425 -0.00018998557 -0.07886097 -0.07786955 -0.116928816 -0.050310794 -0.14675479
-0.028179662 -0.02532799 -0.05684964 -0.019004568 -1.7739602e-19 0.0062148194 -0.027874876 -0.0037214186
-0.023384292 -0.036309242 -0.060065426 -0.021875257 -0.23150799 -0.007264871 -0.00047212068 0.130253
0.014678972 -0.015871665 -0.011919699 -0.00922305 -0.008046678 -0.06475612 -2.5774936e-08 0.0012938208
-0.008923925 -7.480804e-11 -0.060640074 0.022588503 -0.08194406 -9.125034e-05 -0.09225081 -0.009920177
-0.03651862 -0.009874245 -0.0033916926 -0.015999353 -7.0551974e-13 -2.4528296e-07 -0.005039632 -0.0003065485
-0.10824734 -0.039340194 -0.13656951 -0.023549862 -0.012106717 -0.011883051 0.015744863 -0.040948085
00000000: 15a9 5dbc c484 843d 4891 54a2 5d7f f83c
00000010: 1fe5 64bd 2f72 60bc e972 c8bb 45bc 0cbe
00000020: 43b2 c1a1 77eb 153c 75ca 823c 2653 25bc
00000030: de7e 8fbc 0c59 48b7 d796 0ebd b492 eabc
00000040: 9661 e5ba 917c 2b3d e64c 68af c20f e3bc
00000050: 490c 793c 6b3c 81b7 e09a cdba 7df7 b1bc
00000060: 193a b9bc a67a a0bb ad6d a0bd 2871 2eb8
00000070: 8a64 42ae f830 52bd 5e36 19bd 646d b9bc
00000080: 9b1b 42a5 6f4a 2fbd b11c 823e a2d3 e5bd
00000090: d3f5 183c cc49 2e3b 7aec f8bc c837 d6b3
000000a0: 9e20 51b8 8516 51bd 7d73 3bbc c306 78b9
000000b0: cb1f 81ba fd0a 97bb 7024 0fbc 3533 48bc
000000c0: 16a7 1fbd 169b f5a7 714f 0dbd 0a89 c23e
000000d0: 7c08 12bc 13a0 5aba 7c47 09bd 43cd d9bd
000000e0: 54c2 8e8c 17b9 2cb6 2353 a3bb f0f1 3da7
000000f0: e722 b9aa 6488 4b98 e969 7dbb d77b 9dbc
00000100: 06a5 87bc 1e0b fb3a 25e8 a4bb 5e35 883c
00000110: 0a9c 6bbc dd2b 60bd ffd4 95bc 689f 71bb
00000120: 87f7 1daf 0b71 8abd dd36 47b9 dc81 a1bd
00000130: 127a 9fbd 6078 efbd b112 4ebd e346 16be
00000140: 09d9 e6bc a57c cfbc 2bdb 68bd 78af 9bbc
00000150: a86e 51a0 afa5 cb3b da59 e4bc 0be3 73bb
00000160: 6a90 bfbc 00b9 14bd 2a07 76bd bd33 b3bc
00000170: 6e10 6dbe 280e eebb f786 f7b9 0b61 053e
00000180: 1280 703c 4b05 82bc d74a 43bc 471c 17bc
00000190: 37d6 03bc db9e 84bd af67 ddb2 6c95 a93a
000001a0: a835 12bc 2f81 a4ae ba61 78bd 860b b93c
000001b0: 4ad2 a7bd a75d bfb8 feed bcbd 3d88 22bc
000001c0: 8c94 15bd 96c7 21bc 2947 5ebb 1311 83bc
000001d0: 0e96 46ab 6faf 83b4 7f23 a5bb 3eb8 a0b9
000001e0: c8b0 ddbd 2f23 21bd e1d8 0bbe a4eb c0bc
000001f0: 405b 46bc 21b1 42bc 5ffb 803c 2eb9 27bd

_encoder.2.weight f4 [64, 128]
-0.0065825866 -0.0008437479 -0.00923194 -0.04650696 -4.520453e-09 -0.065220624 -1.1156913e-05 -0.18980622
-1.4730481e-05 -0.06425042 0.33192036 -0.0037557578 -0.022074208 0.001560925 -0.06872103 0.018216083
-0.06656497 0.021405296 -0.00038031203 -0.058670457 -0.022206236 0.03615889 -0.0132718105 0.0077861096
0.021800973 3.4005847e-05 0.24684319 0.017588852 0.00073783426 -0.086765766 0.0356953 0.027228026
-0.0005098562 -0.002145776 0.056807067 -0.054720204 0.020552615 -0.05423457 0.04107728 -0.0040362044
0.0028653785 0.0068306867 0.022595054 0.019511886 -0.0058598947 0.026537329 -0.072341844 0.011947711
-0.63548785 -0.004078251 -0.00757627 -1.1674365 -0.046381477 -3.6676738e-05 -0.04581695 0.1797139
0.00027314754 0.0007936311 0.015537095 -0.00447781 5.0498907e-06 7.065228e-39 0.033079155 -0.027525516
0.02009033 0.038514756 -0.019055517 0.0035182585 -2.8494806e-33 -0.021955853 -0.019106919 0.042681806
-0.004931981 -0.10762692 0.00053782616 0.042221952 -0.07566978 -0.050425682 -0.11918378 -0.073006324
-0.020208312 -0.0368035 -0.1369418 0.002822958 5.918572e-07 -0.05059322 -0.05326136 0.021314502
-0.02290014 -0.034942154 -0.055619255 -0.009678331 -0.14271565 2.9109912e-09 0.0036770934 0.15254559
0.08510778 0.12122127 0.043760926 0.011709855 -0.032732308 -0.23000017 -0.0011968092 -0.03879479
-0.009614695 -1.3833027e-06 0.050511427 0.04929218 0.041501224 0.0033807843 0.40029496 -0.011389533
-0.019440249 -0.01285996 -0.15242974 0.009135416 -0.008293552 -0.009163707 -0.047146652 -4.907837e-05
-0.1744182 -0.021230733 -0.10658604 -0.017878143 -0.042095114 -0.009567649 -0.015754463 -0.044952948
-0.04484599 -0.016604677 0.002153362 0.07111477 -0.0028451157 -0.05781994 -4.096155e-05 -0.20243858
9.657058e-06 -0.071599774 0.06786285 -0.008257456 0.008021591 -0.00014886401 0.02873357 0.03193078
-0.04505017 -0.09366432 -0.004047036 -0.001156763 -0.018105816 0.02957259 -0.017526517 0.03694072
0.001145103 3.0920764e-05 0.16628022 0.00448721 0.0061045364 0.115364194 0.034779157 0.08504693
0.008721674 0.016509946 0.10101227 -0.17742316 0.022292204 -0.043952826 -0.001290804 -0.006334747
-0.0069031436 -0.0007944454 0.0076092826 -0.0061666695 0.010267633 0.0053936113 0.018737257 0.06572918
-0.6595996 -0.0063319416 0.025547601 -1.207465 -0.03149079 3.0283902e-05 -0.0075944355 0.13802396
-0.00080185256 -0.0010941227 -0.016978437 0.01427052 0.0015326929 -4.269192e-39 0.0039568366 0.014491486
0.042403657 0.013071399 -0.04239169 -0.011802126 -4.955956e-12 -0.019556826 -0.017865863 0.01267714
0.0019647833 -0.09787242 -0.0016939047 -0.13265933 0.06855573 0.29750502 -0.10530405 -0.09277538
-0.0005861754 0.05264906 0.21343899 -0.013999823 -1.1441461e-05 -0.00067136786 -0.0133891525 0.0688411
-0.036990013 0.012348026 -0.21091366 0.044989754 -0.048069075 0.00026896308 -1.2051813e-05 0.13446663
0.099573135 -0.027691219 0.018079277 -0.0065137097 -0.036756232 0.42075747 -0.012403564 0.0679572
-0.017591832 -0.0005885371 0.024178592 0.0025590507 -0.03490336 -0.0073831687 0.42503396 -0.029779647
0.004516082 0.016105013 -0.11259157 0.015831498 0.003767073 0.0021186806 -0.05416716 -0.000100204925
-0.16083932 0.0040474823 0.3883786 0.0145873185 -0.022607835 -0.024934974 -0.12144367 -0.00047423664
00000000: bdb2 d7bb f72e 5dba 9041 17bc 157e 3ebd
00000010: 5352 9bb1 6492 85bd 942e 3bb7 905c 42be
00000020: ef22 77b7 b995 83bd 77f1 a93e 2923 76bb
00000030: f8d4 b4bc f497 cc3a 9dbd 8cbd e539 953c
00000040: 3753 88bd 295a af3c 9e64 c7b9 6f50 70bd
00000050: dae9 b5bc 581b 143d 0272 59bc 9f22 ff3b
00000060: f497 b23c 80a1 0e38 76c4 7c3e 7f16 903c
00000070: 386b 413a 40b2 b1bd 3c35 123d 4f0d df3c
00000080: dfa7 05ba 26a0 0cbb 87ae 683d 4b22 60bd
00000090: f55d a83c 1225 5ebd a640 283d 2342 84bb
000000a0: 13c9 3b3b f4d3 df3b 4319 b93c 64d7 9f3c
000000b0: 5c04 c0bb d064 d93c f627 94bd 55c0 433c
000000c0: 55af 22bf d9a2 85bb 5c42 f8bb 8f6e 95bf
000000d0: 81fa 3dbd 59d5 19b8 8eaa 3bbd ec06 383e
000000e0: 3e35 8f39 ae0b 503a 4d8f 7e3c 98ba 92bb
000000f0: 3b72 a936 fbee 4c00 027e 073d 317d e1bc
00000100: 7a94 a43c a6c1 1d3d 511a 9cbc 9592 663b
00000110: c0b9 6c89 c3dc b3bc 1d86 9cbc 1ed3 2e3d
00000120: 759c a1bb 816b dcbd e7fc 0c3a edf0 2c3d
00000130: c2f8 9abd 298b 4ebd a016 f4bd 5784 95bd
00000140: e78b a5bc 44bf 16bd 793a 0cbe 6001 393b
00000150: 1ee0 1e35 d63a 4fbd 9528 5abd c09b ae3c
00000160: 1399 bbbc 811f 0fbd 04d1 63bd dd91 1ebc
00000170: 0d24 12be b30a 4831 64fb 703b e934 1c3e
00000180: fd4c ae3d db42 f83d a83e 333d b1da 3f3c
00000190: 5012 06bd 2a85 6bbe 41de 9cba 49e7 1ebd
000001a0: f486 1dbc eba9 b9b5 12e5 4e3d 99e6 493d
000001b0: 30fd 293d 2690 5d3b 76f3 cc3e 2a9b 3abc
000001c0: 2841 9fbc 95b2 52bc 8b16 1cbe b6ac 153c
000001d0: aee1 07bc 5f23 16bc d91c 41bd 80d9 4db8
000001e0: af9a 32be 13ec adbc c849 dabd 2f75 92bc
000001f0: ed6b 2cbd a1c1 1cbc 810f 81bc 9520 38bd
00000200: 6eb0 37bd 8806 88bc 6b1f 0d3b 9fa4 913d
00000210: 1f75 3abb 9ad4 6cbd 21ce 2bb8 0f4c 4fbe
00000220: c004 2237 e7a2 92bd aefb 8a3d 484a 07bc
00000230: fe6c 033c 6118 1cb9 aa62 eb3c d9c9 023d
00000240: 8786 38bd 14d3 bfbd 009d 84bb 879e 97ba
00000250: a652 94bc 3742 f23c c593 8fbc 274f 173d
00000260: 4817 963a ebb0 0138 5d45 2a3e 7209 933b
00000270: 9008 c83b 1044 ec3d 9774 0e3d 162d ae3d
00000280: 5ae5 0e3c de3f 873c 85df ce3d 6bae 35be
00000290: 249e b63c e107 34bd 3230 a9ba b693 cfbb
000002a0: c433 e2bb 5442 50ba 4a57 f93b c611 cabb
000002b0: 9339 283c e4bc b03b e07e 993c 059d 863d
000002c0: 85db 28bf 2d7c cfbb 3449 d13c 378e 9abf
000002d0: 7dfc 00bd 2f0a fe37 beda f8bb 2756 0d3e
000002e0: 6a33 52ba aa68 8fba 5d16 8bbc e6ce 693c
000002f0: a4e4 c83a c57c 2e80 5aa8 813b b36d 6d3c
00000300: 75af 2d3d 6c29 563c e9a2 2dbd b45d 41bc
00000310: 485f aeac a335 a0bc 6e5b 92bc c7b3 4f3c
00000320: 98c3 003b 5671 c8bd 0306 deba d9d7 07be
00000330: f266 8c3d 9452 983e a6a9 d7bd 0501 bebd
00000340: 91a9 19ba 8aa6 573d c08f 5a3e 835f 65bc
00000350: b3f4 3fb7 bcfe 2fba 2d5e 5bbc 90fc 8c3d
00000360: d782 17bd 604f 4a3c c0f9 57be 2d47 383d
00000370: 14e4 44bd 9d03 8d39 2532 4ab7 9fb1 093e
00000380: 00ed cb3d b2d8 e2bc fe1a 943c f570 d5bb
00000390: b48d 16bd 866d d73e 5138 4bbc 252d 8b3d
000003a0: bf1c 90bc 0e48 1aba 2f12 c63c bfb5 273b
000003b0: d3f6 0ebd 82ee f1bb 0d9e d93e 72f4 f3bc
000003c0: a4fb 933b a9ee 833c 6996 e6bd 0fb1 813c
000003d0: ffe0 763b 90d9 0a3b 62de 5dbd 1c25 d2b8
000003e0: 10b3 24be bea0 843b 8fd9 c63e a6ff 6e3c
000003f0: 1134 b9bc 6e44 ccbc 75b7 f8bd f7a2 f8b9

_encoder.2.bias f4 [64]
0.00775077 0.12919693 0.39986736 -0.08659928 -0.07106742 0.0710436 -0.12588601 -0.13607277
0.43577477 0.104269214 -0.13032503 -1.1490594e-38 -0.16406208 0.0011609318 4.6714056e-21 -0.0056788367
-1.499107e-16 -0.06973521 -0.053545058 -4.9888758e-08 -0.049472313 -0.3240996 -0.033393428 -0.0005923088
-3.720986e-38 -0.0883541 -2.7530092e-35 0.037072584 -0.09227328 -6.738622e-38 -4.2805812e-38 0.049591128
2.951219e-38 -0.0006534792 0.023855593 0.037346516 -0.005068147 0.38623857 -0.0024205144 -0.0005520847
-0.013740752 0.34195465 -0.055000857 -0.008214598 -0.00031808345 -0.05578007 -0.008115544 -0.050382692
0.29039007 0.26070163 0.5110908 -2.898082e-14 -0.33658952 0.20179835 -1.2906357e-08 0.08195935
-0.0057658553 0.40128106 -0.17945755 -0.090859994 5.031449e-39 0.0011682087 0.16044097 0.09916541
00000000: 2cfa fd3b 334c 043e 6abb cc3e f75a b1bd
00000010: cc8b 91bd 4f7f 913d 43e8 00be a956 0bbe
00000020: df1d df3e 198b d53d ed73 05be 1a1f 7d80
00000030: e4ff 27be 682a 983a 107b b01d 8915 babb
00000040: d4d5 2ca5 55d1 8ebd 1052 5bbd 4545 56b3
00000050: 7ba3 4abd 62f0 a5be 8cc7 08bd 2c45 1bba
00000060: fa96 4a81 fff2 b4bd 0560 1286 6cd9 173d
00000070: c6f9 bcbd 5771 b781 980e 6981 1120 4b3d
00000080: fdad 2001 3f4e 2bba ce6c c33c a9f8 183d
00000090: b312 a6bb 10c1 c53e 7ea1 1ebb c7b9 10ba
000000a0: e420 61bc ae14 af3e 9448 61bd 8596 06bc
000000b0: 70c4 a6b9 a579 64bd 0ff7 04bc 155e 4ebd
000000c0: 02ae 943e af7a 853e d9d6 023f 9c84 02a9
000000d0: 7655 acbe 3aa4 4e3e c2ba 5db2 4eda a73d
000000e0: 80ef bcbb b674 cd3e b8c3 37be ce14 babd
000000f0: a2c9 3600 941e 993a a34a 243e 3c17 cb3d

_encoder.4.weight f4 [12, 64]
0.10772994 -0.13257138 -0.04585099 0.60807467 0.033286966 -0.02314596 -0.099048674 -0.120278805
-0.061874676 -0.27686754 -0.05916881 -3.6728685e-09 -0.25396606 0.010450778 -1.0842864e-23 0.30496147
-0.0002251875 0.002022825 0.1929741 0.0029274256 0.017783636 -0.09398103 -0.005710293 0.021938857
1.4902855e-15 0.38949695 4.6949976e-05 -0.28040117 0.14592713 -7.681223e-39 -1.6443788e-10 0.12278387
-2.365011e-13 -4.3757477e-06 0.24718778 -0.008857712 -0.06980463 0.33827913 -0.04955822 0.048477206
0.07850692 0.25425053 0.061358843 -0.03485043 -0.010854715 0.05283777 0.033453554 -0.011086639
0.17829384 -0.007881023 0.037955903 2.7868974e-15 -0.1758818 -0.08560044 -0.00019218399 -0.014249252
-5.6136483e-05 -0.03437397 -0.23062786 0.012415275 5.8157246e-05 0.025860973 -0.055935446 0.047040686
-0.13675101 -0.116073266 -0.08814656 0.016135182 0.013571735 -0.0023540652 0.005114273 -0.0030149887
0.2398463 -0.47875088 -0.09990151 0.010890471 -0.032997243 -0.011321191 -3.3342882e-26 -0.18663491
0.019432506 -1.2615995e-38 -1.4132179e-38 -2.1448525e-17 -0.040983133 -0.10069627 0.23871575 0.018811693
2.7118055e-10 0.14757113 -0.027179934 -0.1496819 -0.06793643 -1.4276056e-38 -8.710553e-39 -0.052312564
-9.588372e-39 0.0018676932 0.024768014 -0.067866296 0.05471097 -0.37688237 0.003976118 0.00027585274
-0.010132249 -0.36200362 -0.036295913 -0.012333291 -0.021401368 1.138281e-38 0.0005813307 0.0040957243
-0.1990814 -0.016315024 -0.7615283 -6.5575115e-18 0.0114124315 -0.76187617 -0.019463787 0.057339877
0.012144624 0.03243059 0.03225634 0.06487398 -2.4279082e-08 0.003015065 0.09383144 -0.10535414
-0.091966614 0.21652852 -0.041257314 0.08484198 -0.04881706 0.023486983 -0.4814356 0.09124433
-0.25315198 -0.09557788 0.08576412 -5.118422e-39 0.09902278 0.024918422 -4.203047e-25 0.12633057
5.6192684e-06 0.26822826 0.18915132 -0.0014049963 0.20364802 -0.12056391 -3.1097063e-26 0.008416686
4.330665e-39 -0.1605027 5.147592e-38 0.0406697 0.04967685 1.3218939e-38 2.079759e-38 0.029087817
-2.2227951e-08 0.010304474 0.2563279 -0.19007105 -0.11750095 -0.31959954 -0.28957877 0.030665392
0.042861525 0.06542971 0.13915278 0.018507792 0.0010780315 0.49973834 0.0021404307 -0.02343857
0.064535595 0.058022644 -0.26647526 -3.2956496e-15 -0.1578522 0.13705869 -0.0021591552 0.051307224
1.8620395e-07 0.048261657 -0.03011773 0.3627076 -2.987243e-16 -0.008397129 0.07899068 0.0060962145
-5.801487e-12 -2.1872258e-06 -9.717523e-14 1.6677554e-38 -4.846835e-38 -1.6969064e-12 -6.6442416e-12 -1.11962106e-10
-1.8477408e-06 9.675416e-06 -2.479502e-10 -6.007951e-39 -1.5297488e-07 2.7684165e-38 -6.114138e-39 -2.841054e-08
-2.669857e-38 -1.2097687e-38 -9.193231e-19 -5.508269e-39 -1.0862218e-38 -3.1714993e-09 -1.2332108e-38 -1.2243226e-38
-1.703563e-38 -2.6014107e-21 -5.69683e-39 -8.742654e-09 -5.1450377e-38 -6.799392e-39 -7.554903e-39 -1.1495424e-09
-2.4968443e-38 -6.2365635e-38 2.125002e-39 -3.707916e-08 -4.0634244e-14 -4.23801e-06 1.6207326e-13 -1.2864478e-38
-4.6317852e-38 -3.992579e-05 -8.8270594e-17 2.606414e-38 -2.8907762e-38 1.4510539e-27 4.162168e-38 4.3914614e-38
-1.6583637e-06 4.9555825e-07 -0.0009289221 -5.4472866e-38 -1.5383464e-20 -0.00022126606 1.7589111e-28 1.1634761e-38
1.30717e-38 -0.00031733644 3.147922e-14 -4.859609e-39 -6.0016436e-38 4.2633177e-38 1.8824796e-18 2.285058e-12
00000000: 84a1 dc3d cbc0 07be 3fce 3bbd c8aa 1b3f
00000010: ea57 083d 999c bdbc 08da cabd bc54 f6bd
00000020: 4d70 7dbd 95c1 8dbe fe5a 72bd c965 7cb1
00000030: d707 82be bd39 2b3c 43bb 5199 e923 9c3e
00000040: 4f20 6cb9 5f91 043b 019b 453e 0dda 3f3b
00000050: fdae 913c 2079 c0bd 691d bbbb 1eb9 b33c
00000060: d5c5 d626 256c c73e 27ec 4438 be90 8fbe
00000070: ec6d 153e 20a4 5380 26cd 34af 1c76 fb3d
00000080: 6723 85aa 63d3 92b6 cb1e 7d3e f01f 11bc
00000090: bbf5 8ebd ec32 ad3e 8ffd 4abd 0990 463d
000000a0: 3cc8 a03d 202d 823e 6953 7b3d 53bf 0ebd
000000b0: f9d7 31bc 6b6c 583d 9806 093d bca4 35bc
000000c0: a992 363e 681f 01bc a677 1b3d 2fd1 4827
000000d0: 5c1a 34be 494f afbd ff84 49b9 b275 69bc
000000e0: 1774 6bb8 b8cb 0cbd b629 6cbe 7069 4b3c
000000f0: deed 7338 64da d33c 911c 65bd bcad 403d
00000100: 7508 0cbe d2b7 edbd 2f86 b4bd ee2d 843c
00000110: fb5b 5e3c a946 1abb a295 a73b 1e97 45bb
00000120: 459a 753e d61e f5be 2a99 ccbd f26d 323c
00000130: 1e28 07bd 847c 39bc 201b 2595 391d 3fbe
00000140: eb30 9f3c 4360 8980 c4e2 9980 e6d3 c5a3
00000150: eedd 27bd d939 cebd e771 743e fb1a 9a3c
00000160: 4515 952f e31c 173e 74a8 debc 3646 19be
00000170: 4122 8bbd d673 9b80 7ad9 5e80 b345 56bd
00000180: 7b68 6880 62cd f43a 4ae6 ca3c 7cfd 8abd
00000190: 9c18 603d baf6 c0be 184a 823b 54a0 9039
000001a0: bc01 26bc 8a58 b9be 06ab 14bd 9211 4abc
000001b0: ec51 afbc a5f2 7b00 7164 183a 6d35 863b
000001c0: ffdb 4bbe 16a7 85bc 85f3 42bf f2ed f1a2
000001d0: 35fb 3a3c 510a 43bf 8572 9fbc 38dd 6a3d
000001e0: 3ffa 463c f0d5 043d 391f 043d a6dc 843d
000001f0: 448e d0b2 6698 453b b32a c03d e9c3 d7bd
00000200: fe58 bcbd a7b9 5d3e 6efd 28bd a2c1 ad3d
00000210: 66f4 47bd c667 c03c ba7e f6be 4fde ba3d
00000220: 239d 81be 56be c3bd 19a5 af3d 14bc 3780
00000230: 75cc ca3d b821 cc3c f813 0297 cd5c 013e
00000240: 268d bc36 3755 893e e2b0 413e da27 b8ba
00000250: 1b89 503e 36ea f6bd 36fc 1995 24e6 093c
00000260: 2228 2f00 d25a 24be 7b21 8c01 4595 263d
00000270: f479 4b3d 06f1 8f00 3877 e200 9349 ee3c
00000280: c8ef beb2 19d4 283c 693d 833e fca1 42be
00000290: 57a4 f0bd 8da2 a3be ab43 94be fd35 fb3c
000002a0: 918f 2f3d 0300 863d 117e 0e3e a79d 973c
000002b0: bc4c 8d3a b4dd ff3e 7846 0c3b 3e02 c0bc
000002c0: 3d2b 843d 27a9 6d3d 726f 88be 017a 6da7
000002d0: 02a4 21be 1d59 0c3e 9d80 0dbb 8627 523d
000002e0: 5aef 4734 04ae 453d 75b9 f6bc d0b4 b93e
000002f0: ed33 aca5 1d94 09bc dec5 a13d c1c2 c73b
00000300: 261f ccac 41c8 12b6 b5d1 daa9 3c9a b500
00000310: 83f1 8381 7fd1 eeab 02c6 e9ac 1035 f6ae
00000320: e4ff f7b5 9853 2237 e34f 88af b96b 4180
00000330: 6a41 24b4 18ba 1601 bb93 4280 700b f4b2
00000340: 605c 1181 6ebb 8380 0bab 87a1 d0fa 3b80
00000350: 7247 7680 9bf1 59b1 e648 8680 2251 8580
00000360: 6880 b980 9a8e 449d 7208 3e80 9932 16b2
00000370: ae0f 8c81 f009 4a80 ff43 5280 edfd 9db0
00000380: eef0 0781 81c6 a981 a423 1700 f840 1fb3
00000390: 1800 37a9 3b34 8eb6 707a 362a ee14 8c80
000003a0: aa2d 7c81 fe75 27b8 c389 cba4 1ce8 0d01
000003b0: 8a63 1d81 bded e512 289c 6201 0a18 6f01
000003c0: f194 deb5 8106 0535 e882 73ba 0c4a 9481
000003d0: ef4a 919e a803 68b9 eef7 5e11 fbb0 7e00
000003e0: 9556 8e00 2d60 a6b9 12c5 0d29 9dea 3480
000003f0: 5a61 a381 fa1d 6801 09e7 0a22 f2cb 202c

_encoder.4.bias f4 [12]
0.14467877 0.59897196 0.026971752 2.3211224e-38 0.036878705 0.17484857 -0.012242407 0.13587537
0.78922176 0.75077957 -0.03433279 0.32180446
00000000: ac26 143e 3a56 193f ddf3 dc3c 73bf fc00
00000010: 200e 173d 810b 333e 6094 48bc ea22 0b3e
00000020: 700a 4a3f 1733 403f 8aa0 0cbd 8ec3 a43e

_encoder.6.weight f4 [2, 12]
-0.40542436 0.54459363 -0.00042615097 0.0134328455 -0.12913465 -0.25247842 0.0028549319 -0.065550335
-0.17452776 0.019760637 0.37343028 0.23612225 0.11430864 0.26671976 0.11834455 -0.004321706
0.2839068 0.22803015 0.009336024 -0.14589716 -0.066998094 -0.22149034 0.47061363 -0.25828966
00000000: c893 cfbe 7d6a 0b3f 046d dfb9 7015 5c3c
00000010: e03b 04be da44 81be cf19 3b3b 413f 86bd
00000020: 68b7 32be 0fe1 a13c 4132 bf3e 08ca 713e
00000030: a61a ea3d 7e8f 883e a15e f23d 199d 8dbb
00000040: 3b5c 913e bc80 693e 1ff6 183c 1166 15be
00000050: 4c36 89bd 5dce 62be 45f4 f03e 8b3e 84be

_encoder.6.bias f4 [2]
0.20560232 -0.23008285
00000000: 6a89 523e d79a 6bbe

_decoder.0.weight f4 [12, 2]
0.1127785 0.5701351 -0.39726087 -1.1277151 0.021068713 -0.014647738 -0.027541941 -0.16297771
0.53035927 0.3487338 0.8189396 0.025945857 0.10446145 0.26654848 -0.39715734 -0.0013046439
0.24320987 -0.6615725 0.04325196 0.015591801 0.67126614 -0.33061844 0.5357367 -0.20684955
00000000: 6af8 e63d 60f4 113f c765 cbbe f858 90bf
00000010: 4b98 ac3c 11fd 6fbc a39f e1bc a1e3 26be
00000020: a0c5 073f 3d8d b23e 07a6 513f 688c d43c
00000030: e2ef d53d 0b79 883e 3558 cbbe 9600 abba
00000040: 020c 793e d15c 29bf f828 313d c174 7f3c
00000050: 19d8 2b3f d246 a9be 0a26 093f 5ed0 53be

_decoder.0.bias f4 [12]
-0.21168283 0.4591948 -0.16843596 -0.7758171 0.41381222 -0.18407641 -1.8972437 0.11604149
0.36226213 1.511153 -0.083642155 0.54386795
00000000: 62c3 58be 951b eb3e 7a7a 2cbe f39b 46bf
00000010: 32df d33e 877e 3cbe e2d8 f2bf 29a7 ed3d
00000020: 6c7a b93e 766d c13f 944c abbd ee3a 0b3f

_decoder.2.weight f4 [64, 12]
-4.186297e-05 1.7792935e-38 -1.5924064e-38 -1.45121e-40 -4.3842473e-08 -1.5557883e-17 3.4489045e-10 -6.0136955e-08
1.1712174e-38 -5.363012e-21 -1.3081663e-38 2.0332164e-38 -0.0002415066 -0.00018614576 -1.6046786e-38 3.3918171e-38
-7.266262e-05 -3.168844e-05 -1.2778213e-10 -1.3507839e-09 -0.0001711228 -4.267027e-07 -6.461475e-05 -2.5284913e-05
-0.0279484 -0.07156953 -0.044890184 -0.0546489 -0.056758545 0.5858483 -0.27663934 -0.07347717
0.37825564 0.15013663 -0.70184845 -0.31951928 -0.028159602 -0.00940453 2.8496267e-38 -0.025032157
-0.0004291222 -0.008896886 -9.537202e-10 -0.032305416 -0.018727692 -0.012854842 -0.016304364 -0.014400755
-3.1699706e-06 -4.093609e-09 -3.003835e-39 -1.9769733e-38 -7.616813e-08 -9.596076e-16 -3.5507835e-13 -3.6087414e-11
-5.254837e-13 -5.5639396e-15 -3.3587827e-15 -4.9157665e-18 -0.04552949 -0.23025282 -0.025553979 -0.09910063
-0.5794397 0.07825258 -0.23317848 -0.014467766 0.013836988 0.13955155 0.19947703 0.08907761
-0.024740418 -0.042625315 5.25718e-39 -5.8511046e-10 -0.015088624 -0.034233857 -0.03475484 -0.038634885
-0.033051092 -0.030731248 -0.023015922 -0.02299457 -0.48922735 0.053834427 -0.008481329 -0.15625152
-0.2181238 0.042193953 0.00012101649 -1.2782419 0.61452675 -0.2677577 0.33297896 0.32470554
-0.4540603 -0.5832061 0.029566744 2.5945694e-38 0.069160394 0.118460655 -0.19775307 0.20376538
-0.70028836 0.37890935 0.096105225 0.08919371 0.010978719 -0.014150737 0.0071366727 0.089933455
-0.29230818 -2.7138443e-16 0.025189808 0.1769699 0.013486385 0.07047698 -0.22957277 -0.25201753
0.21183062 0.09568962 0.008543342 0.32132593 -0.09339684 0.40681192 0.50360763 0.2520542
-0.11697625 -0.3891551 0.25880566 -0.047332868 -0.23853724 -0.18892755 0.027852848 -0.13304363
-0.7124849 -0.50697833 -3.2374865e-05 0.08742451 0.27961132 0.13375646 0.07180233 -0.08400822
-0.225872 -0.16019426 -3.573212e-27 -3.5252912e-26 0.08140959 0.11186756 -0.0327634 1.2431113e-38
-0.0014134829 -0.25556955 -0.14017281 -0.0063782055 -8.390298e-07 1.281001e-39 -3.3700572e-38 -6.533671e-38
-4.6921244e-08 -3.1659134e-13 7.8395694e-13 -5.912314e-13 -2.515584e-39 -3.3024313e-24 -5.173653e-39 -3.556842e-39
-0.070582315 0.2255253 0.009048492 0.2408416 0.38650647 0.2381128 0.41560975 -0.061737448
0.038211703 -0.40788728 0.08491044 -0.1871994 0.28260922 -0.0997085 0.0024907452 -0.052437425
-0.69323003 -0.6208993 -0.32452863 -0.08681342 0.5837619 0.266506 -0.44689685 -0.19361089
0.03141336 0.4206453 0.0576945 0.12777126 -0.025237463 0.061392423 0.34603557 -0.179768
-0.19422856 -0.31689662 0.3807135 -0.31234252 0.5147081 0.011765562 -0.0008911107 -1.007856e-39
-0.03968219 -0.51784164 -0.0064788978 -0.39900404 6.4325177e-38 0.18450429 -2.290254e-05 -1.394155
1.2774697e-36 -0.012779302 3.3483337e-38 -8.003201e-06 -1.4252983e-15 -7.4256954e-05 -2.540808e-38 -0.0012832553
-0.011048266 -0.00052917755 -0.0052146604 -0.0035377867 -0.65032864 -0.34831092 -0.038212717 -0.088941194
-0.62212276 -0.049879055 -0.06669572 0.49773896 -0.04474871 0.2594442 0.157149 0.25061876
-0.7636646 0.32768053 -0.029575381 -0.09882451 0.044978816 0.22673137 -0.1829436 -0.08379865
-0.58692014 0.00976717 0.14150243 0.24744791 0.19819273 -0.43274477 -0.056513313 -1.962881e-38
00000000: 0696 2fb8 77bf c100 d065 ad80 8a94 0180
00000010: 4f4d 3cb3 037f 8fa3 049b bd2f a424 81b3
00000020: c788 7f00 df9b ca9d 5b72 8e80 cd65 dd00
00000030: ef3c 7db9 1f30 43b9 e9bb ae80 08ab 3801
00000040: 7262 98b8 34e9 04b8 797f 0caf 7ca6 b9b0
00000050: 6d6f 33b9 9315 e5b4 c881 87b8 f01a d4b7
00000060: 0bf4 e4bc 0c93 92bd c5de 37bd 86d7 5fbd
00000070: a67b 68bd 27fa 153f aca3 8dbe 337b 96bd
00000080: b9aa c13e 6bbd 193e 57ac 33bf 0898 a3be
00000090: f7ae e6bc 7515 1abc 0026 1b01 3d10 cdbc
000000a0: cffb e0b9 3fc4 11bc 0c14 83b0 af52 04bd
000000b0: d16a 99bc 1d9d 52bc bb90 85bc 25f1 6bbc
000000c0: aebb 54b6 c4a7 8cb1 78b5 2080 f945 d780
000000d0: df91 a3b3 464b 8aa6 2fe4 c7aa d1b6 1eae
000000e0: 17e9 13ab 4976 c8a7 9b06 72a7 1a5c b5a2
000000f0: 217d 3abd 65c7 6bbe 9456 d1bc 45f5 cabd
00000100: 2956 14bf e342 a03d 57c6 6ebe 350a 6dbc
00000110: 89b4 623c 9ae6 0e3e b543 4c3e 526e b63d
00000120: 6bac cabc e297 2ebd e13e 3900 7dd5 20b0
00000130: 4736 77bc cd38 0cbd 175b 0ebd 9d3f 1ebd
00000140: 9560 07bd 19c0 fbbc e38b bcbc 1c5f bcbc
00000150: 027c fabe 7d81 5c3d 46f5 0abc 6600 20be
00000160: d85b 5fbe 91d3 2c3d 3cca fd38 6e9d a3bf
00000170: a051 1d3f 8a17 89be 387c aa3e ce3f a63e
00000180: 977a e8be ff4c 15bf f535 f23c 0543 0d01
00000190: f7a3 8d3d 809b f23d c87f 4abe dfa7 503e
000001a0: 1946 33bf 6800 c23e d1d2 c43d 31ab b63d
000001b0: 16e0 333c 7ed8 67bc c0da e93b 082f b83d
000001c0: 6ba9 95be 4671 9ca5 db5a ce3c 9937 353e
000001d0: 00f6 5c3c 3c56 903d 2015 6bbe 7108 81be
000001e0: 20ea 583e ebf8 c33d 60f9 0b3c d584 a43e
000001f0: d846 bfbd a749 d03e 6eec 003f 400d 813e
00000200: 3f91 efbd 563f c7be 2d82 843e 1ce0 41bd
00000210: 1b43 74be 3976 41be a82b e43c 973c 08be
00000220: 6965 36bf 55c9 01bf 3fca 07b8 9f0b b33d
00000230: 3729 8f3e 74f7 083e 1a0d 933d 800c acbd
00000240: fd4a 67be f709 24be ad8c 8d93 6090 2e95
00000250: 12ba a63d d21a e53d ea32 06bd e35c 8700
00000260: 9e44 b9ba 03da 82be 7689 0fbe 4400 d1bb
00000270: b039 61b5 e9f2 0d00 be7b 3781 0bdd b181
00000280: 7486 49b3 9f39 b2aa 0daa 5c2b b66a 26ab
00000290: 6d64 1b80 6483 7f98 0a56 3880 07bb 2680
000002a0: 768d 90bd 1bf0 663e 2040 143c 2e9f 763e
000002b0: 2de4 c53e d8d3 733e cdca d43e 68e0 7cbd
000002c0: e083 1c3d 9ad6 d0be 86e5 ad3d 33b1 3fbe
000002d0: 28b2 903e f833 ccbd c53b 233b a0c8 56bd
000002e0: 8677 31bf 42f3 1ebf 9e28 a6be 3ccb b1bd
000002f0: 6b71 153f 7973 883e aacf e4be ef41 46be
00000300: 4cab 003d d25e d73e 1151 6c3d 78d6 023e
00000310: ccbe cebc 9f76 7b3d 932b b13e 1a15 38be
00000320: dae3 46be 4640 a2be e1ec c23e 5ceb 9fbe
00000330: e9c3 033f 58c4 403c 6d99 69ba 7ef9 0a80
00000340: cb89 22bd 4591 04bf ef4c d4bb 424a ccbe
00000350: 1b1c af01 b1ee 3c3e d51e c0b7 ac73 b2bf
00000360: a759 d903 4760 51bc f64c 3601 7d45 06b7
00000370: 3a68 cda6 66ba 9bb8 b255 0a81 e732 a8ba
00000380: c903 35bc 81b8 0aba bedf aabb 36da 67bb
00000390: f07b 26bf cf55 b2be f084 1cbd cd26 b6bd
000003a0: 7043 1fbf fb4d 4cbd c497 88bd a4d7 fe3e
000003b0: 6c4a 37bd dfd5 843e abeb 203e 1a51 803e
000003c0: 867f 43bf bec5 a73e 1248 f2bc 8164 cabd
000003d0: b53b 383d 452c 683e 9155 3bbe a09e abbd
000003e0: 6640 16bf 7b06 203c 03e6 103e fc62 7d3e
000003f0: 09f3 4a3e b990 ddbe 817a 67bd 23bd d580

_decoder.2.bias f4 [64]
5.4767175e-32 -7.957391e-10 0.4546361 -0.012125412 -6.5060996e-22 0.42635855 -0.023665788 0.13512114
0.42360196 0.021033112 -1.9881221 0.5968058 0.16371983 -4.21281e-39 -1.0730807 0.057180513
-1.3462362 -0.099957004 -0.00018330777 0.51447445 0.16502194 0.19199234 0.70278996 0.02083554
0.6731645 0.25865468 0.10785885 -0.03176581 0.579644 0.13789137 -6.546711e-09 0.09815826
-0.0018027854 -0.18190865 0.034728065 0.26764688 0.5859257 -0.2389535 -0.007643019 0.7888186
0.4179086 0.5030991 0.4624627 -0.06341748 0.2280984 -0.1548528 0.7661039 -1.4722273
0.19579467 -3.064403e-05 0.3255905 0.52055776 0.51553994 0.188745 0.5608412 -0.033218496
-0.18645804 0.29625732 -1.4023604 -6.633074e-27 0.00068182853 0.54661065 0.5647856 0.043167077
00000000: 082f 8e0b 29bb 5ab0 10c6 e83e aaa9 46bc
00000010: 82a2 449c ab4b da3e c1de c1bc 325d 0a3e
00000020: 5be2 d83e a24d ac3c c97a febf 44c8 183f
00000030: 2ca6 273e 9adf 2d80 b55a 89bf 1d36 6a3d
00000040: 7851 acbf 42b6 ccbd 4e36 40b9 99b4 033f
00000050: 83fb 283e a499 443e 0bea 333f 4baf aa3c
00000060: 8254 2c3f 636e 843e 1ae5 dc3d de1c 02bd
00000070: 8d63 143f 6533 0d3e 7bf1 e0b1 3307 c93d
00000080: 714b ecba 4346 3abe 043f 0e3d 0309 893e
00000090: 3aff 153f 3ab0 74be 4a72 fabb 04f0 493f
000000a0: 1ef8 d53e 1acb 003f e9c7 ec3e 06e1 81bd
000000b0: a192 693e bb91 1ebe 631f 443f f271 bcbf
000000c0: 667e 483e c787 00b8 ccb3 a63e 4643 053f
000000d0: 6dfa 033f 5f46 413e 4a93 0f3f 1e10 08bd
000000e0: dbee 3ebe 0aaf 973e 8c80 b3bf ae61 0394
000000f0: bdbc 323a adee 0b3f ca95 103f f6cf 303d

_decoder.4.weight f4 [128, 64]
3.404805e-39 -0.0017086341 -0.025433142 0.002102369 -7.7866124e-20 0.03310347 -0.018373366 0.42897892
-0.18465723 -0.11727519 -0.8519997 0.2808386 -0.0001978487 2.8814204e-22 -0.6835105 -0.31690943
-0.5463433 0.13966991 -0.000110165034 0.12580991 -0.12100423 -0.21012838 0.15219781 -0.14916645
0.22748868 -0.028292159 -0.19974987 0.07007404 -0.12913398 -0.02188297 5.1797558e-18 0.0005324513
-0.0008024454 0.0603652 0.11305213 -0.16163976 -0.26705572 0.012688247 -0.005329271 0.05835328
0.13716388 -0.11280141 -0.16489154 0.035754338 -0.19638534 -0.88577783 -0.052214604 -0.20456588
-0.28729826 4.4149736e-05 0.0030353027 -0.37685263 -0.08684578 0.037648506 -0.13812782 -0.05381346
0.10186604 -0.15117049 -0.08639569 -2.7108517e-38 0.02341277 -0.04238074 -0.36496595 -0.0352083
8.257011e-39 2.5063854e-38 -0.16675289 -3.3504357e-38 2.860206e-39 -0.0261357 -0.007033433 -0.41626826
0.42721555 -0.00050483714 -0.029010812 -0.113063805 0.020553397 -1.5045124e-38 -0.0382192 -0.023949118
-7.597922e-11 -1.9247062e-14 1.14134e-38 -0.1027034 0.21578057 -0.23629977 0.07468317 0.09260928
-0.21138602 0.08979239 0.034544002 -0.00022051942 -0.010670054 -0.07176297 -1.1283842e-38 0.25106227
3.7425958e-38 -0.2835434 -0.17858723 0.17747359 -0.2313225 -5.600834e-06 -0.00015515726 0.009434683
-0.07505525 -0.13700935 -0.17334116 0.055993307 -7.6935416e-05 -0.020083088 -0.049128033 -1.8788391e-08
-0.007486786 1.7474721e-15 -0.005516362 -0.09343905 0.16673385 -0.17413908 -0.023587294 -0.0008876708
-0.01850542 0.11828483 -6.482491e-39 -3.2186312e-38 -0.0037529222 0.17602812 -0.09330906 -0.0013224385
-2.1973608e-38 -8.503385e-39 -6.3784156e-15 6.164444e-38 -6.0915e-40 -3.537654e-18 3.263796e-39 -8.816124e-14
-1.9782707e-14 2.5499073e-17 1.928018e-14 -6.717656e-18 4.9437244e-38 2.0182375e-38 1.2858616e-14 -4.0656967e-15
4.686765e-39 -1.0442936e-13 1.4186335e-38 -1.204971e-16 -2.5408866e-14 -1.9152906e-14 -5.1752493e-14 -4.1840344e-14
-2.5977921e-14 -1.5787569e-13 -2.4173716e-13 -1.3132198e-13 -1.1699552e-15 -1.4091585e-14 2.880883e-38 -2.3350053e-13
4.0274887e-38 -6.316142e-15 -1.4437716e-14 -1.863126e-14 -1.4802848e-14 -6.6717257e-15 1.591337e-39 -1.3985761e-13
-8.277334e-18 -2.95683e-14 -1.015859e-14 1.2631618e-38 1.6910679e-17 -2.354656e-13 -3.9010922e-14 -5.0835117e-18
-8.313565e-14 -2.4104948e-38 -7.142545e-15 -2.669146e-15 5.0993363e-38 -1.4372084e-14 -2.3177217e-14 -8.57846e-39
-1.1493963e-14 -3.5045355e-14 7.5173936e-19 1.9223005e-38 -4.422453e-39 -2.4937527e-14 -1.964798e-18 4.212561e-19
4.4345043e-38 5.552312e-38 -0.0067970203 2.959834e-38 6.080059e-39 -0.019487018 -3.7076788e-38 -0.050166596
0.03208303 -0.060255673 -0.06663453 -0.020957166 -1.8818698e-38 3.4152076e-38 -0.010046732 -0.030767761
-0.0028433318 -0.060178753 6.783989e-39 -0.030054202 -0.009016463 -0.016120838 -0.01406828 0.019866811
-0.06732304 0.00049579825 -0.006030085 0.004383598 -0.039547957 -0.014772134 5.962403e-39 0.008733625
2.1570008e-38 -0.034101773 -0.016232597 0.011297691 -0.057915572 -0.048974566 -5.690312e-38 -0.00700903
0.020048397 -0.037674468 -0.073142104 2.5806114e-38 -0.035442717 -0.011067083 -0.022844896 -0.062074807
0.0001512727 -5.632152e-38 -0.04772717 -0.04465977 -0.0002184364 -0.0037366066 0.00032606605 0.012585772
-0.0074454234 -0.017004963 -0.054305777 6.989079e-38 1.1592981e-38 0.024816927 0.012098346 0.011239407
00000000: 3613 2500 3ff4 dfba 2a59 d0bc e6c7 093b
00000010: 2fdb b79f 8197 073d be83 96bc 20a3 db3e
00000020: c916 3dbe fa2d f0bd a71c 5abf 14ca 8f3e
00000030: 9b75 4fb9 d22b ae1b 8bfa 2ebf f441 a2be
00000040: 28dd 0bbf a105 0f3e 6708 e7b8 50d4 003e
00000050: 11d1 f7bd e52b 57be bed9 1b3e 17bf 18be
00000060: cbf2 683e f5c4 e7bc 3b8b 4cbe fa82 8f3d
00000070: b33b 04be ea43 b3bc 6919 bf22 3494 0b3a
00000080: 335b 52ba 8041 773d e087 e73d e584 25be
00000090: 87bb 88be 5de2 4f3c 2aa1 aebb d903 6f3d
000000a0: b074 0c3e 6d04 e7bd 54d9 28be 2473 123d
000000b0: 3d19 49be 56c2 62bf fbde 55bd b879 51be
000000c0: c218 93be 6b2d 3938 eeeb 463b d4f2 c0be
000000d0: 33dc b1bd 5235 1a3d 6171 0dbe 816b 5cbd
000000e0: 249f d03d 70cc 1abe 39f0 b0bd c297 1381
000000f0: 23cc bf3c 6d97 2dbd d1dc babe 9436 10bd
00000100: 30e9 5900 ea75 0801 45c1 2abe 426a 3681
00000110: 1725 1f00 891a d6bc b678 e6bb 1d21 d5be
00000120: ffbb da3e 0c57 04ba 15a8 edbc ff8d e7bd
00000130: 995f a83c afd3 a380 bc8b 1cbd f130 c4bc
00000140: 8014 a7ae b45c ada8 ea47 7c00 2956 d2bd
00000150: 95f5 5c3e 91f8 71be 7df3 983d efa9 bd3d
00000160: 9475 58be 13e5 b73d 037e 0d3d 3b3b 67b9
00000170: 73d1 2ebc 77f8 92bd c3de 7a80 3c8b 803e
00000180: 2cc4 4b01 9a2c 91be 92df 36be a3bb 353e
00000190: cedf 6cbe ccee bbb6 b6b1 22b9 ee93 1a3c
000001a0: 91b6 99bd 2e4c 0cbe 5880 31be 3d59 653d
000001b0: 6358 a1b8 4a85 a4bc 7a3a 49bd 1c64 a1b2
000001c0: b753 f5bb 57d6 fb26 99c2 b4bb f95c bfbd
000001d0: 47bc 2a3e 8451 32be 243a c1bc 94b2 68ba
000001e0: ae98 97bc 513f f23d 8c96 4680 2c3d 2f81
000001f0: 96f3 75bb b740 343e d218 bfbd ac55 adba
00000200: 7b45 ef80 fa97 5c80 80ce e5a7 e8cf a701
00000210: 10a2 0680 3384 82a2 238a 2300 7f85 c6a9
00000220: d12f b2a8 fc2f eb23 11a9 ad28 78d6 f7a2
00000230: bb94 8601 40c4 db00 e6a3 6728 6f7b 92a7
00000240: cb08 3300 6d27 eba9 bb79 9a00 77ec 0aa5
00000250: dbdc e4a8 9883 aca8 9012 69a9 a26e 3ca9
00000260: 02fd e9a8 92c0 31aa ff15 88aa fcda 13aa
00000270: ba9b a8a6 f7d9 7da8 a6d9 1c01 f972 83aa
00000280: 0047 5b01 2190 e3a7 1b0b 82a8 c3d0 a7a8
00000290: 0b55 85a8 cf5f f0a7 0054 1100 3677 1daa
000002a0: 9bb0 18a3 ee29 05a9 3a00 37a8 d08b 8900
000002b0: 36f9 9b23 2b8e 84aa 88b0 2fa9 698c bba2
000002c0: 7034 bba9 653d 0381 2dab 00a8 0e55 40a7
000002d0: 30d1 8a01 c573 81a8 06c3 d0a8 4269 5d80
000002e0: 8c0e 4fa8 8bd4 1da9 d2df 5d21 eb51 d100
000002f0: 0028 3080 069e e0a8 fcf9 10a2 6caa f820
00000300: f86f 7101 f825 9701 8ab9 debb 1126 2101
00000310: bb34 4200 3da3 9fbc 80dd 4981 7d7b 4dbd
00000320: 7f69 033d a7ce 76bd af77 88bd 5dae abbc
00000330: e0ea cc80 0cf1 3901 0c9b 24bc ac0c fcbc
00000340: 3157 3abb ff7d 76bd 00df 4900 3b34 f6bc
00000350: c9b9 13bc d90f 84bc a57e 66bc b9bf a23c
00000360: a9e0 89bd 75f8 013a 0598 c5bb 49a4 8f3b
00000370: 0afd 21bd d206 72bc c1ec 4000 7a17 0f3c
00000380: 68e0 ea00 4dae 0bbd 39fa 84bc f319 393c
00000390: e138 6dbd 8e99 48bd b0e7 9a81 01ac e5bb
000003a0: 893c a43c 8b50 1abd 87cb 95bd 7980 0c01
000003b0: 622c 11bd b652 35bc 3825 bbbc 2742 7ebd
000003c0: f59e 1e39 5f52 9981 917d 43bd 2aed 36bd
000003d0: 130c 65b9 dbe1 74bb d8f3 aa39 8e34 4e3c
000003e0: bdf8 f3bb fe4d 8bbc bc6f 5ebd c642 be01
000003f0: 843c 7e00 de4c cb3c 2438 463c 7d25 383c

_decoder.4.bias f4 [128]
0.16993347 0.030725129 -2.84307e-14 -0.045571264 0.088690996 -0.025203455 -1.6035125e-05 -0.04274816
0.1165558 -0.03315132 0.14161628 -0.001016622 0.18792526 0.0065819374 0.12312159 -0.4448085
-1.8640925e-05 0.13366549 3.0533e-40 -0.0798101 -2.511094e-09 -0.0025200543 -0.7510794 -0.007302925
0.11049335 -0.13128978 0.90251356 -0.0063632904 -0.9753328 -0.27537566 -3.0580396e-16 -0.029286362
0.011374677 0.0024364297 -1.1073613e-27 -0.040231556 -0.056941375 -1.1967046e-05 0.16259353 0.030099308
0.075252 -0.028309762 -0.010375785 -0.002389616 -0.00048075206 -0.04212365 -3.0446747e-05 0.2632703
0.047797598 0.090328395 -5.9368487e-38 0.45349306 -1.138721e-11 -1.1008096e-10 -0.015630819 -0.00019976206
-5.187646e-16 -0.044969365 0.29426882 -0.001609077 0.5095666 0.057094645 0.32875687 -2.943048e-38
-0.016309207 -0.04244721 0.23019508 -4.428653e-09 -0.00025920226 -0.029161578 0.27792692 0.31038135
-0.03064271 -0.019598924 -0.0019405317 -0.039438862 -0.0711467 -0.2775718 -0.030543072 0.094416834
-0.02859251 0.09753096 -7.075445e-06 0.0013067066 -8.1950384e-11 0.55924827 -1.9126128e-06 -7.86543e-26
0.17670085 0.010376832 -4.5648832e-17 -0.00013048881 -1.8274382e-14 0.118640706 0.2507788 -0.00058992393
-3.1706358e-09 0.009573576 8.703518e-39 -0.0007261652 0.24593422 -1.39348075e-30 -0.7077564 -0.0015850276
-0.010933822 0.13234922 0.11464731 -3.3881635e-05 -7.9527126e-07 0.088075526 0.03360347 -1.3744773e-28
0.27076283 0.09771917 -0.0076929713 -1.1093756e-08 0.25982842 -0.013032631 0.25168622 -4.338394e-10
-0.043116387 -0.4015252 0.40735132 0.17028984 -1.8880052e-21 -0.03594398 0.14075091 0.24629492
00000000: 0a03 2e3e 44b3 fb3c 5e0a 00a9 efa8 3abd
00000010: a0a3 b53d 7a77 cebc 2b83 86b7 b218 2fbd
00000020: cfb4 ee3d aec9 07bd dc03 113e 2c40 85ba
00000030: 7b6f 403e 4bad d73b 2c27 fc3d f1bd e3be
00000040: 155f 9cb7 9bdf 083e 2353 0300 7a73 a3bd
00000050: a28f 2cb1 7f27 25bb bd46 40bf 604d efbb
00000060: 564a e23d d470 06be 210b 673f 2683 d0bb
00000070: 69af 79bf 0afe 8cbe b348 b0a5 f4e9 efbc
00000080: da5c 3a3c 82ac 1f3b e977 af92 d8c9 24bd
00000090: 5c3b 69bd 12c6 48b7 eb7e 263e d392 f63c
000000a0: b81d 9a3d e0e9 e7bc 32ff 29bc 1b9b 1cbb
000000b0: 730d fcb9 d989 2cbd e467 ffb7 5dcb 863e
000000c0: 6ac7 433d 18fe b83d cc9d a181 3e30 e83e
000000d0: 6f53 48ad 1212 f2ae 340c 80bc 3877 51b9
000000e0: 1286 15a6 cc31 38bd 67aa 963e aae7 d2ba
000000f0: f572 023f 13dc 693d d252 a83e 1a3c 2081
00000100: e39a 85bc 20dd 2dbd 42b8 6b3e d82a 98b1
00000110: 8ae5 87b9 43e4 eebc 704c 8e3e 4eea 9e3e
00000120: 6c06 fbbc ec8d a0bc 7059 feba a58a 21bd
00000130: 5cb5 91bd e41d 8ebe 7735 fabc 9d5d c13d
00000140: d73a eabc 50be c73d 9c69 edb6 cc45 ab3a
00000150: f735 b4ae e52a 0f3f 705a 00b6 16bd c295
00000160: 11f1 343e 9703 2a3c a184 52a4 d3d3 08b9
00000170: db99 a4a8 e6f9 f23d 1466 803e 20a5 1aba
00000180: 6ae2 59b1 7dda 1c3c dec5 5e00 1f5c 3eba
00000190: 2ed6 7b3e ed1a e28d 862f 35bf b3c0 cfba
000001a0: c623 33bc 8e86 073e 35cc ea3d 211c 0eb8
000001b0: a07a 55b5 f160 b43d cba3 093d 573c 2e91
000001c0: 6da1 8a3e fd20 c83d 5215 fcbb db96 3eb2
000001d0: 3b08 853e d186 55bc 04dd 803e 7881 eeaf
000001e0: cf9a 30bd b694 cdbe 5a90 d03e 7660 2e3e
000001f0: 55a7 0e9d ff39 13bd 0221 103e bc34 7c3e
