yeeef_workspace/ckpt/e0050.pt (torch_old, 882114 bytes, 16 tensors)

_encoder.0.weight f4 [128, 784]
00000000: 7510 263c 1d68 113c 6b90 8c3b 6977 a73b
00000010: 4348 a33b f234 ab3b 5fbb a73b 6338 a23b
00000020: 6a94 9c3b d819 0a3a bebe 2a3b 9521 963b
00000030: adbc e239 968d 243b 2604 883b 8e99 193b
00000040: 5b57 a83b a779 443b 157a b93a 6914 8739
00000050: c9ed 8e3b 1bde a73b 1edf b33b 9466 a53b
00000060: 77c7 a93b b6e8 af3b 35c6 a73b 4b6a d83b
00000070: 1510 263c 8234 0e3c abb8 673b c79c a03b
00000080: dd19 983b 20fe 893b 005c 2b3b bda1 30ba
00000090: 8cfb dfb9 653d 9bbb f7f8 5fba ac3b 12ba
000000a0: 21b2 a6bb d62f 07bc d126 a2bb 034e fabb
000000b0: 1023 8abb 3b2a 30bb ee12 aebb ab19 01bc
000000c0: f40a fdba 2af5 1f3b 7e46 1b3b d4ae 4d3b
000000d0: fe02 873b 29c0 8e3b 962c 903b 54b8 923b
000000e0: 920e 263c f759 103c 757f 7c3b 3e0b af3b
000000f0: 4370 983b 30a0 ae3a 2c98 9cba f673 523b
00000100: 2e63 1c3b 8df0 36bb dfe8 79bb 2535 66ba
00000110: 02c1 cdbb 22a7 f4bb ba41 dbbb cbcc b5bb
00000120: c5ef a6bb 897d 30bc cf41 94bb 9515 89bb
00000130: f8ef 35bb 3a9b 73bb 9d35 62ba 0863 423b
00000140: d187 643b b3d4 8b3b 7f39 953b 406e a73b
00000150: 7562 263c 967d 123c 0f2c 823b b244 b03b
00000160: eee2 813b d92f b9ba e107 803b 41e5 6a3b
00000170: c972 e639 3a1c 99bb 94af 8e39 8b61 33bb
00000180: 99fc 8739 308c 81bb 3520 81bb 7767 97ba
00000190: fab7 32bb f90f a8bb 82b0 90bb 0b1d 9cbb
000001a0: 4bdc 9a39 0de3 29ba e212 c2b8 0984 953b
000001b0: 9cfe 9b3b 82be 943b e056 943b 905e aa3b
000001c0: 69bc 263c 3cd6 0f3c 34ea 8a3b 7d67 9b3b
000001d0: 6955 8e3b 68db 253c d5aa 803b 3b98 c63b
000001e0: 75b1 753a e59e 14bb 1d9d dcb8 5614 a0ba
000001f0: 36be 3bba d7f8 163a 11b2 813a 31e6 5d3a
00000200: 5be3 203a 831f 8cba 9aa2 8bba 9331 8aba
00000210: 03f6 0a3b db61 b03b a044 173c 27c6 e43b
00000220: e671 aa3b ed3f ae3b 3da5 943b be96 ac3b
00000230: 1259 263c 7982 0e3c 11ee 893b dc60 a43b
00000240: 16d6 0b3c e152 4c3c 4d00 3f3c e653 6f3b
00000250: 9062 9c3a 322e 1dba 5248 0eba 79ee e9ba
00000260: f3a1 9bbb c9ef 80ba 1ad1 9438 89c1 5038
00000270: b909 baba 0b2d 9fbb d1f6 b9bb 84c4 8fba
00000280: 8e35 683b 5656 6d3c 113a 5e3c 7363 143c
00000290: 06db b13b 37f6 a53b aa13 9a3b f4ba a53b
000002a0: 8075 273c 8c6c 093c 7bc8 9d3b 51a0 093c
000002b0: d255 483c 95f9 5c3c 8178 6b3c 07ec 063c
000002c0: 2ba0 93ba 7337 f4ba fa16 85bb 6b49 1bbb
000002d0: df07 85ba 4339 65bb 8bb3 4abb c46e 263a
000002e0: 9175 26bb 4882 07bc 77ce 08bc 5e34 8bbb
000002f0: bf55 4d3b b902 723c 9efe 173c f397 393c
00000300: 13aa ec3b ad8e cd3b e461 a93b 6f8c 9a3b
00000310: 5ba6 3f3c c0a5 6c3c 65b6 bb3b ab39 6d3b
00000320: 134d 75bb de61 85bb 8321 b7b8 854e 8fbb
00000330: 7690 85bb fa56 3bbb a4b2 71bb 54dc 6cbb
00000340: 3392 53bb da29 29bb 4446 66bb 0fd3 3ebb
00000350: 6d11 7cbb 20cc 5bbb 37b7 a1bb a1ef 0abc
00000360: de49 3e3b 6d90 0dbb cf48 7fbb 7f84 beba
00000370: 1521 aabb 26c3 a1bb 6a45 4b3a a1e3 923b
00000380: 6b5d 443c 2a03 833c 60f9 313c bda4 4bbb
00000390: f7f7 feba 89fe 27bb 3f6d 10bb e323 51bb
000003a0: cca4 05bc b0d5 3bbc 776e 0ebc d220 d5bb
000003b0: ca36 2ebc f397 1dbc 3669 d9bb db1e f9bb
000003c0: 1875 4fbc 13b0 1ebc cbd4 04bc 4f6f 6fbc
000003d0: 78e5 0abc dc93 09bb 839e a6bb 1b65 c0bb
000003e0: 0698 e9bb 548d c7bb 64ab 8fbb f889 1dba
000003f0: 4a59 4a3c be37 6a3c bb9c 033c ad9f 5ebb
0.01013576 0.00887492 0.004289677 0.0051106703 0.0049829795 0.0052248174 0.005118772 0.0049505695
0.0047784345 0.0005268133 0.0026053633 0.00458164 0.00043246654 0.0025108806 0.004150885 0.0023437473
0.0051373667 0.0029979737 0.0014150763 0.00025764413 0.0043618423 0.0051229126 0.005489244 0.0050476287
0.0051812488 0.0053683175 0.0051200637 0.006604468 0.01013567 0.008679511 0.0035357873 0.004901502
0.004641755 0.0042112023 0.0026147366 -0.0006737968 -0.00042721292 -0.0047375434 -0.00085438736 -0.000557835
-0.0050871526 -0.008251151 -0.004948475 -0.0076386943 -0.0042156056 -0.002688064 -0.005312315 -0.007879655
-0.0019305632 0.0024407604 0.002369314 0.0031384723 0.0041202297 0.0043564034 0.0043998463 0.00447754
0.01013531 0.008810512 0.0038528119 0.0053419163 0.0046520545 0.0013322886 -0.0011947206 0.0032112575
0.0023862827 -0.0027914376 -0.0038133187 -0.0008781723 -0.006279112 -0.007466213 -0.006691185 -0.005548095
-0.0050945007 -0.010772117 -0.0045244466 -0.004183481 -0.002776144 -0.003717138 -0.0008629205 0.0029661078
0.0034870992 0.004267299 0.004553973 0.0051095784 0.01015531 0.008941075 0.0039725373 0.005379283
0.0039638197 -0.001412864 0.0039071892 0.0035842212 0.0004395454 -0.0046725543 0.00027215166 -0.0027371373
0.00025937406 -0.003953479 -0.003940607 -0.0011551221 -0.0027270303 -0.005128857 -0.0044155726 -0.0047642044
0.000295373 -0.00064806716 -9.254158e-05 0.004562859 0.0047605764 0.004539312 0.004526958 0.005199261
0.010176756 0.008779105 0.004239345 0.0047425614 0.004343678 0.010123111 0.0039266148 0.0060606278
0.00093724515 -0.0022677716 -0.00010519682 -0.0012213092 -0.00071618275 0.0005759126 0.0009894987 0.0008464782
0.0006137394 -0.0010690544 -0.0010653317 -0.0010543339 0.0021203763 0.005382759 0.00923267 0.0069816294
0.005201566 0.005317679 0.0045362995 0.0052669933 0.010153072 0.008698099 0.004209288 0.0050164293
0.008534929 0.012470932 0.011657787 0.0036518513 0.0011931229 -0.00059959583 -0.00054276467 -0.001784756
-0.0047495305 -0.0009837087 7.096138e-05 4.9771308e-05 -0.0014193571 -0.0048576645 -0.0056751748 -0.00109686
0.0035432312 0.014485916 0.013563649 0.009056914 0.005427721 0.0050647515 0.004702051 0.005057687
0.010220885 0.008387696 0.004815159 0.008400039 0.012227492 0.013487239 0.014371992 0.008234984
-0.0011262944 -0.0018632248 -0.004061577 -0.0023694884 -0.001014944 -0.0034976758 -0.003092977 0.0006348903
-0.0025399665 -0.008270808 -0.008350006 -0.004248186 0.0031331626 0.014771157 0.009277014 0.011327731
0.007222423 0.006273112 0.00516914 0.004716448 0.011697377 0.014443815 0.00572853 0.0036197703
-0.0037429973 -0.0040705046 -8.732362e-05 -0.004373374 -0.004076059 -0.0028585778 -0.003688016 -0.0036142068
-0.0032283186 -0.00258123 -0.0035137096 -0.00291175 -0.0038462535 -0.0033538416 -0.004935171 -0.008479984
0.0029035727 -0.0021600977 -0.003895331 -0.0014535337 -0.005191932 -0.0049365936 0.0007754179 0.004482702
0.011985163 0.01599272 0.010862678 -0.0031073533 -0.0019452561 -0.0025633893 -0.0022037772 -0.003191226
-0.008156966 -0.011464521 -0.008693329 -0.0065041566 -0.01063318 -0.009618747 -0.0066348566 -0.007602555
-0.012662195 -0.009685534 -0.008107374 -0.01461394 -0.008477561 -0.0020992672 -0.005084814 -0.0058714277
-0.0071287183 -0.0060898457 -0.004384445 -0.00060096337 0.01235039 0.014295517 0.008032973 -0.0033969686

_encoder.0.bias f4 [128]
00000000: b301 26bc c120 bd3b eff1 73a1 9f0c 143e
00000010: 5af4 7cbc 4e5a 52b4 d413 66bc e420 0ebe
00000020: 687a a0b6 34df 15bd b1a5 313c ef7c a2b9
00000030: f07c 57b8 4945 583c f840 5b3c 6498 3abb
00000040: 8414 d13c dae6 1abc 0865 33bd da07 03b6
00000050: 1852 1fbb 62bb 93bc f623 a3bc 404b 6fbd
00000060: 068a a9ba 0249 93b8 9972 91bd b8f4 d1bc
00000070: 5e9e e4af 5667 d23b abe2 63bc d5d8 afbc
00000080: 0ada 39bc d885 85bd f933 823e 116f e6bd
00000090: 21a4 243d 13c0 02bd 98b0 62bc 7c4b 34bb
000000a0: bab1 07bc 25cc fdbc 1279 1b3c 47f4 b53c
000000b0: 0aab 60bc 6198 14bd 13f4 8abc b84a f5bc
000000c0: 98bf 81bd 3943 ba3c 484b c6bc b1b6 b43e
000000d0: 08a5 b6bb e228 acb6 c311 d93c fcb1 31be
000000e0: e1f1 05ad b9b3 c1bc 4e1a 6dbc 485c ec3d
000000f0: 41ea 02bc 9beb e8b8 f6cf febc 299f cab9
00000100: 5ba9 cebc 7477 11bd f771 89bc c482 723d
00000110: 9668 babc cc34 a03c dd6b bfba 779d 16a5
00000120: 671b 1aac 50f3 7dbd ecfd a3a7 3a0e 0abb
00000130: 7b68 05be 6b65 d6bd e48e 25bd 440c 4fbe
00000140: f122 ebbb ba67 413e 42de b0bd 7f39 97bc
00000150: dc4b 39bc 6ac0 943c d256 6fb7 2167 8ebc
00000160: fcfc ffba d0f5 c08b fb54 8ebd f412 ffbc
00000170: a265 32be c71d 6892 4415 ef3d 26ad 853d
00000180: bc28 80b9 e9b0 96bd c228 3ab4 8e2a ce3c
00000190: 1310 a9bc 8840 b0bd 717c adbc 3253 6fbd
000001a0: 3dc0 0bb2 3ece 4abc 3d87 bd37 ef6f 3cbd
000001b0: 2c27 63bc 4629 01bd df10 a1bd ec49 77bd
000001c0: 85f7 7bbc 8984 133d 757b 233d febf 4e3d
000001d0: 2432 c43d 4d92 ffbc 8abc a0b6 6d29 31bc
000001e0: e823 26bd 3896 cabc 7beb 04be 8cf4 6cbd
000001f0: 6ab4 81bd fa46 25bd a145 3d3d 3405 dfbc
-0.010132241 0.005771727 -8.26518e-19 0.1445794 -0.015439117 -1.9590627e-07 -0.014042813 -0.13879734
-4.7826215e-06 -0.036589816 0.010842727 -0.0003099213 -5.137635e-05 0.013200113 0.013382189 -0.002847218
0.025522478 -0.009454453 -0.043797523 -1.9525091e-06 -0.0024310406 -0.018033687 -0.019914608 -0.058421373
-0.0012934811 -7.023105e-05 -0.07101936 -0.025629386 -4.1585485e-10 0.00642101 -0.013909022 -0.021465698
-0.0113434885 -0.06519669 0.25430277 -0.11251653 0.040195588 -0.031921457 -0.013836049 -0.0027510813
-0.008282119 -0.030981133 0.009489315 0.022211207 -0.013712654 -0.036278132 -0.016962087 -0.029942855
-0.06335372 0.022737132 -0.024205819 0.35295632 -0.0055738725 -5.130759e-06 0.026497727 -0.17353052
-7.613883e-12 -0.023645269 -0.014471604 0.11541039 -0.007990421 -0.00011106507 -0.031105023 -0.00038647026
-0.02522724 -0.03551431 -0.016777975 0.05920674 -0.022754949 0.019556426 -0.0014604289 -1.3063777e-16
-2.1899928e-12 -0.06199962 -4.551689e-15 -0.0021065609 -0.13028137 -0.10468563 -0.040419474 -0.20219523
-0.007175796 0.18887225 -0.08636142 -0.018460033 -0.01130959 0.018158156 -1.42657245e-05 -0.01738316
-0.0019530351 -7.432557e-32 -0.069498025 -0.031136967 -0.17421582 -7.3242995e-28 0.11673978 0.06527166
-0.00024444412 -0.07357962 -1.7337427e-07 0.025166776 -0.020637548 -0.08606058 -0.021177502 -0.05842895
-8.134575e-09 -0.0123782735 2.2593531e-05 -0.046005186 -0.01386432 -0.031533502 -0.07864546 -0.06037323
-0.0153788375 0.036015067 0.03991266 0.050476067 0.09579876 -0.031197691 -4.7903204e-06 -0.010813099
-0.040561587 -0.024729833 -0.12980454 -0.057850406 -0.063332394 -0.04035089 0.04620898 -0.02722416

_encoder.2.weight f4 [64, 128]
00000000: 9c7e 3d3c b48d a03d a7ba efbc 445b bdbc
00000010: 0fc5 01bd 32ed b73b 311a 26bd d9c1 87bd
00000020: 7b7d 3480 9dfb d7bd 6301 db3e 68b2 ccb9
00000030: 9c82 89bc 323f adbc 76ef fe3c 324c 71bc
00000040: b2b2 cfbd e666 993d 6a68 4dba 671e 1c3c
00000050: a257 3b3c 94a1 6c3b 30b1 7ebc 21da 713a
00000060: 8a62 d839 e720 9bbb cb9b 913e 67b9 8bbb
00000070: c66b b03c 80ff 15be 1aee 1f3d 8390 3fbc
00000080: 5f99 933c cc5a fc3c 8a7d 5e3d f03e 3c3c
00000090: d6a0 bf3d c604 f5bc e022 193c 3542 74bc
000000a0: 2170 93bc e647 b8bc 859f bfbd f629 5ebc
000000b0: bf78 ca3c fbef 4b3d 74d2 cd3b 599f 8c3c
000000c0: 2760 58bf 975f a93c 7caa 23bc 8460 c1bf
000000d0: 859c 983c 052b d53a f388 693c 15b9 2b3e
000000e0: bd8a 863b 100f 50bd f9fd 83bc 21be a3bc
000000f0: 093c 113d 8c38 fdbc 0f2b a9bb 4dea 04bd
00000100: f432 453c af09 e53c 4a23 93bc 10fe 903c
00000110: 6cdc 96bd aab8 253d 81d3 08bd 8027 f8ba
00000120: 676d 9cb9 5add 69be 4d8a 14bb 5816 06bc
00000130: a9cc 87bd 3f61 39be 4ecf 63bd 26b5 c6bd
00000140: 44dc 0d3d 1205 ec3c df7c 18be 62e4 09bd
00000150: 2e3c 3fbc 028c 4abe 5d8b f7ba ef7d 003b
00000160: 27d3 9d3c a9bc aeb8 2afb 77be 59d9 16bc
00000170: af3b 2fbd 1000 c8b0 3def 47b9 f81e ee3d
00000180: c314 733b d00a aebc fc46 54b3 4a97 f83c
00000190: e502 50bc 04ee dbbe aa33 e43c fe4a 83bd
000001a0: 2f25 e43b f2e3 0ebc fef1 4d39 b440 033e
000001b0: cb26 ed3c 0367 debb 80ee 8b3e e7c7 32bc
000001c0: abb5 a43b db3e c0ba e451 b1bd 03b5 103b
000001d0: 058b 58bc d7e6 9dbb 046c df3c 0660 7a3c
000001e0: baca c13c 79d7 c4bb dc2e dabe c09b a7bb
000001f0: 1e20 e03c 3162 82bd 785d 0bbd 5590 77bc
00000200: c89c 38bc 8e61 dabd c181 93bb b88a 003e
00000210: 3876 00bc 3640 ea3b 0a18 b5bb 05a1 4abe
00000220: 972b a480 f9b3 5ebe 762a c93d febf 8d3d
00000230: 0a61 0fbb a55c ddbc 98df 503d b906 c53c
00000240: 62fe 0dbe ebe4 17bd e309 b7bd 3d0c a1bc
00000250: 1ae3 003b dc18 0dbd 04f7 ecbb 586a 1dbc
00000260: 0519 0fbb f45b c33a 2e4d 383e 3f66 f5bc
00000270: 393e a8bc 951b 1a3e ae5c 88bc 396a 86bc
00000280: b445 e9bb 0de5 5abd 71c0 773d 61ab 30be
00000290: de00 b2bd 2c05 f7bd c622 c0bc e105 853c
000002a0: 7b1f 11bd 5a54 e6bc b428 b93a 7b67 c1bc
000002b0: 3d20 933c 56e3 6a3c d943 c5bc ed90 16bc
000002c0: 2203 55bf 1eea bdbc 63a7 42bd eb6d a7bf
000002d0: ded4 24bc 74f7 14bc 9813 60bc 24c7 253e
000002e0: a653 903b 54b6 15bd e8f2 60bc f975 973c
000002f0: 8035 b4bc 01bb fdbb e03c 603b 24a5 883c
00000300: 5cf5 de3c 4045 47bc 87fc 0f3d c7a8 f7bd
00000310: bfdd 37bd e005 a7bd 1eb1 eabc 691d 123c
00000320: 941f b9b1 1818 c8bd 70b9 b4b9 8f0f 593c
00000330: b80f 1d3e f8e3 693d 75d5 8ebd d5e9 46bd
00000340: a84d 80ba f0f8 103d b921 873e b0f4 66bc
00000350: ee54 623d 88ee 1cbe 23eb 3ab8 8e3f 923c
00000360: 3054 1ebc c1e1 a63a e0cf d2be 93d3 9e3d
00000370: b32d 73be f0d0 f12f 14d6 aa3c a3a9 e83d
00000380: cbe3 173c cf49 88bd b913 0839 391b fbbc
00000390: 1e1a 603c 169a e53e 5c4c f03c d92d d1bc
000003a0: d256 873c df30 e3bc 9d8c 3839 e5ae 56bd
000003b0: 0f9d e6bc 9086 9ebc b860 813e 88b8 b4bd
000003c0: c469 4eba 265b 05ba 0c68 5fbe 3070 66bd
000003d0: dad1 6dbb bfa5 f4bc 7951 e23b e9a9 363a
000003e0: a143 61bc 9635 b7bc fcb8 b53e fff2 43bc
000003f0: f2ca ebbc 933f 20be 0304 c1bc 77d1 cbbc
0.011565831 0.07839528 -0.029263807 -0.023114808 -0.03168207 0.0056129927 -0.04055232 -0.066287704
-4.82046e-39 -0.10546038 0.42774495 -0.00039042835 -0.016785912 -0.021148298 0.031120043 -0.014727639
-0.10141505 0.074903294 -0.00078356883 0.009528733 0.0114344675 0.003610705 -0.0155451745 0.0009225924
0.00041272148 -0.004734147 0.28439173 -0.004264045 0.021535765 -0.14648247 0.03904543 -0.011692169
0.018017469 0.030805014 0.054318942 0.011489615 0.09356849 -0.029909503 0.009346694 -0.014908363
-0.017997803 -0.022495221 -0.09356598 -0.013559809 0.02471578 0.04978941 0.0062811915 0.017165827
-0.84521717 0.020675464 -0.009989377 -1.5107579 0.018629322 0.0016263431 0.014253843 0.16769822
0.0041058944 -0.050795615 -0.016112315 -0.019988121 0.035457645 -0.030910753 -0.0051626037 -0.03245001
0.012036074 0.027958719 -0.017961163 0.017699271 -0.07366261 0.040459312 -0.03340483 -0.001893267
-0.0002983615 -0.22838345 -0.0022665442 -0.008184038 -0.06630833 -0.18103503 -0.055617623 -0.0970252
0.03463389 0.028811011 -0.14891385 -0.03366507 -0.011672063 -0.19779971 -0.0018886138 0.0019606312
0.019265724 -8.332107e-05 -0.24216905 -0.009207093 -0.042781528 -1.4551933e-09 -0.00019067242 0.116270006
0.0037091232 -0.02124539 -4.9424656e-08 0.030345578 -0.012696003 -0.4295503 0.027856667 -0.06410788
0.0069624404 -0.008721339 0.00019640473 0.12817651 0.028949162 -0.0067871823 0.273304 -0.010911918
0.0050265393 -0.001466717 -0.086581975 0.0022080548 -0.013216739 -0.004818778 0.027273186 0.015281683
0.023656238 -0.0060071317 -0.42613876 -0.0051150024 0.027359065 -0.06366385 -0.034024686 -0.015110095
-0.011267848 -0.10663138 -0.004501552 0.12552917 -0.007840686 0.007148768 -0.0055265473 -0.19787987
-1.5076658e-38 -0.21748342 0.09822552 0.06921385 -0.0021877908 -0.027021715 0.050994486 0.024051057
-0.1386657 -0.037083548 -0.089374326 -0.019659156 0.0019666613 -0.034447536 -0.007231595 -0.009607874
-0.002183498 0.0014904724 0.17998192 -0.029955981 -0.020537483 0.15049584 -0.016645756 -0.016408073
-0.007118905 -0.053441096 0.06048626 -0.17252876 -0.08691572 -0.12061533 -0.023454081 0.016238155
-0.035430413 -0.028116394 0.001412651 -0.023608914 0.017959708 0.014336428 -0.024080204 -0.009189826
-0.83207905 -0.023182925 -0.047522914 -1.3080419 -0.010060517 -0.009092201 -0.0136765465 0.16189247
0.004404503 -0.036550835 -0.013729788 0.018488871 -0.021998167 -0.00774324 0.0034215972 0.016680308
0.027216606 -0.012162507 0.03515294 -0.120927386 -0.044889208 -0.081554174 -0.02864891 0.008918145
-5.3877987e-09 -0.097702205 -0.00034470437 0.013248338 0.15338027 0.057102174 -0.069743074 -0.048562843
-0.0009788768 0.035393655 0.26392916 -0.014096424 0.055256777 -0.15325367 -4.4564844e-05 0.01785257
-0.009663627 0.0012732075 -0.4117422 0.07755198 -0.23747902 4.3986104e-10 0.020854034 0.11360481
0.009270619 -0.06654703 0.00012977318 -0.03065263 0.013678102 0.4484412 0.029333286 -0.025534557
0.016520891 -0.027733264 0.0001759999 -0.052412886 -0.028151063 -0.019351274 0.25269103 -0.08824259
-0.00078740367 -0.00050871295 -0.21817034 -0.056259334 -0.0036288411 -0.02986419 0.006906685 0.00069680676
-0.013749034 -0.022364419 0.35492694 -0.01195979 -0.028783295 -0.15649252 -0.023561483 -0.024880154

_encoder.2.bias f4 [64]
00000000: 8f62 d13d 36b6 123e f63b b73e 40e2 04be
00000010: 4d11 0dbd c456 98bb 6f26 9cbd 5880 0dbe
00000020: bcce ef3e 4af4 db3d 9399 3ebe 8fc4 90bc
00000030: 8626 65be 4a84 2cbb aac2 86aa 1010 08bd
00000040: 48e9 b881 5d24 bfbd 3815 f0bb 3b21 aaa3
00000050: 92d7 1fbd db7e 8cbe f774 ef3c 882a f59b
00000060: da9d f78d 7c33 d9bd 24c4 ab00 f6f2 a23c
00000070: 0d16 0abc 73c8 a6b4 be8e 7999 2fcd 03ba
00000080: e09d b281 9166 0280 9ca5 593d 57bd 7d3d
00000090: 32a8 41b9 a8e5 b53e b893 2d3d 8b22 c7bb
000000a0: b24e 3d81 dc30 e83e aa46 c9bd bd6e b19e
000000b0: 5620 8f97 9dc5 553c 9ee1 ecba 39bd 6316
000000c0: 9d17 903e 974b ac3e 5025 dd3e be1d 00bc
000000d0: 2847 82be 00dd 9b3d 8b15 1f9d 6346 b63d
000000e0: 67be c7bb dcf2 b03e 1486 0ebe 414c 64bd
000000f0: 3577 0e00 e03b 9f81 5816 a73d 7054 413e
0.10223877 0.1432732 0.35787934 -0.12976933 -0.034440327 -0.004649015 -0.07624518 -0.1381849
0.46837413 0.10739954 -0.18613271 -0.017671851 -0.22377977 -0.0026323968 -2.3938257e-13 -0.033218443
-6.792567e-38 -0.093331076 -0.007326748 -1.844551e-17 -0.039023943 -0.27440533 0.029230578 -4.0559335e-22
-1.5260552e-30 -0.10605523 1.5774232e-38 0.019891243 -0.008428109 -3.1065755e-07 -1.2901825e-23 -0.0005027828
-6.561341e-38 -2.20465e-40 0.053136453 0.061948147 -0.00018468572 0.35526776 0.042377204 -0.006077116
-3.477028e-38 0.45349777 -0.09827931 -1.8786404e-20 -9.249321e-25 0.013047603 -0.001807261 1.8396622e-25
0.28143016 0.3365142 0.4319253 -0.007819591 -0.25444913 0.07610512 -2.1054612e-21 0.08900144
-0.006095696 0.34560287 -0.13918334 -0.055736784 1.32846e-39 -5.849329e-38 0.081585586 0.18879867

_encoder.4.weight f4 [12, 64]
00000000: ebc5 883e 32e9 80bd c4fd 76bd 1c8f 383f
00000010: 143c 573d e984 48bd 785a 513d ee88 2fbd
00000020: 4aa5 21be 9672 c9be ac5d 68bd 4f30 49bd
00000030: e10f f6be 4066 103d 580b 5d3c 66e0 323e
00000040: 8d80 90bb 4055 af3d 2714 8d3e b894 c33b
00000050: 803c fa3d c120 31bd c477 35bd bdb5 0a3c
00000060: 4fd2 ab3b 8c83 bb3e af62 8aba a164 85be
00000070: 5367 203d 39d3 4fbb 24f6 b0b5 63bd 863d
00000080: ca3e 68aa 2d5a c5ba a3b2 463e d4f5 dcbc
00000090: 61b6 a5bd 6ffa 633e 3481 5abd 0efa 2abc
000000a0: d215 4681 db0c 5d3e 8f0b 463e 598e 58bc
000000b0: ef5b ac3a d948 6b3d 925b 503c 9d5d 3917
000000c0: d005 793e 6424 2c3d 00d2 6b3d fb52 2dbd
000000d0: 7278 b3bd 176a e63c fac1 95bc 5772 a03d
000000e0: e508 18bd 44ab 93bc 8d9d 3bbe 1f88 943d
000000f0: 69ac 0435 133f 2200 0aa3 20bd 182a 913d
00000100: 88dc 51be bf85 0dbe ea8c 5abe 838e e43c
00000110: 0e54 68bb dddd e6bc aeb1 f3bc 18be 023e
00000120: 3f8c 503e 2029 2fbf ab51 96bd 6d32 9abc
00000130: bb57 c2bd 0acb 583c 422f 4eb8 0a86 5abd
00000140: 0d32 7f3a d24e 8900 6d25 21be e026 d63a
00000150: aee8 ceab 189a adbd c2d5 a23e e49d 3881
00000160: 2923 cdbc 56e8 823e 3195 01a9 eb37 efbd
00000170: f217 c43b 6685 253c 66b4 cb38 8593 0c3d
00000180: 3d99 800d 94f8 d732 121c b5bc 420e a93d
00000190: a5f3 183d 31c6 b1be efab 8d3d 972a c3bc
000001a0: 9167 253c 0eaa d9be 3289 ed3c 2cbd 6d3c
000001b0: 8ded ca37 89b4 a0bd 3a9f dd3a baf2 1619
000001c0: 6765 8fbe 9fdb 7ebe 9ad0 13bf e44e 38bc
000001d0: 2932 873c aaf5 bebe 2f48 c53c 16a8 f53c
000001e0: 5849 233e 2297 7c3d 9146 c33d 94b3 0b81
000001f0: 7764 b034 f93c 0531 e944 843e be09 64be
00000200: 2ac3 c3bd 01ff 8c3e 8f93 5f3c 1059 45bd
00000210: 1fae 633b d432 3abe 630f e4be 506a efbd
00000220: 856f 91be 78b1 11bc 8d22 213d 4f1c a131
00000230: 0288 9b3d 39a4 e93c e073 0eb9 8ded 6dbd
00000240: b273 be36 5ea5 0cbd 3ebc 773e be47 c939
00000250: 9de3 a63d d7dc 45be db46 2e16 c676 07b4
00000260: da4b deaf cdad b3be defa 3935 3279 aabc
00000270: d550 b73c d0cb 99bc 9ce6 e727 f655 1b9e
00000280: 06a9 0580 f550 42b6 3b77 b23a 6151 a6be
00000290: 52e4 5624 c162 89be 6c1f 10bf 02c1 b7bb
000002a0: 8b1e 8600 f9e2 673d e4c0 a33e b513 e0b9
000002b0: 97dd a9b3 9f85 133f b914 24bd 7a3d 2209
000002c0: 9953 393d d51c f03d b989 32be 76cc 483c
000002d0: a5ac 05be 9de6 1f39 921a 0439 b874 ac3c
000002e0: 2067 d30b 9ae3 d13d 596c b2bd 2f48 963b
000002f0: 2a7a 4380 16d8 9080 3ce9 18bc 35ae f0bd
00000300: 1468 373d 2728 80bd 2369 0f3e 3366 13bc
00000310: 2c8a 01be 11ee 58bd bf72 0ebb 83f7 fcbd
00000320: 0009 b6bd f3f5 f4bd 1c44 a63d f113 bd3c
00000330: c259 92bd 4de2 0117 846b 6301 8114 d4bc
00000340: 1a3b 6db1 e301 25bd 1ae9 d3bc a1bb 36ab
00000350: 307b b3bb fbe5 d83d 4d17 55b2 7fc6 0d01
00000360: 644e 2281 0984 1fbd 7208 3e80 dd50 8e3d
00000370: 1dae 1bbd e187 a21a 2082 2700 4c2f 65b0
00000380: e8d2 6900 8645 028c 0e5f a0bd d221 d0bc
00000390: 5b4b 4e00 7e5e 533d 8900 7b3d a00e 1481
000003a0: 1809 7d81 fb32 efbd 9734 2abd c4b7 c580
000003b0: e94a 1113 412a 0cbc 839c 9f3a f853 058c
000003c0: e147 283d 0f8c c1bb 7487 2cbd 5d36 1435
000003d0: 8a2c 28be 565e 1ebc 7f40 80b3 aa25 b3bd
000003e0: 8f09 85b2 56a9 bcbd 11c4 e8bd e484 45bd
000003f0: 5a61 a381 f417 7101 c263 7dbb 72ac d4bd
0.267135 -0.062944785 -0.060300604 0.7209337 0.05254753 -0.048954878 0.05111167 -0.042855196
-0.15785709 -0.39345235 -0.056729957 -0.049118336 -0.4805899 0.035253763 0.013491474 0.17468414
-0.0044098557 0.08561182 0.27554438 0.0059686564 0.12218571 -0.043244127 -0.04430367 0.008466181
0.0052435766 0.366238 -0.0010557974 -0.26053336 0.039161038 -0.0031711592 -1.3184658e-06 0.065790914
-2.0627524e-13 -0.0015056782 0.19404082 -0.026972689 -0.08091427 0.22263502 -0.053345874 -0.010435594
-3.6382512e-38 0.21586935 0.19340347 -0.013217532 0.0013149957 0.05744252 0.012717145 5.989488e-25
0.24318624 0.042026892 0.05757332 -0.042315464 -0.087632075 0.02812676 -0.018280972 0.078343086
-0.037117857 -0.018026002 -0.1832182 0.072525255 4.942472e-07 3.145034e-39 -0.039217986 0.07088107
-0.20494282 -0.13820551 -0.21342817 0.027899986 -0.003545049 -0.028181965 -0.02974781 0.12767828
0.20366 -0.68422127 -0.07339796 -0.018822873 -0.094893895 0.013232002 -4.915824e-05 -0.053350486
0.0009734936 1.2609738e-38 -0.15736933 0.001633849 -1.4701762e-12 -0.08476657 0.3180371 -3.3908744e-38
-0.02504118 0.25567883 -2.8773157e-14 -0.116805874 0.0059843 0.010102605 9.713396e-05 0.034320373
7.9255e-31 2.5142334e-08 -0.022108112 0.082546726 0.037341733 -0.3472152 0.06917559 -0.02382402
0.010095493 -0.42512554 0.028996084 0.014510434 2.4190895e-05 -0.07846934 0.0016908415 7.8038365e-24
-0.2800705 -0.24888466 -0.57740176 -0.011249278 0.01650341 -0.37296802 0.024082271 0.029987376
0.15945947 0.06166757 0.09534944 -2.565911e-38 3.2855652e-07 1.9388706e-09 0.25833824 -0.22269341
-0.09558709 0.27538303 0.013646021 -0.04818064 0.0034741235 -0.18183452 -0.4454299 -0.116901994
-0.28405395 -0.0088924095 0.03933959 4.688935e-09 0.07594301 0.02852069 -0.00013585342 -0.058087874
5.67591e-06 -0.034337394 0.24192902 0.0003839116 0.081488825 -0.19322525 1.4077966e-25 -1.2616064e-07
-4.043546e-10 -0.35093537 6.928293e-07 -0.020809744 0.02237741 -0.018773943 6.4365407e-15 -8.223408e-21
-5.19812e-40 -2.8955376e-06 0.0013615856 -0.32483962 4.6597248e-17 -0.26833156 -0.56297946 -0.005607725
1.2316913e-38 0.056612942 0.319831 -0.00042739292 -7.909983e-08 0.57625765 -0.040058825 1.9528947e-33
0.04524574 0.11724249 -0.1743535 0.012255779 -0.1305414 0.00015249332 0.00012598399 0.02105175
8.142941e-32 0.1024849 -0.08712072 0.0045862417 -6.196802e-39 -1.3301828e-38 -0.009332951 -0.11751977
0.04477699 -0.062576585 0.1400495 -0.008996534 -0.12650365 -0.052961413 -0.0021735874 -0.123518966
-0.08888435 -0.119609736 0.081184596 0.023080798 -0.07146026 4.196778e-25 4.1770454e-38 -0.025888683
-3.4521634e-09 -0.040285002 -0.025867987 -6.4919776e-13 -0.0054773316 0.1059074 -1.240353e-08 2.6040024e-38
-2.9810943e-38 -0.038944278 -5.69683e-39 0.06949017 -0.038007844 6.7221154e-23 3.628264e-39 -8.337693e-10
9.718386e-39 -1.0035757e-31 -0.0783063 -0.025406752 7.190201e-39 0.051603787 0.061279807 -2.71938e-38
-4.6475286e-38 -0.11679646 -0.04155406 -1.8157515e-38 1.8338507e-27 -0.008554996 0.0012177381 -1.0271216e-31
0.041084174 -0.005906589 -0.042121366 5.5213405e-07 -0.1642324 -0.009666046 -5.972196e-08 -0.08747418
-1.5487585e-08 -0.09211986 -0.11365522 -0.048222438 -6.0016436e-38 4.4281895e-38 -0.0038664197 -0.10384454

_encoder.4.bias f4 [12]
00000000: 5abc 3e3e 0331 5e3f e52e 7dbd 41d6 38bd
00000010: 5510 4dbd 5316 cb3c 3468 ac3e b490 9d3e
00000020: e85b 5a3f 0dbc 3f3f 3dae e83a 0837 083e
0.18626538 0.86793536 -0.0618123 -0.045126203 -0.050064404 0.024790918 0.3367325 0.30774462
0.8529649 0.7489632 0.0017752122 0.13302243

_encoder.6.weight f4 [2, 12]
00000000: be2c c9be f601 283f da85 113d d3b6 033d
00000010: 5447 17be 80d8 76be 4abc 4c3e b4c4 893d
00000020: df20 0abe fa16 673d 64fe ba3e bebf 7c3e
00000030: 5a24 c93d 2418 863e dc9c 443e 2e85 dd3d
00000040: 4f7d 923e 389b 8f3e 3e92 ab3c 6306 77be
00000050: c4dc babd 3e98 68be b85a 093f 0753 8ebe
-0.39291948 0.6562799 0.03552804 0.032156777 -0.14773303 -0.24106026 0.19993702 0.06726971
-0.13489102 0.056418397 0.3652221 0.24682519 0.09821387 0.26190293 0.19200462 0.10816418
0.28611228 0.2804811 0.020943757 -0.2412353 -0.09124139 -0.22714326 0.5365405 -0.2779772

_encoder.6.bias f4 [2]
00000000: b1c6 413e 1fd9 83be
0.18923451 -0.25751588

_decoder.0.weight f4 [12, 2]
00000000: fd46 923d cc31 0e3f 97de b2be 008e 97bf
00000010: aac4 3dbb cb27 15bb a130 40bd 1ade 41be
00000020: 77ac 0b3f 7ce0 a23e 3828 4f3f 2c3a 4a3c
00000030: fbee fe3d 6658 843e 1957 debe e256 00bd
00000040: bd9b 1d3e f896 2ebf a006 1c3d 3e1c 40bb
00000050: 5d31 2f3f 5b34 c2be 610c 003f e13f 7fbe
0.07142446 0.55544734 -0.34935448 -1.184021 -0.0028956332 -0.0022759314 -0.046921376 -0.18932381
0.54560035 0.31811893 0.80920744 0.012342971 0.12447926 0.25848693 -0.43425825 -0.031332858
0.1539144 -0.6819911 0.038092256 -0.0029313709 0.684347 -0.3793057 0.5001889 -0.24926712

_decoder.0.bias f4 [12]
00000000: 36f7 0cbe 7ec1 c83e 753a dbbd 9a5f 56bf
00000010: bec3 a53e 5661 45be 88f3 01c0 82b2 e53d
00000020: e063 d53e 3e4e dc3f fe02 07be 49b0 233f
-0.13766178 0.39210123 -0.10704509 -0.83739626 0.32375902 -0.19275412 -2.030489 0.11215688
0.4167776 1.7211378 -0.13184735 0.63940865

_decoder.2.weight f4 [64, 12]
00000000: a61e 85bd 386f f0bc 3820 9301 00a6 0cbd
00000010: 69d8 3fbd dbc2 7bbd 6633 75bc 7520 913c
00000020: 0984 cdbc 5668 5dbd 585e a8bc ca25 c4bc
00000030: e3e8 21bc f319 cfbc 223f 7100 0353 d2b8
00000040: ba2f a7bb 1769 8dbb a67c 1bb9 6061 a9bc
00000050: 1837 09bc b6fc 85bc 9c12 25bb b790 aabb
00000060: abb8 78bd 0fa7 19be 099e 88bc 6aaf 27bd
00000070: f5fc 52bd e773 293f 4d2a 9abe 50b2 07be
00000080: 4565 de3e b7c6 2f3e cec5 5abf 6b25 97be
00000090: a1e9 06b4 989c 08a0 2785 1a91 4e04 b299
000000a0: e99b 449f 48a3 f09f c7cf fb15 d835 00b2
000000b0: baee f5a0 ba5b 07a0 d15a 9aa0 60f8 9aa0
000000c0: 913b a2bb 4fc9 033a 78b5 2080 ae9c cd38
000000d0: 7737 a0bb 3c00 08b9 62f7 803a 32bb 1cbc
000000e0: 3eb7 33bb d898 00bc fcaf 1cba 7233 8cb9
000000f0: 913e 6dbb 5b14 3abe 5a5b 843b bec8 2dbe
00000100: f6d4 59bf d5e7 3e3d d136 b6be 71a5 cdbc
00000110: ea9c bc3c 3c93 4c3e 317f 373e 0cc5 613d
00000120: 8adb 39ba 96c1 c2b8 0623 6001 5f7f 9011
00000130: ea3e d9ac 5a55 1397 9fa3 30a4 eb7e d9b7
00000140: a28c 69b1 1394 22b5 4d31 7080 e29c c401
00000150: 001a 01bf 872c 66bc ad34 173d e6c3 5fbe
00000160: 86ba 88be c020 083d 137a 3a3e 6b03 9bbf
00000170: 4f7c 0f3f 4397 b8be eac4 b63e 31c9 9d3e
00000180: 1b64 05bf 5a52 2abf 44e6 033c d8d1 47a9
00000190: cb82 993d 381a 053e 2e7c a7be 0e22 573e
000001a0: 85f2 3fbf f6ab d43e bead d43d b221 f23d
000001b0: dfd8 edbc aee6 76bc 409b 0536 6625 a83d
000001c0: 7a2f f0ba c9fd d6b7 e87c 06bd 6cd8 193c
000001d0: 4076 a63d 54fb e1bd 39f2 a3bd c5fb 07be
000001e0: b78b 5d3e c3bb f93c 026c 913b 83b5 893e
000001f0: 3944 afbd 4d00 ea3e 1a55 fe3e 61c1 853e
00000200: 82e6 19be 80dd f5be e5a0 953e d6ac 06bd
00000210: c343 60be df2a 56be ed09 18bc 41f5 20be
00000220: 9e87 59bf 5fe4 ffbe 62b6 28bd 84d7 a23d
00000230: fa82 903e 0cea 563e 89d2 973d a93e e7bc
00000240: 7862 3da6 c6c3 ada5 7072 2b81 cd33 1c98
00000250: ff9d 09a6 722b 32aa 054b 291f a119 88a6
00000260: 8478 9ba5 3c8f 15a6 281c 2ba2 d121 14a5
00000270: ec48 d7bb 899b 75b9 be7b 3781 12ff 8881
00000280: 88bb 14ba be86 1438 2091 3fb7 bc62 22bb
00000290: 2786 cd1e 027f ebb7 637f 0f37 c4db 8cb6
000002a0: e594 5bbd 648e 713e 337b 1e3c 876c 7b3e
000002b0: 6c80 dc3e 0e9e 073e cc4a 953e 0b2f 0fbe
000002c0: 6111 053d 0982 b5be 4772 2cbd 88f8 92be
000002d0: e834 b53e d0d0 87be 7aee b82d ac5e 5281
000002e0: 659c 4dbf 60e4 e1b1 d469 77be 837c fabd
000002f0: 2b26 13bc 38fe 363e 9dd3 c7b9 caeb 6abd
00000300: c912 20bc 06f1 b83e 1084 ce3b 4355 2e3e
00000310: 172c cb3b d239 b63d 87f0 933e a625 e4bd
00000320: 0374 8abe d094 d9be 61b8 d03e 9e91 84be
00000330: 217a 0c3f 6612 edb9 5c4f ecbc 7ef9 0a80
00000340: 49ba bdbc bee1 f7be 653a 2c3d 5fb4 f8be
00000350: b636 d4bc 634e 803e 88cd 31bd 9f42 c9bf
00000360: 65c4 bfbc 2529 b4bc 90b8 6200 7b5f 90b9
00000370: cd9e 56bc bdbe f3bb b971 64bb 655a 03bd
00000380: d8f8 ebbb f8bf b4bc 7c3d 4d3a c0fc 81bb
00000390: 613f 3bbf 6a77 a4be d39f 0038 323b 10be
000003a0: e326 17bf abfa a0bd 874f 023c abd4 033f
000003b0: 3d4a cdbd 7d9e 493e bd17 033e 2b77 453e
000003c0: f1c1 44bf 26a3 ab3e 14a1 7dbc df54 2cbd
000003d0: 9c6b 653d afd5 7f3e 7deb 3dbe ef49 e2bd
000003e0: 1dd9 35bf 836f af3d f80c 333e 650e 6f3e
000003f0: 6610 523e bbc1 b3be 8c68 d63b 23bd d580
-0.06499986 -0.029349908 5.4045503e-38 -0.034337997 -0.046837244 -0.061465126 -0.014965868 0.017715672
-0.025087373 -0.05405458 -0.0205528 -0.0239438 -0.009882185 -0.025280928 1.0400059e-38 -0.000100290425
-0.005102125 -0.004315506 -0.00014828387 -0.020676315 -0.008374952 -0.016355854 -0.0025188094 -0.0052052396
-0.060722988 -0.15005134 -0.01667692 -0.040938772 -0.05151077 0.6619248 -0.30110398 -0.13251615
0.43436638 0.17165647 -0.85458076 -0.29520735 -1.2564716e-07 -1.157146e-19 -1.2189489e-28 -1.8406507e-23
-4.163358e-20 -1.0191408e-19 1.0170591e-25 -7.462823e-09 -4.166259e-19 -1.1465295e-19 -2.6148712e-19 -2.6252976e-19
-0.0049509485 0.0005027251 -3.003835e-39 9.8043456e-05 -0.0048894244 -0.00012970058 0.0009839351 -0.009566115
-0.0027422453 -0.007848941 -0.00059771514 -0.0002674121 -0.0036200623 -0.18171827 0.0040392103 -0.16971108
-0.8509058 0.04660781 -0.35588697 -0.025103303 0.023024041 0.1997804 0.17919613 0.05511956
-0.0007089904 -9.286699e-05 4.116743e-38 2.2797693e-28 -6.174496e-12 -4.760599e-25 -3.830251e-17 -2.5927517e-05
-3.3985903e-09 -6.056518e-07 -1.0303261e-38 7.2224145e-38 -0.504303 -0.014048702 0.03691547 -0.21852073
-0.26704806 0.033234358 0.1821063 -1.2110418 0.56049055 -0.36052904 0.35697109 0.3081756
-0.52105874 -0.6653191 0.008050505 -4.4368887e-14 0.0749565 0.12998283 -0.3271193 0.21009085
-0.7497943 0.41537446 0.10384701 0.11822833 -0.029034076 -0.015069647 1.9908912e-06 0.08210258
-0.0018324696 -2.5628966e-05 -0.032833964 0.009389978 0.08128023 -0.11034265 -0.08005185 -0.13279636
0.21635328 0.03048504 0.0044379244 0.26896295 -0.08557934 0.45703354 0.49674302 0.261241
-0.15029338 -0.48020554 0.29224315 -0.032879673 -0.21900849 -0.20914792 -0.00927971 -0.15718557
-0.8497256 -0.4997892 -0.04118956 0.079512626 0.28224927 0.2098772 0.07413203 -0.02822812
-6.5706e-16 -3.0143377e-16 -3.1489845e-38 -2.018868e-24 -4.774555e-16 -1.5824649e-13 3.5849197e-20 -9.443842e-16
-2.6969878e-16 -5.188888e-16 -2.3189727e-18 -1.2848411e-16 -0.0065699723 -0.00023422962 -3.3700572e-38 -5.032452e-38
-0.0005673696 3.5411438e-05 -1.1418277e-05 -0.0024778089 2.1760703e-20 -2.8073326e-05 8.553124e-06 -4.197909e-06
-0.053608794 0.23589474 0.009672928 0.24553119 0.43066728 0.13243887 0.29158628 -0.13982789
0.032487277 -0.3545077 -0.04210117 -0.2870524 0.35391927 -0.265265 2.1024283e-11 -3.8638832e-38
-0.80316764 -6.574325e-09 -0.24161464 -0.1223078 -0.008981268 0.17870414 -0.00038113902 -0.057353772
-0.009770104 0.36121386 0.006302364 0.17024712 0.0062003243 0.08897747 0.28894445 -0.11139993
-0.27041635 -0.42496347 0.4076567 -0.25892347 0.54873854 -0.0004521787 -0.028846435 -1.007856e-39
-0.023160117 -0.48414415 0.042047877 -0.48575112 -0.025904994 0.25059804 -0.0434089 -1.5723456
-0.023409078 -0.021992275 9.066087e-39 -0.0002753696 -0.0130993845 -0.0074385093 -0.0034857823 -0.03206863
-0.0072012953 -0.022064194 0.0007829291 -0.0039668977 -0.73143584 -0.32122356 3.0666426e-05 -0.14085081
-0.5904371 -0.07860311 0.007953531 0.5149638 -0.100239255 0.19689365 0.12802024 0.1928374
-0.7685843 0.3352291 -0.015480299 -0.042073127 0.056010827 0.24983858 -0.18546863 -0.11049258
-0.71034414 0.08566191 0.17485416 0.23345335 0.20514068 -0.35108742 0.0065432247 -1.962881e-38

_decoder.2.bias f4 [64]
00000000: 3805 25bd c770 e4bb b03e da3e f03d 959f
00000010: 6521 08bb cbb1 f13e 0a65 0cb4 41e0 273c
00000020: 2ef2 f53e d54a f2bd 1010 08c0 32a0 1e3f
00000030: ad6e bca5 b1f9 ddb6 603e 70bf 1e08 543c
00000040: d4fa aebf 083f 693c 0a7c 32bc 542d e63e
00000050: 36ad 4e3e 3d96 273e 3751 4a3f b637 e03c
00000060: b29c 263f 74ab 843e 1652 e03d dab4 7dbc
00000070: 5e82 143f 7962 463e c6ae 4bbb 3857 703e
00000080: 3250 98bd d67e 1cbe b925 d53d 81a7 8c3e
00000090: 9af6 083f d580 72be a25e 68be da3f 583f
000000a0: 0f44 d43e b26e f23e ed12 ca3e b883 53a1
000000b0: 7e6b 7d3e c15e 0fbe d496 5d3f 296a d6bf
000000c0: 5e75 3f3e 5c93 b9a5 ca66 723e 67dd 053f
000000d0: 4a98 0e3f d943 533e 7dec 093f 1ea5 843d
000000e0: 3410 cabd ebdf e63e cf81 c6bf 2e30 72b4
000000f0: 2db8 68bd cf53 d33e f922 0f3f 13d2 343d
-0.04028818 -0.006971452 0.42625952 -6.320642e-20 -0.0020771858 0.47205958 -1.3075274e-07 0.010246337
0.4803633 -0.11830679 -2.1259804 0.6196319 -3.2687798e-16 -6.615381e-06 -0.93845177 0.012941388
-1.3670297 0.014236219 -0.010893831 0.44956458 0.20183262 0.16365905 0.79030174 0.027370315
0.6508285 0.25912058 0.10953157 -0.015485013 0.58011425 0.19373502 -0.0031079515 0.23470771
-0.07437171 -0.15282759 0.10407586 0.27471545 0.53501284 -0.23681958 -0.2269235 0.8447243
0.41458175 0.4735008 0.39467564 -7.166391e-19 0.24748036 -0.1400099 0.8655827 -1.6751148
0.18697116 -3.219224e-16 0.23672023 0.5229096 0.55701125 0.2063135 0.5387648 0.06476806
-0.09866372 0.4509271 -1.5508364 -2.2555534e-07 -0.05681627 0.41274878 0.5591274 0.044145655

_decoder.4.weight f4 [128, 64]
00000000: 3969 edbc 2983 9d3b 4473 efbd cced 8919
00000010: 6e33 313a ba57 5d3d 61fd 3e80 857e bd3e
00000020: 1c96 cdbd b917 76ba 4835 40bf 4e9c d93d
00000030: 4e95 c880 68e9 5d2b c470 34bf ecf5 8abe
00000040: 1694 b6be fec6 a53d 5772 0d3d 2f66 8cbb
00000050: f710 85bd c804 14be 468a d33d a52b 73bd
00000060: 5e0c 2f3e 510f a1bc ea33 b6bd 3128 c33d
00000070: d575 0cbe 3cb0 0bbe 6643 92bb 8dfb 92bc
00000080: 83b5 2e39 e177 023c 8783 5d3d af4e 35bd
00000090: cfbf 02be 6d0e 21bd dccd 34bc 84eb ee3c
000000a0: ef15 b03d c084 cfbd a012 e6bd 777b 9693
000000b0: 867d 3fbe 78bb 4abf f177 81bd a1b3 5dbe
000000c0: 9c16 8abe 90a1 2ca2 a7b1 4dbb 5a96 85be
000000d0: 4b80 98bd 1eac 173d 5ab9 2dbe 4635 3dba
000000e0: 02d0 bfbc 1581 76bd 8ba8 7ebe ba06 feb8
000000f0: b899 373b e52f 6fbd 1d57 c3be 7ad1 b8bd
00000100: 2888 bf28 e9bc 090c 0a74 23be 88fa f400
00000110: 47c4 9223 5edf 23bd 1e27 8f01 8bd5 29bf
00000120: 83bc df3e 856b 92a2 7a0b 55bd eb3c 84bd
00000130: 1505 6000 74c3 669f 0916 20bd c5e2 10b1
00000140: c691 d301 f953 93af 1c94 cb33 f02f 52bd
00000150: e27c 3e3e 6e1e 9bbe a5ea bb3c c410 513d
00000160: e172 d0bd 35dd 7cbc 76d0 1cbd bd8e 333a
00000170: fc37 8dbd 7cad 89b9 265c 879b 92cc 643e
00000180: e354 3db6 a1a3 73be 33f4 1ebe 828c 333e
00000190: 6a72 bbbd b3a4 e4bc 2450 afbc bb3b 70bd
000001a0: 9637 04bd c65b 91be 2902 dbbd ecb7 1e80
000001b0: 6b56 9fbc 6cfe 9fbd 226b 25bd d5e5 542c
000001c0: 7ad1 05bd d5fc 6700 38f2 8280 c29c 32bd
000001d0: b5f1 ff3d 2b1e 403c 13e5 50bd 1389 49b8
000001e0: 0ce2 8fba 2070 c73d db32 328e 59aa c99a
000001f0: 31c2 b93b deb3 873d 7f82 9dbc 08d8 9a81
00000200: 7b45 ef80 fa97 5c80 13ec 42bc e8cf a701
00000210: 10a2 0680 7721 bdbc 238a 2300 be69 bebc
00000220: 7078 b6bb 0de2 cf80 7e98 fcbc 5396 11ba
00000230: d443 3981 40c4 db00 ff4d b7bb baf5 2dbd
00000240: 27bd 9dbc c3f2 7abd bb79 9a00 3fed a6ba
00000250: 5704 c6bc b79a 39bc ca2b cebc cd45 a3bc
00000260: 0437 3cbd 938f c2bc 7bb7 02b9 775e 9faa
00000270: b91e 11bd d68e 84bc a6d9 1c01 ab9d d8ba
00000280: 13a5 b4bb bf1f 75bc f51b 18bd ffc6 8abb
00000290: 37b4 f1bc 9ee0 1dbd 9f3c db19 a0c1 85bc
000002a0: 9f6f 24bd d7cc 96bb 8e44 cbbc d08b 8900
000002b0: 3ae0 02bd 0e67 bdbc a429 a9bc 7e32 0cbd
000002c0: 28ba 0dbc 653d 0381 b334 a7bc 1160 b0bc
000002d0: 115e c7ba b600 a9bb 5b17 c7bc 045f ceba
000002e0: 61c1 40bd a56f 9bbc 14f6 55b9 eb51 d100
000002f0: 0028 3080 c55a 67b9 82dc b9bc f0cf 03bb
00000300: f86f 7101 f825 9701 5edb 2dbd 70e7 4d00
00000310: bb34 4200 3369 69b9 80dd 4981 9fba 6a3c
00000320: b0f3 c9b8 572c 5100 1937 ffbc 1aab b5bc
00000330: e0ea cc80 0cf1 3901 d6e9 dcbc d19f eeb8
00000340: bc6e b6bc 4939 0cbd f0a0 1780 a365 a4bb
00000350: fe9a aebc f7ea a134 81fe 51bd 8bd8 8434
00000360: 6e23 edbc 5e09 acb5 ed99 0dba 1873 c42c
00000370: 6770 4dbc ff4b 85bc 0410 7a00 0d31 9aa7
00000380: 30e2 ea00 7d14 f4bc b965 16bd 4a40 4a80
00000390: 5f7e 03bd 8a5d d8ba 585f 0326 0041 30bc
000003a0: 54df 10bc 1eeb 02bd 83ee 9ebc 00c2 1e00
000003b0: 3cb2 b1b9 958c b4bc 3f36 1bbd a1dc a6bc
000003c0: 9284 53bc d413 a200 9a73 bcbb d3c9 14bc
000003d0: 72c2 5430 653d 7dbc 59ba 2a34 1aa4 8cbc
000003e0: 78d8 02bd 2076 30bd 8451 8bbc c642 be01
000003f0: 843c 7e00 16de 2f81 7dc1 95bc 3a61 65bb
-0.028980838 0.0048068953 -0.11691907 1.4261513e-23 0.0006759678 0.05403874 -5.784696e-39 0.3701059
-0.10038397 -0.000938769 -0.750813 0.10625516 -1.842066e-38 7.883889e-13 -0.70484567 -0.27140749
-0.35659856 0.080945954 0.03453287 -0.004284642 -0.064973764 -0.14454949 0.10329108 -0.059367795
0.17094561 -0.019660624 -0.088966206 0.0952915 -0.13716824 -0.13641447 -0.004463601 -0.017942214
0.00016661551 0.007963152 0.054080512 -0.04426449 -0.12768482 -0.039320398 -0.011035409 0.029165037
0.085979335 -0.10132742 -0.11234021 -3.798707e-27 -0.18700227 -0.79192305 -0.06321705 -0.21650554
-0.26970375 -2.3395877e-18 -0.0031386407 -0.26091272 -0.07446345 0.037029378 -0.16965237 -0.0007217716
-0.023414616 -0.060181696 -0.24868982 -0.00012112917 0.0028015207 -0.058395285 -0.381524 -0.090243295
2.1264308e-14 1.0610944e-31 -0.15962234 2.2497735e-38 1.5912478e-17 -0.04000794 5.2586034e-38 -0.66341466
0.4369851 -3.968722e-18 -0.052012898 -0.06456932 8.818031e-39 -4.886607e-20 -0.039083514 -2.1083661e-09
7.7718333e-38 -2.679881e-10 9.479865e-08 -0.051315248 0.18602327 -0.30296654 0.022939036 0.05104138
-0.101781614 -0.015433599 -0.03828474 0.0006849578 -0.06895444 -0.00026259932 -2.2393426e-22 0.22343662
-2.8212605e-06 -0.23792888 -0.15522842 0.17534068 -0.09152682 -0.027910566 -0.021400519 -0.058650713
-0.032279573 -0.2839033 -0.106937714 -2.821044e-39 -0.019450387 -0.07812199 -0.040385373 3.0254594e-12
-0.032670476 9.549755e-39 -1.2025506e-38 -0.043606527 0.12497274 0.011725943 -0.050999712 -4.8049795e-05
-0.0010977401 0.09738183 -2.196468e-30 -8.340686e-23 0.0056689014 0.06626104 -0.019227264 -5.6880655e-38
-2.1973608e-38 -8.503385e-39 -0.011897105 6.164444e-38 -6.0915e-40 -0.023087246 3.263796e-39 -0.023243781
-0.0055685565 -1.909104e-38 -0.030834433 -0.0005553711 -3.4027798e-38 2.0182375e-38 -0.0055940147 -0.04247067
-0.019255234 -0.061266672 1.4186335e-38 -0.00127355 -0.024171991 -0.011328391 -0.025167365 -0.019930745
-0.045950904 -0.023750102 -0.00012466118 -2.8309622e-13 -0.03542969 -0.01618139 2.880883e-38 -0.0016526481
-0.0055128424 -0.014961182 -0.037136037 -0.004235148 -0.029504878 -0.03854429 2.2668554e-23 -0.01632768
-0.040145513 -0.0046020555 -0.024812963 1.2631618e-38 -0.03195212 -0.02312043 -0.020649739 -0.03422784
-0.00865034 -2.4104948e-38 -0.020410871 -0.021530183 -0.0015210529 -0.0051575555 -0.024303129 -0.001574487
-0.04705942 -0.018974135 -0.00020404934 1.9223005e-38 -4.422453e-39 -0.00022063691 -0.022688154 -0.0020112954
4.4345043e-38 5.552312e-38 -0.042445533 7.154357e-39 6.080059e-39 -0.00022259801 -3.7076788e-38 0.0143267205
-9.629817e-05 7.454581e-39 -0.031154202 -0.022176314 -1.8818698e-38 3.4152076e-38 -0.02696697 -0.000113784925
-0.0222696 -0.03423432 -2.16995e-39 -0.005016999 -0.02131414 3.0159546e-07 -0.051268104 2.4744472e-07
-0.028947558 -1.2817725e-06 -0.000540166 5.583433e-12 -0.012539006 -0.01627159 1.1209676e-38 -4.2796767e-15
2.1570647e-38 -0.029794926 -0.036718104 -6.818889e-39 -0.03210294 -0.0016507369 4.557897e-16 -0.010757685
-0.008842308 -0.031962506 -0.01940084 2.824659e-39 -0.00033892866 -0.022039691 -0.03789353 -0.020368876
-0.012910025 1.4884463e-38 -0.0057510855 -0.009081322 7.7401474e-10 -0.015456532 1.5900277e-07 -0.017168093
-0.031944722 -0.043081403 -0.017006643 6.989079e-38 1.1592981e-38 -3.2301763e-38 -0.018280739 -0.0035000579

_decoder.4.bias f4 [128]
00000000: 1fe9 0d3e ecfd 86ba 4158 14bd 36c0 1abd
00000010: 4e86 66bb 8be3 47a0 e5b0 95ab 4bb0 93bc
00000020: 2bdf 113d af67 ce03 dabc fb3d 7a56 7fbd
00000030: dac4 653e 35c1 25bb 00d5 003e ecb7 a6be
00000040: 6912 56a8 cce3 d93d 558c 98b9 8077 0abd
00000050: 3ef2 699e 90fb e7bb 9d61 50bf 3f74 13bd
00000060: fe27 4c3e d112 45be 5d09 7f3f f587 feb3
00000070: 161c 67bf b8c0 97be 768d 88b9 9f18 25bb
00000080: 7f99 52bd f234 6fbd d513 b5b8 0441 2bbd
00000090: 0297 22bd 4e18 8bba f120 383e e218 63bc
000000a0: 9b35 753d a101 2600 833e 16ba 8021 b7b8
000000b0: 4a5a c9b5 1a7a b43d 2765 aaad 2540 9a3e
000000c0: 36ac 943d 8242 2ebd 4548 9eb7 ced8 ef3e
000000d0: 45a5 7f99 7451 7300 2591 afa3 4893 1f3d
000000e0: e5d4 1cbb c18c cbbc cd8f 8c3e ecc1 6ebd
000000f0: 1ae6 923e b8cd cebd 4f7c ad3e a905 09ba
00000100: 8754 01bd ec67 b4bd 212d 703e b83b febc
00000110: f7de 03bd 7e19 f7bc aaf3 893e 670a d33e
00000120: 8ccc 90bd 4105 31ba 7a22 5dbc 2da1 cfa9
00000130: 8346 07bc 6ca9 94be 3f01 4ebc 5fa5 6c3d
00000140: 8c60 e4bd 26c4 ed3d 4a7c 009a 6f20 a1bc
00000150: 4998 65bd 972b 143f 8842 09b9 1c53 c0a6
00000160: 0c04 3d3e cc9d 4a3b 89e2 5db6 379e a1ba
00000170: 0ad5 b534 5cd8 123e f0c1 283e a17a 84bb
00000180: e749 a2bb c28e 50bc 0b69 c4b9 5be3 0d95
00000190: 455f 773e 624f a8bb 50f4 47bf 7c5e c4bb
000001a0: fba5 adbb 00a5 fc3d 6ce3 d93d 94a7 51bb
000001b0: 9fb3 e7b2 d968 853d ef27 3e3c bb94 b6a6
000001c0: 0ca7 613e 1805 56bb e2af a8bc 1919 e693
000001d0: 9165 5b3e f2d2 91b1 7778 6d3e ed64 33bd
000001e0: 7c50 95bd c739 c6be 95ad ee3e a7b6 073d
000001f0: 3f71 299c 694c 7593 7eab 2c3e e694 9c3e
0.1385846 -0.0010299063 -0.036216978 -0.037780963 -0.0035175267 -1.6931243e-19 -1.0636185e-12 -0.018028399
0.03561322 1.2131396e-36 0.1229188 -0.06233833 0.22438374 -0.0025292162 0.12581253 -0.32562196
-1.18833784e-14 0.10639152 -0.00029096255 -0.03380537 -1.2385012e-20 -0.007079549 -0.81398946 -0.035999533
0.19937131 -0.19245459 0.9962366 -1.1852527e-07 -0.9027723 -0.2963922 -0.00026045338 -0.0025191677
-0.051415917 -0.058400102 -8.6344466e-05 -0.04181005 -0.039694794 -0.0010612102 0.17981316 -0.013860913
0.059865575 3.490333e-39 -0.0005731361 -8.73236e-05 -1.5001945e-06 0.088123515 -1.9371683e-11 0.30127063
0.07259409 -0.042543896 -1.886872e-05 0.46845096 -1.3216567e-23 1.0590302e-38 -1.9035009e-17 0.038958818
-0.0023930606 -0.02484739 0.2745346 -0.058290407 0.2869118 -0.100978315 0.33883902 -0.00052269787
-0.031574752 -0.08808884 0.23454715 -0.031034335 -0.032195058 -0.030163523 0.26943713 0.41218874
-0.07070264 -0.0006752797 -0.013496989 -9.220606e-14 -0.008256557 -0.2903551 -0.012573539 0.057774898
-0.11151227 0.11609678 -2.657018e-23 -0.019668786 -0.056053434 0.5787901 -0.00013090123 -1.3345203e-15
0.18458575 0.0030916808 -3.3063427e-06 -0.0012330477 3.3868884e-07 0.14340347 0.16480231 -0.004042939
-0.0049526575 -0.012729349 -0.00037462296 -2.8654075e-26 0.24157436 -0.0051364163 -0.78107166 -0.0059927087
-0.0052993274 0.12336159 0.106390804 -0.0031990753 -2.6973622e-08 0.06514139 0.011606201 -1.26691e-15
0.2203638 -0.0032656845 -0.02059168 -5.808491e-27 0.21425463 -4.244037e-09 0.23190485 -0.043797422
-0.07290742 -0.38715956 0.46616808 0.033133175 -5.6063777e-22 -3.096102e-27 0.16862294 0.3058235
