yeeef_workspace/ckpt/e0060.pt (torch_old, 882114 bytes, 16 tensors)

_encoder.0.weight f4 [128, 784]
0.0069619203 0.006920198 0.0070598223 0.0072818156 -0.0012897073 -0.0016427683 0.0020425979 0.013172918
0.022388415 0.010813657 0.0031918364 0.014641366 -0.010321183 -0.033168297 -0.027777046 -0.0029432895
0.05149973 0.05245438 0.0027867518 0.019721972 0.021245332 0.011478649 0.0072441115 -0.0007247651
0.002739645 0.0070312107 0.0065803938 0.006903754 0.008216328 0.008538445 0.0077473246 0.010463667
-0.0205738 -0.02266306 0.0022871075 0.019727508 0.029731689 0.05760712 0.00038702856 0.0012086198
-0.02126624 -0.08458352 -0.073720485 -0.061716694 -0.07533706 0.020890893 0.060128734 0.018186556
0.027085746 0.015807506 0.006973263 -0.024175644 -0.012105921 0.014519546 0.012440802 0.0064520044
0.01322428 0.017167464 0.01633513 0.010244727 -0.0059286407 0.017124368 0.05216223 0.06773998
0.06146027 0.009730466 0.0020837223 0.005447886 -0.0144056175 -0.12277446 -0.13708921 -0.12339901
-0.08575983 0.0007149204 0.050327253 0.048123416 0.06237615 0.07062185 0.05162058 -0.013516786
-0.005192732 0.014473134 0.008534195 0.012863125 0.007656229 0.015453321 0.008959163 -0.0064443937
0.01425583 0.07609788 0.13434458 0.122333474 0.014131447 0.0005476524 0.0063860836 0.018690404
-0.080159254 -0.045579266 -0.046043675 -0.039318617 -0.026945343 0.018459832 -0.014849733 0.06204309
0.08795092 0.1070513 0.08828633 0.026524607 0.002054646 0.0068865432 0.011670393 0.011702596
0.010470038 0.013145826 0.009610943 -0.004853463 0.056327596 0.11305085 0.07026586 0.008712064
-0.036909766 -0.07733052 -0.03904678 0.038961854 -0.034482762 -0.03321159 -0.018118689 -0.009032434
0.043343388 0.07332792 -0.036629178 -0.0528371 -0.012427768 0.08546311 0.08295234 0.03871539
0.014080818 -0.0022881771 0.013166919 0.009789385 0.01104447 0.009742839 0.014797962 0.0015809181
0.09197862 0.07255678 0.042934194 -0.08018187 -0.12451805 -0.082100935 0.022380874 -0.038631592
0.047823485 0.0037119496 0.0061704796 0.049497683 0.02089072 -0.016467726 -0.02169776 -0.1332991
-0.07646977 0.03403459 0.04818765 0.04966437 0.010871907 -0.013552822 0.011509846 0.011159036
0.011031736 0.011368186 0.019660158 -0.0007051983 0.08258485 0.06828842 0.028100336 -0.03606558
-0.040562376 -0.041712664 0.026612781 -0.015209324 0.06801813 0.11447115 0.05913817 0.07302931
0.049962617 -0.006780634 -0.082915545 -0.038277946 0.016975272 -0.056959257 0.055612013 0.053725228
0.013155134 -0.037896004 0.0018918474 0.009424093 0.010467573 0.012216708 0.0045112916 0.048793152
0.072264455 0.06276212 0.043451842 0.006306538 -0.06893068 -0.028047437 0.009106607 -0.0021580623
0.06351606 0.11990124 0.053816203 0.10389255 0.06608958 -0.06040542 -0.11617312 -0.024098765
-0.023892138 0.0063544493 0.0285908 0.06500661 0.047423903 -0.036948442 -0.0048863795 0.007644681
0.01129406 0.0006874463 -0.0059278784 0.06454657 0.08635914 0.14746459 0.041578807 -0.006563
-0.060419124 -0.058766406 -0.05530103 0.00810085 0.061145775 0.044447377 0.05267745 0.07382079
0.028599238 -0.049416196 -0.0347015 -0.10868328 -0.07589252 -0.022155965 0.023578577 0.080440566
0.07359862 -0.013868787 -0.013308449 0.0090947915 0.00668231 -0.0022558705 0.032796312 0.11482613
00000000: d220 e43b d4c2 e23b 1556 e73b 4c9c ee3b
00000010: 650b a9ba 2852 d7ba 1bdd 053b 39d3 573c
00000020: e967 b73c c42b 313c 212e 513b 57e2 6f3c
00000030: 2e1a 29bc 7bdb 07bd b08c e3bc 34e4 40bb
00000040: 62f1 523d 67da 563d f0a1 363b f98f a13c
00000050: b10a ae3c f210 3c3c 0360 ed3b 2afe 3dba
00000060: 9e8b 333b 1266 e63b 58a0 d73b e338 e23b
00000070: c79d 063c d6e4 0b3c 45dd fd3b cd6f 2b3c
00000080: 638a a8bc e2a7 b9bc 4ce3 153b 959b a13c
00000090: df8f f33c 72f5 6b3d 18ea ca39 8d6a 9e3a
000000a0: 8a36 aebc 203a adbd c4fa 96bd a5ca 7cbd
000000b0: 514a 9abd 6123 ab3c 8c49 763d f9fb 943c
000000c0: ede2 dd3c be7e 813c f87f e43b 000c c6bc
000000d0: ea57 46bc 64e3 6d3c 81d4 4b3c 566b d33b
000000e0: a7aa 583c c8a2 8c3c 40d1 853c 80d9 273c
000000f0: 0b45 c2bb 6748 8c3c 10a8 553d 42bb 8a3d
00000100: c4bd 7b3d 886c 1f3c 0f8f 083b 2e84 b23b
00000110: 8a05 6cbc 2d71 fbbd 1d61 0cbe 9fb8 fcbd
00000120: daa2 afbd 7f69 3b3a f323 4e3d 0f1d 453d
00000130: 227e 7f3d 30a2 903d 1a70 533d 8275 5dbc
00000140: cb27 aabb b920 6d3c 02d3 0b3c dbbf 523c
00000150: 1be1 fa3b ed2f 7d3c 74c9 123c 7e2b d3bb
00000160: 4991 693c 35d9 9b3d a091 093e f989 fa3d
00000170: 9687 673c 5590 0f3a 5a42 d13b 9e1c 993c
00000180: 892a a4bd 53b1 3abd 4b98 3cbd 8f0c 21bd
00000190: 7bbc dcbc 1339 973c 4b4c 73bc e520 7e3d
000001a0: 9d1f b43d b63d db3d 77cf b43d 224a d93c
000001b0: 3da7 063b 83a8 e13b 2d35 3f3c 3fbc 3f3c
000001c0: 868a 2b3c 9761 573c 3777 1d3c cc09 9fbb
000001d0: c4b7 663d 3487 e73d 8ce7 8f3d 0bbd 0e3c
000001e0: b22e 17bd 775f 9ebd 84ef 1fbd 7796 1f3d
000001f0: cc3d 0dbd e008 08bd a56d 94bc c6fc 13bc
00000200: d688 313d f32c 963d 7a08 16bd b76b 58bd
00000210: d69d 4bbc 4807 af3d ebe2 a93d 0794 1e3d
00000220: 3bb3 663c 3ef5 15bb 10ba 573c a863 203c
00000230: ddf3 343c 6ea0 1f3c 2773 723c cf36 cf3a
00000240: 495f bc3d a698 943d c4db 2f3d 6436 a4bd
00000250: 5203 ffbd 8924 a8bd 1858 b73c 293c 1ebd
00000260: 8fe2 433d 2e44 733b bc31 ca3b 15be 4a3d
00000270: 0423 ab3c 53e7 86bc 80bf b1bc 8f7f 08be
00000280: 2f9c 9cbd db67 0b3d 6a60 453d de6c 4b3d
00000290: 1520 323c a80c 5ebc cb93 3c3c 64d4 363c
000002a0: 74be 343c a141 3a3c 570e a13c 0fdd 38ba
000002b0: 3f22 a93d cdda 8b3d ad32 e63c 80b9 13bd
000002c0: bc24 26bd e6da 2abd 0c03 da3c 8730 79bc
000002d0: 174d 8b3d da6f ea3d de3a 723d 6490 953d
000002e0: 9aa5 4c3d 1530 debb a0cf a9bd 56c9 1cbd
000002f0: ba0f 8b3c 1c4e 69bd 6cc9 633d fc0e 5c3d
00000300: a288 573c d738 1bbd ddf7 f73a 8367 1a3c
00000310: 2f80 2b3c 9628 483c 75d3 933b 54db 473d
00000320: 63ff 933d 6d89 803d 8ffa 313d 13a7 ce3b
00000330: 872b 8dbd bdc3 e5bc e133 153c 476e 0dbb
00000340: b514 823d c88e f53d 616e 5c3d 9ec5 d43d
00000350: f959 873d ac6b 77bd 2cec edbd c66a c5bc
00000360: 72b9 c3bc fc38 d03b 4137 ea3c 2f22 853d
00000370: 913f 423d 4057 17bd ec1d a0bb 3b80 fa3b
00000380: b90a 393c be35 343a a63e c2bb fe30 843d
00000390: 10dd b03d f500 173e 8a4e 2a3d 6f0e d7bb
000003a0: 0b7a 77bd 0bb5 70bd 5583 62bd 6db9 043c
000003b0: fe73 7a3d 740e 363d 4fc4 573d 5b2f 973d
000003c0: f348 ea3c a368 4abd 2923 0ebd 5795 debd
000003d0: 8a6d 9bbd 6d80 b5bc dc27 c13c 06be a43d
000003e0: e0ba 963d e939 63bc ae0b 5abc 5202 153c
000003f0: 47f7 da3b 3ad7 13bb 6d55 063d f629 eb3d

_encoder.0.bias f4 [128]
-0.0069615426 -0.012356275 -2.1406877e-17 0.060932755 0.027974574 0.04038428 -0.0060312115 -0.05904454
-0.0019276958 -0.0034195906 -0.054257262 -0.013836459 0.033534903 -0.007643085 0.06331262 -0.0145644
-0.029118584 -0.0030352776 -0.034549784 -0.04059334 -0.01728777 -6.0559114e-06 -3.8699943e-11 0.037480127
0.018454725 -0.04035298 -0.0944452 -0.023122199 -0.019092044 -0.011117945 -1.5789067e-06 -1.5631841e-24
0.081420645 -0.019154355 0.17173277 -0.03886073 0.06336031 -0.005924891 -0.017880542 -0.03954183
0.01665172 -9.102082e-06 0.016062181 -0.0016173678 -1.144323e-21 0.0016184953 -1.845613e-07 0.00035068503
-0.06142301 -0.019478057 -0.0023066276 0.33956248 -3.8708156e-05 -0.0041310266 0.024467109 -0.015867252
-0.035908524 0.004296047 -6.0638696e-13 -0.009179046 -0.04568518 -1.392665e-05 -0.002599411 -2.6496451e-08
-0.019052416 -0.017737275 -5.0899014e-16 0.056935266 -0.039132934 -6.5339083e-23 -0.0019333414 -0.010665075
-0.006091032 -0.100456566 0.024142139 0.05132902 -0.10231059 0.040032163 -0.04901575 -0.06203442
-8.3942275e-10 0.09213336 -0.07322377 -0.03477577 -6.1997255e-14 -0.03021806 0.017644888 -0.0094021065
-0.042769995 -0.0060318615 0.036488026 -0.011057022 -0.086251564 -0.00889281 -0.027559074 -0.0027886245
0.06147906 -0.027687961 0.016888812 -0.00011169789 0.046478704 -0.09526651 -8.220936e-06 0.035508424
-0.010370597 -0.018603198 -5.532784e-06 -0.04099258 -3.8583104e-05 -0.008069708 -0.08728094 -1.03314e-05
-0.005814242 -0.014290758 0.007426805 -0.009181712 -1.0111876e-05 -0.018937524 -0.009869882 -0.024797855
0.033589013 0.041819245 -0.14384052 0.03287037 -0.03612394 -0.04075869 -0.0056614843 -0.018481815
00000000: a71d e4bb f971 4abc 8f71 c5a3 a094 793d
00000010: ef2a e53c fd69 253d 78a1 c5bb b0d8 71bd
00000020: bdaa fcba 361b 60bb dd3c 5ebd 51b2 62bc
00000030: e55b 093d d872 fabb 0caa 813d 859f 6ebc
00000040: 198a eebc 82eb 46bb 1384 0dbd 3445 26bd
00000050: 159f 8dbc e233 cbb6 4334 2aae c384 193d
00000060: 5d2e 973c 2b49 25bd 7c6c c1bd c46a bdbc
00000070: eb66 9cbc 0b28 36bc d2ea d3b5 1ae4 f197
00000080: debf a63d 98e9 9cbc b7da 2f3e 6e2c 1fbd
00000090: 0dc3 813d 9725 c2bb 377a 92bc 9df6 21bd
000000a0: 3069 883c 25b5 18b7 d694 833c dcfd d3ba
000000b0: daec ac9c b123 d43a d32b 46b4 26dc b739
000000c0: b296 7bbd 7290 9fbc ca2a 17bb 22db ad3e
000000d0: 915a 22b8 905d 87bb 3f6f c83c 0afc 81bc
000000e0: d114 13bd dbc5 8c3b c9ae 2aab b663 16bc
000000f0: 6220 3bbd 82a6 69b7 e15a 2abb 509a e3b2
00000100: d013 9cbc c34d 91bc d8b4 12a6 f434 693d
00000110: db49 20bd effa 9d9a 2c68 fdba 91bc 2ebc
00000120: 4897 c7bb 2cbc cdbd bcc5 c53c 613e 523d
00000130: 3788 d1bd c4f8 233d bdc4 48bd ce17 7ebd
00000140: 20bd 66b0 6ab0 bc3d 58f6 95bd 0a71 0ebd
00000150: fc9a 8ba9 dd8b f7bc 038c 903c 4b0b 1abc
00000160: 972f 2fbd eca6 c5bb 7874 153d 8328 35bc
00000170: a9a4 b0bd 26b3 11bc 91c3 e1bc 5bc1 36bb
00000180: 78d1 7b3d ddd1 e2bc 685a 8a3c 593f eab8
00000190: 7460 3e3d 171b c3bd a7ec 09b7 4871 113d
000001a0: 70e9 29bc bc65 98bc 41a6 b9b6 d6e7 27bd
000001b0: 4bd4 21b8 cf36 04bc 59c0 b2bd 0655 2db7
000001c0: 6685 bebb c923 6abc 8e5c f33b e46e 16bc
000001d0: 2da6 29b7 de22 9bbc 49b5 21bc df24 cbbc
000001e0: a294 093d a84a 2b3d ee4a 13be 15a3 063d
000001f0: b2f6 13bd 96f2 26bd f983 b9bb 2d67 97bc

_encoder.2.weight f4 [64, 128]
0.102952704 0.08022705 -0.0015550243 -0.066583365 -0.16492549 -0.081568025 -0.018106407 -0.18634987
0.017244857 -0.03564589 0.3899898 0.014886106 0.025173118 -3.6237743e-05 -0.11447221 0.016844498
0.04703579 -0.025344534 -0.066282116 0.020431519 0.010632873 -0.01711679 -0.0010938278 -0.07260492
-0.04184362 0.014999952 0.33879468 -0.029294828 0.01995145 -0.1899089 -0.007761359 0.0006145099
0.0011183191 -0.029228155 0.0557125 0.07703263 0.08243105 0.053699315 0.017458765 -0.015486974
0.017803244 -0.023752527 -0.19388334 -0.00030686083 -0.0016187611 9.900061e-05 0.0019937193 -0.05938923
-0.7708352 0.039378155 0.029485663 -1.9329854 -4.1795887e-05 3.3705677e-05 -0.025907237 0.12975039
-0.03341601 -0.013629259 -0.00058856205 -0.011821777 0.0046204235 0.04403825 -0.0071389424 0.0041003544
-0.056287747 0.05812743 0.00034712956 -0.11756354 -0.042079333 -1.676307e-39 -0.0010917726 0.0061061704
-0.0794227 -0.20682551 -0.05972279 -0.041891485 -0.06886496 -0.17923696 -0.064323284 -0.082849175
7.129469e-05 0.03844727 -0.13780114 0.010596374 2.8266967e-09 0.017739883 0.042907346 -0.023174295
0.004278796 0.010754247 -0.28305343 -0.077769384 -0.043196343 -0.017722514 -0.010111512 -0.014462144
0.031717997 -0.08304344 -0.02133136 0.011375477 -0.015592001 -0.41367978 4.8339425e-06 -0.27139044
0.030101176 -0.021358931 -0.0062500145 0.02624478 -2.1020815e-06 -0.0057755182 0.17084108 0.011489272
0.035911098 -0.0022474285 0.10022389 0.036846086 -2.003814e-06 0.06683406 -0.0043108067 0.015091806
0.03686622 -0.07049037 -0.4529879 -0.13762781 0.014848576 -0.022467844 -0.123942055 0.029394493
0.07322208 -0.07873538 0.0058776876 0.065280296 -0.20240173 -0.058184758 -0.01871998 -0.43789008
-0.019881204 -0.1397228 0.0731033 0.048638225 0.01066397 -1.0397604e-05 -0.16625887 -0.007613231
0.007072055 -0.012792395 -0.06830112 -0.037649646 0.0071868794 0.0109698875 0.00050624146 -0.13069446
-0.09835698 -0.041272324 0.18844488 0.0011487938 0.02840515 0.08239046 -0.0029415085 -0.0006053078
-0.06967427 0.020475145 0.062887505 -0.13218382 -0.20409231 -0.036753945 0.02507803 -0.01802705
-0.05730367 0.00475275 -0.1667351 0.007269096 -0.0020957394 0.04545527 -0.0004512296 -0.0029442238
-0.878356 -0.0025484897 -0.040549424 -1.360913 -7.8566945e-06 0.0052277665 -0.028158357 0.14738408
-0.0029946996 0.039545294 -0.0027265565 -0.00060821377 -0.08404898 -0.010281267 -0.015897552 0.002986946
-0.07315896 -0.039271817 -0.000111677946 -0.23733878 -0.01921011 4.9789e-39 0.00026891674 -0.018502846
-0.10812501 -0.0066714287 -0.16378227 -0.158203 0.19537017 0.041879017 -0.10985002 0.028331788
-3.015921e-05 0.058754895 0.13458918 0.010139412 2.6481215e-08 0.030920682 0.02795415 0.023834351
-0.013326438 -0.0015413996 -0.3714694 -0.021998473 -0.24187155 -0.0019188548 0.01023217 0.07389078
-0.014849464 -0.060728405 -0.112418965 0.0043621524 -0.08853889 0.45116705 2.2563071e-07 -0.22135863
-0.031015238 -0.01202196 -0.021752099 0.021524524 -9.7177304e-05 0.0060805096 0.1945268 -0.036226504
0.05396974 -0.0023778724 -0.15073968 0.0051860493 1.06829e-06 0.042543367 0.01102212 0.07352045
0.03168673 -0.1513591 0.35540155 -0.18346627 0.0056708907 0.036572084 -0.0035943156 0.020429919
00000000: ded8 d23d 144e a43d f5d1 cbba dc5c 88bd
00000010: 3ae2 28be 230d a7bd e353 94bc 80d2 3ebe
00000020: 1645 8d3c 6d01 12bd beac c73e dbe4 733c
00000030: db37 ce3c fbfd 17b8 6870 eabd 79fd 893c
00000040: 9aa8 403d 579f cfbc ebbe 87bd 0060 a73c
00000050: 8035 2e3c 8338 8cbc c55e 8fba e3b1 94bd
00000060: 3764 2bbd 5cc2 753c 7f76 ad3e b5fb efbc
00000070: 3971 a33c 7b77 42be 0053 febb 1017 213a
00000080: 9094 923a e26f efbc ca32 643d 49c3 9d3d
00000090: 9cd1 a83d d0f3 5b3d af05 8f3c 14bd 7dbc
000000a0: 1cd8 913c a994 c2bc 5b89 46be 2ae2 a0b9
000000b0: 9c2c d4ba 8c9e cf38 0fa9 023b 1f42 73bd
000000c0: 7555 45bf fd4a 213d eb8b f13c 116c f7bf
000000d0: fe4d 2fb8 325f 0d38 6a3b d4bc 49dd 043e
000000e0: 3adf 08bd 414d 5fbc bb49 1aba 20b0 41bc
000000f0: ec66 973b 7461 343d caed e9bb 445c 863b
00000100: fb8d 66bd 0717 6e3d f1fe b539 27c5 f0bd
00000110: 615b 2cbd dd40 1280 cf19 8fba 4516 c83b
00000120: 5ea8 a2bd 11ca 53be e29f 74bd 6896 2bbd
00000130: 1209 8dbd e589 37be edbb 83bd d4ac a9bd
00000140: 0c84 9538 e27a 1d3d be1b 0dbe 6a9c 2d3c
00000150: c63f 4231 3b53 913c 9dbf 2f3d 05d8 bdbc
00000160: 2435 8c3b 9532 303c 61ec 90be 8e45 9fbd
00000170: a6ee 30bd ce2e 91bc c1aa 25bc a1f2 6cbc
00000180: bbea 013d ae12 aabd 1bbf aebc 3560 3a3c
00000190: 9875 7fbc d6cd d3be 4033 a236 b0f3 8abe
000001a0: be96 f63c edf8 aebc eccc ccbb 4bff d63c
000001b0: 7c11 0db6 8f40 bdbb f7f0 2e3e 803d 3c3c
000001c0: 8417 133d 9849 13bb 2f42 cd3d eceb 163d
000001d0: 4379 06b6 4ce0 883d ab41 8dbb 9f43 773c
000001e0: 0901 173d 415d 90bd 08ee e7be 4eee 0cbe
000001f0: 7147 733c 7c0e b8bc 55d5 fdbd b8cc f03c
00000200: 75f5 953d 0440 a1bd 9e99 c03b adb1 853d
00000210: 6642 4fbe 2453 6ebd a55a 99bc 2133 e0be
00000220: e8dd a2bc 7e13 0fbe 2fb7 953d e038 473d
00000230: efb7 2e3c 5e71 2eb7 c43f 2abe 6978 f9bb
00000240: b2bc e73b 3297 51bc 75e1 8bbd 8436 1abd
00000250: ea7f eb3b 0bbb 333c 4ab5 043a c5d4 05be
00000260: 626f c9bd 2b0d 29bd b2f7 403e 2093 963a
00000270: ebb1 e83c 54bc a83d 53c6 40bb 85ad 1eba
00000280: 62b1 8ebd 7ebb a73c 2acb 803d 325b 07be
00000290: 93fd 50be 4e8b 16bd 7170 cd3c 77ad 93bc
000002a0: 41b7 6abd f5bc 9b3b 9bbc 2abe 9931 ee3b
000002b0: ac58 09bb 4e2f 3a3d 0393 ecb9 e1f3 40bb
000002c0: f0db 60bf 9004 27bb 2717 26bd 6632 aebf
000002d0: 3fd0 03b7 af4d ab3b 5bac e6bc daeb 163e
000002e0: b942 44bb 3ffa 213d 07b0 32bb 8970 1fba
000002f0: df21 acbd c272 28bc 953b 82bc a3c0 433b
00000300: 5dd4 95bd 7cdb 20bd a434 eab8 f008 73be
00000310: 855e 9dbc 2637 3600 65fd 8c39 4893 97bc
00000320: a570 ddbd 009c dabb 8ab6 27be f8ff 21be
00000330: 1e0f 483e 5589 2b3d 0cf9 e0bd 1118 e83c
00000340: 69fe fcb7 f9a8 703d bfd1 093e c71f 263c
00000350: cf78 e332 5f4d fd3c 1a00 e53c 4240 c33c
00000360: 2257 5abc ca08 caba 3d31 bebe 2436 b4bc
00000370: 2dad 77be 1582 fbba d5a4 273c 0d54 973d
00000380: 2b4b 73bc 59be 78bd ea3b e6bd 63f0 8e3b
00000390: e153 b5bd 5eff e63e e644 7234 d6ab 62be
000003a0: ab13 febc c1f7 44bc 7531 b2bc 3354 b03c
000003b0: abcb cbb8 033f c73b 0932 473e 3e62 14bd
000003c0: 600f 5d3d 14d6 1bbb 815b 1abe bcef a93b
000003d0: 2a62 8f35 f441 2e3d 1f96 343c e491 963d
000003e0: f2c9 013d e1fd 1abe 31f7 b53e 95de 3bbe
000003f0: e1d2 b93b 9ccc 153d 9c8e 6bbb a55c a73c

_encoder.2.bias f4 [64]
0.17101787 0.09496071 0.026182696 -0.10567157 -0.010144515 -0.061355 -0.09471451 -0.14942983
0.44489497 0.086336024 -0.21480012 -9.54931e-06 -0.3290173 0.021200435 -1.3264707e-07 1.6507252e-38
6.164833e-39 -0.07479063 0.050669968 -0.0025227533 -0.0077038486 -0.26449907 -0.020323167 -4.7544236e-05
-4.9823627e-38 -0.07828058 -3.047256e-06 -0.028039718 -1.3465393e-12 -0.0061779716 -0.00016569949 2.92538e-40
-0.058311366 5.657993e-39 -0.039220814 0.0993959 -0.0007583893 0.36002618 -0.006766919 -0.0016938865
-0.022006262 0.3937545 -0.10557876 8.689664e-11 -0.11926784 -0.041354388 -0.07970629 -6.080282e-38
0.4034643 0.38159072 0.3428369 8.519331e-39 -0.2409792 -0.013727934 -1.228384e-39 0.14085321
-0.016578218 0.26372313 -0.21794568 -0.042150073 0.00056419126 -4.7308076e-18 0.017214391 0.23373261
00000000: 4f1f 2f3e c37a c23d 187d d63c 566a d8bd
00000010: 2e35 26bc 614f 7bbd aef9 c1bd 2204 19be
00000020: 46c9 e33e f1d0 b03d 90f4 5bbe f935 20b7
00000030: f574 a8be 89ac ad3c c06d 0eb4 81bf b300
00000040: 0c21 4300 d42b 99bd 508b 4f3d c754 25bb
00000050: 9170 fcbb 6c6c 87be c57c a6bc 3c6a 47b8
00000060: 00a2 8781 9251 a0bd 767f 4cb6 8db3 e5bc
00000070: 3182 bdab 9570 cabb 9ebf 2db9 7a2f 0300
00000080: e6d7 6ebd 2f9c 3d00 01a6 20bd 1490 cb3d
00000090: a5ce 46ba 5a55 b83e 08bd ddbb 6605 deba
000000a0: 7a46 b4bc 319a c93e ad39 d8bd 7616 bf2e
000000b0: b342 f4bd 3863 29bd 0d3d a3bd 6285 a581
000000c0: df92 ce3e dc5f c33e 5188 af3e 6ec4 5c00
000000d0: 40c3 76be 21eb 60bc 3c60 0d80 d33b 103e
000000e0: 0bcf 87bc b806 873e 272d 5fbe 8ea5 2cbd
000000f0: 3ce6 133a 3789 aea2 3205 8d3c 9a57 6f3e

_encoder.4.weight f4 [12, 64]
0.34133342 -0.08324414 -0.014423841 0.66163963 -0.024730355 -0.08662927 0.08038968 -0.052774075
-0.24567163 -0.32197964 -0.09609861 3.170698e-10 -0.5913552 0.012511434 -0.010933915 -8.885419e-39
6.8316177e-12 0.17916457 0.33044574 -0.0076097706 0.09157332 -0.0041875867 0.08266878 -0.0015734965
1.5846934e-12 0.49689925 -0.0028063434 -0.32085755 1.0792062e-38 0.033913333 0.04026148 -6.625644e-25
0.016313137 -4.116169e-08 0.12559217 0.030516922 0.020664936 0.2001773 0.010420922 -0.00071238296
0.052004866 0.2411966 0.07833891 0.020142568 0.029496167 0.0226127 0.08492292 -8.648332e-11
0.1710716 0.013497899 -0.07057084 6.0329672e-33 -0.2522109 0.001845849 -9.2916656e-07 -0.16126914
-0.0088891145 -0.047167115 -0.09708185 0.14245525 0.023080247 0.0001685799 -0.012033494 -0.2152767
-0.17184049 -0.29063514 -0.068084046 0.06729658 -0.07953857 -0.025001565 -0.08716139 0.17864063
0.15205388 -0.73312265 -0.1201596 7.0472586e-15 -0.14202544 -0.004370321 0.017571922 9.726832e-12
1.8282113e-10 0.031473808 -0.00027059615 -0.022229735 -0.02633088 -0.17175376 0.26348302 -0.007895894
4.0709278e-08 0.25130427 0.009426661 -0.08776368 -9.118474e-12 0.0009816426 -0.016698664 -2.4448815e-08
-0.054535344 8.764107e-05 0.17811835 0.16419238 0.0013786957 -0.3697758 0.17760226 -0.034203447
0.027611176 -0.42598474 -0.17538081 3.6193126e-06 0.059121847 0.06642504 0.0518913 -1.2832504e-12
-0.2848454 -0.14866598 -0.2732148 9.656773e-05 0.024240002 0.00422415 0.0054378947 -0.08327552
-0.006954569 0.05724486 0.09330142 0.10038547 0.017294865 0.00423394 0.2026106 -0.24008188
-0.14284134 0.30912143 -0.0059971474 -0.23419899 0.14406614 -0.4499888 -0.30167687 -0.2537534
-0.2614389 0.017155787 -0.006469427 -1.7754628e-27 0.05429853 -0.061289627 -0.005656004 7.6427e-40
-2.374821e-39 -0.038314026 0.22066899 0.028335074 0.06563428 -0.022071395 0.015637266 0.0002444948
2.2205838e-07 -0.4943023 0.03213454 -0.034001015 -7.704483e-39 0.0016778749 -0.0019877662 2.0564268e-38
0.013028529 1.7062398e-38 -0.18785347 -0.053167533 -0.0030156227 -0.19515 -0.77413017 -0.021094609
0.0082267 -0.0077480986 0.37795746 -0.027643215 0.11849397 0.47842917 0.0025360396 2.7183157e-22
0.0590408 0.15599954 -0.26226076 -1.4254828e-38 -0.28405198 -9.985186e-16 6.9366585e-08 0.04187679
0.04661979 0.05132414 -0.34725147 0.07786173 -0.00032243013 3.8998755e-06 0.080442294 -0.08987065
-0.004518253 0.089509696 -0.031558324 0.027020637 -0.1365734 -0.14672571 0.11725351 -0.12972954
-0.08200506 -0.10645042 0.14436124 0.0005346377 -0.16934225 0.12989214 5.1731004e-13 7.053015e-39
-2.78984e-39 0.11161177 0.13759954 -0.010892673 0.11876362 0.06920491 -0.038770963 -0.00015520344
1.4010366e-38 -0.019306382 4.7928115e-06 0.044604443 1.8247134e-38 0.01145005 5.991998e-39 -3.2622377e-38
0.020844521 -2.5853668e-38 -0.07928086 0.02599717 -0.020751758 0.058591153 -0.02702896 0.004972158
-0.0007190333 -0.17359816 0.08591901 -4.5783356e-11 -0.014253958 0.012457161 -0.011500013 -1.464653e-39
0.03126141 0.07602649 -0.124211445 -2.2295701e-38 -0.0573467 -2.0794989e-38 -3.240909e-38 0.014654085
0.024177311 -0.19602536 0.06043984 0.11558784 3.647206e-09 -2.0179296e-38 -0.04902363 -0.017917695
00000000: 41c3 ae3e e77b aabd f951 6cbc 3761 293f
00000010: 5097 cabc b06a b1bd 58a3 a43d a129 58bd
00000020: 5891 7bbe 84da a4be 59cf c4bd 9b4f ae2f
00000030: 0e63 17bf c2fc 4c3c 2a24 33bc efc0 6080
00000040: be5d f02c eb76 373e 2f30 a93e 625b f9bb
00000050: cb8a bb3d 0638 89bb 404e a93d c83d ceba
00000060: 9906 df2b 9469 fe3e a1ea 37bb 7147 a4be
00000070: e183 7500 b5e8 0a3d 39e9 243d c30d 4d97
00000080: 21a3 853c c2c9 30b3 3c9b 003e a0fe f93c
00000090: 8349 a93c 47fb 4c3e 84bc 2a3c 36bf 3aba
000000a0: 0e03 553d 3efc 763e 2770 a03d 0702 a53c
000000b0: f2a1 f13c 453e b93c 11ec ad3d c82d beae
000000c0: 652d 2f3e 4b26 5d3c 7287 90bd 8399 fa09
000000d0: c921 81be 6af0 f13a d76b 79b5 bd23 25be
000000e0: a6a3 11bc 4e32 41bd d9d2 c6bd cadf 113e
000000f0: c912 bd3c d3c4 3039 2228 45bc 7f71 5cbe
00000100: f4f6 2fbe 21ce 94be a66f 8bbd cad2 893d
00000110: 1ee5 a2bd 15d0 ccbc ac81 b2bd 92ed 363e
00000120: 03b4 1b3e edad 3bbf 3d16 f6bd 7de7 fd27
00000130: 1e6f 11be e934 8fbb fef2 8f3c c21d 2b2d
00000140: 9303 492f aeea 003d cdde 8db9 221b b6bc
00000150: dcb3 d7bc 38e0 2fbe 3fe7 863e c85d 01bc
00000160: 53d8 2e33 f4aa 803e 4872 1a3c 72bd b3bd
00000170: f569 20ad 76aa 803a a3cb 88bc 8303 d2b2
00000180: 7460 5fbd f1cb b738 a864 363e 0c22 283e
00000190: 5ab5 b43a 4153 bdbe 5edd 353e ea18 0cbd
000001a0: d530 e23c ac1a dabe 0797 33be 51e3 7236
000001b0: c029 723d da09 883d f98b 543d f899 b4ab
000001c0: 42d7 91be e53b 18be cfe2 8bbe 6884 ca38
000001d0: f892 c63c bd6a 8a3b 5e30 b23b 5b8c aabd
000001e0: 27e3 e3bb 9679 6a3d d114 bf3d e696 cd3d
000001f0: f6ad 8d3c ddbc 8a3b 2779 4f3e 06d8 75be
00000200: 0045 12be 2a45 9e3e b883 c4bb dcd1 6fbe
00000210: 1386 133e ef64 e6be 6475 9abe f7eb 81be
00000220: 52db 85be 4b8a 8c3c 7dfd d3bb aaaa 0c93
00000230: 2368 5e3d d50a 7bbd 0056 b9bb 7952 0800
00000240: 09dc 1980 2bef 1cbd 0df7 613e f51e e83c
00000250: 446b 863d 12cf b4bc b919 803c 892f 8039
00000260: f16e 6e34 3115 fdbe 829f 033d a644 0bbd
00000270: f7e4 5380 24ec db3a 2f45 02bb d0ec df00
00000280: 9c75 553c 06cb b900 a95c 40be 33c6 59bd
00000290: c1a1 45bb 67d5 47be 652d 46bf 9ace acbc
000002a0: 48c9 063c c3e3 fdbb a483 c13e 0674 e2bc
000002b0: f7ac f23d abf4 f43e af33 263b e64f a41b
000002c0: c4d4 713d 58be 1f3e 0b47 86be a938 9b80
000002d0: 436f 91be d6e6 8fa6 aff6 9433 ff86 2b3d
000002e0: 65f4 3e3d 4339 523d f2ca b1be f875 9f3d
000002f0: d70b a9b9 addb 8236 eebe a43d 1a0e b8bd
00000300: da0d 94bb dc50 b73d 4d43 01bd 625a dd3c
00000310: e6d9 0bbe 443f 16be 9c22 f03d d2d7 04be
00000320: 45f2 a7bd ae02 dabd 6fd3 133e ee26 0c3a
00000330: 0e68 2dbe 7202 053e 1e9c 112b f0cc 4c00
00000340: f060 1e80 b694 e43d e5e6 0c3e 2f77 32bc
00000350: 573a f33d 4ebb 8d3d 4dce 1ebd 1bbe 22b9
00000360: 338f 9800 6b28 9ebc f0d1 a036 26b3 363d
00000370: 96b1 c600 fe98 3b3c 413f 4100 f59c 3181
00000380: 21c2 aa3c c1c2 0c81 015e a2bd 04f8 d43c
00000390: 97ff a9bc 47fd 6f3d d66b ddbc 7ced a23b
000003a0: 827d 3cba b7c3 31be 4ef6 af3d 7a5b 49ae
000003b0: 6f89 69bc 1f19 4c3c 8d6a 3cbc dbf2 0f80
000003c0: f70b 003d c7b3 9b3d 9262 febd 58c7 f280
000003d0: 60e4 6abd f86f e280 ae73 3081 b017 703c
000003e0: 7f0f c63c dfba 48be c48f 773d 51b9 ec3d
000003f0: 54a2 7a31 abbb db80 00cd 48bd 21c8 92bc

_encoder.4.bias f4 [12]
0.2603742 0.90121925 -0.15824878 -0.09211096 0.06216425 0.038723093 0.33176762 0.23216833
0.93925124 0.77372396 0.04508081 0.07262849
00000000: c44f 853e 4eb6 663f f80b 22be aca4 bcbd
00000010: f19f 7e3d 1b9c 1e3d 72dd a93e 89bd 6d3e
00000020: c572 703f c612 463f a8a6 383d 3fbe 943d

_encoder.6.weight f4 [2, 12]
-0.42191738 0.6965544 0.0439496 0.008007514 -0.17427194 -0.28447273 0.1502549 0.07040221
-0.10474759 0.06797385 0.3719033 0.2642022 0.101298474 0.18255416 0.23067875 0.075112164
0.3014633 0.40551034 -0.10409078 -0.25825024 -0.13805503 -0.21774974 0.5526194 -0.3066002
00000000: 8e05 d8be 6451 323f 7f04 343d f331 033c
00000010: 5874 32be 69a6 91be 6cdc 193e 092f 903d
00000020: e885 d6bd e035 8b3d 1c6a be3e 8345 873e
00000030: 9375 cf3d 7aef 3a3e 0d37 6c3e 68d4 993d
00000040: 6659 9a3e 0d9f cf3e 8c2d d5bd 6039 84be
00000050: 4c5e 0dbe caf9 5ebe 7778 0d3f b4fa 9cbe

_encoder.6.bias f4 [2]
0.14828625 -0.26254016
00000000: 5ad8 173e aa6b 86be

_decoder.0.weight f4 [12, 2]
0.036309205 0.52011126 -0.3056974 -1.2342259 0.009630447 -0.01566929 -0.04279858 -0.15056917
0.5367105 0.31443813 0.80999506 -0.01847752 0.12993824 0.2601943 -0.4448413 -0.05950814
0.14612035 -0.7060861 0.029359115 -0.010399372 0.7322717 -0.4049344 0.54367906 -0.24399343
00000000: f6b8 143d 0326 053f 5f84 9cbe 1dfb 9dbf
00000010: 06c9 1d3c e25c 80bc 904d 2fbd ce2e 1abe
00000020: dc65 093f 09fe a03e d65b 4f3f 2b5e 97bc
00000030: 880e 053e 3038 853e 3dc2 e3be cfbe 73bd
00000040: 93a0 153e 0fc2 34bf 8782 f03c 2162 2abc
00000050: 2876 3b3f 9053 cfbe 8d2e 0b3f 6ad9 79be

_decoder.0.bias f4 [12]
-0.16683003 0.32552102 -0.089001134 -0.8686674 0.3002648 -0.14230542 -2.1073802 0.24767071
0.37332827 1.8382511 -0.15739603 0.5976102
00000000: 7ed5 2abe b1aa a63e 3a46 b6bd fd60 5ebf
00000010: 4fbc 993e 83b8 11be 51df 06c0 649d 7d3e
00000020: e224 bf3e d04b eb3f 6d2c 21be fbfc 183f

_decoder.2.weight f4 [64, 12]
-0.0020985755 -9.758351e-09 -2.1544941e-38 2.9875518e-38 -0.0015988483 8.9602334e-05 -1.1345622e-05 -1.859211e-05
-7.812967e-11 -3.1552694e-09 -0.00018484927 -0.00015333113 -0.013574371 -0.0009332854 5.1063025e-38 -2.4232625e-12
-0.011975988 -0.0118852565 -0.0018822983 -0.0041402145 -0.0027151797 -0.00041097513 -0.012111089 -0.00815555
-0.04903805 -0.08899161 0.00052165746 -0.026899379 -0.04405796 0.6638295 -0.32921243 -0.23627225
0.38887483 0.199513 -1.003398 -0.37053782 -0.02036428 0.00015695085 -5.9865284e-19 -8.5261934e-05
-0.017810173 -0.023438843 -0.005849189 -0.0068098214 -0.00799005 -0.0044979462 -0.019570727 -0.01818599
-2.5901812e-11 -6.104364e-05 2.6865795e-38 6.8652033e-38 -1.0891432e-08 -1.0943226e-06 -3.731402e-18 -5.504616e-22
9.747779e-07 -5.9139484e-09 -2.8670967e-05 -7.677175e-06 -0.02782322 -0.16700234 0.004144844 -0.19791114
-0.86723703 0.042477287 -0.26708898 -0.13764861 0.019598452 0.19106333 0.21339244 0.09626749
-0.004809927 -0.0003145709 -4.018643e-38 -3.517038e-39 -0.0038950301 -0.0044918507 0.0010133391 -0.0043571144
-3.5756707e-06 -0.0036184464 -0.0035479693 -0.0031929875 -0.44630674 -0.041962266 -0.032106902 -0.24286832
-0.3101486 0.020036824 0.051711857 -0.854092 0.5423399 -0.26412728 0.3603473 0.31555146
-0.5793212 -0.72375417 -0.00067908416 7.614029e-07 0.076527156 0.1185026 -0.31355837 0.21228682
-0.7752885 0.43291953 0.11404706 0.12885877 -0.016564842 -0.0037517955 2.6105602e-38 0.0001456601
-0.020344825 -0.018479124 -0.012585263 -0.00960967 0.00042678328 -0.03314914 -0.003061311 -0.0031775825
0.19253404 -0.029514486 -0.0014678476 0.11491497 -0.069705494 0.4833965 0.45307836 0.2592857
-0.24274935 -0.5424475 0.2991158 -0.037132684 -0.16080683 -0.20978938 0.0031250156 -0.015807712
-0.9076185 -0.48897335 -0.036618125 0.034454398 0.2970288 0.23444235 0.11694954 -0.010115074
-0.018927937 -0.0031238461 -3.1489845e-38 0.00034792098 -0.027249675 -0.03716944 -0.02311847 -0.0658497
-0.0069792364 -0.02262751 -0.03786512 -0.035818256 -0.012423741 -0.0002917679 -5.721325e-39 2.0014868e-38
0.0047138003 0.00072651927 0.003703075 -0.0008998024 -0.00036084763 -0.0060465834 -0.01033762 -0.010483291
-0.08000913 0.24997312 -0.018457895 0.09544379 0.40350682 0.004462839 0.2145292 -0.20557548
0.005791752 -0.2953604 -0.17240994 -0.3531648 0.35029882 -0.08388238 2.1383372e-05 -3.8638832e-38
-0.960178 -2.6409213e-09 -0.20892164 -0.11457071 -0.01938327 0.09228952 -0.0001359086 -0.025010273
-0.057962615 0.3780846 -0.010121709 0.16870798 -0.009503864 0.11321216 0.21229434 -0.16842844
-0.31045645 -0.4677947 0.42549238 -0.22084205 0.5754172 0.05223441 0.004343645 0.0003292482
-0.059784636 -0.53025776 0.05895776 -0.5006863 0.037954323 0.14896138 -0.010657422 -1.6798571
-0.055975303 -0.033213243 5.8336066e-38 -0.03013741 -0.03106927 -0.021918997 -0.04516074 0.013104756
-0.0139122205 -0.041386332 -0.018268479 -0.018350525 -0.78976125 -0.3199226 0.0029793363 0.051520076
-0.51564306 -0.11674588 2.0794782e-38 0.5242007 0.038662877 0.24008714 0.08660147 0.19061859
-0.84817034 0.2789584 3.6864516e-05 -0.026714634 0.02142961 0.15948306 -0.4549811 -0.13364665
-0.81194115 0.12738408 0.06092059 0.12212425 0.21622236 -0.31232515 -3.1397558e-06 -1.962881e-38
00000000: 4188 09bb aea5 27b2 889a ea80 65a8 2201
00000010: 7290 d1ba e3e8 bb38 1359 3eb7 41f6 9bb7
00000020: 18cf abae 16d4 58b1 19d4 41b9 83c7 20b9
00000030: 0a67 5ebc b9a7 74ba bc01 8b01 9e85 2aac
00000040: ef36 44bc 61ba 42bc 73b7 f6ba a3aa 87bb
00000050: 28f1 31bb 2678 d7b9 976d 46bc db9e 05bc
00000060: 1fdc 48bd 3c41 b6bd d7bf 083a 165c dcbc
00000070: 1f76 34bd bbf0 293f 888e a8be 5af1 71be
00000080: 9a1a c73e 234d 4c3e 586f 80bf 22b7 bdbe
00000090: fed2 a6bc 2c93 2439 eeb0 30a1 a7ce b2b8
000000a0: a4e6 91bc d102 c0bc 8eaa bfbb ec24 dfbb
000000b0: b3e8 02bc 8263 93bb ca52 a0bc c9fa 94bc
000000c0: b2d5 e3ad 8e04 80b8 7445 1201 7ce3 ba01
000000d0: 061d 3bb2 a3e0 92b5 18aa 89a2 e75d 269c
000000e0: 1dd5 8235 a433 cbb1 6f82 f0b7 37cd 00b7
000000f0: 85ed e3bc a902 2bbe 79d1 873b 38a9 4abe
00000100: 3f03 5ebf aafc 2d3d e3bf 88be c2f3 0cbe
00000110: ef8c a03c 1ba6 433e 8c83 5a3e e427 c53d
00000120: 989c 9dbb feec a4b9 b5cb 5a81 124c 2680
00000130: c343 7fbb 6030 93bb 05d2 843a 20c6 8ebb
00000140: 8ef5 6fb6 7523 6dbb 0c85 68bb 7141 51bb
00000150: 5182 e4be a0e0 2bbd 8782 03bd 79b2 78be
00000160: cccb 9ebe 4424 a43c d0cf 533d c6a5 5abf
00000170: cad6 0a3f b13b 87be 717f b83e f68f a13e
00000180: 654e 14bf f447 39bf 9104 32ba 3563 4c35
00000190: 45ba 9c3d 7eb1 f23d b98a a0be b761 593e
000001a0: 4f79 46bf a1a7 dd3e 8191 e93d 8ef3 033e
000001b0: feb2 87bc afe0 75bb e621 0e01 56bc 1839
000001c0: 31aa a6bc 8861 97bc 6b32 4ebc e171 1dbc
000001d0: e2c1 df39 65c7 07bd 47a0 48bb fd3e 50bb
000001e0: a527 453e 5dc8 f1bc cb64 c0ba 8a58 eb3d
000001f0: c1c1 8ebd bf7f f73e e3f9 e73e 18c1 843e
00000200: 4993 78be d7dd 0abf b525 993e 7118 18bd
00000210: 8caa 24be 07d3 56be 10cd 4c3b 2d7f 81bc
00000220: b059 68bf b75a fabe e3fc 15bd 0e20 0d3d
00000230: 2914 983e a811 703e 3e83 ef3d b2b9 25bc
00000240: c30e 9bbc 71b9 4cbb 7072 2b81 2a69 b639
00000250: b63a dfbc fc3e 18bd f262 bdbc 35dc 86bd
00000260: 14b2 e4bb 545d b9bc 7518 1bbd 2ab6 12bd
00000270: f28c 4bbc 6df8 98b9 ba4c 3e80 4ff1 d900
00000280: 3976 9a3b e273 3e3a 4aaf 723b b8e0 6bba
00000290: 2630 bdb9 6b22 c6bb 1f5f 29bc 1cc2 2bbc
000002a0: d4db a3bd f4f8 7f3e 0335 97bc 0978 c33d
000002b0: 7298 ce3e 023d 923b 8bad 5b3e 6182 52be
000002c0: bdc8 bd3b 7a39 97be 3b8c 30be 04d2 b4be
000002d0: 5e5a b33e 86ca abbd 7160 b337 ac5e 5281
000002e0: 3ace 75bf 947b 35b1 8eef 55be 0ca4 eabd
000002f0: aac9 9ebc 4a02 bd3d b082 0eb9 58e2 ccbc
00000300: 356a 6dbd 4e94 c13e 86d5 25bc c9c1 2c3e
00000310: 18b6 1bbc c7db e73d b063 593e 8178 2cbe
00000320: 26f4 9ebe c982 efbe 23da d93e 6b24 62be
00000330: 8b4e 133f c0f3 553d 2355 8e3b f29e ac39
00000340: bce0 74bd f9be 07bf b17d 713d fa2c 00bf
00000350: fe75 1b3d 5589 183e 789c 2ebc 8f05 d7bf
00000360: 5c46 65bd 9c0a 08bd 4ece 9e01 bbe2 f6bc
00000370: fb84 febc 788f b3bc 78fa 38bd 55b5 563c
00000380: 15f0 63bc b784 29bd c7a7 95bc d753 96bc
00000390: cb2d 4abf e5cc a3be f840 433b b706 533d
000003a0: 2f01 04bf 7718 efbd 646f e200 0432 063f
000003b0: f75c 1e3d 67d9 753e 1d5c b13d 8531 433e
000003c0: b121 59bf a3d3 8e3e f99e 1a38 a6d8 dabc
000003d0: 268d af3c 874f 233e 48f3 e8be abda 08be
000003e0: 60db 4fbf f970 023e de87 793d 471c fa3d
000003f0: 6569 5d3e 15e9 9fbe 98b4 52b6 23bd d580

_decoder.2.bias f4 [64]
-5.683663e-16 -5.778001e-05 0.41386905 -0.0010166955 -1.0174251e-14 0.43293485 -0.0005052991 0.08367718
0.51441944 -0.022879038 -2.172498 0.5896886 -0.017504284 -0.00017548549 -0.7822933 -0.0136611005
-1.2255006 0.0133436965 -0.024197487 0.46753022 0.22517578 0.108009145 0.78814536 0.08963666
0.7372349 0.28971472 0.15753074 0.04147579 0.5378768 0.1009045 -2.9088892e-06 0.29274216
-5.1012046e-07 -0.14069974 0.08177448 0.26776224 0.48317906 -0.19470775 -1.3278968e-13 0.8795583
0.34781402 0.5514265 0.43276668 9.01276e-39 0.19184674 -0.14782739 0.92396957 -1.710445
0.115796074 -0.0048904116 0.11887367 0.53349817 0.5402143 0.26420212 0.44675115 -0.0023221492
-0.12527762 0.46502224 -1.6051962 -6.357577e-14 -0.07964179 0.3143281 0.5082538 0.032536294
00000000: 08d2 23a6 d058 72b8 a5e6 d33e a442 85ba
00000010: 7348 37a8 a3a9 dd3e 0c76 04ba f15e ab3d
00000020: feb0 033f d26c bbbc 350a 0bc0 d5f5 163f
00000030: 2565 8fbc 8702 38b9 6044 48bf cfd2 5fbc
00000040: 34dd 9cbf 859f 5a3c cf39 c6bc 1f60 ef3e
00000050: 7b94 663e e633 dd3d e5c3 493f 6d93 b73d
00000060: 6dbb 3c3f 7d55 943e bd4f 213e 85e2 293d
00000070: 4bb2 093f 05a7 ce3d 5636 43b6 4de2 953e
00000080: 36ef 08b5 9813 10be 6179 a73d 2218 893e
00000090: 3f63 f73e 7861 47be 0582 15aa bc2a 613f
000000a0: ae14 b23e 492a 0d3f 9893 dd3e e823 6200
000000b0: 7973 443e 1060 17be 4589 6c3f ddef dabf
000000c0: 7e26 ed3d bf3f a0bb 0a74 f33d 5693 083f
000000d0: 7c4b 0a3f 8045 873e 91bc e43e 332f 18bb
000000e0: c748 00be 6517 ee3e 1277 cdbf f028 8fa9
000000f0: 3c1b a3bd 9def a03e ec1c 023f c744 053d

_decoder.4.weight f4 [128, 64]
3.2957868e-08 -9.135102e-05 -0.17840469 -0.0008032099 8.220787e-13 0.094044626 -2.3480372e-05 0.36950082
-0.1728836 2.5244366e-05 -0.35713795 -0.023626994 0.042496614 -0.00013364521 -0.7482541 -0.23397526
-0.27152446 0.09354922 -0.0070208753 -0.06650355 -0.021056138 -0.055154268 0.098067515 -0.25364876
0.17955779 -0.033292014 -0.08199572 0.09089147 -0.11300987 -0.16065538 1.6520622e-12 -0.08541719
2.520447e-08 0.011929503 0.059118964 -0.011222728 -0.04635038 0.05844496 -1.0531519e-38 0.050685346
0.1204351 -0.085182145 -0.04814916 -3.467597e-39 -0.16270368 -0.6381784 -0.13474831 -0.1731555
-0.20831041 -6.873028e-05 5.6632214e-09 -0.43565166 -0.06853459 0.029709151 -0.29747158 -1.1864227e-08
-0.027989829 -0.0059265564 -0.36293688 4.876493e-38 0.046950746 -0.16120054 -0.32161307 0.00022877689
4.7980286e-19 3.2741307e-05 -0.28122547 3.5079878e-10 -1.2927673e-38 -0.1569877 -4.6402556e-07 -0.8217662
0.4011634 3.252733e-20 -0.20128681 -0.043567803 -0.016147966 -2.3083502e-11 -0.010126726 2.2199363e-38
-0.083158076 8.571697e-37 -6.597632e-05 -0.17111734 -0.06115168 -0.4964056 0.06122205 0.040811352
-0.12019842 -0.05398313 -0.24840996 -0.01133007 -0.18332902 6.347876e-12 -1.1184295e-19 0.18132903
-1.391923e-12 -0.32632685 -0.14894599 0.23605384 -0.17444533 -0.00051974884 -8.523025e-39 -0.04551775
-0.010071389 -0.0992217 -0.11369137 1.5598551e-38 -6.178e-13 -0.088634 -0.044998292 -0.0010092633
-0.042565856 1.06354125e-29 0.01043876 -0.027221158 -0.16059229 0.17062677 -0.14596342 2.092878e-39
-0.017554931 0.1345444 -3.5866047e-19 -2.8067919e-38 -0.014080998 0.076438084 -0.004774831 -5.435552e-30
-2.1973608e-38 -8.503385e-39 -0.0024692279 6.164444e-38 -3.914172e-38 0.00014353367 3.263796e-39 0.0009831975
-0.003134427 -1.909104e-38 -0.02693337 0.00016508285 -3.4027798e-38 2.0182375e-38 -0.0002738035 -0.0024567766
-0.028365573 -0.017914223 1.4186335e-38 0.004928784 -0.0001108274 -0.0010056422 -0.015833007 -0.0030326988
-0.008751471 -6.895491e-05 -3.912197e-16 5.176789e-08 0.00022981588 -4.554369e-16 2.880883e-38 -0.00036598984
1.518569e-39 0.0019155887 -0.0010122276 -1.0793232e-05 -0.0003571468 -0.0023751287 2.4221522e-38 -0.00026624708
-0.0024897908 -0.009661284 -0.0026282482 1.2631618e-38 -0.00063657353 -0.04414447 -8.143327e-05 -0.00585435
-0.096797146 -2.4104948e-38 -1.5177499e-38 0.0009774704 -1.2263604e-05 -0.0020500063 -3.819845e-06 5.107749e-38
-0.024365382 -0.008010083 -0.0046613794 1.9223005e-38 -4.422453e-39 -1.6482256e-13 -0.002506979 -1.3269153e-38
-6.5972325e-38 5.559599e-38 -6.750957e-35 7.154357e-39 6.080059e-39 3.3516026e-30 -3.7076788e-38 -5.810368e-29
4.5110398e-38 -4.55685e-38 -1.1714844e-12 -6.3098054e-30 -1.8818698e-38 3.4152076e-38 -1.2046255e-20 -6.64734e-39
5.5031e-28 -4.7885384e-38 -6.5038544e-38 1.1017821e-26 9.658651e-27 8.360885e-39 -1.2430988e-22 -1.6684286e-38
-1.8077103e-29 -5.781594e-39 -3.064649e-38 4.9095523e-38 -4.3843493e-38 1.4032819e-29 1.1209676e-38 9.224588e-39
2.1570647e-38 -1.0682777e-15 1.078731e-38 -3.8271608e-38 2.381708e-27 1.1084422e-38 -1.6733432e-38 1.9778037e-29
-6.3371766e-27 -1.7682417e-27 -3.4580284e-27 2.824659e-39 -2.522702e-38 1.5533797e-38 2.962234e-38 1.2609606e-26
-4.980865e-38 1.4996562e-38 -2.357741e-39 4.663224e-28 2.5146716e-38 4.0099462e-38 5.05278e-39 1.0275738e-38
-3.6925447e-27 -8.898185e-28 -5.790265e-38 6.989079e-38 1.1592981e-38 3.140854e-38 4.1515022e-27 -1.7865546e-38
00000000: 8f8d 0d33 b593 bfb8 b8af 36be 818e 52ba
00000010: 0365 672b 789a c03d b7f7 c4b7 362f bd3e
00000020: 6608 31be ddc3 d337 c9da b6be 668d c1bc
00000030: ee10 2e3d 1d23 0cb9 958d 3fbf 3697 6fbe
00000040: 4105 8bbe bc96 bf3d 5f0f e6bb 0333 88bd
00000050: ec7d acbc 71e9 61bd 9fd7 c83d 40de 81be
00000060: ffdd 373e 355d 08bd 5fed a7bd 4f25 ba3d
00000070: b871 e7bd d882 24be d081 e82b 35ef aebd
00000080: 3781 d832 f673 433c ba26 723d 88df 37bc
00000090: e5d9 3dbd fb63 6f3d 97ad 7280 709b 4f3d
000000a0: ada6 f63d fa73 aebd 0e38 45bd 40c2 2580
000000b0: cb9b 26be a95f 23bf 76fb 09be ad4f 31be
000000c0: 534f 55be 4a23 90b8 3996 c231 bc0d dfbe
000000d0: dd5b 8cbd 9b60 f33c 324e 98be 6cd3 4bb2
000000e0: ed4a e5bc 8f33 c2bb ddd2 b9be 32c0 8401
000000f0: 6d4f 403d c111 25be 78aa a4be d4e3 6f39
00000100: e19c 0d21 b653 0938 c9fc 8fbe 8ada c02f
00000110: 18c5 8c80 62c1 20be 301f f9b4 455f 52bf
00000120: 4a65 cd3e 219b 191f 211e 4ebe 2774 32bd
00000130: bd48 84bc 6d0b cbad 91ea 25bc cbba f100
00000140: c84e aabd 02d7 9103 c45c 8ab8 6239 2fbe
00000150: 2f7a 7abd e028 febe f9c3 7a3d ce29 273d
00000160: 972a f6bd 6a1d 5dbd 2e5f 7ebe c2a1 39bc
00000170: 9aba 3bbe 9558 df2c 750a 04a0 51ae 393e
00000180: 50e5 c3ab 5014 a7be 4c85 18be 19b8 713e
00000190: cca1 32be c13f 08ba bace 5c80 d270 3abd
000001a0: 7802 25bc bf34 cbbd 05d7 e8bd 6ada a900
000001b0: 2ee5 2dab be85 b5bd 2150 38bd 4249 84ba
000001c0: 8959 2ebd 38b6 570f 5507 2b3c e8fe debc
000001d0: 4e72 24be c9b8 2e3e 6f77 15be 18ca 1600
000001e0: 5ccf 8fbc 02c6 093e 3db7 d3a0 f8d0 1881
000001f0: fcb3 66bc 928b 9c3d 2f76 9cbb 007e dc8e
00000200: 7b45 ef80 fa97 5c80 c5d2 21bb e8cf a701
00000210: 981b 5581 8781 1639 238a 2300 a2de 803a
00000220: f56a 4dbb 0de2 cf80 5fa3 dcbc 171a 2d39
00000230: d443 3981 40c4 db00 498d 8fb9 df01 21bb
00000240: eb5e e8bc d9c0 92bc bb79 9a00 a381 a13b
00000250: 026c e8b8 c1cf 83ba 39b4 81bc 3ec0 46bb
00000260: 5462 0fbc e39b 90b8 d685 e1a5 6657 5e33
00000270: bbfa 7039 5045 03a6 a6d9 1c01 53e2 bfb9
00000280: 2789 1000 7e14 fb3a b9ac 84ba 9414 35b7
00000290: 6f3f bbb9 0ca8 1bbb e0df 0301 1497 8bb9
000002a0: c22b 23bb 5d4a 1ebc b03e 2cbb d08b 8900
000002b0: badf 26ba d5d0 34bd 27c7 aab8 d9d5 bfbb
000002c0: 953d c6bd 653d 0381 b144 a580 771e 803a
000002d0: c7bf 4db7 6659 06bb 382c 80b6 d10b 8b01
000002e0: e999 c7bc b93c 03bc 7cbe 98bb eb51 d100
000002f0: 0028 3080 de92 39aa 214c 24bb 007d 9080
00000300: 0098 b381 c058 9701 a278 b386 70e7 4d00
00000310: bb34 4200 08f5 870e 80dd 4981 724f 9390
00000320: b89a 7501 3819 7881 2cdf a4ab c4f4 ff8e
00000330: e0ea cc80 0cf1 3901 1d8c 639e 1462 4880
00000340: 7466 2e12 3e5b 8281 400d b181 fd3a 5a14
00000350: 2e4f 3f14 bf0a 5b00 0b48 169b 00ad b580
00000360: d852 b78f bbf4 3e80 f9da 2681 96a6 8501
00000370: e9b4 6e81 484f 8e0f 0410 7a00 6672 6400
00000380: 30e2 ea00 7ef4 99a6 a276 7500 d65e 5081
00000390: c7b2 3c13 dcb2 7800 0036 b680 b892 c80f
000003a0: 9b0a fb93 3418 0c93 93fc 8893 00c2 1e00
000003b0: 5659 0981 e825 a900 8447 2101 4cc2 7914
000003c0: 9097 8781 504c a300 6cac 1980 91c8 1312
000003d0: 68e9 0801 7e52 5a01 1805 3700 94e4 6f00
000003e0: da46 9293 54ff 8c92 42a0 9d81 c642 be01
000003f0: 843c 7e00 1e01 2b01 3c75 a413 e089 c280

_decoder.4.bias f4 [128]
0.16926555 0.02512322 -0.0113892695 -2.1846382e-27 0.021655738 -3.6034855e-24 -8.295997e-09 -6.5760385e-23
-0.009066508 -0.014427756 0.13989672 -0.029819356 0.2135836 -2.78113e-07 0.11635432 -0.28206095
-0.047391128 0.084944464 -2.1912615e-14 -0.00036911212 -0.027326114 -0.064130075 -0.80962473 5.7180677e-31
0.30775392 -0.20920537 1.0328748 -0.031075656 -0.87883663 -0.34098464 -4.9183006e-07 -1.0637742e-20
-0.0532123 -0.085330576 -0.00025585442 -1.1981335e-28 -0.01658243 -0.012404769 0.2801576 -0.07000131
0.08731517 -3.837271e-13 -0.0007260489 -0.02689397 -0.030825468 0.18093258 -0.0041799033 0.30397645
0.10977899 -0.019132262 -0.007666959 0.38447982 -0.023283686 -0.0013821196 -0.046869274 0.11559234
-0.0017284951 -0.005182377 0.28463086 -0.01763841 0.11605236 -0.15031758 0.36229688 -5.3988183e-06
-0.079514615 -0.105263285 0.24797946 -3.894537e-12 -5.870665e-25 -1.3300945e-07 0.18332136 0.44361195
-2.2908925e-20 0.025665507 -0.0068094647 -1.0181037e-10 -0.09538168 -0.12271851 -2.312367e-39 0.053683493
-0.03547763 0.13910481 -0.0011496788 -6.289604e-14 -2.7053682e-28 0.5415769 -3.3416197e-30 2.8776278e-31
0.15014295 -0.024029542 -0.0013129014 -1.0892099e-10 1.8661143e-31 0.12210262 0.05057647 -0.0060358443
-0.048346475 -0.09540946 -8.651582e-11 -9.4326924e-07 0.21426533 -0.00054357847 -0.9073265 -6.847615e-07
-2.700498e-09 0.0959857 0.073873535 -1.8038253e-28 -0.0020056805 0.06591095 0.007120807 -1.5377994e-16
0.15499692 -8.841157e-06 2.1384585e-35 -9.824133e-07 0.17410302 -8.388599e-32 0.24779606 -0.015722513
-1.2248834e-25 -0.35534275 0.45266792 -0.067398235 -1.7841105e-13 -1.28051515e-05 0.12316745 0.37765005
00000000: f353 2d3e 36cf cd3c 0f9a 3abc ba15 2d93
00000010: 6067 b13c 3167 8b98 2e86 0eb2 b5ff 9e9a
00000020: b18b 14bc 6562 6cbc 1641 0f3e b947 f4bc
00000030: a9b5 5a3e 8f4f 95b4 2c4b ee3d 4b6a 90be
00000040: 331d 42bd 5df7 ad3d 0d5f c5a8 6485 c1b9
00000050: 04db dfbc a156 83bd 9143 4fbf d98f 390d
00000060: ec91 9d3e ef39 56be 3e35 843f 6092 febc
00000070: 70fb 60bf 8a95 aebe 4e06 04b5 f7f0 489e
00000080: 24f5 59bd ccc1 aebd 3324 86b9 a8e1 1791
00000090: e0d7 87bc 5f3d 4bbc d170 8f3e d95c 8fbd
000000a0: 4cd2 b23d e704 d8aa 5154 3eba be50 dcbc
000000b0: b185 fcbc 6446 393e 92f7 88bb cda2 9b3e
000000c0: cfd3 e03d 43bb 9cbc 1d3b fbbb 8ada c43e
000000d0: 6ebd bebc 3d28 b5ba fff9 3fbd adbb ec3d
000000e0: ac8e e2ba eed0 a9bb 23bb 913e 6d7e 90bc
000000f0: dcac ed3d daec 19be fa7e b93e 7f27 b5b6
00000100: 8fd8 a2bd 4794 d7bd 54ee 7d3e df06 89ac
00000110: 33b0 3597 5cd1 0eb4 98b8 3b3e 1b21 e33e
00000120: 625e d89e 7840 d23c ee21 dfbb 25e2 dfae
00000130: 7857 c3bd d853 fbbd f02d 1980 39e3 5b3d
00000140: fe50 11bd 7e71 0e3e d2b0 96ba 19a1 8da9
00000150: 1c79 ab91 c9a4 0a3f 5d8d 878e cbc4 ba0c
00000160: 13bf 193e 9ad9 c4bc a915 acba 1185 efae
00000170: 493c 720c f010 fa3d 4629 4f3d 55c8 c5bb
00000180: f406 46bd 0966 c3bd 1440 beae f834 7db5
00000190: 5f68 5b3e ef7e 0eba 8d46 68bf 74d0 37b5
000001a0: aa93 39b1 2794 c43d 024b 973d 7aa9 6491
000001b0: bc71 03bb 52fc 863d a955 e93b d44b 31a5
000001c0: 83b7 1e3e 7b54 14b7 6166 e305 77db 83b5
000001d0: 1048 323e cec7 d98b 40be 7d3e 80cc 80bc
000001e0: 1ba2 1796 7cef b5be 17c4 e73e 1608 8abd
000001f0: 7cdf 48aa b5d5 56b7 373f fc3d 595b c13e
