yeeef_workspace/ckpt/e0070.pt (torch_old, 882114 bytes, 16 tensors)

_encoder.0.weight f4 [128, 784]
00000000: 8954 a53b ce35 d03b 79e1 383c 63f6 293c
00000010: 49a4 2c3c 2333 293c 411d 293c f7f1 283c
00000020: 314c 293c cbdd 023c 4e84 153c a702 323c
00000030: dbee 403c 112e 623c b0c8 833c 484f 743c
00000040: d9ea 3e3c 6ce3 1c3c 51f3 da3b 4efb 133c
00000050: 0086 223c f4d7 223c fcfe 223c 80cd 263c
00000060: e96e 283c 413d 253c a80b 2a3c 8571 0f3c
00000070: 0235 a53b 47b3 d63b 3d64 463c abe6 2d3c
00000080: 4220 343c a3b4 323c 5a1a 193c 9722 e33b
00000090: aa6e b73b 3fcd b63b 14e8 b53b db1e e13b
000000a0: 2dd1 233c abf4 423c e816 233c dfeb 1b3c
000000b0: 7787 063c ca5c db3b a458 b53b 1ec7 c63b
000000c0: d3f5 ca3b 78cd 0e3c fe7a 303c 8db1 373c
000000d0: 2be3 383c bf08 373c 2487 363c 8869 353c
000000e0: 8cf5 a43b ebe0 d13b 6f48 403c eff0 2a3c
000000f0: 84f4 323c 36ec d33b 8c24 c43b 04d0 b73b
00000100: 44c2 e93b 64f6 fe3b 7222 b73b 280d bb3b
00000110: d7bc bb3b ba6a 023c 157f 093c 3ae9 043c
00000120: 6cf8 e43b 883b d53b 53c4 dc3b dd5d 093c
00000130: d409 c83b eaaf b73b 4c28 c63b ba3a 0a3c
00000140: b0ef 2f3c 7482 2e3c a849 323c 9dbf 293c
00000150: df20 a53b 0eb0 d03b b5a7 3e3c d68a 2d3c
00000160: 74ae 063c 5b70 d33b 8bca f83b c4fc 043c
00000170: 2109 fb3b ea84 e53b 2268 bb3b 96ed cf3b
00000180: 4f4b b03b 58b7 973b 2dd3 ac3b 01ab ab3b
00000190: 5adf b43b 8d0f ba3b 4cba d43b 2fe1 0b3c
000001a0: d343 ef3b cf6a 043c 8ec5 f13b 720e d73b
000001b0: 7dff 263c 402c 2f3c ec94 323c 172d 293c
000001c0: d7a0 a43b 23c6 d73b 4be4 3d3c f430 1b3c
000001d0: bc54 d93b f414 e63b 33c0 e33b ab59 e83b
000001e0: 3762 f53b 5193 b23b dbf8 d03b 7ad9 c43b
000001f0: 723a aa3b 3d79 9e3b f137 e23b bef0 9e3b
00000200: 9277 a83b 94d6 a83b af89 c43b d877 e73b
00000210: e51a f03b bf58 e93b 18f0 e13b fd12 d83b
00000220: d0aa e93b a8b2 2c3c 3e23 333c 9cc4 283c
00000230: 57c9 a43b bdc8 e43b 3337 3d3c f975 093c
00000240: b7d1 c63b 1215 a53b a2ec ec3b 461b f23b
00000250: 0075 b73b 6e3b bb3b 5f92 c23b 4009 b03b
00000260: 5808 ab3b 576a 8f3b 5544 da3b 2722 a03b
00000270: ad21 a93b f75f a73b 0bde c83b 902c b13b
00000280: 7894 f13b 0bcf de3b 6155 fa3b 0c68 a43b
00000290: 0b36 e93b 729b 193c aa5e 313c 7e88 2b3c
000002a0: 1e05 a53b 6bfb 4b3b 8013 453a 7418 203b
000002b0: c95c 373a f0c0 2e3a a8b9 f138 10ba 8339
000002c0: c4ab bcba b3e6 10ba 4b25 3bb9 2cba 85ba
000002d0: 3a81 00bb d3a0 c9ba 8377 0dbb f152 efba
000002e0: eed1 05bb c7af 5dba dcb8 18ba b3ee 8bba
000002f0: 61dc 23ba c664 27ba ee65 cdb9 5914 5838
00000300: 87b0 5739 a298 ba3a f3af 093b a2e5 2e3c
00000310: 67c3 a43b af29 d03a 6f4e c83a bf42 223a
00000320: 2e37 0fbb 4aec 99ba 8dc4 ccba 59b4 1dbb
00000330: cff3 dcba f395 0abb 86ae 1bbb 149f 20bb
00000340: 636f 8ebb ab36 97bb 9af6 95bb 50d7 94bb
00000350: 1180 83bb 4588 2abb e6f0 2ebb 2d17 2bbb
00000360: 1538 22bb 940a 15bb a6d1 91ba cc28 a3ba
00000370: 8b2c 98ba 72db f63a cda1 8b3a 31be 263c
00000380: 6dab a43b ab6e 713a 1d90 fa3a 025a 5b39
00000390: 4c18 6cbb a22c 96bb c2de 4abb d0cc a3bb
000003a0: 4c3e 98bb 433a 98bb 92e3 9bbb 5508 80bb
000003b0: 3a5b a9bb c423 b7bb f18f aebb 15e1 b5bb
000003c0: ebf1 93bb c5a9 80bb bc92 92bb 6900 91bb
000003d0: afb2 abbb ca84 89bb e648 94bb 4c0f a7bb
000003e0: 39f6 0fbb f5c2 5239 f286 773a 04ad 293c
000003f0: ae56 a53b de72 893a d893 033b dacb 8fb9
0.0050454778 0.0063540703 0.011284226 0.010373685 0.0105372155 0.010327133 0.010321916 0.010311595
0.010333107 0.00798745 0.009125782 0.01086489 0.011775698 0.013804928 0.016086906 0.01491148
0.011652672 0.009575706 0.0066818376 0.009032084 0.009919643 0.009939183 0.009948488 0.010180831
0.010280349 0.010085405 0.010378756 0.0087550925 0.0050417194 0.0065521332 0.01210886 0.010614078
0.010994019 0.010907325 0.009344662 0.0069316137 0.005597909 0.0055786665 0.0055513475 0.0068701333
0.009998602 0.011899154 0.009954192 0.009516685 0.008211008 0.006694411 0.0055342484 0.006066217
0.0061938553 0.00871598 0.010771511 0.011211765 0.01128463 0.011171519 0.0111406185 0.011072524
0.0050341543 0.006404986 0.0117360195 0.01043342 0.010922555 0.0064673675 0.005985802 0.005609514
0.007133754 0.007780837 0.005588823 0.0057083555 0.0057292986 0.007960016 0.008392115 0.008112246
0.006987622 0.006507341 0.006737271 0.008384195 0.006104687 0.0056056874 0.006047284 0.008436853
0.010738298 0.01065122 0.010881819 0.010360626 0.005039319 0.0063686436 0.011636664 0.010592183
0.008220304 0.006452603 0.0075925044 0.008116905 0.0076610004 0.00700437 0.0057192007 0.006345461
0.0053800712 0.0046300106 0.0052741976 0.005238891 0.0055197896 0.0056781233 0.006491935 0.008537575
0.0073017864 0.008082106 0.0073782867 0.0065630013 0.010192749 0.010691702 0.010899764 0.010325692
0.0050240564 0.006584899 0.011590074 0.009472121 0.0066324156 0.007021541 0.006950402 0.0070907674
0.0074885148 0.0054496904 0.006377322 0.0060073705 0.0051949555 0.00483623 0.0069036414 0.004850476
0.005141207 0.005152533 0.0059978585 0.007063847 0.007327425 0.007121175 0.0068950765 0.0065940605
0.007130958 0.010540642 0.010933695 0.010300782 0.0050288844 0.0069819377 0.011548805 0.008389943
0.0060674804 0.005037912 0.0072303573 0.007388505 0.0055986643 0.0057138717 0.005937859 0.0053721964
0.0052195005 0.0043766904 0.006660978 0.004886884 0.005161485 0.0051078754 0.006129985 0.0054069236
0.007372435 0.006799584 0.0076395725 0.005017286 0.007117038 0.00937544 0.010825792 0.010469554
0.0050360104 0.0031125199 0.00075178593 0.0024428638 0.0006994722 0.0006666323 0.00011526357 0.00025124894
-0.0014394452 -0.0005527541 -0.00017847602 -0.0010202578 -0.0019608275 -0.0015383012 -0.0021586127 -0.0018258971
-0.0020419317 -0.0008456674 -0.0005825886 -0.0010675996 -0.00062507956 -0.0006385561 -0.0003917659 5.1517363e-05
0.0002056976 0.0014236162 0.0021009415 0.010674866 0.0050281766 0.0015881563 0.0015282164 0.00061897555
-0.0021852958 -0.0011743393 -0.0015622542 -0.0024063794 -0.0016857329 -0.0021146506 -0.0023755147 -0.002450888
-0.0043467744 -0.004614671 -0.0045765163 -0.004542269 -0.0040130694 -0.0026021164 -0.002669388 -0.0026106343
-0.0024752666 -0.00227419 -0.0011125102 -0.0012448072 -0.0011609955 0.001883371 0.0010653079 0.010177181
0.0050253184 0.0009209911 0.0019116435 0.00020918998 -0.0036025224 -0.0045829574 -0.0030955528 -0.004998781
-0.0046460982 -0.004645617 -0.004757353 -0.0039072433 -0.0051683458 -0.0055889804 -0.0053272177 -0.0055505135
-0.004514923 -0.003926488 -0.0044730585 -0.0044250977 -0.0052398066 -0.004196738 -0.0045252917 -0.005098259
-0.0021966828 0.00020099788 0.00094424107 0.010356192 0.0050457334 0.0010486504 0.0020077135 -0.00027426967

_encoder.0.bias f4 [128]
00000000: 9054 a5bb 6127 f33b 4974 47ba df07 b23d
00000010: 8742 afbc d3ef e3bb 3a27 dca0 948e 79bd
00000020: abf1 a0a7 bb4c 66bd a419 153a 3b93 83bc
00000030: e50c 80b0 fc2b a9b0 a9eb 4cbc 2143 4a39
00000040: 4451 44b8 e0e9 e9bc 55c6 64bd 0787 40bc
00000050: 121d dcba 2e12 04bd 83a8 02bc 586b 28bd
00000060: b758 a4bc 7ec6 75bc db79 45bd 286b c3bb
00000070: 767c 98bb c234 993b 0ddb 10bd 955a 83b9
00000080: e2c3 87bb 1a4d b1bb 49f0 423e 9f50 35bd
00000090: f10a b03d 9788 0dbb f64b 72bc 2eba e7ba
000000a0: 9552 e5bc aa7f f4bc f4ff a2bc 1e3e aea1
000000b0: cd3c b6bc 79ff babb b099 5cad 2818 aabc
000000c0: b775 c1bd 16d9 02a5 316b 72bc a5e6 b13e
000000d0: 467f 19bc c36d a4bc 3c5b 5ebd a6b9 b8bd
000000e0: 2933 bebc 1f83 05a4 1136 9ebc b3fc 9399
000000f0: 9475 eabc d99f 02bc 8b50 4fbc f509 cebc
00000100: b608 4a3b 26d5 0dbd 8c2e e6b3 be33 31bc
00000110: 235d 11bb 80fe 89bc bd3b 51b1 e07d 22a8
00000120: 7077 a8bc a1b9 a8bd 6ca8 edbb 5f5b b99a
00000130: 7e21 acbd 4c5d 4c3d 84e3 56bb 86ee e8bd
00000140: 4921 20a7 3e3b 413e ac6f a3bd 443b a0bc
00000150: 9d81 3ab8 f073 55ac c970 a6ba 77d8 2bbd
00000160: 4eec 95bc cd89 b9bc 01eb 44bb daa5 54b7
00000170: b6b4 95bd 91f8 e9bb 07a8 88ba a544 b03c
00000180: de26 fdbb dd20 cbbc cf62 4abd b39f 91b5
00000190: 54ac f1bc 6fe5 b3bd aa0e 4794 e847 8c3d
000001a0: 0205 883c a5c3 38bd e4ff 87bc 0c98 0abc
000001b0: 1904 ddbc d81c b1bc 049b 02be 0474 cbbc
000001c0: b5b0 963c c1e7 afbb 4141 31bb 7012 6ebd
000001d0: f994 95bc feed 833c 4238 a9bc e240 9590
000001e0: 32e6 113d 1b95 8095 22c7 1bbe ff1a 2fbc
000001f0: ea03 9dbb 3d3b 13bd 31b8 69bd dc46 aeba
-0.005045481 0.007420466 -0.00076085754 0.086929075 -0.021394027 -0.0069560795 -3.7295408e-19 -0.06092699
-4.467094e-15 -0.05622552 0.00056877197 -0.016061416 -9.316891e-10 -1.230887e-09 -0.012507358 0.00019289229
-4.6805726e-05 -0.028553903 -0.055853207 -0.011750943 -0.0016793332 -0.0322439 -0.007974747 -0.041117996
-0.020061834 -0.0150009375 -0.048211914 -0.0059637018 -0.004653509 0.0046754787 -0.035365153 -0.00025053756
-0.004143224 -0.0054108026 0.19036974 -0.04426634 0.08595837 -0.0021596306 -0.014788618 -0.0017679387
-0.02799348 -0.029846031 -0.019897439 -1.1807141e-18 -0.022245789 -0.0057067242 -1.2539678e-11 -0.020763472
-0.094462804 -1.1349254e-16 -0.014796064 0.3474628 -0.009368723 -0.02007187 -0.054286227 -0.09019785
-0.023217754 -2.8950842e-17 -0.01931289 -1.5301508e-23 -0.028620519 -0.007972681 -0.01265348 -0.025151232
0.0030827946 -0.034627102 -1.07186764e-07 -0.010815559 -0.0022180758 -0.016844988 -3.044746e-09 -9.020101e-15
-0.020564765 -0.08238531 -0.0072527435 -7.6661825e-23 -0.08404826 0.049893662 -0.0032789418 -0.1137362
-2.2222504e-15 0.18870255 -0.07980284 -0.01955951 -4.4466567e-05 -3.0333479e-12 -0.0012698408 -0.041954484
-0.018301155 -0.022648716 -0.00300473 -1.26748e-05 -0.073098585 -0.007140227 -0.0010426053 0.021517107
-0.0077255806 -0.024795944 -0.049410637 -1.084982e-06 -0.029501118 -0.08783995 -1.00498245e-26 0.068496525
0.01660395 -0.045108456 -0.01660151 -0.008459102 -0.026979493 -0.0216202 -0.12754446 -0.024835594
0.018394807 -0.0053682034 -0.002704695 -0.058123052 -0.018259512 0.016104694 -0.020656709 -5.8870105e-29
0.035619922 -5.1934035e-26 -0.15212682 -0.010687589 -0.0047917264 -0.035945166 -0.057060424 -0.0013296264

_encoder.2.weight f4 [64, 128]
00000000: c2cc b93c a565 943d 23b5 17bc 79e0 41bc
00000010: 7408 24be 0305 e13c 73c2 073d 0b39 18be
00000020: 4471 c7ba cfb8 e83c 9172 af3e 8ba3 fe3c
00000030: dfc5 61ba d553 fdbc dbc5 b43d d6bc 353d
00000040: 5334 1a3b 24f0 063d fede f2bc 9f74 e4bb
00000050: e640 913a 49b2 113d 53b6 663c 4f2c 61bc
00000060: 3b66 d13c 0a7c 3dbd 5d75 b43e ade8 0ebc
00000070: a5ff b1ab b9ad 5ebd 1c39 a2bc 17b6 b23c
00000080: 3dc6 233c b67a 7d3b 2ab4 123d c68b ff3d
00000090: 4565 2f3e 5a65 a23c 468b 633c 9ef0 fb3b
000000a0: bab4 883c 9224 753d 38fe 1abe 731e d4b8
000000b0: 941e cebc fd60 1dbc b3a1 52bb 3d47 053d
000000c0: 8f5c 4ebf dde3 2fbc d414 63bc ff1f 1dc0
000000d0: e541 343d 3dfb a33c 063b 263c 11ae 1e3e
000000e0: 7b18 debc d1e9 a7bc 4f40 56bd 3584 e7b2
000000f0: 5ee0 4a3b 83bb a8bc 9f00 adbc 675c 0bbd
00000100: 7e1e 543d b672 493c dd2d 913c 339b 2d80
00000110: baa9 113d 0e2c 4eba 948a bf3b f9c0 173b
00000120: 49f7 5a3d f90f 13be df8e 02be ba04 0f00
00000130: 75f4 acbd 5024 a2bd b09a abbb 8e13 79bd
00000140: 3938 ce3a b1f4 1f3d 3e40 a8bd 53ca e03d
00000150: b10b 883b 6d7f 4cbb 9333 b3ba dd21 3fbd
00000160: be6b f53c f4ea 17bd 7daf debe f589 9a3b
00000170: ea76 2cbe f8fb 05bd c47d a9bc fcc3 de3c
00000180: df05 b33c d7e6 0ebc 5144 0dad 2a7c 6abb
00000190: 04af dd38 2a7c d4be 0a81 38b0 8dfc 59be
000001a0: 186a 10bd 9d1e 8abb 1378 95bc 9467 e03b
000001b0: ac8c 3abd a1b6 63bc 38ac 373e f3b0 98bb
000001c0: 8873 143c 13a3 ee3b 9961 763d ba7b 9481
000001d0: 52df cc3d 474d 1b3d b6d0 a4bc 9472 980f
000001e0: b086 b43c 721e 1d01 e2d4 02bf 95c3 e1bd
000001f0: 6b5f 30bc 7514 a0bb 4b59 12bd 5ee9 303d
00000200: a32a 0cbd b10e 29be 9190 a3bb e0fb 0e3e
00000210: e32b 21be 303d 97bd 7265 8ebc 4969 85be
00000220: caaa 91bb 807f e53b b2a1 e33c 2c80 55bc
00000230: bfb5 64bc 72d6 493b ac31 08bc 4dc9 0bbd
00000240: 5b4e 7a3d a18e 863c aa4e 45bd 5587 2fbc
00000250: d685 0a3c ef0d f63c a84b 3ebb a016 67bc
00000260: d708 8fbc 3221 593c a2f4 f43d 834f 0ebc
00000270: d89a 9fa0 007b c83d 476c 81bc 7ee3 69bc
00000280: f508 b73b a357 8a3c 4cee 843d fbbf aabd
00000290: 691f 23be 7249 5bbc 07e0 003c c385 28bd
000002a0: 4939 073c 6b31 e03c eb99 19bd d6af 16b9
000002b0: 287e 02bd ce72 513c 19f8 1dbc 7d48 933c
000002c0: cd14 6ebf 3132 75b9 dec6 11bb f1ed a9bf
000002d0: 1fe8 09bc a42c 22bd b04e 993c 0cec 513e
000002e0: 5e38 0bbd 0474 1cbc af80 a3bd 0e06 13b8
000002f0: 2163 7dbc 1664 10bd b922 1c3d fa68 a1bc
00000300: e885 433c 50e4 fd3b 9aa9 9e3c 7011 f180
00000310: d0d2 b2bc 6207 173c e4a8 183b b97c d93a
00000320: 4025 a9bc d10b 12bc 2213 7dbd 1acd af0e
00000330: 7454 e73d f63b 753c 4168 513c 9782 5b3d
00000340: 5b50 d63b 362b 823c 949d 103e c088 da3d
00000350: f663 2b3d 8e83 67bb e219 3b39 6a7c 3fbc
00000360: fd4c 7cbc bd05 4c3c 0641 98be c61f e83c
00000370: f823 d9be acd2 1b3c 89ee 0d3d c002 c73d
00000380: 85cf 233c e7da bdbb bcf7 ee3a a0b2 05bb
00000390: 1a90 4ebb 0469 d43e f95b e617 4192 afbd
000003a0: 4946 543d 7785 9e3b 6065 e1bc e61f d03b
000003b0: 07a9 1cbc 5e7e 0c3c d517 74bd fbbd edbc
000003c0: b204 c23b 2d26 9a3a d070 9ebd 2747 7bbd
000003d0: 95b9 71bc dc73 eabc d209 98bc 9c1b 0493
000003e0: f900 9d3b 667c f49f 9f3a 673e 723f 5cbd
000003f0: aadd 7c3c 5143 93bc f3d6 3b3c 92f0 463d
0.022680644 0.0724595 -0.009259495 -0.011833304 -0.1601885 0.02746821 0.033144426 -0.1486551
-0.0015216251 0.028408436 0.34267095 0.031083843 -0.0008612554 -0.030923763 0.088268004 0.04436954
0.0023529723 0.03294386 -0.029647347 -0.00697191 0.0011081963 0.035570417 0.014081555 -0.013743474
0.025561443 -0.04626087 0.3524579 -0.008722466 -1.2647562e-12 -0.054364894 -0.019802622 0.021815343
0.009995994 0.0038677878 0.03581635 0.124778315 0.17128475 0.019823719 0.013888186 0.007688596
0.01668774 0.05984933 -0.1513604 -0.00010114619 -0.025161065 -0.009605643 -0.0032139837 0.03253864
-0.80609983 -0.010735479 -0.013859946 -2.455078 0.044008154 0.02001726 0.010145908 0.15496089
-0.027111283 -0.020497235 -0.052307423 -2.695206e-08 0.0030956487 -0.020597225 -0.02111846 -0.03402367
0.051786892 0.012295416 0.017722065 -4.188272e-39 0.035562254 -0.0007864841 0.005845377 0.0023155792
0.053458486 -0.14361562 -0.12749813 1.379228e-39 -0.08445064 -0.07917082 -0.005236946 -0.060809664
0.0015733308 0.039051715 -0.08215378 0.1097609 0.0041517843 -0.0031203881 -0.0013671987 -0.046663154
0.029958602 -0.037089303 -0.43493262 0.004716153 -0.16842237 -0.032711 -0.020689853 0.027193062
0.021853385 -0.008722029 -8.030091e-12 -0.0035779574 0.000105707004 -0.4150098 -6.7122186e-10 -0.21287747
-0.03525743 -0.004215075 -0.018245732 0.006848285 -0.04554431 -0.013898523 0.1793679 -0.004659766
0.009060748 0.0072826236 0.06015167 -5.454415e-38 0.100035325 0.037915494 -0.020119052 1.5032491e-29
0.02203688 2.885819e-38 -0.51106083 -0.110236324 -0.010764937 -0.004885251 -0.035729688 0.043191306
-0.03422035 -0.1650951 -0.004991599 0.1396327 -0.15739398 -0.073847175 -0.017382357 -0.2605689
-0.0044454085 0.0070037246 0.027787063 -0.013031047 -0.013959347 0.0030797985 -0.008312624 -0.034127522
0.06110988 0.016425433 -0.048170723 -0.010713418 0.008454761 0.03003594 -0.0029036794 -0.014104515
-0.01746027 0.013252543 0.119607225 -0.008685949 -2.7038115e-19 0.097890854 -0.015798701 -0.01427543
0.0055857846 0.016887492 0.06490764 -0.083373986 -0.15929951 -0.01338421 0.007865912 -0.04114319
0.008253404 0.027367314 -0.037500303 -0.00014370619 -0.031858593 0.012783719 -0.009641671 0.017978901
-0.9300049 -0.00023383719 -0.0022243778 -1.3275739 -0.008417158 -0.039593354 0.018714279 0.20500201
-0.033989303 -0.009549145 -0.07983529 -3.505317e-05 -0.015465529 -0.0352517 0.03811905 -0.019703377
0.011933781 0.0077481642 0.019367982 -2.213861e-38 -0.021829039 0.009218069 0.0023294026 0.0016592956
-0.020647645 -0.00891395 -0.061785825 4.3338336e-30 0.11295405 0.014967909 0.012781204 0.053591337
0.006540341 0.015889745 0.14122611 0.10670614 0.041843377 -0.0035326215 0.00017843352 -0.0116873775
-0.015399215 0.01245254 -0.2973711 0.028335463 -0.42410254 0.009510677 0.034651313 0.097173214
0.009998207 -0.0057939175 0.001823179 -0.0020400658 -0.0031518997 0.4148637 1.4886619e-24 -0.085728176
0.05182484 0.0048376876 -0.02751416 0.006351459 -0.009561784 0.00857505 -0.05959304 -0.029021254
0.00592097 0.0011760645 -0.07736361 -0.061347153 -0.014753719 -0.0286197 -0.01855937 -1.6674355e-27
0.0047913757 -1.0354382e-19 0.22580956 -0.053771444 0.015433708 -0.017976435 0.011464822 0.04856927

_encoder.2.bias f4 [64]
00000000: 4ae2 893e 33f0 9d3d 220b b23d b2fe 72bd
00000010: 96ec cdbc 8f27 93bd 7da6 b0bd c2d7 27be
00000020: 340f ad3e 7a96 e43d b5a1 82be f514 a7bc
00000030: 234b b2be dab1 9dbd 64bd 8abc cef1 fa3b
00000040: 63c1 73ba 7e80 78bd 9a5d c43c 8391 0381
00000050: 5fc0 6fbd f9d6 8fbe eb45 8abb c892 4000
00000060: 1288 c7b9 b402 f1bc 7841 0501 0c3c 983b
00000070: 1e46 73b5 8679 8601 7a9b 9987 7d40 f82d
00000080: 7748 10a7 4130 9aba d327 8fbc 318d 033e
00000090: dcd1 34bc 4ea6 fd3e 32fe d53c e577 febc
000000a0: 7f5d 22bc cdd0 a63e eae6 3dbd 7026 5cbc
000000b0: cc26 4781 937b 97bc 0d77 f2bc 8810 2cb6
000000c0: 6581 ab3e 1041 d83e 045c 803e 75a7 25bc
000000d0: f591 2fbe c8ba 23a9 3a88 e080 9065 073e
000000e0: 0459 2dba 31bf 643e d253 06be f09e 0bbd
000000f0: 0a51 07b1 295a 0a81 6a2c 20bd 29fb 693e
0.26930457 0.0771183 0.0869353 -0.059324928 -0.025137227 -0.071852796 -0.08625505 -0.16390899
0.33800662 0.111615136 -0.25513998 -0.020395735 -0.3482295 -0.07699938 -0.016936012 0.00765822
-0.0009298531 -0.060669415 0.023970414 -2.41653e-38 -0.05853307 -0.280937 -0.0042197607 5.930127e-39
-0.00038057618 -0.029420234 2.4475214e-38 0.00464583 -9.062659e-07 4.9398204e-38 -2.3112262e-34 2.8222974e-11
-2.0023298e-15 -0.0011763648 -0.017475044 0.12846829 -0.0110363625 0.49540943 0.026122186 -0.03106303
-0.0099099865 0.32581177 -0.046362795 -0.013436899 -3.6578363e-38 -0.018491542 -0.029597783 -2.563962e-06
0.33497158 0.4223714 0.25070202 -0.010110726 -0.17145522 -3.6355278e-14 -2.062002e-38 0.13222337
-0.00066126906 0.22338559 -0.13117912 -0.03408712 -1.969115e-09 -2.5411284e-38 -0.039104857 0.22849716

_encoder.4.weight f4 [12, 64]
00000000: e43c cf3e b011 90bd bb46 8cbc f2b7 1b3f
00000010: f486 f4bb 1fd5 89bc 3036 fa3d a35c f6bc
00000020: 6018 24be d5b4 b0be f2b2 67bc 5863 8fbc
00000030: f304 e3be 2c48 493d 6ba7 0a3d 574d 143d
00000040: ae9f 923c bde8 a83e 2fc8 993e 928f fd00
00000050: a019 003e dca8 36bd 21a8 013e d404 5300
00000060: 0a59 f83c 3e81 fb3e 2333 90b7 e309 7ebe
00000070: b7dd b43a 62c7 65b7 ddc7 fdb9 ced7 8822
00000080: 05d0 80bb ce49 c03c 6ebb 083e 3c81 be3c
00000090: 266c 023d fc9a 983e f59a 663d 718d 113d
000000a0: 710d a1bc 5e5d 6d3e deb9 2c3e ff47 35be
000000b0: 4e8b 8606 2d43 803c 5eab d1bd 06bb 383c
000000c0: 8dfc 0d3e a20f 24bd 2183 b8bd acaf 623c
000000d0: 9559 79be 31f9 2ebc 3712 1726 3c8d 60bd
000000e0: a548 193d c268 23be d9e1 9bbd c8f3 273e
000000f0: 42c3 3cba 0bff 2f00 b820 003e e49c 5fbe
00000100: 8eea 10be 4967 70be 6666 54be fd16 4e3d
00000110: 6341 07bd 5403 e0bd ea7c 1ebe 40a1 653e
00000120: bf66 1b3e 7d12 4dbf d8b3 81be 70e6 15bc
00000130: 3c34 e9bd 24b5 43bb 6b25 c83b ddf1 4ebc
00000140: 84ce 233b 3f33 60bd 8b0a a4bd 8bd6 fe3a
00000150: a12a 9ebd abc5 70be 70a0 943e 551f 322e
00000160: ecb9 d3bb b4ed 5e3e aa3c 8db9 39b3 21be
00000170: 74da bbbb af5b eeb4 d886 24b8 8da2 18b8
00000180: 20e1 1f3c ea0c aa39 9bda 2dbd e14d 283e
00000190: bc9f de3b 184e e2be bab5 353d 3e7a 3b3a
000001a0: a86f f33d 419c 35bf 7e6f a0bd 8207 6dbc
000001b0: 0c04 8627 8569 343d 3f2c efbb 2fc3 8f3c
000001c0: 21c0 c0be 76fb 6fbd 387b aabe db99 adbc
000001d0: 63ee d03c 7910 e03b c5d8 ecb5 437a dbbd
000001e0: 12e1 013d 46ef 473d 6c3e 2a3e 848f 05bd
000001f0: 2636 873c 5aec deba 2dd2 323e 70ca a3be
00000200: 41bc 8cbd c656 9c3e 397a 5d3d 5f18 b4be
00000210: ecb6 b23d 93b4 0bbf d0a8 5abe 8cee 95be
00000220: 4458 efbd d40e f9bc fa89 893d ba76 a1bd
00000230: 03be a53c f94d 2abd a204 28b7 ec73 a13d
00000240: 74cb 1ebd ec78 fcbc 361b 4d3e 1586 1a80
00000250: 8c60 e53c ccc8 ab3d 0979 9dbc 2925 8180
00000260: a2f4 f33b 831b 04bf d6a7 b62d 3447 ddbb
00000270: 83b1 cc00 9ebc 6090 b06f 0737 d9ae 7880
00000280: cb28 283b f969 c136 23a7 5abe 7939 5ebd
00000290: 6129 573d 5fa5 42be 3e7a 21bf b9d7 d8bb
000002a0: 4950 99bc 399f 0e3d 8f67 083f c887 083d
000002b0: 4c90 3100 d408 0d3f 07a0 07ba cdbd 3dbc
000002c0: 43e2 e83d 9dbc 233e ed8e 93be ddc9 af3c
000002d0: 0209 55be 1651 4bb9 9733 5680 8922 9f3d
000002e0: 09b4 afb9 65af e13d 95c5 6bbd 5e0f 3c3d
000002f0: 9ff2 bc36 2e42 a000 4656 a200 3807 7dbd
00000300: ee56 aa3d 1319 173d e8e7 97bc a472 97b3
00000310: b71b c480 8d29 8dbc 693e c53d e765 27be
00000320: c997 0abe 3b97 2fbe 855b 7e3e 149b 27bd
00000330: 040f 3cbd 0789 f63d e822 c0bc 0455 4c3d
00000340: 6c31 63ba f589 2f00 f01c 68ba 1434 a100
00000350: d2ce 063e b5b1 e5bd 3858 fabd e937 1900
00000360: 38f0 cc80 63da d2bc 2287 6481 a31e 0bbe
00000370: f430 59b7 9687 179e a410 a800 6513 0781
00000380: a24f 1100 57fb 8eb9 1c4f beba d504 5ebc
00000390: 6f9a 22bc b625 843d 7f3c 05be 4cf0 43bd
000003a0: c4b9 89bd 1149 45be be03 acba 2a58 3f3d
000003b0: 1a98 8a00 0ceb 7cb4 fa9c 04b7 3500 a1ba
000003c0: dc25 4bbe c2df 13bd 0012 09bd 6f82 773b
000003d0: 62d2 a5bd e457 a9b4 baec b081 4983 89bd
000003e0: a696 763c 12c0 10be 2f5d 3dbd a0d3 d2bb
000003f0: e01d 7800 3d0c 2a00 7593 76ba 2ea6 c7bd
0.40476143 -0.070346236 -0.01712357 0.60827553 -0.0074623767 -0.016825257 0.12217367 -0.03007347
-0.16024923 -0.34512964 -0.014141785 -0.017503425 -0.44339713 0.049141094 0.03385107 0.03620657
0.017898407 0.32990065 0.3003554 2.3285884e-38 0.12509775 -0.04459463 0.12661792 7.624078e-39
0.030315895 0.4912204 -1.718995e-05 -0.24808459 0.0013798986 -1.3695886e-05 -0.0004840483 3.7091366e-18
-0.003931048 0.023472693 0.13352749 0.023254983 0.03184142 0.29805744 0.056300122 0.03553528
-0.01965973 0.23180148 0.16867778 -0.17703246 5.060989e-35 0.015657032 -0.10237764 0.011275059
0.13865872 -0.04005397 -0.09009386 0.013835829 -0.24350579 -0.010679529 5.2413335e-16 -0.05482219
0.037422795 -0.1595793 -0.076114364 0.16401589 -0.00072007265 4.40776e-39 0.12512481 -0.21837193
-0.14151976 -0.234769 -0.20742187 0.050314892 -0.033021342 -0.10938135 -0.15477338 0.22424793
0.15175913 -0.80106336 -0.25332522 -0.009149179 -0.11386916 -0.0029862607 0.006107976 -0.012630907
0.002499492 -0.054736372 -0.080098234 0.0019442601 -0.077229746 -0.23512904 0.29028654 4.0500343e-11
-0.0064613726 0.21770364 -0.00026938814 -0.15791024 -0.0057328288 -4.4397663e-07 -3.922623e-05 -3.639101e-05
0.009758264 0.00032434548 -0.042444807 0.16435958 0.006793944 -0.44200206 0.04436276 0.00071516994
0.11886531 -0.7094155 -0.078337654 -0.014467122 3.719686e-15 0.044045944 -0.0072989757 0.017549125
-0.37646583 -0.05858942 -0.33297133 -0.021191528 0.025504297 0.006837901 -1.7646458e-06 -0.10716679
0.031708784 0.048812173 0.16625375 -0.03260757 0.016505312 -0.0017007694 0.17462988 -0.31990385
-0.06871844 0.30534953 0.05407164 -0.35174844 0.08726296 -0.5457241 -0.2135346 -0.2928356
-0.11686757 -0.030402578 0.0671577 -0.078839734 0.020232206 -0.041578267 -1.0014659e-05 0.078834385
-0.038768247 -0.030819379 0.20029911 -2.435822e-39 0.028000139 0.08387908 -0.019222753 -1.186011e-38
0.007444934 -0.5160448 2.0765539e-11 -0.006752873 1.879812e-38 -4.4321516e-29 8.072631e-06 -1.1082983e-38
0.002565908 5.764185e-06 -0.2135282 -0.05425403 0.052529696 -0.19008397 -0.6307715 -0.006617513
-0.01871504 0.034819815 0.5328302 0.033332616 4.551703e-39 0.55091596 -0.0005173687 -0.011580897
0.11371281 0.15989919 -0.2881998 0.02145856 -0.20804217 -0.00019389795 -7.91636e-39 0.07770259
-0.00033512738 0.11019782 -0.057561476 0.045913093 5.6310814e-06 1.471742e-38 1.49083e-38 -0.061774462
0.08317362 0.036889147 -0.018543199 -7.0523384e-08 -1.80097e-38 -0.017231727 0.096310444 -0.16347466
-0.13534464 -0.17147534 0.248396 -0.04091938 -0.045912758 0.12037855 -0.023454145 0.049885765
-0.0008666727 4.365758e-39 -0.00088544097 1.4804197e-38 0.13164833 -0.112155356 -0.12223858 2.315944e-39
-1.8820615e-38 -0.0257389 -4.197394e-38 -0.13585906 -1.2945606e-05 -8.021912e-21 1.5434333e-38 -2.48095e-38
1.58977e-39 -0.00027271613 -0.0014519426 -0.013550957 -0.009924515 0.06452505 -0.13011359 -0.047836587
-0.06724885 -0.19266154 -0.0013123674 0.04671494 1.2727862e-38 -2.3554838e-07 -7.904362e-06 -0.0012283387
-0.19838661 -0.036102064 -0.03346443 0.0037766953 -0.08096768 -3.1542652e-07 -6.4991875e-38 -0.06714494
0.015050566 -0.14135769 -0.046231445 -0.006433919 1.1030977e-38 3.861481e-39 -0.0009406128 -0.09748493

_encoder.4.bias f4 [12]
00000000: 5835 8a3e 7ff7 7d3f cc37 babc 89ae 6fbe
00000010: 7947 1e3e f016 a9bd 8435 963e 69f4 813e
00000020: ffb9 673f 92b5 543f 75d5 403e c09d c83d
0.26993823 0.99205774 -0.022731684 -0.23406424 0.15456952 -0.08256328 0.29337704 0.25381783
0.9051818 0.83089554 0.18831427 0.097957134

_encoder.6.weight f4 [2, 12]
00000000: ac7a cfbe fbc9 3c3f 2226 7a3d 6dc8 923d
00000010: 3339 34be 4676 a3be d277 b93e fa27 653d
00000020: e671 f3bd 028c aa3d c8e5 bf3e a2bb 873e
00000030: 1e74 923d 007b 2a3e 67d8 4d3e 7ae5 da3d
00000040: 667d a53e d3ad fc3e b9e5 61bd 83e3 8abe
00000050: f437 cdbd 16d1 4abe 97c8 133f d025 b9be
-0.4052328 0.737457 0.061071523 0.071671344 -0.17599945 -0.31926173 0.36224228 0.055946328
-0.11886959 0.083274856 0.37479997 0.2651034 0.07151054 0.16648483 0.20102082 0.106883004
0.32322234 0.49351367 -0.05515072 -0.27126703 -0.10020438 -0.19806322 0.5772795 -0.3616166

_encoder.6.bias f4 [2]
00000000: 71bf e83d 8e7c a2be
0.113646396 -0.31735653

_decoder.0.weight f4 [12, 2]
00000000: 9058 a63c eba8 fa3e ec9d 95be 548f a3bf
00000010: 7147 19bb 7194 193b 063e 3f3c 8c4f ecbd
00000020: bf11 0c3f 16c9 9c3e 66ee 463f 6a7a a63c
00000030: 17ba 263e 6095 933e e43f d6be 78a9 10bd
00000040: 8183 213e cdf2 36bf 498f c63c 26a6 6cbc
00000050: d65c 3c3f 5195 e6be f83a 183f 4813 79be
0.020305902 0.48957 -0.29222047 -1.2778115 -0.002338853 0.0023434425 0.011672502 -0.1153861
0.5471458 0.30622166 0.7770752 0.020322043 0.16281925 0.28824902 -0.4184562 -0.035317868
0.15772821 -0.71464235 0.024238246 -0.01444391 0.73579156 -0.45035794 0.5946498 -0.24323761

_decoder.0.bias f4 [12]
00000000: 4c8b 42be 05ee 9f3e ee70 8abd d4c2 38bf
00000010: c504 9c3e c453 63be 626b 07c0 d1a1 4b3e
00000020: 21fb ce3e 512a 0140 dc2a 43be 38ff 1d3f
-0.1899845 0.31236282 -0.06759821 -0.72172284 0.3047239 -0.22199923 -2.1159291 0.19885947
0.4042597 2.0182078 -0.19059318 0.6171756

_decoder.2.weight f4 [64, 12]
00000000: 30bc 4fbd b086 17b7 b0be 4c80 418c 8500
00000010: f49d 0cbd 9500 8abc eaec d7bc f8af 23b9
00000020: 4a41 7ebb 88e1 75bc b989 fa3b 9465 16bb
00000030: 7b5c 7ebc bad9 6b39 4a53 2da7 bbc4 bc3a
00000040: 960f 7fbc 3db8 c6bc 996c a6bb b8d4 30bd
00000050: 03e0 8e3c 483f aa39 efb2 4ebd fe4d 1ebd
00000060: 8e84 63bd 36c6 a8bd 0856 a738 d2d7 80bc
00000070: a91f 0cbd 43a9 2d3f 5867 96be 33d1 a6be
00000080: c767 b73e d12d 273e 55fd 8dbf 4d19 d1be
00000090: 7971 c4bc 46e7 943b 32fc ba15 f99d 51b8
000000a0: aa1c 0cb9 1ab7 36b7 f21f 12b9 ffda fcbb
000000b0: 13a0 06bd 8eb7 0bbd 19ca 6eb7 60e3 05b7
000000c0: 9b7e 53bd fdd9 13bd d520 f980 06a1 8fb8
000000d0: 1fdc 17bd 996c 1dbd ac29 f5bc 0625 46bc
000000e0: 4001 f4bc 6a10 1dbd 355f 2bbd 1225 16bd
000000f0: f93d 7a3d f2c2 5fbe 10b9 5d27 5f8e 9abd
00000100: 4ab7 5ebf a3cf e7ba 40f0 29be 30d3 11be
00000110: 5f14 1dbd 10f8 493e 962b 1d3e ff1c 8f3d
00000120: 4d14 9ab4 be75 0fab f8cb 6501 ead6 b001
00000130: 5eb6 72b3 fe73 27a9 9c13 9baa 24ae a7b1
00000140: 3823 b300 d15a 0b80 8133 4504 4cbd d201
00000150: d72a e2be 69f5 b6bd 29ac b4bc 76d5 81be
00000160: 0e7b 9ebe 545b 973c 442c 35be a466 08bf
00000170: 87bc fb3e 0496 20be a616 b03e 0cef a03e
00000180: 0ca3 24bf e87e 33bf 295c 0d3c c2df 0dbd
00000190: 5da0 d93d 6e47 143e 4e81 96be 002b 833e
000001a0: de2b 55bf 66ec d03e 5f31 193e c5de 1c3e
000001b0: 7fd8 dab3 5140 ccb3 e086 d900 a382 1e32
000001c0: 38d8 57b2 9541 8eb2 e77e cfa1 57ee 67b4
000001d0: 9f81 0db4 c8b5 bab2 8a13 b1b3 bbef 89b3
000001e0: b728 403e a9f7 abbc f3be 653b b420 173d
000001f0: ade3 c9bc fd3e 063f 5f55 e93e dfaf 553e
00000200: 1fba a0be 9d7f 1ebf 956e 8f3e f99a 69bd
00000210: 871e 18be 9efe 49be e1a1 6039 3d75 6fbd
00000220: 1647 4fbf 20fe e1be 8a6c 1dbe 1e3b 683c
00000230: 3dfc 903e b47d 833e e370 d03d 34df 68bc
00000240: 82c5 debc c0ad 2fbc 0019 1600 1d23 9cb4
00000250: a6ba 46bc 7717 8abb 9880 c6ba 606a 87bc
00000260: b478 863c d37d 98bc dd88 4139 86fc 22bb
00000270: 2c91 d0bc 1188 49bb 1b1c 8e01 2068 5b80
00000280: 881e 9abc d695 c5bc cf1c c2bc 978c 9ebc
00000290: 5b55 0bbb d236 d4bc da16 d1bc fd35 c5bc
000002a0: f964 afbd 4c9b 913e dbf5 72b9 5008 b13c
000002b0: 8a71 dc3e 767e f3bc 285c 743e 8dd3 a3be
000002c0: 878c 433d 6b70 b0be 6c6b 8fbe 1109 cdbe
000002d0: 823b b93e 11b3 babd e0de 0d00 113f ab3c
000002e0: b368 7cbf 3c43 57bb db6b 1abe e104 d6bd
000002f0: f4b0 b23c b5f7 c83d ceba bc3c e682 423d
00000300: 58be 89bd 7396 ca3e a4da c93c efd5 a33d
00000310: b29a 8ebc 5d79 e53d caa6 6c3e 8f58 11be
00000320: 915a 9abe 6e4e 28bf ba8f cd3e 73f6 81be
00000330: 6ffa 173f 1dec 80bc 366b 422b 73b7 df80
00000340: 1241 55bd 6d10 05bf 4d64 f03d b7d8 05bf
00000350: 4b04 ffbc e25c 1f3e 6bfd 2580 ca13 dbbf
00000360: 3792 22bd bafb 64bc f07b 9c01 0dad 8b17
00000370: 4f65 1abd 37a0 eebc 49b3 28bd 77b9 08bd
00000380: cf46 91ba b76a 93bc a8cf b0bc 8048 9cbc
00000390: 38b1 51bf ee0f b9be c952 8e3a a385 93bc
000003a0: 48d5 f3be f1c1 19be f56e 213c 94c5 0f3f
000003b0: fcf0 6dbc 2237 8b3e 64e0 c13c 49a5 103e
000003c0: 61b4 6ebf 9095 8d3e c8b2 193b 33a0 8abd
000003d0: 4a08 f8bc 25ff 0f3e 7138 afbe 8e8c f0bd
000003e0: 46ad 4dbf 7217 fa3d d6c1 b63d c642 f33d
000003f0: 21bd 833e da05 85be 5ee3 bfa8 23bd d580
-0.05071658 -9.031661e-06 -7.047903e-39 1.2264435e-38 -0.034330323 -0.01684598 -0.026358087 -0.00015610445
-0.003879624 -0.015007384 0.0076458124 -0.002294873 -0.015524979 0.00022492456 -2.4053724e-15 0.0014401892
-0.015567681 -0.024257774 -0.005078864 -0.043171614 0.017440801 0.00032472075 -0.050463613 -0.038648598
-0.055546336 -0.08240931 7.979205e-05 -0.015727911 -0.03420988 0.678364 -0.2937572 -0.3258148
0.35821363 0.16326071 -1.1092936 -0.40839615 -0.02397989 0.0045441715 7.5522696e-26 -4.9976607e-05
-0.00013362119 -1.0890677e-05 -0.00013935546 -0.007716536 -0.032867502 -0.0341106 -1.423296e-05 -7.980358e-06
-0.051634412 -0.03609656 -2.2878816e-38 -6.848764e-05 -0.03707516 -0.038433645 -0.029927097 -0.012093788
-0.029785752 -0.03834573 -0.041838843 -0.036656447 0.061094258 -0.2185171 3.0770234e-15 -0.075466864
-0.86998427 -0.0017685782 -0.16595554 -0.14240718 -0.038349506 0.19723535 0.15348658 0.069879524
-2.8699506e-07 -5.0967206e-13 4.2206998e-38 6.4960576e-38 -5.6510878e-08 -3.7182056e-14 -2.7547138e-13 -4.880137e-09
1.6451188e-38 -1.042769e-39 2.3180888e-36 7.7413444e-38 -0.4417331 -0.08933527 -0.022054749 -0.2535817
-0.30953258 0.018476166 -0.17692667 -0.5328162 0.49167272 -0.15682226 0.3439228 0.31432378
-0.6431129 -0.7011552 0.00862793 -0.03463722 0.1062629 0.14480373 -0.29395527 0.25618744
-0.8327006 0.40805358 0.1496024 0.15319355 -1.01907965e-07 -9.511189e-08 1.9976687e-38 9.226514e-09
-1.25638095e-08 -1.6560799e-08 -1.4060456e-18 -2.1600259e-07 -1.3178804e-07 -2.1735914e-08 -8.245759e-08 -6.423166e-08
0.18765531 -0.020992117 0.0035056442 0.036896423 -0.024644697 0.5243986 0.45572945 0.20867871
-0.31392 -0.6191347 0.28014055 -0.05703256 -0.14855395 -0.19726035 0.0002142261 -0.058461417
-0.80967844 -0.44139194 -0.15373436 0.014174251 0.28317443 0.2568184 0.101777814 -0.014213372
-0.027193788 -0.010722578 2.029349e-39 -2.9082813e-07 -0.012129461 -0.004214223 -0.0015144525 -0.016530216
0.016414978 -0.018614685 0.000184569 -0.0024869754 -0.025459848 -0.0030751268 5.220289e-38 -8.394383e-39
-0.018813387 -0.024119299 -0.023695378 -0.019354148 -0.0021260593 -0.025905047 -0.025523592 -0.024073595
-0.08564181 0.28438795 -0.00023170507 0.021610409 0.43055373 -0.029723387 0.2386328 -0.31997338
0.04774144 -0.34460768 -0.28011644 -0.4004598 0.36178213 -0.091161855 1.273814e-39 0.020904096
-0.9859726 -0.0032846471 -0.15080206 -0.10450149 0.021812893 0.09812871 0.023038294 0.047488116
-0.06725758 0.3956791 0.024640389 0.07999789 -0.017407749 0.11204789 0.231105 -0.14193939
-0.30147222 -0.65744674 0.40148717 -0.25383338 0.59366506 -0.015737588 6.907143e-13 -2.0545125e-38
-0.05206401 -0.5197819 0.11737881 -0.52283806 -0.031129977 0.15562776 -3.488823e-39 -1.7115414
-0.039690223 -0.013976032 5.748319e-38 9.026349e-25 -0.03769427 -0.02912913 -0.041186605 -0.033379998
-0.0011083725 -0.017995222 -0.021583393 -0.01907754 -0.8191104 -0.36144966 0.0010858412 -0.018008059
-0.47623658 -0.15015389 0.009853114 0.56160855 -0.014522787 0.271905 0.023666568 0.14125551
-0.93243986 0.2765317 0.002345251 -0.06768837 -0.03027739 0.14062174 -0.3422275 -0.11745559
-0.8034252 0.12211503 0.0892369 0.118779704 0.2573023 -0.25981027 -2.1303865e-14 -1.962881e-38

_decoder.2.bias f4 [64]
00000000: 1787 00bb 3bbb 17bb 7db1 a73e 941d a0bc
00000010: 3c1a 05bd fd51 c23e 8bfc 2f80 dfe8 203e
00000020: 09f7 ff3e 135e 80b2 2ae3 0dc0 e292 093f
00000030: c44c 46bc d391 80bc 4a9c 3ebf 47fb ea3c
00000040: 228b a3bf 56be ab3d ce87 69bc 7e01 f33e
00000050: 593e 563e 04cc c73d ca67 533f 0f1a 723c
00000060: 2593 443f 164e a33e 6727 073e fa16 68bc
00000070: 22fe 153f 00b1 1c3e e904 9dba 75b3 9c3e
00000080: fd34 540e a2ae a4bc 9a63 edbc 5eda 763e
00000090: 3d78 d23e ed8d 53be 0912 3396 9889 713f
000000a0: ac40 9b3e 7832 193f 0ecf db3e 4817 1db9
000000b0: c01f 3a3e 3e62 1ebe db76 703f a47d debf
000000c0: f5fb d23d 9de2 173c 7798 bdbb 8bd3 fd3e
000000d0: 6c03 ff3e 0cea ba3e e7dd e33e 9216 10b4
000000e0: a9fb 27bd dd86 003f 272d d3bf caea 27bd
000000f0: c898 40b0 3629 3d3e 4e69 fb3e 34b9 2f00
-0.001961177 -0.002315237 0.327526 -0.019545354 -0.032495722 0.37953177 -4.406864e-39 0.15713833
0.4999316 -1.4943941e-08 -2.21699 0.5373975 -0.012103263 -0.015694534 -0.7445723 0.028684271
-1.2776835 0.08385913 -0.01425357 0.47462076 0.20922221 0.0975571 0.82580245 0.014776721
0.76787025 0.31895512 0.13198625 -0.014165634 0.585909 0.15301895 -0.0011979613 0.30605665
2.615653e-30 -0.020102803 -0.028978158 0.24106738 0.4110736 -0.20659609 -1.4465196e-25 0.94350576
0.30322778 0.59842634 0.42931408 -0.0001498136 0.18176174 -0.15467164 0.9393136 -1.7382092
0.10301963 0.009270337 -0.0057859975 0.49575457 0.49807298 0.3650669 0.44505236 -1.3419256e-07
-0.041011486 0.50205785 -1.6498154 -0.040995397 -7.006631e-10 0.18472752 0.4910378 4.382707e-39

_decoder.4.weight f4 [128, 64]
00000000: 4667 9c39 e10b 0e3c e0d6 95bd c84f 0f31
00000010: fe59 533c 1534 043d d543 eb20 268e c53e
00000020: 16ea e4bd b574 26b1 95c6 05bf c286 9ebd
00000030: 593a 96bc 13dd 593c 1760 4cbf 70a9 acbe
00000040: 8031 44be addd de3d cacc 3033 0d8d 2bbd
00000050: 5d77 2fbb af11 71bd 1391 e23d b16a 32be
00000060: 3a4c 4d3e 39f9 96bc 32dd 80bc d541 f33d
00000070: b6ab 24bd fa3d c5bd 2b2f bc38 3c52 5dbc
00000080: 1944 3881 27c8 523c 17db 753b f337 f93c
00000090: fb3e 8f3d a701 b7bc 79c2 0437 55ae ac3d
000000a0: e4e7 083e 1182 c3bd 5da6 6b3d 380b b298
000000b0: 0b94 9ebd 6094 efbe 0a91 37be 297e 02be
000000c0: aefb dfbd a4be 043a e905 2cb9 ea28 eebe
000000d0: a41e 85bd 7026 e73c 89f4 b8be b62a 12b1
000000e0: 875a 97bc 7c92 323c 036b 03bf bee7 823c
000000f0: a047 cc17 a005 09bd 84eb 8fbe 2c5c 3500
00000100: 2a2a 8236 8655 d180 75ba d7be 0da6 feb6
00000110: 94c3 43bd 455a 6eb9 fab9 2880 288c 1ebf
00000120: 0f8f ce3e cfee d81a 380b a8be 1154 31bd
00000130: 2ec8 a33b 9ae0 803b 7f58 03b9 71e9 08ba
00000140: d3d3 30bb 3bed 0280 104b 0137 7f80 38be
00000150: 0830 34be 6428 07bf 3d10 263d dd7e 793d
00000160: f156 e2bc 60ce 07be 30ba 54be 293e e0a4
00000170: dc84 03be f592 d9ba 2c47 5101 c69d 6f3e
00000180: 13d4 5f80 0d19 15bf 4776 6cbc 605e 883e
00000190: 0a42 d7bc 8e4e 34bd 7a14 6000 7700 80bd
000001a0: 7151 a63b 8cf8 b0bc 9aed b4bd 3185 7a81
000001b0: 1880 adbc 4e79 8ebd e6a4 c3bd aac6 95bb
000001c0: 6d98 0a3d 07fe 7739 a04f 1a81 dd16 91bd
000001d0: e2b7 9fbe 7452 1d3e 6c4b 693b 8832 158e
000001e0: 0d6c 6abb cace f83d be3d 9d00 a468 443c
000001f0: 78ce 5602 40a4 b5bc 7b05 f9ba 235c 8b01
00000200: 7b45 ef80 fa97 5c80 c402 06a4 a245 96b2
00000210: 981b 5581 79d4 d090 238a 2300 9919 8b37
00000220: 0ce2 8ab9 0de2 cf80 ab66 899b c968 e5a9
00000230: d443 3981 40c4 db00 b7a0 86b9 1510 b881
00000240: 8794 1bba 84fc 5381 bb79 9a00 9835 a03a
00000250: c83c 8fb7 7724 6d9a 6fef 85b9 2e09 fab8
00000260: 9461 b0ac 065b 26ae 0081 a0a7 ccb6 c480
00000270: 6bd6 36b2 3ab4 4480 44af 1881 9dd0 f7b4
00000280: 2789 1000 5469 1aa8 f8b4 1080 7567 8ead
00000290: 5b07 46ab ff67 f9b5 741f 6e81 91ca 57b4
000002a0: bbb6 00bc 23d5 4eac 8e90 85bb 304c 4580
000002b0: 448f 86a4 36c4 b6bb d75c 79b8 e2e9 3eba
000002c0: d107 c5b7 653d 0381 b144 a580 b54e cdb7
000002d0: 3ecd 60b3 4891 06b0 937d 6294 d10b 8b01
000002e0: ac6d cabb 3f61 73b8 f58a 9781 eb51 d100
000002f0: 0028 3080 5e20 3701 0c94 4ebb 007d 9080
00000300: 0098 b381 c058 9701 309b 4616 70e7 4d00
00000310: bb34 4200 6a01 7715 80b7 b481 ec6e 781c
00000320: 7006 9117 3819 7881 86cf 0fb3 c7fa 441b
00000330: e0ea cc80 0cf1 3901 4f64 8798 cec6 7c18
00000340: 837a 0a19 5275 9519 400d b181 4137 a998
00000350: 7771 0c94 40e4 c615 8d26 5f1a 2251 e998
00000360: ef14 4f19 09ae 2118 ec60 9514 b7d9 e498
00000370: e350 4e1c 981c 3416 0410 7a00 8881 7796
00000380: 30e2 ea00 e503 1e99 dd6b 7400 e082 7f96
00000390: e245 b497 5010 e798 0036 b680 d2da 2e1c
000003a0: 2c8b 961b c834 3417 b9e8 9199 00c2 1e00
000003b0: feb6 e01a 764e 18b2 2ca4 201c efc1 ed00
000003c0: 1a35 e416 3a56 4593 68a4 0180 f233 ca99
000003d0: 8e10 b315 a5f3 c718 d9b6 1696 207b 3281
000003e0: 91e2 e998 ee02 6e97 325b e796 c642 be01
000003f0: 843c 7e00 0fb1 0f16 cf6b 941a e089 c280
0.00029831583 0.008669824 -0.07316375 2.085459e-09 0.012899874 0.03227623 3.9855436e-19 0.38585013
-0.11177461 -2.422252e-09 -0.5225614 -0.07740547 -0.01833837 0.013297337 -0.7983412 -0.3372302
-0.19159508 0.10882125 4.1164448e-08 -0.041882563 -0.0026774027 -0.058854755 0.11062827 -0.17423512
0.2004861 -0.018429385 -0.015730474 0.11877791 -0.04020282 -0.09630962 8.973324e-05 -0.013508376
-3.384432e-38 0.012865103 0.003751462 0.030422186 0.069944344 -0.022339655 7.913092e-06 0.08431689
0.13369709 -0.095462926 0.057531703 -4.602325e-24 -0.07743081 -0.4679289 -0.17926422 -0.12743439
-0.10936676 0.0005063808 -0.000164054 -0.4651559 -0.06499985 0.02821657 -0.36124066 -2.1270075e-09
-0.018475784 0.010899182 -0.5133516 0.015979644 1.3201272e-24 -0.03345263 -0.28109372 4.900346e-39
3.8792105e-06 -1.9224299e-38 -0.42134443 -7.5891207e-06 -0.04779394 -0.00022731077 -3.740136e-39 -0.6193261
0.4034352 8.972132e-23 -0.3282106 -0.043293063 0.0049982285 0.0039330246 -0.00012526101 -0.0005222774
-0.0026981726 -2.68773e-40 7.706476e-06 -0.18017767 -0.17596447 -0.52796006 0.04054283 0.060912002
-0.027629348 -0.1326232 -0.2077415 -9.724982e-17 -0.1284365 -0.0016599583 3.84383e-38 0.2340003
-8.80045e-39 -0.5824135 -0.014432496 0.26634502 -0.026276607 -0.044020228 8.823553e-39 -0.06250089
0.0050756265 -0.021602891 -0.088343814 -4.6013308e-38 -0.021179244 -0.06956731 -0.09552936 -0.0045708017
0.03383677 0.00023650388 -2.834246e-38 -0.07084439 -0.3119498 0.15363485 0.0035597933 -1.8389998e-30
-0.003576997 0.12148817 1.4440322e-38 0.011987839 1.5781491e-37 -0.022173047 -0.0018998826 5.1192746e-38
-2.1973608e-38 -8.503385e-39 -2.905896e-17 -1.7493964e-08 -3.914172e-38 -8.23689e-29 3.263796e-39 1.6582011e-05
-0.0002648983 -1.909104e-38 -2.2731096e-22 -1.018782e-13 -3.4027798e-38 2.0182375e-38 -0.00025678214 -6.7614e-38
-0.0005934913 -3.893575e-38 1.4186335e-38 0.0012223003 -1.7075232e-05 -4.9039907e-23 -0.0002554613 -0.00011922639
-5.013054e-12 -3.7824875e-11 -4.4548783e-15 -1.8065332e-38 -1.0642547e-08 -6.309467e-39 -2.8043738e-38 -4.615912e-07
1.518569e-39 -8.571557e-15 -1.534287e-39 -1.6189475e-11 -7.035394e-13 -1.8582213e-06 -4.3736263e-38 -2.0097129e-07
-0.007856066 -2.9392675e-12 -0.00407607 -6.36398e-39 -5.835594e-17 -0.0055775894 -5.945269e-05 -0.0007282776
-2.348787e-05 -2.4104948e-38 -1.5177499e-38 -2.4474555e-05 -5.234073e-08 -4.8955373e-10 -1.1434849e-26 5.107749e-38
-0.0061776247 -5.8026282e-05 -5.5668033e-38 1.9223005e-38 -4.422453e-39 3.3635014e-38 -0.0031521348 -1.3269153e-38
-6.5972325e-38 5.559599e-38 1.6043281e-25 7.154357e-39 6.080059e-39 4.9882368e-26 -6.6384867e-38 8.219968e-22
9.37203e-25 -4.55685e-38 -3.3483524e-08 1.629377e-22 -1.8818698e-38 3.4152076e-38 -3.4997968e-24 3.2670607e-24
7.159174e-24 1.5453624e-23 -6.5038544e-38 -4.374127e-24 -7.090571e-27 8.033168e-26 4.614646e-23 -6.031101e-24
1.0705877e-23 2.0896628e-24 1.5083384e-26 -5.9156454e-24 6.8264226e-22 1.4549307e-25 1.1209676e-38 -1.9993374e-25
2.1570647e-38 -8.169195e-24 1.0691612e-38 -2.0640033e-25 -1.1649868e-24 -5.972857e-24 -1.6733432e-38 5.785459e-22
2.4905356e-22 5.8227756e-25 -1.5086645e-23 2.824659e-39 9.293987e-23 -8.865404e-09 5.3151746e-22 2.1834583e-38
3.6868898e-25 -2.4907409e-27 -1.50813e-40 -2.0907291e-23 7.232364e-26 5.1686312e-24 -1.21746e-25 -3.2781774e-38
-6.045786e-24 -7.6905645e-25 -3.7377615e-25 6.989079e-38 1.1592981e-38 1.1607318e-25 6.138554e-23 -1.7865546e-38

_decoder.4.bias f4 [128]
00000000: 857e 423e 4ab1 473c 42f7 01b8 9a2b a31b
00000010: 8683 353d 98ef 31b4 1f34 cdbc 4899 16a2
00000020: dcd4 0b3d f9bf adbb 1a66 203e e635 048b
00000030: 5da3 6b3e c5f8 55b9 4b56 b33d 18e7 86be
00000040: df84 32b8 06b1 4abd e003 18bb c852 8cbc
00000050: 26b2 54bc 4117 54a7 bb21 4dbf 5dc4 cbbc
00000060: 1bb4 af3e 1aa7 42be 7f7d 893f ae98 59bb
00000070: 2ade 5cbf 7300 c8be f7db 09bc c9f9 15bd
00000080: 657b 1bbd 6cc2 09bd c956 cfbb 4578 5aa1
00000090: a671 9f01 3d39 b7bd ce7f 113e 296f 0dbd
000000a0: 9075 b73d 37a3 debc 58c2 68bc a045 bdb7
000000b0: 3e23 19b9 6e05 b13e f8fa 0abc 8e91 903e
000000c0: 69a8 f73d 89ef 29bc 992a f1bc 0d11 2f3e
000000d0: 652d 51bb 76ed a9b7 b80b 54bb eb5d f43e
000000e0: fbfd feba 4ec3 71a3 e48d 923e 38b9 9bb9
000000f0: bed2 45bb 7c91 4ebe d1c7 b23e a585 39b8
00000100: fbad 1ba8 3224 65bd 080d 473e 5036 dbb7
00000110: 8f98 4dbd 5018 c5b5 263e 173e c95f cb3e
00000120: 3f62 11bc 13ec e1bc e757 28bc f3a8 6fbc
00000130: 07b8 e3bd febf 7a80 6801 92bd 9f79 c83c
00000140: d163 8bbd eb61 0f3e 3860 0b9b 15e8 afaa
00000150: 03c7 bbbc 9d5b 0b3f 5f9f a380 46c2 1381
00000160: 131d 293e 0b80 29bd ad34 8ca6 b286 94b3
00000170: f0a8 9abc 9c0c 0e3e 4f05 693b 09a7 07bd
00000180: 5d35 1500 bf7c d0bd ed0d 9600 ab56 69bd
00000190: d7d8 3f3e d857 f6ba 2b63 5ebf 08ac e992
000001a0: d4e9 cfa7 8ec3 313d 7eb0 a73d d951 a0a8
000001b0: b12c b7bc 8a1d 1ebc 5030 a8bc 4c2e 93a5
000001c0: 782b 023e ad43 9fbd 6fde 8abc 8eed a8bb
000001d0: 82f3 f53d 2e17 f4b3 228f 933e c402 0db5
000001e0: 68b7 22a3 f0f6 87be bff0 d23e 1ab6 c9bd
000001f0: 376c 88bc fc40 0b96 2a51 fd3d 02e7 d63e
0.18993576 0.012188265 -3.0986273e-05 2.6994265e-22 0.044314884 -1.6571573e-07 -0.025049267 -2.0409937e-18
0.034138545 -0.005302426 0.15663949 -2.5462824e-32 0.23011537 -0.00020405937 0.087566935 -0.26348186
-4.2562253e-05 -0.04948523 -0.002319567 -0.017129317 -0.012981927 -2.9433516e-15 -0.80129594 -0.024873907
0.34317097 -0.19009057 1.0741423 -0.0033202576 -0.86276495 -0.39062843 -0.00841426 -0.036615167
-0.037959475 -0.03363268 -0.0063274843 -7.402045e-19 5.8570453e-38 -0.08946464 0.1420891 -0.03452984
0.0895797 -0.027177436 -0.014206491 -2.2562977e-05 -0.00014604346 0.34574455 -0.008482687 0.2823605
0.120926686 -0.010372051 -0.029439257 0.17096348 -0.0031917926 -2.0256946e-05 -0.0032355618 0.47727904
-0.0019454354 -1.31059936e-17 0.2862388 -0.00029701903 -0.0030185427 -0.20172685 0.34918073 -4.4231903e-05
-8.6419544e-15 -0.05594272 0.19438565 -2.6132126e-05 -0.05019432 -1.468472e-06 0.14769801 0.39721516
-0.008873521 -0.02757839 -0.010274864 -0.014627683 -0.11119085 -1.1272804e-38 -0.071291745 0.024472056
-0.06806148 0.14002196 -1.15289e-22 -3.1247284e-13 -0.022922045 0.54436666 -1.5026357e-38 -2.713902e-38
0.16514997 -0.041381877 -9.728729e-16 -6.916288e-08 -0.018879384 0.13871998 0.0035556143 -0.03311828
1.947689e-39 -0.101800434 1.378032e-38 -0.05696742 0.18735062 -0.001879449 -0.8687007 -1.4746776e-27
-5.770756e-15 0.043399386 0.0818796 -1.7799064e-14 -0.022360178 -0.009650597 -0.02053085 -2.5531807e-16
0.12711895 -0.0777658 -0.016951768 -0.005155272 0.12009336 -1.1366352e-07 0.2882014 -5.253062e-07
-8.820875e-18 -0.26555586 0.411993 -0.09849186 -0.016653163 -1.1248836e-25 0.123689964 0.4197312
