yeeef_workspace/ckpt/e0080.pt (torch_old, 882114 bytes, 16 tensors)

_encoder.0.weight f4 [128, 784]
1.03179296e-07 8.852868e-08 4.3364132e-08 5.2143783e-08 5.068272e-08 5.134107e-08 5.2978557e-08 3.5312873e-08
2.980736e-08 2.640941e-08 4.495606e-09 1.9331348e-09 4.3470327e-10 3.460377e-10 3.993884e-10 6.6466727e-10
2.1637472e-09 1.2985241e-08 -1.2225433e-09 3.3715757e-08 2.1148107e-08 5.4694155e-08 5.594536e-08 5.323275e-08
5.281388e-08 5.089866e-08 4.7566306e-08 6.666072e-08 1.03178856e-07 8.685107e-08 3.588004e-08 4.881587e-08
4.8529532e-08 3.0907646e-08 2.5474503e-08 1.0341768e-08 1.659319e-08 6.347411e-09 -2.2951931e-09 -1.8549795e-09
-6.046138e-11 5.5333854e-10 -1.398911e-10 -5.591527e-10 5.225912e-09 1.5168023e-08 7.068929e-09 7.121757e-09
2.0215327e-09 3.313872e-08 4.6116863e-08 5.3760967e-08 7.212065e-08 5.1922257e-08 4.363823e-08 4.5256407e-08
1.0316931e-07 8.77767e-08 3.7775415e-08 5.0428905e-08 4.228464e-08 4.268233e-08 7.207391e-08 1.0883301e-08
9.32122e-10 -7.26849e-10 -2.5723965e-12 -4.0109487e-12 7.4662976e-10 1.0885295e-09 7.284032e-10 -3.8611966e-10
-7.980315e-11 8.384614e-11 -1.0159724e-09 2.9493032e-09 1.970286e-08 5.248621e-08 5.279583e-08 8.629343e-08
8.574519e-08 7.652181e-08 4.6508816e-08 5.3134194e-08 1.0351375e-07 8.807667e-08 4.201e-08 5.9377907e-08
1.758964e-08 5.7108696e-08 4.012789e-08 1.9808208e-09 2.0044051e-10 -4.2180903e-09 -4.5519068e-11 -9.022544e-12
5.4215477e-10 1.6909821e-09 2.103622e-09 -4.7409004e-11 -6.1313275e-13 -5.885501e-11 -5.5880908e-12 1.2999907e-09
6.1014758e-09 9.402417e-09 6.828071e-08 2.576606e-08 5.717278e-08 6.552125e-08 4.7686722e-08 5.1912394e-08
1.03109656e-07 8.677058e-08 6.0143435e-08 3.7847833e-08 5.109991e-08 5.9583826e-08 2.0180083e-08 1.2967474e-08
5.943287e-09 -2.616556e-10 -3.093096e-12 -3.359096e-11 -3.0594447e-11 2.0336317e-10 -1.6910574e-11 -1.3561827e-11
-4.76896e-12 3.742069e-11 1.1972975e-10 1.4588764e-09 1.23332216e-08 1.7442506e-08 3.815667e-08 4.6472987e-08
5.1491693e-08 5.2115272e-08 3.6551327e-08 5.279599e-08 1.03143236e-07 8.738571e-08 5.4049647e-08 1.4713778e-08
5.5028075e-08 2.504052e-08 8.164193e-09 4.288201e-09 3.5268004e-09 3.2972552e-10 -2.4951712e-13 -1.0451998e-11
9.9384286e-11 2.9418099e-10 6.3929466e-11 3.2673402e-11 -9.411377e-13 -2.715824e-13 5.897784e-12 6.275842e-10
8.811732e-10 8.1275203e-10 5.2860125e-09 5.978317e-08 1.37035405e-08 5.6048655e-08 4.55876e-08 5.5404943e-08
1.031966e-07 8.4851706e-08 4.2993438e-08 2.8084001e-08 7.4218285e-08 4.4975783e-09 7.2336923e-09 1.7712825e-08
6.6760166e-09 3.9560983e-11 -2.792032e-13 2.5332304e-11 7.399431e-11 3.18089e-11 -1.7199044e-11 3.1650266e-11
-6.577627e-13 -3.99882e-12 -3.7194485e-13 1.7358902e-10 7.8872175e-10 4.9108106e-10 4.8207452e-11 7.2911694e-09
3.7456194e-09 1.3907886e-08 1.01806945e-08 3.1559455e-08 1.0325813e-07 8.844033e-08 2.0424542e-08 3.486644e-08
6.494757e-08 7.9553614e-10 2.8583537e-08 2.3435554e-08 3.221599e-10 3.5326367e-11 1.4703322e-11 -2.3021208e-11
1.9645717e-11 -8.996201e-12 -1.4627977e-10 -9.102624e-11 -1.03168564e-10 -2.030835e-10 -1.909832e-12 3.1215996e-12
2.6431168e-10 5.887282e-10 -1.3023349e-10 9.90611e-10 1.1765055e-08 -1.1309582e-08 1.2761972e-08 5.1217395e-08
1.0328998e-07 9.8430576e-08 8.373651e-09 2.6018823e-08 4.6483215e-08 3.1749783e-10 1.2166349e-08 2.6437194e-08
1.2738308e-10 2.3101044e-12 -1.8820259e-13 4.483355e-11 -5.5119704e-11 5.133733e-10 -3.2864947e-10 -5.949806e-10
-2.6111818e-10 -2.1902244e-11 -6.03986e-13 2.5533702e-11 3.028202e-10 1.4675745e-10 -5.7679946e-12 3.748322e-09
-2.3537092e-09 -8.993485e-09 1.8317794e-08 5.1803948e-08 1.03289e-07 9.550147e-08 7.816856e-09 1.5182678e-08
00000000: 6b93 dd33 281d be33 5e3f 3a33 b2f4 5f33
00000010: 3dae 5933 1a82 5c33 8a8a 6333 eaaa 1733
00000020: 8a05 0033 e8da e232 c577 9a31 11d8 0431
00000030: 0cfb ee2f 7a3c be2f ec90 db2f cdb3 3630
00000040: 0bb1 1431 b215 5f32 6b06 a8b0 dece 1033
00000050: 2ea9 b532 dce8 6a33 9348 7033 07a2 6433
00000060: 7ad5 6233 ab9b 5a33 b54b 4c33 1e27 8f33
00000070: 2d93 dd33 e182 ba33 851a 1a33 9ea9 5133
00000080: c96e 5033 51bf 0433 06d3 da32 94ab 3132
00000090: d088 8e32 6b18 da31 77b9 1db1 4af2 feb0
000000a0: bbf4 84ae bd19 1830 d8cf 19af e0b2 19b0
000000b0: 9c8f b331 d64a 8232 f5e2 f231 a3b3 f431
000000c0: 2eeb 0a31 6854 0e33 0712 4633 cfe6 6633
000000d0: bfe0 9a33 2001 5f33 be6c 3b33 f25f 4233
000000e0: ee8d dd33 c07f bc33 823e 2233 2b97 5833
000000f0: 749c 3533 b851 3733 0dc7 9a33 44f9 3a32
00000100: 211c 8030 74cb 47b0 2d04 35ac 6a1f 8dac
00000110: 663b 4d30 3a9b 9530 d238 4830 8345 d4af
00000120: 2e7d afae 2e61 b82e 5aa2 8bb0 b1ac 4a31
00000130: 0c3f a932 336d 6133 a1c1 6233 5150 b933
00000140: eb22 b833 4f54 a433 fcc0 4733 aa35 6433
00000150: 494b de33 a924 bd33 7c6e 3433 b306 7f33
00000160: 0718 9732 ad47 7533 1559 2c33 f81e 0831
00000170: fd62 5c2f b7ee 90b1 ea31 48ae edb9 1ead
00000180: c006 1530 2568 e830 4f8f 1031 cb81 50ae
00000190: df94 2cab 6d6c 81ae 0c9d c4ac 5bab b230
000001a0: 26a5 d131 4488 2132 b8a1 9233 2a54 dd32
000001b0: 238e 7533 b0b4 8c33 1bd0 4c33 48f6 5e33
000001c0: 226d dd33 a156 ba33 3428 8133 228e 2233
000001d0: f278 5b33 1ce9 7f33 7958 ad32 8ec7 5e32
000001e0: b535 cc31 c1d8 8faf 44a8 59ac 0fbc 13ae
000001f0: 498e 06ae a599 5f2f 3abf 94ad 0a95 6ead
00000200: f9ca a7ac f493 242e eea4 032f a681 c830
00000210: 15e2 5332 7ad4 9532 b4e1 2333 9799 4733
00000220: b727 5d33 59d5 5f33 9cfc 1c33 cec1 6233
00000230: 987f dd33 cda8 bb33 3724 6833 e1c7 7c32
00000240: 0258 6c33 b018 d732 8042 0c32 6a57 9331
00000250: 215c 7231 be44 b52f 3577 8caa 9ddf 37ad
00000260: 618c da2e 4bba a12f 1795 8c2e fbb2 0f2e
00000270: 0f74 84ab 26e3 98aa 8482 cf2c 5082 2c30
00000280: 0d37 7230 5768 5f30 42a0 b531 2562 8033
00000290: cf6c 6b32 26ba 7033 19cc 4333 61f6 6d33
000002a0: ee9c dd33 b837 b633 c9a7 3833 5f3d f132
000002b0: ef61 9f33 1e89 9a31 3b8c f831 ea26 9832
000002c0: dd62 e531 b5fd 2d2e 6c2d 9daa 47d3 de2d
000002d0: 18b7 a22e a3e5 0b2e ce48 97ad 0833 0b2e
000002e0: cc24 39ab 2bb2 8cac e762 d1aa f7dc 3e2f
000002f0: 5ccd 5830 c2fc 0630 c404 542e ce85 fa31
00000300: d1b2 8031 88ef 6e32 2be7 2e32 fd8b 0733
00000310: c2be dd33 96ec bd33 0b72 af32 0ec0 1533
00000320: 4e79 8b33 e1ac 5a30 dd87 f532 544f c932
00000330: fa1b b12f f45d 1b2e f054 812d 277f caad
00000340: 39ce ac2d 4a43 1ead 18d6 20af 382b c8ae
00000350: bdde e2ae ec4a 5faf 7a64 06ac bda9 5b2c
00000360: 904e 912f 10d4 2130 7831 0faf 0726 8830
00000370: 421f 4a32 114c 42b2 bf3f 5b32 1ffa 5b33
00000380: 44d0 dd33 c860 d333 b5db 0f32 ff7f df32
00000390: d6a4 4733 d98b ae2f 2b04 5132 0118 e332
000003a0: 260f 0c2f 248f 222c b4e5 53aa 172e 452e
000003b0: 456b 72ae 6f1d 0d30 4dad b4af 0a8c 23b0
000003c0: 1e8d 8faf 78a7 c0ad c701 2aab c998 e02d
000003d0: 287a a62f 8d5c 212f 7af1 caac 97ca 8031
000003e0: e4be 21b1 c481 1ab2 4159 9d32 0b7f 5e33
000003f0: bacf dd33 7d16 cd33 e54a 0632 106b 8232

_encoder.0.bias f4 [128]
-1.03179296e-07 -0.0022801599 -0.021079615 0.08660788 -0.09237144 -0.020287888 -3.440905e-24 -0.13966954
-0.027517011 -0.005077654 0.03275106 -0.0036762161 -5.8396565e-15 -0.01917458 -0.01454728 -0.0057416223
0.008777989 -0.01934613 -0.088190824 -0.007534703 -0.05510059 -0.007189548 0.039063532 0.0037747908
-0.06015597 -0.004826073 -0.025913483 -0.02198629 -0.022127891 -0.08197473 -0.029381402 -0.012154928
-0.06844945 -2.5242602e-23 0.19160755 -0.10613867 0.07175271 -0.00996382 -2.3386074e-16 -0.012605547
-0.03273322 -0.022807112 -0.07813335 -0.041671317 -0.0371902 -1.2058327e-10 -6.31739e-06 -0.022345975
-0.093668975 -0.0129524935 -0.0035201134 0.39085248 -1.29689655e-08 -0.021131115 -0.0042728377 -0.061109133
-0.0052393246 -0.035255298 0.010415168 0.003943266 -0.012325961 -0.027833039 -0.012956356 -0.016410772
-0.018072842 -0.019762048 0.025555411 -0.007108139 -0.01552077 -0.006487651 -1.2246937e-26 -0.044301756
-0.012660776 -0.12964013 -0.094382465 -0.011631903 -0.05009413 -0.0009103272 -0.027593726 -0.086147845
-0.0046433858 0.24419393 -0.05948944 -0.0011632064 -0.016075086 0.014607521 -0.021902522 -0.05990143
-0.011229793 -0.028926503 -0.068367705 -0.004757946 -0.17329293 -0.03766569 0.052417487 -0.026833542
-0.025574937 -0.008410828 -0.056540262 -0.0035613212 -0.014883678 -0.12765758 -0.0016337016 -0.021232592
-0.0033339371 -0.016348654 -0.0057657673 -0.025760837 -3.4741194e-07 -8.250352e-05 -0.10609856 -0.024247505
-0.045483366 -0.036200147 -0.017568981 -0.006517443 -7.897486e-07 -0.0018190454 0.0022951367 -0.011477562
-0.031843238 0.017805321 -0.11750282 -0.08697685 -0.0025591897 -0.07405424 -0.04894735 -1.1250724e-14
00000000: 6b93 ddb3 bc6e 15bb 28af acbc 795f b13d
00000010: 3d2d bdbd c932 a6bc 131d 8598 8805 0fbe
00000020: 5b6b e1bc 7362 a6bb fa25 063d acec 70bb
00000030: 5365 d2a7 0214 9dbc b757 6ebc 3824 bcbb
00000040: 8ed1 0f3c c67b 9ebc 649d b4bd abe5 f6bb
00000050: 28b1 61bd 4d96 ebbb 1501 203d 7b62 773b
00000060: 1b66 76bd 0924 9ebb 8348 d4bc 981c b4bc
00000070: 8d45 b5bc 5ee2 a7bd 44b1 f0bc 7725 47bc
00000080: 3a2f 8cbd a821 f499 c534 443e 3b5f d9bd
00000090: 16f3 923d 4a3f 23bc c1cf 86a5 7f87 4ebc
000000a0: 4513 06bd fbd5 babc 6104 a0bd 8baf 2abd
000000b0: c054 18bd 2c95 04af f8f9 d3b6 e80e b7bc
000000c0: 85d5 bfbd b236 54bc b4b1 66bb d11d c83e
000000d0: 1dce 5eb2 291b adbc 2903 8cbb 924d 7abd
000000e0: a4ae abbb dc67 10bd 61a4 2a3c 8336 813b
000000f0: d4f2 49bc 1d02 e4bc e546 54bc e26f 86bc
00000100: 7f0d 94bc 05e4 a1bc 9559 d13c 64eb e8bb
00000110: d44a 7ebc 5c96 d4bb 5993 7294 c275 35bd
00000120: 256f 4fbc 62c0 04be 984b c1bd bd93 3ebc
00000130: 812f 4dbd 06a3 6eba 3d0c e2bc 486e b0bd
00000140: 8b27 98bb f90d 7a3e 33ab 73bd bb76 98ba
00000150: e6af 83bc 6254 6f3c eb6c b3bc 345b 75bd
00000160: 2afd 37bc 46f7 ecbc 5e04 8cbd 8be8 9bbb
00000170: b473 31be 5747 1abd b8b3 563d 04d2 dbbc
00000180: 8882 d1bc 92cd 09bc c396 67bd 0e65 69bb
00000190: acda 73bc abb8 02be ee21 d6ba f9ef adbc
000001a0: 2f7e 5abb 9ded 85bc c3ee bcbb 6408 d3bc
000001b0: ef83 bab4 bd05 adb8 344a d9bd b4a2 c6bc
000001c0: c44c 3abd 9b46 14bd d3ec 8fbc 4690 d5bb
000001d0: 1cff 53b5 096d eeba 016a 163b 620c 3cbc
000001e0: 0e6e 02bd 77dc 913c 52a5 f0bd eb20 b2bd
000001f0: 14b8 27bb c0a9 97bd 047d 48bd ceac 4aa8

_encoder.2.weight f4 [64, 128]
0.012356792 -0.011747632 -0.022716291 -0.018553942 -0.13505274 0.053844232 0.00081600004 -0.2367077
-0.06306118 -0.06618025 0.26231906 -0.025897086 0.0022070913 0.0983854 0.0030564643 -0.008662787
-0.048338674 -0.0055458625 -0.021586081 -8.633706e-09 0.098533615 0.060971353 -0.047653086 -0.049943425
0.012312683 -0.026667843 0.369131 -0.004928224 0.012249559 -0.0116797285 0.00043999832 -0.017667282
0.023700519 0.011741889 0.01571336 0.12715675 0.23847042 -0.04952697 0.0001268693 -0.025645394
0.0035957694 0.020310054 -0.089343585 0.07154857 0.0151194995 0.0053958395 9.297944e-05 0.05144187
-0.91285497 -0.011608045 0.00024008488 -2.5770905 0.02643055 -0.029732859 -0.000504771 0.14168769
4.270992e-05 0.05032101 0.028938182 0.032553248 -0.0041848705 0.03128743 0.013638121 -0.019458637
0.025297508 0.05918148 -0.05043662 0.004487846 0.022744501 -0.0016408006 0.00910137 0.0423301
-0.0072009945 -0.1562076 -0.07700143 0.00010097641 -0.03237299 -0.06426719 -0.015815284 -0.08402573
0.0016172996 0.044555463 -0.13594201 0.004008019 0.04058441 0.05396442 0.01996828 -0.027180664
-0.008660807 0.05858334 -0.19404297 -0.01427807 -0.37271273 -0.028951203 -0.042769358 0.05175753
0.05244764 -0.00043653717 -2.6754e-38 0.0249364 -0.0048349383 -0.4881285 0.038447667 -0.30298308
0.0064677913 0.022917131 -0.0057324846 0.08010852 -0.00034826697 -0.00945312 0.08282924 -0.012077722
0.05088069 0.01670776 0.027523436 -0.012472456 -0.0003872797 -0.060046185 -0.061607067 0.036653403
0.071219094 -0.04300621 -0.39178973 -0.10833575 0.011813701 0.04478233 -0.0054136114 0.001835064
0.023549207 -0.0032976307 -0.018037887 0.11798393 -0.2814611 0.03926493 0.0010143495 -0.2258401
-0.10320359 0.002183766 -0.10662754 -0.10749551 0.0035373536 0.052731935 -0.014898198 0.07982393
-0.040427417 -0.016158633 -0.05891912 1.6287493e-20 0.087993816 0.051299717 -0.051933173 -0.014803548
-0.046220984 -0.042517576 0.15458584 -0.029852826 0.026305448 -0.009053381 -0.03651291 -0.0111890575
0.013965498 0.0023324338 0.0627137 -0.20351739 -0.14847896 -0.0033592165 5.591459e-06 0.050795384
0.023181807 -0.059931032 -0.15871158 0.029821184 -0.0037719165 -0.018035123 0.0038339866 0.012942265
-0.9296994 -0.044733465 0.027134161 -1.3317221 -0.0042573228 0.046236973 0.013012626 0.16676517
-3.446304e-05 0.08800354 -0.0047295364 -0.011200446 -0.0062146424 -0.0039500976 0.0075037605 0.0366454
0.020398945 0.0064410497 -0.032796904 -0.010888231 0.012290547 -0.022960268 0.0029139237 0.06204466
-0.0026858933 -0.07087158 0.009184554 -3.575468e-05 0.15405208 -0.088917084 -0.008890324 -0.009010397
0.004480756 -0.012974211 0.111367635 -0.008897634 0.04421746 0.115620315 -0.0003240891 -0.031145595
0.0075200805 0.05068981 -0.28959426 -0.05206952 -0.36097664 -0.00020503647 -0.01994489 0.13570848
0.012614375 -0.0147319585 -2.0424196e-38 0.031526342 -0.010806572 0.28283313 0.010003506 -0.16419107
0.051416315 -0.070489995 -0.014994641 0.017192926 1.2224592e-07 -0.0038738952 -0.102732986 -0.029119246
0.0045791417 0.036818378 0.033617582 -0.014884972 -0.0034209006 -0.06118895 -0.0035267465 0.043024965
0.0024879507 -0.0012324927 0.22668238 -0.21984252 -0.0004456714 0.046947833 0.033511464 0.005167124
00000000: 2474 4a3c 2479 40bc 8417 babc 70fe 97bc
00000010: 444b 0abe c58b 5c3d d6e8 553a 8163 72be
00000020: 3826 81bd 8389 87bd af4e 863e 2026 d4bc
00000030: d9a4 103b 497e c93d f64e 483b 5dee 0dbc
00000040: c6fe 45bd 11ba b5bb 4bd5 b0bc 7153 14b2
00000050: fecb c93d 19bd 793d e22f 43bd 7a91 4cbd
00000060: 23bb 493c 8576 dabc bdfe bc3e f07c a1bb
00000070: 60b2 483c 555c 3fbc 93af e639 faba 90bc
00000080: 9727 c23c 0d61 403c 4eb9 803c 6135 023e
00000090: 9731 743e cbdc 4abd 3808 0539 4a16 d2bc
000000a0: 00a7 6b3b 4561 a63c c5f9 b6bd 0f88 923d
000000b0: c7b7 773c 95cf b03b f5fd c238 b6b4 523d
000000c0: ddb0 69bf ab2f 3ebc 4bbf 7b39 0def 24c0
000000d0: e184 d83c 5392 f3bc 9c52 04ba 9416 113e
000000e0: 6d23 3338 671d 4e3d c40f ed3c 8e56 053d
000000f0: 3d21 89bb 4027 003d 6d72 5f3c b867 9fbc
00000100: b83c cf3c 4868 723d a196 4ebd c80e 933b
00000110: ad52 ba3c 2210 d7ba ea1d 153c 5462 2d3d
00000120: 52f6 ebbb e3f4 1fbe edb2 9dbd 4cc3 d338
00000130: 8a99 04bd 849e 83bd 0e8f 81bc af15 acbd
00000140: 92fb d33a ca7f 363d 6234 0bbe b355 833b
00000150: d73b 263d cc09 5d3d 8594 a33c fca9 debc
00000160: 0fe6 0dbc 16f5 6f3d 33b3 46be 91ee 69bc
00000170: 34d4 bebe 132b edbc ec2e 2fbd b4ff 533d
00000180: 56d3 563d 07df e4b9 a2a9 1181 6c47 cc3c
00000190: 676e 9ebb fbeb f9be 4d7b 1d3d 9920 9bbe
000001a0: c4ef d33b b5bc bb3c 91d7 bbbb f00f a43d
000001b0: 9a97 b6b9 42e1 1abc 60a2 a93d a3e1 45bc
000001c0: 4568 503d b6de 883c d478 e13c 4659 4cbc
000001d0: cd0b cbb9 fdf2 75bd b157 7cbd e121 163d
000001e0: 51db 913d 4827 30bd aa98 c8be 22df ddbd
000001f0: 418e 413c ad6d 373d aa64 b1bb 8886 f03a
00000200: 44ea c03c 101d 58bb 31c4 93bc 8fa1 f13d
00000210: ab1b 90be 43d4 203d ecf3 843a a142 67be
00000220: 675c d3bd 841d 0f3b 8a5f dabd 9b26 dcbd
00000230: f2d2 673b 71fd 573d 9217 74bc bb7a a33d
00000240: 3897 25bd 1c5f 84bc 2d55 71bd bed4 991e
00000250: 1a36 b43d a71f 523d e1b7 54bd 958a 72bc
00000260: 3752 3dbd e926 2ebd c04b 1e3e ea8d f4bc
00000270: 867e d73c a254 14bc 908e 15bd 4f52 37bc
00000280: 8bcf 643c bfdb 183b 0a70 803d dd66 50be
00000290: de0a 18be 4d26 5cbb 449e bb36 d20e 503d
000002a0: c6e7 bd3c 3e7a 75bd 4a85 22be 8e4b f43c
000002b0: 4232 77bb 65be 93bc 9f43 7b3b cb0b 543c
000002c0: c800 6ebf 703a 37bd 7648 de3c df75 aabf
000002d0: 0381 8bbb fb62 3d3d e932 553c 7dc4 2a3e
000002e0: 688c 10b8 333b b43d 3afa 9abb 1382 37bc
000002f0: 33a4 cbbb d26f 81bb 1be2 f53b 7d19 163d
00000300: b01b a73c 710f d33b 0c56 06bd 8d64 32bc
00000310: 4a5e 493c 2c17 bcbc 87f7 3e3b 8b22 7e3d
00000320: d005 30bb 1e25 91bd d07a 163c 4cf7 15b8
00000330: d4bf 1d3e 291a b6bd b9a8 11bc 58a0 13bc
00000340: 4ed3 923b c991 54bc b714 e43d 62c7 11bc
00000350: 5e1d 353d 58ca ec3d 81ea a9b9 0c25 ffbc
00000360: 026b f63b 1ea0 4f3d b345 94be d946 55bd
00000370: eed1 b8be 0fff 56b9 7763 a3bc 2af7 0a3e
00000380: 86ac 4e3c 505e 71bc 5966 de80 c421 013d
00000390: 0c0e 31bc 81cf 903e bfe5 233c b421 28be
000003a0: ea99 523d 0f5d 90bd 15ac 75bc 2ed8 8c3c
000003b0: b442 0334 2de1 7dbb ac65 d2bd 7c8b eebc
000003c0: a00c 963b dece 163d 97b2 093d 19e0 73bc
000003d0: 3031 60bb 44a1 7abd fd20 67bb f23a 303d
000003e0: e30c 233b 988b a1ba 6d1f 683e 661e 61be
000003f0: 01a9 e9b9 5f4c 403d 5143 093d fa50 a93b

_encoder.2.bias f4 [64]
0.3764741 0.071172774 0.24638742 0.01136447 0.014113583 -0.045287594 -0.1407575 -0.24221744
0.29544017 0.13704586 -0.2072162 3.169845e-39 -0.35599005 -0.16776256 -0.02782588 -3.023741e-06
-0.008222321 -0.014226567 0.07468371 -0.052179627 -0.0050459574 -0.21653256 -0.061004847 -1.9089084e-09
8.241283e-27 0.014908107 -0.00025451503 0.052465577 -4.4096705e-38 -4.2664757e-38 -1.0699071e-38 -0.001476577
-4.9597277e-36 -1.549588e-05 -0.060740642 0.12730984 6.71831e-38 0.49177194 0.19216682 -0.017438812
-0.012568233 0.4283961 0.0060658553 -0.007969082 -2.115658e-39 -0.03644967 -1.5128385e-38 -3.8721404e-07
0.34237915 0.41814938 0.16606702 5.623444e-25 -0.18667352 -2.1819153e-38 -1.646512e-39 0.22093712
-0.08227376 0.20083424 -0.17103589 -0.016711337 -1.6497436e-12 1.4061809e-38 -0.033272963 0.2672965
00000000: 37c1 c03e 08c3 913d fc4c 7c3e 0b32 3a3c
00000010: a83c 673c 7c7f 39bd bc22 10be d907 78be
00000020: ef43 973e c055 0c3e 7c30 54be 3d84 2200
00000030: 5444 b6be f3c9 2bbe 1af3 e3bc 7aeb 4ab6
00000040: eab6 06bc 8c16 69bc c6f3 983d 4eba 55bd
00000050: 8f58 a5bb b6ba 5dbe 38e0 79bd df2d 03b1
00000060: 453c 2314 2241 743c 6e70 85b9 25e6 563d
00000070: d615 7081 fe49 6881 a880 7480 b489 c1ba
00000080: a7f6 d284 26fd 81b7 2ecb 78bd 835d 023e
00000090: cae3 b601 88c9 fb3e 61c7 443e d7db 8ebc
000000a0: fdea 4dbc bc56 db3e 15c4 c63b c190 02bc
000000b0: 9809 1780 404c 15bd c8bb a480 4be2 cfb4
000000c0: 524c af3e ad17 d63e 790d 2a3e 8309 2e17
000000d0: 5827 3fbe ec96 ed80 ceed 1180 573d 623e
000000e0: 257f a8bd 7ea7 4d3e 0824 2fbe 37e6 88bc
000000f0: 472e e8ab 9a1e 9900 3b49 08bd 16db 883e

_encoder.4.weight f4 [12, 64]
0.39976728 -0.14338167 -0.07722397 0.5393096 0.08261539 -0.04115423 -0.013810123 0.027283918
-0.18352333 -0.3849631 0.015257588 -0.00017383971 -0.34641975 -0.14564128 -0.00030877805 -0.002232123
-0.029198168 0.25191408 0.23566025 0.022889951 0.055413317 -0.095205374 0.1984748 0.021662274
7.638233e-15 0.51240194 -0.006353098 -0.29616392 -1.1244082e-12 2.0918778e-06 2.1601776e-18 0.060412314
8.785239e-37 0.024556326 0.16804036 -0.002804007 -1.8812958e-23 0.30591556 0.05054834 -0.040785648
-0.058202554 0.2353537 0.13843246 -0.025392042 5.316877e-39 -0.0018618314 1.3443688e-38 0.00020243833
0.02182636 -0.057421524 -0.1076214 5.577634e-09 -0.23132604 1.9537259e-38 -4.513509e-06 -0.110510655
3.1113857e-05 -0.2131706 -0.004971316 0.14851971 2.6164928e-06 -8.098785e-10 0.13515721 -0.2181646
-0.15000238 -0.20364429 -0.36556172 0.011031025 -0.13531883 -0.20080368 -0.28003973 0.24112739
0.12589951 -0.9110681 -0.2490312 0.0009288967 -0.09566721 -0.012670335 0.0006037739 0.006898308
-0.013343543 -0.056541726 -0.13815448 0.026578201 -0.14998093 -0.22894703 0.2539007 -0.030929137
1.0139395e-09 0.19374634 0.0063841343 -0.13405496 2.2171891e-06 -2.7452284e-18 -2.1796592e-07 0.0057294737
1.3208987e-38 -0.019153086 -0.1788393 0.20374511 2.9289125e-12 -0.5211531 0.0043746876 0.027201157
0.10905599 -0.88960946 0.07469692 -0.00022455213 -1.1521765e-27 0.10440058 -5.0989772e-12 -0.0020871477
-0.34539828 0.048922483 -0.36494988 1.7802724e-05 0.01181547 0.0008258246 2.1857772e-38 -0.12495608
-0.012051426 0.039324537 0.07035078 0.011528372 0.0033958862 -0.0005349833 0.2932236 -0.45585424
-0.2022916 0.27566558 0.119630985 -0.3871348 0.2796563 -0.43839937 -0.29304063 -0.078815445
-0.25048405 -0.061657723 0.01665762 -9.260088e-08 -0.052096955 0.05516692 -0.03931279 -0.00036079748
-0.008523368 -0.005211696 0.2348644 0.0016170141 -0.12365175 -0.0634912 0.030672459 -8.5554734e-07
4.1486164e-27 -0.5591757 0.0058259303 -0.057991996 -6.367561e-27 -5.819734e-06 -1.8673182e-38 0.009735793
1.6104857e-36 0.0035913817 -0.20608991 -0.17219554 -4.003467e-38 -0.26969525 -0.6045292 -0.0040065255
-0.0031683932 0.062371735 0.47158006 -0.018700454 -1.3266854e-33 0.5440532 4.8707986e-38 0.00036239417
0.069708034 0.23186117 -0.26327518 4.1482007e-30 -0.15705322 3.2724483e-07 -2.2199938e-16 0.056881424
-0.006363735 0.122882895 0.022326559 0.036151603 0.00076490385 -4.6010133e-09 1.49083e-38 -0.05844806
0.06754014 0.20564221 -0.020320706 0.0006839354 -0.009468659 -0.09622757 0.2205768 -0.028591663
-0.023273852 -0.18384482 0.32790974 -2.1460884e-32 -0.19140512 0.12573282 3.0223242e-05 -0.0027636087
0.000119742435 -0.013320344 -0.044728227 0.0072764247 0.20151113 -0.1688103 -0.052191835 5.965588e-39
1.2060815e-38 -0.01485141 -0.00054446334 -0.04051407 -3.480142e-38 -5.656396e-38 -9.230141e-39 0.010692476
-6.5645777e-38 7.057698e-10 -0.045290194 0.017630912 2.3621116e-38 0.08540223 -0.06414122 0.03389374
-0.047467496 -0.09637515 0.04379406 -0.020046407 3.6387887e-38 -0.12389885 3.7966713e-38 1.8011417e-07
-0.23027779 -0.10827871 -0.12971428 1.2985902e-31 -0.08817911 5.401521e-39 2.541525e-38 -0.0986062
-0.016461976 -0.014530133 -0.09669339 -0.025922006 0.0017635803 -7.081847e-08 0.14492144 0.020064166
00000000: 4cae cc3e a5d2 12be 9a27 9ebd 3210 0a3f
00000010: 4232 a93d 5691 28bd db43 62bc 8682 df3c
00000020: 8aed 3bbe e219 c5be f6fa 793c be48 36b9
00000030: ee5d b1be fd22 15be 7de3 a1b9 cf48 12bb
00000040: ff30 efbc e2fa 803e ec50 713e b583 bb3c
00000050: 13f9 623d 09fb c2bd fa3c 4b3e 1575 b13c
00000060: 2299 0928 c62c 033f a62d d0bb cca2 97be
00000070: 133f 9eab 3062 0c36 9a64 1f22 e772 773d
00000080: 1d79 9503 592a c93c c612 2c3e 6ec3 37bb
00000090: a1f2 b599 f7a0 9c3e c70b 4f3d da0e 27bd
000000a0: cd65 6ebd 8f00 713e 3dc1 0d3e f902 d0bc
000000b0: 4ae5 3900 b208 f4ba 8863 9200 a045 5439
000000c0: 32cd b23c d532 6bbd 9c68 dcbd 63a5 bf31
000000d0: bce0 6cbe eebd d400 bf72 97b6 6953 e2bd
000000e0: 4080 0238 6549 5abe 6ce6 a2bb 8d15 183e
000000f0: 0197 2f36 229e 5eb0 a766 0a3e 8a66 5fbe
00000100: 399a 19be 2188 50be e82a bbbe 79bb 343c
00000110: 0591 0abe 7b9f 4dbe 5e61 8fbe 19ea 763e
00000120: cdeb 003e c23b 69bf 0902 7fbe 3481 733a
00000130: 2ced c3bd 3d97 4fbc 9546 1e3a 340b e23b
00000140: e09e 5abc 4c98 67bd 5e78 0dbe 87ba d93c
00000150: 9a94 19be 1771 6abe 46ff 813e 1a5f fdbc
00000160: d35a 8b30 7165 463e 0032 d13b b445 09be
00000170: 05cb 1436 e68f 4aa2 040a 6ab4 4fbe bb3b
00000180: 48d5 8f00 efe6 9cbc a621 37be 8fa2 503e
00000190: 991a 4e2c 4a6a 05bf 8a59 8f3b f6d4 de3c
000001a0: bf58 df3d 72bd 63bf b3fa 983d c175 6bb9
000001b0: d591 b692 f9cf d53d 8167 b3ac 87c8 08bb
000001c0: 0bd8 b0be f162 483d b6da babe 0f57 9537
000001d0: ac95 413c 277c 583a 9302 ee00 f9e8 ffbd
000001e0: 5873 45bc c412 213d 1214 903d 7fe1 3c3c
000001f0: 848d 5e3b 1f3e 0cba 6721 963e ba65 e9be
00000200: 8725 4fbe 0a24 8d3e 1701 f53d 8836 c6be
00000210: 1c2f 8f3e e275 e0be 6c09 96be fe69 a1bd
00000220: 723f 80be cf8c 7cbd 9075 883c dfdb c6b3
00000230: 9e63 55bd b5f6 613d 7306 21bd 6b29 bdb9
00000240: 99a5 0bbc e0c6 aabb 4b80 703e fdf1 d33a
00000250: 213d fdbd ad07 82bd cf44 fb3c c4a8 65b5
00000260: f857 a413 2426 0fbf 72e7 be3b 0489 6dbd
00000270: bd3e fc93 2247 c3b6 3c55 cb80 e082 1f3c
00000280: 4601 0904 635d 6b3b 3c09 53be 0754 30be
00000290: 30f8 5981 7f15 8abe 6dc2 1abf 2c49 83bb
000002a0: d1a4 4fbb 8179 7f3d f172 f13e b231 99bc
000002b0: f56e dc88 1247 0b3f 8398 8401 b9ff bd39
000002c0: 16c3 8e3d 046d 6d3e 01cc 86be 6145 a80e
000002d0: 8fd2 20be 30b0 af34 a7f2 7fa5 7ffc 683d
000002e0: e186 d0bb 07aa fb3d 30e6 b63c b413 143d
000002f0: d483 483a f116 9eb1 4656 a200 3c67 6fbd
00000300: 7c52 8a3d df93 523e 9c77 a6bc 214a 333a
00000310: 6f22 1bbc f612 c5bd e2de 613e 1039 eabc
00000320: cea8 bebc d141 3cbe c9e3 a73e d1dc de8a
00000330: b4ff 43be 1bc0 003e eb87 fd37 a91d 35bb
00000340: 3b1e fb38 923d 5abc f234 37bd 136f ee3b
00000350: ef58 4e3e 9bdc 2cbe 1bc7 55bd a2f5 4000
00000360: a554 8300 5453 73bc 51ba 0eba 15f2 25bd
00000370: 1a7a 3d81 54fb 9981 e181 6480 7f2f 2f3c
00000380: 6eb4 b281 2200 4230 3682 39bd b46e 903c
00000390: 089b 0001 5de7 ae3d 795c 83bd 2ad4 0a3d
000003a0: 476d 42bd 5660 c5bd 6661 333d 5d38 a4bc
000003b0: 501d 4601 aebe fdbd e0b5 4e01 6865 4134
000003c0: f1cd 6bbe 3ac1 ddbd d2d3 04be 1091 280c
000003d0: 4097 b4bd 3ed1 3a00 b05f 0a01 0cf2 c9bd
000003e0: 44db 86bc cc0f 6ebc 2f07 c6bd 635a d4bc
000003f0: ef27 e73a de14 98b3 4966 143e 9b5d a43c

_encoder.4.bias f4 [12]
0.21092476 0.9760991 -0.017709682 -0.21410367 0.19551885 -0.11788946 0.37033737 0.29096553
0.9659358 0.873235 0.2150271 0.11954315
00000000: a9fc 573e a1e1 793f e513 91bc fe3d 5bbe
00000010: 1836 483e 0770 f1bd dc9c bd3e 6ff9 943e
00000020: 9247 773f 548c 5f3f 1030 5c3e 0ad3 f43d

_encoder.6.weight f4 [2, 12]
-0.350578 0.77558666 0.056533966 0.034284554 -0.2047629 -0.3444567 0.4430696 0.06683124
-0.1363328 0.07199179 0.40573674 0.28401753 0.068595946 0.21722732 0.19383696 0.04830995
0.3227566 0.5519357 -0.12755123 -0.28214663 -0.091027476 -0.19625808 0.6178466 -0.373804
00000000: f67e b3be d98c 463f 2990 673d f66d 0c3d
00000010: 5ead 51be a15c b0be 05da e23e d1de 883d
00000020: d39a 0bbe 6e70 933d babc cf3e bf6a 913e
00000030: 087c 8c3d d770 5e3e 327d 463e a7e0 453d
00000040: 5a40 a53e a84b 0d3f ca9c 02be 8675 90be
00000050: 9d6c babd e1f7 48be 322b 1e3f 3d63 bfbe

_encoder.6.bias f4 [2]
0.08716198 -0.33959988
00000000: fb81 b23d 09e0 adbe

_decoder.0.weight f4 [12, 2]
0.025953004 0.45856875 -0.29161435 -1.331098 0.0019735699 -0.012151955 -0.0037691416 -0.046448473
0.5384321 0.307366 0.81381243 0.028451711 0.2265581 0.30625966 -0.41754365 -0.022814482
0.15325582 -0.75963753 0.020712644 -0.017765244 0.747621 -0.46997896 0.6329933 -0.2505874
00000000: 659b d43c 86c9 ea3e 7a4e 95be 6b61 aabf
00000010: 0257 013b fe18 47bc b403 77bb c140 3ebd
00000020: b0d6 093f 145f 9d3e 0356 503f 9013 e93c
00000030: d9fe 673e 11ce 9c3e 48c8 d5be 70e5 babc
00000040: 18ef 1c3e 9b77 42bf 90ad a93c 6b88 91bc
00000050: 1764 3f3f 15a1 f0be d90b 223f fe4c 80be

_decoder.0.bias f4 [12]
-0.15849875 0.2754065 -0.1400481 -0.41687545 0.33175164 -0.2610815 -2.0966547 0.24873552
0.43104717 2.1662915 -0.1945491 0.58051956
00000000: 7f4d 22be 1502 8d3e c568 0fbe b370 d5be
00000010: 5adb a93e 79ac 85be 972f 06c0 86b4 7e3e
00000020: 37b2 dc3e 85a4 0a40 e137 47be ee9c 143f

_decoder.2.weight f4 [64, 12]
-0.020697694 -0.029212847 -2.6747497e-22 -1.2869067e-29 -0.010242212 -0.0064617833 -0.015718617 -0.004087571
-0.039477237 -0.022850294 -0.013537759 -0.00018626598 -0.06954295 -0.051649902 -6.227831e-38 7.432802e-15
-0.028084991 -0.007392599 -0.057980783 -0.008962892 -0.0011692046 -0.0070919474 0.00808485 0.0020024998
-0.06238311 -0.04502373 -0.025213955 -0.03475922 -0.00435941 0.73679775 -0.23775469 -0.21098292
0.23968217 0.10808125 -1.1872905 -0.41112182 -7.3435497e-19 -4.2614027e-11 -1.4500205e-38 7.053957e-39
-1.6188424e-10 -2.0387494e-10 -2.7927582e-23 1.6524639e-30 -1.7655915e-13 6.0567165e-27 -5.087537e-11 -1.9479994e-11
-1.2917474e-08 -0.0008745958 -3.7285352e-38 -2.6017233e-38 -1.3431704e-06 -2.293209e-07 1.41493e-39 -1.6443729e-18
-0.00012356968 -4.1857606e-07 -4.0587463e-05 -1.160906e-05 0.046365704 -0.21110125 -0.001925339 7.85595e-39
-0.8651779 -0.05257749 -0.14261465 -0.1764166 -0.11556638 0.18594207 0.012875871 -0.015076236
-0.0056089815 -0.015161482 -3.5264766e-38 -6.3170384e-25 0.0006271947 0.0006239777 2.2839697e-05 -0.0077181705
-0.009476025 -0.010340273 -0.0016939859 -0.0012412684 -0.4915856 -0.14205693 0.028158382 -0.12564626
-0.31811184 0.028112752 -0.28078955 -0.32299432 0.45272836 -0.14517191 0.35508382 0.31737718
-0.6790752 -0.69921285 -0.005681184 -0.02586738 0.12818481 0.15843338 -0.3164062 0.2667061
-0.8759843 0.3821668 0.15465485 0.16138518 -0.00034670284 -0.0004431885 -4.3532688e-38 -2.701904e-39
-0.0004782709 -0.000772561 -1.3197444e-22 -7.8004465e-05 -0.00036634854 -0.0001509522 -0.0008455644 -0.00066994067
0.17015561 -0.06769925 0.006357508 -0.023497958 -0.028343657 0.592362 0.42415765 0.2421268
-0.4057705 -0.6715328 0.308807 -0.020878827 -0.121558435 -0.20378299 -0.025998438 -0.048671685
-0.71130043 -0.4129804 -0.085356556 0.023319375 0.25593564 0.2493954 0.07733944 -0.031177418
-0.009529027 -1.8953435e-05 -1.7931172e-38 2.664366e-38 -0.014650797 0.0029734462 -0.005466947 -0.0006264854
2.5790442e-07 -5.478021e-06 -0.00088325335 -0.00092101935 -6.3065845e-13 -5.7193143e-11 -2.1222811e-32 5.976984e-39
-3.6994198e-08 -2.6405909e-08 -8.056689e-19 -1.0916156e-15 -5.3260165e-12 -7.6259e-13 1.2565873e-10 -1.0314106e-11
-0.07579329 0.3423516 0.0027852324 0.067663245 0.43893036 -0.039526302 0.23879153 -0.338451
0.17556776 -0.24903792 -0.324299 -0.39529923 0.37593818 -0.052243926 0.038934864 -2.3200046e-38
-1.0000806 -0.00011619095 -0.11059789 -0.14028056 -0.023608463 0.03728016 -0.0041863653 -0.015708758
-0.048668057 0.41810846 -0.060105607 -0.03260712 -0.018843776 0.08484554 0.27735576 -0.14246549
-0.19304611 -0.86006504 0.36627716 -0.29448727 0.61103857 -0.020680606 -0.01802552 -2.0545125e-38
-0.045533054 -0.50573516 0.15081224 -0.5408298 -0.012418438 0.118392125 -3.488823e-39 -1.7648182
-1.2715678e-13 -2.0188737e-34 -2.4114559e-38 -2.20172e-40 -7.8667545e-10 -7.167388e-10 -1.695245e-20 -3.5909453e-21
1.0023196e-38 -1.3274904e-38 -8.29793e-18 -2.0051765e-16 -0.81872624 -0.37140328 -0.0033141922 -0.016891442
-0.46934918 -0.13648586 -1.0622586e-38 0.59161955 0.031868014 0.2619159 0.05048629 0.11666071
-0.9553524 0.26560006 -0.0032783174 -0.08983311 -0.072417475 0.10376245 -0.40832892 -0.13545954
-0.7647195 0.1070019 0.09225932 0.11227767 0.2706013 -0.26734957 -0.02266752 -1.962881e-38
00000000: 368e a9bc c84f efbc bfad a19b 0282 828f
00000010: f3ce 27bc 5ebd d3bb 54c4 80bc 08f1 85bb
00000020: e2b2 21bd 8a30 bbbc 7acd 5dbc 6550 43b9
00000030: 896c 8ebd d98e 53bd a689 a981 c0e5 0528
00000040: 7f12 e6bc 9d3d f2bb 427d 6dbd 18d9 12bc
00000050: ff3f 99ba 9163 e8bb 5276 043c 5f3c 033b
00000060: 6f85 7fbd cd6a 38bd 7f8d cebc af5f 0ebd
00000070: 62d9 8ebb c79e 3c3f f775 73be e80b 58be
00000080: 3e6f 753e b459 dd3d 23f9 97bf 8f7e d2be
00000090: 4bbe 58a1 216b 3bae ace4 9d80 90cf 4c00
000000a0: 5dfe 31af b229 60af ac0c 079a 5510 060e
000000b0: b6c9 46aa 67ee ef13 93c0 5fae 0c59 abad
000000c0: a7eb 5db2 2145 65ba 3200 4b81 bba6 0d81
000000d0: fc46 b4b5 403b 76b4 4068 0f00 a7aa f2a1
000000e0: 7c92 01b9 a8b8 e0b4 753c 2ab8 88c4 42b7
000000f0: f7e9 3d3d ed2a 58be a85b fcba 318b 5500
00000100: 4d7c 5dbf 7f5b 57bd 9309 12be 8ea6 34be
00000110: 11ae ecbd 9967 3e3e 51f5 523c 5102 77bc
00000120: 8ccb b7bb dd67 78bc e9ff 3f81 bc80 4397
00000130: 536a 243a 6f92 233a e097 bf37 b5e8 fcbb
00000140: 5441 1bbc 406a 29bc bc08 deba 0eb2 a2ba
00000150: 1cb1 fbbe 5f77 11be 68ac e63c 6aa9 00be
00000160: 8edf a2be b74c e63c a6c3 8fbe 835f a5be
00000170: 03cc e73e f2a7 14be 8ccd b53e 437f a23e
00000180: dfd7 2dbf 9dff 32bf 3a29 babb d4e7 d3bc
00000190: e142 033e 5c3c 223e feff a1be b48d 883e
000001a0: 8240 60bf 5eab c33e d75d 1e3e 2842 253e
000001b0: abc5 b5b9 c15b e8b9 b603 6d81 cf6b 1d80
000001c0: 6fc0 fab9 b185 4aba 1c8c 1f9b 5496 a3b8
000001d0: 7812 c0b9 ec48 1eb9 dea8 5dba f59e 2fba
000001e0: 463d 2e3e e8a5 8abd a452 d03b ca7e c0bc
000001f0: f530 e8bc 09a5 173f 312b d93e 16f0 773e
00000200: 27c1 cfbe 93e9 2bbf f31b 9e3e 130a abbc
00000210: a1f3 f8bd 7dac 50be adfa d4bc f65b 47bd
00000220: c917 36bf 2b72 d3be 6bcf aebd 4608 bf3c
00000230: ff09 833e 8261 7f3e 2464 9e3d c967 ffbc
00000240: a31f 1cbc 31fe 9eb7 d040 c380 d80f 1101
00000250: e509 70bc 26de 423b 1324 b3bb b93a 24ba
00000260: 1d76 8a34 d8cf b7b6 218a 67ba 9070 71ba
00000270: bb83 31ab c189 7bae e963 dc8a 6615 4100
00000280: 8de3 1eb3 35d3 e2b2 9fca 6da1 8251 9da6
00000290: 7e64 bbac 67a6 56ab ca29 0a2f 9b72 35ad
000002a0: 8339 9bbd b548 af3e 7288 363b 0793 8a3d
000002b0: 7bbb e03e 55e6 21bd c485 743e 7349 adbe
000002c0: 09c8 333e cc03 7fbe 850a a6be a964 cabe
000002d0: f87a c03e bafd 55bd 2a7a 1f3d 4aa0 fc80
000002e0: a402 80bf 8bab f3b8 2681 e2bd b5a5 0fbe
000002f0: 8966 c1bc 15b3 183d c72d 89bb a7af 80bc
00000300: 2858 47bd 5012 d63e 4c31 76bd 0b8f 05bd
00000310: 435e 9abc 80c3 ad3d 9301 8e3e 79e2 11be
00000320: e1ad 45be 392d 5cbf ae88 bb3e 09c7 96be
00000330: 066d 1c3f 606a a9bc 41aa 93bc 73b7 df80
00000340: de80 3abd dc77 01bf 866e 1a3e d273 0abf
00000350: b476 4bbc 9277 f23d 6bfd 2580 90e5 e1bf
00000360: 722a 0faa 5b2d 8687 ca4a 0381 c065 0280
00000370: 5d3d 58b0 0204 45b0 821c a09e 7ea9 879d
00000380: 9824 6d00 088d 9080 de11 19a3 5d2e 67a5
00000390: 0b98 51bf 9228 bebe eb32 59bb ec5f 8abc
000003a0: 894e f0be f3c2 0bbe 73ab 7380 6174 173f
000003b0: 0988 023d d719 863e b6ca 4e3d cfeb ee3d
000003c0: fa91 74bf bbfc 873e 0ad9 56bb 6cfa b7bd
000003d0: 9d4f 94bd 6881 d43d 7d10 d1be e8b5 0abe
000003e0: a8c4 43bf d023 db3d 74f2 bc3d d6f1 e53d
000003f0: 418c 8a3e 0be2 88be 3cb1 b9bc 23bd d580

_decoder.2.bias f4 [64]
-0.018727941 6.874259e-05 0.2336743 -2.8015592e-32 -2.879739e-14 0.29638422 -0.0013072086 0.13123707
0.4716587 -2.3911196e-07 -2.227346 0.45898384 -6.24391e-10 2.2463006e-24 -0.574389 0.022060202
-1.3762695 0.12923902 -6.643517e-38 0.436943 0.172637 0.12583093 0.9000399 -0.043951634
0.77308697 0.3065534 0.08247778 0.01277958 0.51138175 0.15905517 1.2909296e-36 0.26100388
-0.0134346085 0.023516726 -0.0072416915 0.2547828 0.398602 -0.20756805 -0.06999953 0.97366667
0.29407814 0.5800725 0.41296554 -0.0049534426 0.15848063 -0.12211617 0.91116875 -1.74808
0.06288876 -0.045889873 -1.8516721e-07 0.5401523 0.47584254 0.38073856 0.42236394 -0.027973125
-0.0017388569 0.52066326 -1.6436073 -1.4738187e-38 -5.404545e-38 0.13319097 0.4788794 -5.061876e-07
00000000: 576b 99bc e629 9038 5148 6f3e 1c77 118b
00000010: 21b1 01a9 acbf 973e a456 abba 0363 063e
00000020: 407d f13e 4c5f 80b4 d68c 0ec0 eeff ea3e
00000030: 9ca1 2bb0 91cc 2d18 280b 13bf 99b7 b43c
00000040: 9929 b0bf 3c57 043e 8eda b481 feb6 df3e
00000050: c1c7 303e d3d9 003e 0469 663f a106 34bd
00000060: 07e9 453f 91f4 9c3e 1cea a83d 7261 513c
00000070: eae9 023f 5cdf 223e eaa3 db03 4da2 853e
00000080: d51c 5cbc 26a6 c03c b64b edbb e472 823e
00000090: 9015 cc3e b88c 54be ea5b 8fbd 3842 793f
000000a0: 6991 963e a27f 143f 3870 d33e 7d50 a2bb
000000b0: bf48 223e 0b18 fabd 5b42 693f 16c1 dfbf
000000c0: d2cb 803d 05f7 3bbd 60d2 46b4 6c47 0a3f
000000d0: a2a1 f33e 2af0 c23e 1640 d83e e527 e5bc
000000e0: 5bea e3ba 304a 053f b961 d2bf 127c a080
000000f0: 2e20 9381 3763 083e ae2f f53e f2e0 07b5

_decoder.4.weight f4 [128, 64]
0.07849266 -0.00042541182 -0.075239375 4.250491e-39 -4.0085053e-38 -5.24247e-39 -5.5311568e-11 0.3774949
-0.031130843 9.281418e-24 -0.74005103 0.05903378 2.839451e-07 -4.9669003e-26 -0.68296844 -0.32354894
-0.23263271 0.12892105 -2.1522205e-38 -0.0148161575 -0.014558772 -0.12777567 0.084032245 0.022821838
0.2036902 0.02473948 -0.051910117 0.19309814 0.04335912 -0.10335842 -2.0017e-39 0.004715224
2.646042e-08 0.043339692 0.002281516 -0.0800742 0.12209673 -0.16438682 -0.024298005 0.1060497
0.0740721 -0.17029396 0.12141551 0.0096785445 -0.06427633 -0.45833427 -0.2545184 -0.12598552
-0.17933482 -0.006403498 -6.376929e-05 -0.45651585 -0.16829437 0.057088472 -0.42024675 -0.012486781
0.0107309865 -0.019049155 -0.6050945 -7.579858e-27 -5.454959e-39 -0.003241998 -0.2533147 -3.8327544e-06
0.11859742 0.00014753209 -0.44933966 8.568038e-39 3.234358e-39 -1.094986e-24 1.03367453e-10 -0.74060315
0.41813087 -0.0020998477 -0.3791364 0.009750801 -0.00018089025 7.294846e-39 6.150966e-39 7.732998e-39
-9.99e-40 -3.0876692e-38 -1.5471767e-38 -0.11938612 -0.3253749 -0.5871941 0.038390238 0.09997043
-0.016796354 -0.18170361 -0.15781033 -6.750161e-39 -0.039646428 0.0068718162 1.0805694e-38 0.25260332
-2.8902487e-38 -0.73448515 0.0010970273 0.3080908 -0.0451507 -0.03192639 -0.03769096 -0.06366173
-2.710937e-38 0.041231394 -0.06261995 0.0068140454 -0.0010663532 -0.03547642 -0.1354873 -0.0015870999
0.020939212 0.016589217 -6.6945706e-13 -0.06389123 -0.4531427 0.15110673 -0.040557906 -0.00087659544
-1.7300154e-05 0.11572051 1.4440322e-38 -2.4782496e-38 1.091824e-38 0.05285473 -4.373858e-38 -1.9433958e-08
-2.1973608e-38 -8.503385e-39 6.990878e-39 1.683696e-38 -3.914172e-38 5.223042e-38 3.263796e-39 1.2074142e-38
6.848482e-38 -2.254682e-38 -2.344818e-38 -1.8652772e-38 -3.4027798e-38 2.0182375e-38 -5.3014615e-10 -1.0795474e-38
-1.144802e-06 5.9169245e-38 1.4186335e-38 -1.2239594e-17 3.14052e-40 4.6863922e-38 -4.2191465e-20 2.8496968e-38
-1.308194e-38 1.7449554e-38 -2.4085978e-38 -2.073124e-38 5.7919006e-38 8.85938e-39 -2.8043738e-38 -5.128385e-38
1.518569e-39 6.4603256e-38 -5.164843e-38 3.2050894e-38 -1.7992375e-38 1.6921077e-38 -5.7929723e-38 -3.0152131e-38
-0.000683283 -3.678442e-38 -5.546463e-07 -6.36398e-39 -7.267102e-39 -1.6888373e-38 -1.2911549e-38 -0.00011079118
-1.279176e-38 -2.4104948e-38 -1.5177499e-38 -8.6928106e-29 -1.9849477e-38 1.0093144e-38 4.8060457e-38 5.107749e-38
-2.4340641e-05 -2.567496e-38 4.610502e-39 1.9223005e-38 -1.5541658e-38 -1.8974238e-38 -0.00035709524 -1.3269153e-38
-6.5972325e-38 5.559599e-38 3.0284456e-22 7.154357e-39 6.080059e-39 1.687606e-26 -6.6384867e-38 -1.1913789e-19
-6.9447874e-20 -4.55685e-38 -1.255277e-22 -1.3913335e-20 -1.8818698e-38 3.4152076e-38 -5.2529992e-23 -1.9733126e-22
-1.4809956e-20 -7.5633474e-18 -6.5038544e-38 7.453618e-21 -3.3523372e-20 -3.5107067e-22 -2.9743492e-20 -6.4398596e-20
2.3099043e-21 -2.1841769e-20 -4.229158e-20 -1.9205732e-38 -4.99782e-20 -1.3905825e-38 1.1209676e-38 -6.025658e-20
-6.0401737e-38 -6.008631e-23 -6.010371e-38 -2.870597e-20 6.5910357e-21 -1.2925848e-21 -4.4111547e-38 -4.4093722e-20
-8.083958e-20 5.9525977e-21 7.430093e-21 2.824659e-39 -4.0230498e-22 -6.44857e-20 -4.498599e-20 1.2680568e-26
-7.406731e-20 8.290306e-39 -1.50813e-40 3.7421826e-23 -6.1503716e-20 -1.5939447e-20 7.418329e-22 -3.2781774e-38
1.2407025e-21 -1.3753792e-20 -1.6119288e-31 6.989079e-38 1.1592981e-38 2.4915304e-21 -3.8157913e-20 -1.7865546e-38
00000000: c2c0 a03d cf09 dfb9 1a17 9abd a448 2e00
00000010: 693e 5a81 e015 3980 4a43 73ae 0347 c13e
00000020: 1c06 ffbc 5b87 3319 fc73 3dbf 68cd 713d
00000030: 1e71 9834 f1f2 7595 05d7 2ebf 35a8 a5be
00000040: 4537 6ebe e103 043e 275b ea80 78bf 72bc
00000050: ea87 6ebc a0d7 02be 1919 ac3d ddf4 ba3c
00000060: 2a94 503e 73aa ca3c b49f 54bd 85bb 453e
00000070: 5599 313d 94ad d3bd edcb 1580 2a82 9a3b
00000080: 144b e332 f684 313d 7d85 153b f1fd a3bd
00000090: da0d fa3d 0555 28be 9c0c c7bc 9630 d93d
000000a0: 1db3 973d 8a61 2ebe b2a8 f83d c292 1e3c
000000b0: 4fa3 83bd caaa eabe 3c50 82be 5902 01be
000000c0: 8ca3 37be 6fd4 d1bb e0bb 85b8 72bc e9be
000000d0: 5c55 2cbe 9ad5 693d 952a d7be 5b95 4cbc
000000e0: 05d1 2f3c f90c 9cbc 79e7 1abf 7222 1694
000000f0: 3566 3b80 b377 54bb 77b2 81be 1c9b 80b6
00000100: 34e3 f23d d8b2 1a39 d90f e6be 344c 5d00
00000110: 1338 2300 dd70 a997 b44e e32e 2b98 3dbf
00000120: 4015 d63e 999d 09bb 2b1e c2be d3c1 1f3c
00000130: 5bad 3db9 106f 4f00 64fa 4200 7434 5400
00000140: cee0 0a80 d41b 2881 fe78 a880 b680 f4bd
00000150: 8a97 a6be 5a52 16bf 153f 1d3d 4cbd cc3d
00000160: 8298 89bc 8310 3abe 0899 21be b480 4980
00000170: 4b64 22bd f92c e13b e1a9 7500 3955 813e
00000180: 305c 1d81 3807 3cbf 21ca 8f3a 14be 9d3e
00000190: f1ef 38bd 3fc5 02bd d661 1abd 1561 82bd
000001a0: f298 1381 40e2 283d e33e 80bd 5b48 df3b
000001b0: e0c4 8bba b94f 11bd 2fbd 0abe 3c06 d0ba
000001c0: b688 ab3c 1ce6 873c 776f 3cab 68d9 82bd
000001d0: 5202 e8be b9bb 1a3e 0c20 26bd 53cb 65ba
000001e0: cc1f 91b7 e0fe ec3d be3d 9d00 c2ed 0681
000001f0: 9ce3 7600 347e 583d af22 6e81 baef a6b2
00000200: 7b45 ef80 fa97 5c80 b91f 4c00 9856 b700
00000210: 981b 5581 4a2f 8e01 238a 2300 cc79 8300
00000220: f46e ba01 5c83 f580 fc53 ff80 571c cb80
00000230: d443 3981 40c4 db00 b8b9 11b0 648d 7580
00000240: 19a7 99b5 f212 a101 bb79 9a00 d9c7 61a3
00000250: 736b 0300 c626 7f01 5a3e 479f fa26 1b01
00000260: 2073 8e80 4202 be00 f422 0381 43be e180
00000270: a8ab 9d01 5978 6000 44af 1881 a19b 8b81
00000280: 2789 1000 e6dd af01 b499 8c81 6d80 2e01
00000290: 6ceb c380 1441 b800 20b3 9d81 f029 2481
000002a0: 591e 33ba 0046 4881 01e3 14b5 304c 4580
000002b0: b921 4f80 eae5 b780 2598 8c80 9058 e8b8
000002c0: 394a 8b80 653d 0381 b144 a580 9163 dc90
000002d0: 4424 d880 94e7 6d00 40d5 8201 d10b 8b01
000002e0: 212f ccb7 acc9 0b81 3434 3200 eb51 d100
000002f0: d23b a980 759c ce80 8338 bbb9 007d 9080
00000300: 0098 b381 c058 9701 ed0e b71b 70e7 4d00
00000310: bb34 4200 e521 a714 80b7 b481 38a7 0ca0
00000320: aafa a39f 3819 7881 f1c0 179b 6168 839e
00000330: e0ea cc80 0cf1 3901 fb04 7e9a 118f 6e9b
00000340: 47e0 8b9e e684 0ba3 400d b181 7ccb 0c1e
00000350: 454f 1e9f 8e35 d49b ad75 0c9f 900e 989f
00000360: 0c88 2e1d 284a ce9e 62b7 479f c421 d180
00000370: f003 6c9f c86b 9780 0410 7a00 de46 8e9f
00000380: de6d a481 a047 919a 2c9e a381 638f 079f
00000390: 9600 f91d 7454 c39c 862a 7081 0a3a 509f
000003a0: 87e0 be9f fee1 e01d ba59 0c1e 00c2 1e00
000003b0: ae2d f39b 3743 989f ba70 549f 1e2a 7b14
000003c0: f1e2 ae9f 0046 5a00 68a4 0180 faf5 341a
000003d0: b738 919f 388b 969e 8a34 601c 207b 3281
000003e0: 5a7d bb1c a1e6 819e 863d 518c c642 be01
000003f0: 843c 7e00 3541 3c1d 1632 349f e089 c280

_decoder.4.bias f4 [128]
0.16317979 0.0069688857 1.535749e-39 -5.05524e-20 0.03186194 4.560229e-39 -2.5230617e-07 -3.5672116e-07
0.046974555 -0.05398775 0.14978404 -0.0010069299 0.20830554 -1.628679e-07 0.041715052 2.8090703e-25
-0.00012407606 -2.2021104e-19 -0.013557855 -0.031401735 -1.2618525e-06 -1.05157315e-11 -0.83351165 -0.042265505
0.36584458 -0.18236442 1.0959275 -0.011165836 -0.822516 -0.4794378 -2.6569118e-12 -4.3884187e-26
-0.06009639 -0.058113873 -1.0142267e-24 -0.013858754 -0.017519223 -1.258213e-38 0.13826682 -0.0402949
0.07310597 -0.052178375 -0.006401904 -0.037236698 -7.2564674e-08 0.5613858 4.070873e-38 0.2543223
0.12201914 -3.001984e-08 -0.0040936307 0.20390646 -0.03508506 -0.00029679036 -2.447349e-05 0.8100601
-0.0006205381 -0.023674594 0.23175393 -0.003662636 -0.009052028 -0.21230593 0.29655904 -0.025249407
-1.0973678e-06 -0.05898109 0.21353662 -0.00079492293 -0.008006125 -2.1190308e-17 0.13154987 0.33911788
-5.7076964e-08 -3.0584048e-13 -1.0923149e-10 -0.018742405 -0.09345785 -7.6086275e-05 -0.0051627574 -0.023879785
-0.068264395 0.14463764 2.5347426e-28 -2.5246484e-07 -0.09049107 0.5189949 -8.677244e-08 9.702306e-39
0.13022827 -0.06400673 2.977612e-27 -1.046116e-08 -1.914938e-05 0.13166885 -0.053680412 -0.0008898356
-8.3690643e-10 -0.035585493 -0.040223137 -0.0047044535 0.19545679 -2.2136494e-06 -0.9276111 -0.018817384
-1.7394301e-38 0.015577803 0.074563354 -0.06656248 -0.023857022 -0.008924235 -0.03781696 -0.023080282
0.09236793 -0.0032554574 1.098605e-38 -8.681312e-05 0.07562678 -0.0003736791 0.30321547 5.3472064e-38
-0.038415506 -0.13715598 0.37477934 -0.10940518 -4.9969145e-05 -9.233581e-12 0.078656375 0.45991257
00000000: 9a18 273e 405b e43b 0bb9 1000 1aba 6e9f
00000010: aa81 023d 10a8 3100 b274 87b4 6283 bfb4
00000020: 6468 403d 4222 5dbd fd60 193e f6fa 83ba
00000030: 0c4e 553e cae0 2eb4 67dd 2a3d 7fdf ad16
00000040: 6a1a 02b9 5afd 81a0 c421 5ebc 1b9f 00bd
00000050: ec5c a9b5 a5fe 38ad 0561 55bf 981e 2dbd
00000060: fb4f bb3e bdbd 3abe 5a47 8c3f e9f0 36bc
00000070: 6990 52bf df78 f5be abf6 3aac d14d 5995
00000080: a227 76bd d008 6ebd a9f1 9c97 d40f 63bc
00000090: 7984 8fbc dc01 8980 d195 0d3e 440c 25bd
000000a0: 95b8 953d feb8 55bd 10c7 d1bb 8285 18bd
000000b0: dad4 9bb3 fbb6 0f3f b0a3 5d01 8836 823e
000000c0: 2ce5 f93d 2aef 00b3 dd23 86bb dbcc 503e
000000d0: 5ab5 0fbd 879a 9bb9 6b4c cdb7 1960 4f3f
000000e0: 9bab 22ba 39f1 c1bc e750 6d3e d608 70bb
000000f0: f54e 14bc ba66 59be 96d6 973e d8d7 cebc
00000100: 4549 93b5 2896 71bd 58a9 5a3e 6062 50ba
00000110: 1f2c 03bc 3372 c3a3 02b5 063e dca0 ad3e
00000120: c924 75b3 422c acaa dd33 f0ae ac89 99bc
00000130: d466 bfbd 8290 9fb8 592c a9bb 8a9f c3bc
00000140: 34ce 8bbd e41b 143e 8da8 a011 818a 87b4
00000150: 6253 b9bd dadc 043f a757 bab3 15a6 6900
00000160: 8f5a 053e f615 83bd 25e9 6b13 abb8 33b2
00000170: fba2 a0b7 33d4 063e fedf 5bbd db43 69ba
00000180: 0e0c 66b0 18c2 11bd 04c1 24bd d127 9abb
00000190: d325 483e 358e 14b6 ec77 6dbf ea26 9abc
000001a0: 3c68 bd80 0b3a 7f3c acb4 983d e951 88bd
000001b0: cd6f c3bc f436 12bc f5e5 1abd dc12 bdbc
000001c0: 662b bd3d 8359 55bb a3a0 7700 700f b6b8
000001d0: 37e2 9a3d 5cea c3b9 0f3f 9b3e 9790 9101
000001e0: 9459 1dbd 9e72 0cbe 14e3 bf3e d30f e0bd
000001f0: f695 51b8 5a70 22ad 9816 a13d a979 eb3e
