yeeef_workspace/ckpt/e0090.pt (torch_old, 882114 bytes, 16 tensors)

_encoder.0.weight f4 [128, 784]
0.03861394 0.038707126 0.03930344 0.03921372 0.03811769 0.03831263 0.038423244 0.036831196
0.041942324 0.03424199 0.058876354 0.048536047 0.023189686 0.060889993 0.07444163 0.057510667
0.06541377 0.08772707 0.040072236 0.04869446 0.036357142 0.03978891 0.03729283 0.037959382
0.03857596 0.03949128 0.039879 0.039034188 0.03830008 0.038030554 0.0373319 0.03635603
0.03478343 0.03281796 0.03352603 0.03130032 0.058409825 0.04947807 0.008250356 0.007278481
0.071236596 0.049356505 0.056512125 0.03625802 0.007435932 0.02522125 0.06291945 0.054381493
0.03650725 0.04563637 0.03391706 0.030317578 0.03134007 0.037746523 0.039299928 0.039250433
0.037380815 0.032751635 0.03494348 0.036116164 0.033991057 0.032430537 0.026095664 0.027169928
0.06883341 0.021390924 0.047161125 0.05733954 0.024905823 0.0040157437 0.012899101 -0.0072652153
0.0752057 0.050172046 -0.03281091 0.057230663 0.05403408 0.045081235 0.061662406 0.04183393
0.03284335 0.034572117 0.03545718 0.03601833 0.04226339 0.036874264 0.03686754 0.037049435
0.042480763 0.03833457 0.02866746 0.045068316 0.027245628 0.056750007 0.0035717909 0.0488739
0.036493585 -0.060842846 -0.06489958 -0.053914078 0.001794413 0.01592562 0.030195823 0.013355516
0.030889507 0.022209236 0.044404935 0.043147016 0.040024165 0.04210092 0.04704395 0.039130766
0.04450569 0.030212611 0.029637657 0.031589862 0.03155193 0.033016752 0.05943212 0.054973334
0.08261343 0.051905323 0.0144416 0.036897052 -0.092668764 -0.07590189 -0.058156982 -0.024219653
-0.11062367 0.020862164 -0.021872884 0.033429544 0.031062389 0.04169401 0.04415239 0.038879346
0.029467052 0.025999835 0.041513607 0.053708725 0.040114883 0.03241522 0.055380393 0.050210398
0.021161268 0.032167513 0.04075157 0.028298799 0.046859123 0.033589553 0.0013467543 -0.027360817
-0.0519572 -0.06966823 -0.04784975 -0.057579737 -0.036507845 -0.038332622 0.024938134 -0.0070916535
0.040203016 0.03059268 0.03911126 0.025620326 0.04220676 0.023236537 0.030754397 0.038863488
0.0385663 0.03707815 0.05497214 0.024233684 0.01643701 0.051285047 0.05373659 0.018434582
0.054497562 0.049723785 -0.0014520547 -0.044982575 -0.017010944 -0.012634187 -0.015569452 -0.05434313
-0.034285184 -0.016023338 0.026467003 0.040096946 0.011303376 0.000235185 0.008951027 0.023987824
0.049191266 0.024000276 0.023022657 0.042760644 0.038856298 0.025726546 0.035987303 0.0042383377
0.034826756 0.010733509 0.007548447 0.01069571 0.033501495 0.0014372063 -0.01695094 -0.018568909
-0.01275464 -0.014728117 0.0073531293 -0.023887249 -0.02450452 -0.014523181 -0.0294379 0.021253938
0.016762175 0.004225777 -0.029660217 -0.02031155 -0.009285521 0.023302661 0.006697593 0.031521462
0.032020707 0.031376705 0.010336182 -0.011070926 -0.0015194752 -0.017767608 0.0023899975 0.045740556
0.04765681 0.015112306 -0.04519315 -0.050821904 -0.068740994 -0.045881707 -0.05202323 -0.07036961
-0.042642057 -0.0885741 -0.047878996 0.027613487 0.024135578 0.012186224 -0.0038620925 0.038972747
-0.0012783665 -0.0020533414 -0.057253778 0.027174475 0.038543727 0.02876646 0.006794866 0.066763066
00000000: a729 1e3d 5d8b 1e3d a5fc 203d 919e 203d
00000010: 4b21 1c3d b4ed 1c3d b161 1d3d 4fdc 163d
00000020: b7cb 2b3d 5441 0c3d 5528 713d bccd 463d
00000030: 4cf8 bd3c c967 793d da74 983d 4e90 6b3d
00000040: a8f7 853d 40aa b33d c922 243d d873 473d
00000050: 3aeb 143d b2f9 223d 5ec0 183d 4c7b 1b3d
00000060: d301 1e3d 9cc1 213d 2a58 233d 50e2 1f3d
00000070: 8be0 1c3d edc5 1b3d 56e9 183d 0fea 143d
00000080: 1279 0e3d 206c 063d 9752 093d c434 003d
00000090: 243f 6f3d 84a9 4a3d 802c 073c 5380 ee3b
000000a0: 7ee4 913d 0c2a 4a3d 4279 673d 4a83 143d
000000b0: 1ea9 f33b cb9c ce3c eadb 803d 21bf 5e3d
000000c0: a088 153d 34ed 3a3d 9dec 0a3d 925c f83c
000000d0: 725e 003d 199c 1a3d f6f8 203d 10c5 203d
000000e0: a01c 193d 9426 063d e520 0f3d 8bee 133d
000000f0: 353a 0b3d e2d5 043d 93c6 d53c 7893 de3c
00000100: 88f8 8c3d 053c af3c 062c 413d dedc 6a3d
00000110: 4c07 cc3c 8096 833b c056 533c 0b11 eebb
00000120: 7205 9a3d 3481 4d3d bc64 06bd b36a 6a3d
00000130: d752 5d3d 1aa7 383d b891 7c3d 0e5a 2b3d
00000140: c086 063d 7e9b 0d3d 8c3b 113d f587 133d
00000150: 601c 2d3d 7809 173d 6b02 173d 26c1 173d
00000160: 4f00 2e3d b604 1d3d 05d8 ea3c 8e99 383d
00000170: 3932 df3c b272 683d b514 6a3b 0030 483d
00000180: 4c7a 153d 5936 79bd 12ea 84bd 02d5 5cbd
00000190: 8232 eb3a 7276 823c 3b5d f73c 18d1 5a3c
000001a0: fe0b fd3c 25f0 b53c f3e1 353d edba 303d
000001b0: 61f0 233d 0472 2c3d 28b1 403d 9547 203d
000001c0: 994b 363d 7080 f73c acca f23c 5f64 013d
000001d0: 993c 013d 933c 073d 186f 733d b82b 613d
000001e0: 3b31 a93d ad9a 543d 769c 6c3c 5d21 173d
000001f0: 1fc9 bdbd 7372 9bbd 0436 6ebd 4b68 c6bc
00000200: aa8e e2bd 21e7 aa3c c32e b3bc 6bed 083d
00000210: 8d76 fe3c 57c7 2a3d 23d9 343d f33f 1f3d
00000220: e364 f13c 9bfd d43c 2c0a 2a3d aefd 5b3d
00000230: 814f 243d d2c5 043d 8dd6 623d 6ba9 4d3d
00000240: 655a ad3c 15c2 033d 1eeb 263d e2d2 e73c
00000250: 5aef 3f3d 3395 093d 9385 b03a cb23 e0bc
00000260: 13d1 54bd 38ae 8ebd 19fe 43bd bbd8 6bbd
00000270: 4089 15bd ab02 1dbd 0f4b cc3c 1a61 e8bb
00000280: ebab 243d 809d fa3c 2133 203d b8e1 d13c
00000290: ffe0 2c3d 8d5a be3c a5f0 fb3c 522f 1f3d
000002a0: b2f7 1d3d 42df 173d 772a 613d b885 c63c
000002b0: e9a6 863c 4510 523d e61a 5c3d 1f04 973c
000002c0: d638 5f3d 2bab 4b3d df52 beba a63f 38bd
000002d0: 895a 8bbc 9fff 4ebc 0417 7fbc e796 5ebd
000002e0: 9f6e 0cbd 6043 83bc 54d1 d83c b23c 243d
000002f0: cc31 393c fe9b 7639 54a7 123c 1d82 c43c
00000300: c87c 493d 3a9c c43c 039a bc3c c925 2f3d
00000310: c827 1f3d 7ac0 d23c 6c67 133d c1e1 8a3b
00000320: 80a6 0e3d 9adb 2f3c f758 f73b 0f3d 2f3c
00000330: dd38 093d a460 bc3a b3dc 8abc d31d 98bc
00000340: d6f8 50bc 334e 71bc 85f2 f03b 31af c3bc
00000350: b4bd c8bc a3f2 6dbc c027 f1bc bd1c ae3c
00000360: d450 893c 6378 8a3b fcf9 f2bc 6864 a6bc
00000370: 4c22 18bc 39e5 be3c 7b77 db3b a61c 013d
00000380: 2528 033d dc84 003d 1759 293c d462 35bc
00000390: 2129 c7ba 608d 91bc 81a1 1c3b 735a 3b3d
000003a0: ca33 433d 9b99 773c 741c 39bd a12a 50bd
000003b0: 14c8 8cbd 75ee 3bbd 4f16 55bd f11d 90bd
000003c0: 70a9 2ebd 5666 b5bd c41c 44bd ae35 e23c
000003d0: fab7 c53c baa8 473c 291b 7dbb e3a1 1f3d
000003e0: dd8e a7ba 5a91 06bb f082 6abd 019d de3c
000003f0: 07e0 1d3d a4a7 eb3c 78a7 de3b 13bb 883d

_encoder.0.bias f4 [128]
-0.038611904 -5.897784e-10 -2.8893706e-28 0.08267533 -0.09881995 -0.03999233 -9.148628e-14 -0.10892365
-0.003908057 -0.03700373 0.022819439 -0.004691502 -2.0265347e-06 -6.550479e-06 -2.2446207e-24 -0.034465313
0.09533273 -0.017033337 -0.0726549 -0.03373335 -6.5543715e-10 -0.03061891 -5.037079e-05 -0.04956383
-0.07134398 -0.040585022 0.013495064 -0.0366335 -0.00034658366 -2.8019855e-22 -0.03562249 -0.046238262
-0.0035406887 -4.1589206e-12 0.22172463 -0.099877894 0.08286398 -0.025613531 -0.019696906 -0.048862956
-0.037562408 -0.02960573 -0.06289962 -0.026507998 -0.023414591 0.0019497921 -0.05988947 -0.02723531
-0.12392059 -0.0010542095 -0.01917023 0.39973333 -0.000681659 -0.00051417854 -1.8862505e-31 -0.06888138
-1.0561292e-13 0.009458208 -0.0073996456 -0.02860056 -0.0010503732 -0.012887003 -0.050781883 -0.0037452534
-0.01470468 -0.02300551 -8.7153825e-21 -1.1700352e-13 -3.6748216e-07 -0.05522881 -0.00037945772 -0.016562952
-1.6812149e-07 -0.1224494 -0.002406509 -0.04427544 -0.012137461 -0.012201919 -0.00058338244 -0.051607847
-0.030165968 0.2624179 -0.054724194 -0.042918544 -0.006029779 -0.040579405 -0.003204235 -0.008632805
-0.0011019864 -0.015981691 -0.053428795 0.05638534 -0.1795261 -0.03160735 0.0033386345 -0.047364365
-0.014732104 -0.010183494 -0.0006834006 -0.00086174946 -0.009357708 -0.08065126 -0.05359887 -0.0062944363
-0.021065194 -0.0026530998 -0.044149164 -0.043720387 -0.000327052 -0.013580223 -0.10461991 -0.0018989831
-2.2975835e-10 -0.01744161 -0.002243921 -8.324969e-25 -0.00014530946 -5.1906497e-18 -0.00015293373 -0.02696565
-2.8054306e-05 -0.03980261 -0.11989698 -0.0693925 -5.819565e-06 -1.8319355e-05 0.010803317 -0.019285912
00000000: 8427 1ebd f71d 22b0 b822 b791 af51 a93d
00000010: 1d62 cabd ffce 23bd 4002 cea9 5d13 dfbd
00000020: 290f 80bb 3991 17bd d5ef ba3c 2cbb 99bb
00000030: 9aff 07b6 30cc dbb6 4bab 2d98 802b 0dbd
00000040: ce3d c33d 7f89 8bbc 18cc 94bd fb2b 0abd
00000050: 4a2a 34b0 82d4 fabc 3945 53b8 7103 4bbd
00000060: cb1c 92bd 7b3c 26bd 671a 5d3c 020d 16bd
00000070: acb5 b5b9 a05e a99b e3e8 11bd 5564 3dbd
00000080: e60a 68bb 3a54 92ac c80b 633e c88c ccbd
00000090: 97b4 a93d 78d3 d1bc 685b a1bc 8624 48bd
000000a0: 0adb 19bd b787 f2bc 84d1 80bd 4d27 d9bc
000000b0: f5cf bfbc 2b90 ff3a a94e 75bd 961c dfbc
000000c0: 14ca fdbd 672d 8aba e30a 9dbc d9a9 cc3e
000000d0: 5cb1 32ba f0c9 06ba 6dd9 748c ae11 8dbd
000000e0: b4d1 eda9 9af6 1a3c ba78 f2bb b94b eabc
000000f0: adac 89ba 0224 53bc aa00 50bd ed72 75bb
00000100: e6eb 70bc 0d76 bcbc 01a1 249e f8bb 03aa
00000110: 5d4a c5b4 9b37 62bd f4f1 c6b9 07af 87bc
00000120: e284 34b4 c0c6 fabd 85b6 1dbb 2a5a 35bd
00000130: 34dc 46bc 8fea 47bc 22ee 18ba c062 53bd
00000140: 9f1e f7bc a45b 863e 7a26 60bd 5bcb 2fbd
00000150: 7495 c5bb 9736 26bd 25fe 51bb 9c70 0dbc
00000160: 8770 90ba 09ec 82bc 27d8 5abd 50f4 663d
00000170: b1d5 37be b576 01bd fecc 5a3b 2301 42bd
00000180: ec5e 71bc abd8 26bc 3d26 33ba 07e7 61ba
00000190: 1251 19bc 7d2c a5bd 7d8a 5bbd 8f41 cebb
000001a0: ea90 acbc a1df 2dbb c1d5 34bd 2614 33bd
000001b0: 2d78 abb9 957f 5ebc f742 d6bd 4de7 f8ba
000001c0: 3a9f 7caf b5e1 8ebc bf0e 13bb 9ad2 8097
000001d0: 365e 18b9 4d80 bfa2 d65c 20b9 11e7 dcbc
000001e0: 2a56 ebb7 1008 23bd 8c8c f5bd a81d 8ebd
000001f0: af45 c3b6 84ac 99b7 6500 313c 7dfd 9dbc

_encoder.2.weight f4 [64, 128]
0.038037587 -8.980993e-05 0.004248273 -0.009336134 -0.11372731 0.047807552 -0.006724745 -0.20020996
-0.012940332 0.025425602 0.281706 0.0012631228 -0.016365834 2.349479e-05 9.252686e-06 -0.045347027
-0.0077771163 -0.015343944 0.017199295 -0.043624245 0.00044639982 -0.003806534 0.045111928 -0.024176084
0.046943206 -0.046335 0.34250242 -0.02507557 0.0097379275 -2.0403992e-38 0.03418896 0.11330564
-0.018811319 0.011879506 0.026617186 -0.036685497 0.23933867 -0.006868219 0.00023029714 0.008061749
0.054327957 -0.03851973 0.033120286 -0.014732868 -0.029316802 -0.0033146555 -0.048629843 0.03248558
-1.13668 -0.008690402 -0.037486553 -2.792022 0.0010756197 -0.007779371 0.007095594 0.1989435
5.9536642e-08 0.066081844 -0.023463411 -0.007070264 0.011513105 -0.0442059 -0.0023138584 0.0054922905
0.0053645666 0.07143803 -5.0063245e-05 -0.0027728698 -0.0019494651 0.051483158 0.037945762 0.019286336
-0.006567528 -0.18092722 0.0145525765 -0.056851223 -0.04307693 -0.087333694 -0.009099308 -0.13281278
0.019046942 0.038479455 0.013275357 0.003521157 0.03813602 -0.025440477 -0.024622725 -0.0032480098
0.044176016 0.013757495 -0.41817787 -0.026893867 -0.19964008 -0.045697503 -0.07113838 0.05483568
0.08942242 -0.038849648 -0.0018268913 -0.00018339716 0.011233905 -0.42856643 -0.004674973 -0.17109951
0.11460303 -0.004767956 0.004367061 0.017365921 -0.042200647 0.0059603695 0.1789931 -0.0045045037
1.240158e-06 -0.0041760867 0.027490355 -0.014136686 0.035090473 0.017305106 0.00070680055 -0.038879145
-0.016192865 0.0019565306 -0.29243138 0.023766814 0.00048337146 -0.014079673 -0.044249363 -0.021444708
0.008703445 -0.0072485497 0.00064661395 0.10821391 -0.2511836 -0.059888564 0.0029728103 -0.15870413
0.021402117 -0.0040645977 -0.14172237 1.6956157e-05 -3.0387624e-05 1.1540768e-05 -3.889263e-09 -0.032283373
-0.029237757 -0.027300557 -0.11588137 0.027841285 0.0015683395 -0.047109827 -0.004803883 0.027826024
-0.030762268 -0.030525396 0.14091478 0.0030487978 0.0011402682 2.6780176e-38 0.027732799 0.041780237
-0.0066811456 0.00014367407 0.0951375 -0.18717085 -0.05602048 -0.024464669 0.023195166 -0.0029684477
0.025202617 -0.03501652 -0.005909848 -0.017446132 -0.03189871 0.015469781 0.04880629 -0.06082951
-1.0839007 -0.042782407 0.061852355 -1.0474268 0.0007632783 -0.009367685 -0.00011867798 0.16927533
-2.0793295e-14 0.06653136 -0.0017684337 -0.016844077 0.0051054694 -0.05345546 0.040932436 -0.023941375
-0.021385457 0.016224021 -0.00010182884 -0.0070429277 -0.00014474305 -0.021157548 0.01147631 -0.0026603113
0.0033086212 -0.1639386 0.050787535 -0.043378662 0.17627081 -0.02178168 0.0014239787 0.050287023
-0.014233286 -0.035404947 0.12915084 0.0074868626 -0.022565726 0.012811579 0.031632222 -0.0509067
0.023052728 0.009805006 -0.35661 -0.023046458 -0.25797972 -0.037284687 -0.08243942 0.1947764
0.0029204872 7.654184e-05 1.5482748e-05 -0.0043030516 -0.03898536 0.20674294 0.01205145 -0.17075466
0.007707894 0.0006888685 -0.005269422 -0.009776696 -0.019886773 -0.008486868 -0.07493232 -0.051299214
-6.1013467e-16 0.06324067 0.019172406 -0.00066183053 -0.02084132 0.0032219621 0.000478388 0.0381242
-0.033677112 0.0010052917 0.2071449 -0.05713918 0.0066373977 0.014754848 0.040687032 -0.007142814
00000000: 4dcd 1b3d 5758 bcb8 1935 8b3b 96f6 18bc
00000010: dde9 e8bd dad1 433d 405b dcbb d703 4dbe
00000020: b003 54bc 5a49 d03c c53b 903e 5e8f a53a
00000030: a411 86bc ad16 c537 fc3b 1b37 cebd 39bd
00000040: 2ed7 febb 2a65 7bbc 89e5 8c3c 56af 32bd
00000050: c50a ea39 0b77 79bb 49c7 383d ec0c c6bc
00000060: 8547 403d c5c9 3dbd 7a5c af3e 486b cdbc
00000070: d48b 1f3c 072e de80 b909 0c3d ca0c e83d
00000080: 321a 9abc 42a2 423c 490c da3c 8843 16bd
00000090: 3215 753e cc0e e1bb eb7b 7139 6d15 043c
000000a0: fe86 5e3d ddc6 1dbd 23a9 073d 2162 71bc
000000b0: ca29 f0bc b13a 59bb 1630 47bd 990f 053d
000000c0: bb7e 91bf 3062 0ebc 808b 19bd 7db0 32c0
000000d0: cffb 8c3a 18ea febb 2882 e83b d8b7 4b3e
000000e0: 3bb5 7f33 eb55 873d 5736 c0bc acad e7bb
000000f0: 76a1 3c3c 3f11 35bd 1aa4 17bb acf8 b33b
00000100: 3fc9 af3b 1a4e 923d 00fb 51b8 09b9 35bb
00000110: 3285 ffba 01e0 523d 046d 1b3d 61fe 9d3c
00000120: 6b34 d7bb fc44 39be ee6d 6e3c d4dc 68bd
00000130: 6f71 30bd 02dc b2bd 4415 15bc 1300 08be
00000140: 5508 9c3c a29c 1d3d e280 593c 36c3 663b
00000150: 8434 1c3d 8c68 d0bc 99b5 c9bc 90dc 54bb
00000160: e9f1 343d 1e67 613c 691b d6be 8750 dcbc
00000170: 736e 4cbe 4e2d 3bbd 00b1 91bd 619b 603d
00000180: 1a23 b73d cf20 1fbd 4d74 efba 4d4e 40b9
00000190: 6a0e 383c 0f6d dbbe 8430 99bb b634 2fbe
000001a0: feb4 ea3d 843c 9cbb 9019 8f3b fa42 8e3c
000001b0: 96da 2cbd 344f c33b f849 373e 849a 93bb
000001c0: 8173 a635 8ed7 88bb 7433 e13c 8f9d 67bc
000001d0: 07bb 0f3d 70c3 8d3c 9548 393a bd3f 1fbd
000001e0: e6a6 84bc 2339 003b 91b9 95be 9fb2 c23c
000001f0: 056d fd39 6eae 66bc d23e 35bd d0ac afbc
00000200: e598 0e3c 3e85 edbb 8781 293a 419f dd3d
00000210: 239b 80be b64d 75bd 7bd3 423b 5683 22be
00000220: 7e53 af3c 5130 85bb ab1f 11be 123d 8e37
00000230: ede8 feb7 399f 4137 52a2 85b1 923b 04bd
00000240: 0584 efbc 6ba5 dfbc 3653 edbd 6813 e43c
00000250: be90 cd3a 3cf6 40bd e469 9dbb 67f3 e33c
00000260: 2701 fcbc 6510 fabc f74b 103e 57ce 473b
00000270: 0d75 953a 1ece 1101 e52f e33c c121 2b3d
00000280: 83ed dabb 37a7 1639 73d7 c23d b7a9 3fbe
00000290: bb75 65bd 216a c8bc ca03 be3c 4a8a 42bb
000002a0: b875 ce3c 7c6d 0fbd 66a7 c1bb 31eb 8ebc
000002b0: 39a8 02bd f774 7d3c 1be9 473d 5d28 79bd
000002c0: 42bd 8abf 9b3c 2fbd e558 7d3d 1512 86bf
000002d0: bd16 483a eb7a 19bc c1e2 f8b8 8356 2d3e
000002e0: 134a bba8 9841 883d caca e7ba 97fc 89bc
000002f0: c84b a73b 1df4 5abd c5a8 273d b420 c4bc
00000300: 8e30 afbc 3de8 843c f18c d5b8 5cc8 e6bb
00000310: 2bc6 17b9 9852 adbc 2207 3c3c 9e58 2ebb
00000320: 74d5 583b 85df 27be 9706 503d d3ad 31bd
00000330: 5680 343e 7e6f b2bc cca4 ba3a c4f9 4d3d
00000340: ba32 69bc c704 11bd 1e40 043e 5b54 f53b
00000350: c2db b8bc a8e7 513c ca90 013d 8b83 50bd
00000360: 13d9 bc3c 2da5 203c 9695 b6be edcb bcbc
00000370: eb15 84be d4b7 18bd 00d6 a8bd 7773 473e
00000380: a565 3f3b 1685 a038 f3e0 8137 9d00 8dbb
00000390: 1daf 1fbd 6cb4 533e 7273 453c 4fda 2ebe
000003a0: 8092 fc3b 2f95 343a 1eab acbb 6f2e 20bc
000003b0: 96e9 a2bc 810c 0bbc 1e76 99bd 201f 52bd
000003c0: fedb 2fa6 5384 813d 730f 9d3c b27e 2dba
000003d0: 6abb aabc 8e27 533b 27d0 fa39 1f28 1c3d
000003e0: 03f1 09bd fec3 833a cb1d 543e c60a 6abd
000003f0: 877e d93b 51be 713c 72a7 263d 440e eabb

_encoder.2.bias f4 [64]
0.43333375 0.05525794 0.097538516 -0.07226714 0.022186397 -0.05842394 -0.11563489 -0.116311386
0.23753114 0.05046711 -0.1850304 -2.2606234e-19 -0.20578136 -0.15680233 -4.6801553e-38 1.1498033e-34
2.328031e-34 0.0534177 0.00992433 3.676315e-39 -0.0032485793 -0.26445672 0.024741761 -0.00027557995
-6.883181e-38 0.016238501 -0.035919115 0.056393035 -0.04791335 -0.0068964167 -0.016235134 -4.341918e-12
5.749948e-38 -2.3436636e-05 -0.07002284 0.06144931 -0.030589847 0.5079279 0.11042147 -0.005974618
-0.01091518 0.50661665 0.009509726 3.742266e-35 1.890067e-39 -0.07846381 -0.0071260356 -0.0016311117
0.30591232 0.45864284 0.1329467 -1.13090114e-10 -0.15465349 4.40531e-39 -8.14868e-07 0.11629758
-1.5411303e-09 0.2297931 -0.03526478 0.03426986 -5.2153665e-29 6.079039e-38 -0.08828712 0.19290112
00000000: ecdd dd3e 2656 623d 46c2 c73d cb00 94bd
00000010: 3fc0 b53c f14d 6fbd fcd1 ecbd aa34 eebd
00000020: 5d3b 733e 9ab6 4e3d 9c78 3dbe 9371 85a0
00000030: 59b8 52be ca90 20be d8cf 7e81 c7d5 1807
00000040: 65b9 9a07 85cc 5a3d a899 223c 1208 2800
00000050: 1ee6 54bb df66 87be 3caf ca3c b77b 90b9
00000060: c560 bb81 9b06 853c ec1f 13bd 62fc 663d
00000070: ca40 44bd 56fb e1bb 8bff 84bc 85c4 98ac
00000080: 4a87 9c01 cb99 c4b7 2268 8fbd 46b2 7b3d
00000090: 8f97 fabc 9007 023f a724 e23d bac6 c3bb
000000a0: 95d5 32bc a1b1 013f afce 1b3c 16f9 4606
000000b0: bd94 1400 a2b1 a0bd 8581 e9bb 07cb d5ba
000000c0: 8aa0 9c3e 3cd3 ea3e 2e23 083e 13b0 f8ae
000000d0: 7c5d 1ebe 36f8 2f00 4dbd 5ab5 6d2d ee3d
000000e0: b4cf d3b0 e24e 6b3e cd71 10bd 8d5e 0c3d
000000f0: aa39 8490 b87c a501 e1cf b4bd df87 453e

_encoder.4.weight f4 [12, 64]
0.3707116 -0.16599692 0.013145708 0.52982605 -0.09566485 -0.14853223 -0.0406621 -0.021704813
-0.19867525 -0.45309764 -0.01821158 0.005811557 -0.44131917 -0.093562104 1.1323943e-05 -2.0806267e-38
2.4164663e-38 0.136681 0.15848364 2.2465783e-20 0.03187402 -0.20531914 0.15895109 0.0024629838
-2.6265589e-05 0.50855887 -0.007593875 -0.37093472 0.018257126 0.0136047285 0.039670005 0.00084619905
9.5163546e-07 0.00068649213 0.15660949 0.04875175 -0.060376063 0.31014156 -0.000682381 0.011553545
0.027383842 0.20912462 0.23706257 6.078988e-36 8.269801e-06 -0.18006448 -0.030444477 -0.0048813717
-0.0019832775 -0.08447388 -0.07343212 -0.007441525 -0.20017938 4.5479884e-19 0.007803514 -0.123995356
0.017582858 -0.24666776 -0.005751542 0.123948716 1.8119e-10 2.7379018e-38 -0.021313695 -0.18320139
-0.24936306 -0.18076397 -0.13789788 0.096064895 -0.23299655 -0.059815533 -0.3552943 0.20735875
0.128797 -0.93475085 -0.26958928 -3.3884148e-06 -0.08478676 -0.084812514 4.752259e-12 0.009318669
9.12986e-35 -0.055250317 -0.032757312 -2.603684e-39 -0.19293721 -0.26051182 0.3120318 0.024597894
-4.1771796e-38 0.16288307 0.025818434 -0.1513738 -0.004702436 0.0006610593 0.0035282797 -0.00016641557
-7.989687e-24 9.187347e-39 -0.15193972 0.22173886 0.037534483 -0.48024052 0.09911302 0.037541717
0.009018781 -0.94868404 0.10052248 -2.229704e-32 0.0005765851 0.14652605 0.012030832 -0.0053125476
-0.26823035 0.018578777 -0.40279555 -0.0027827509 -0.009123242 0.00026570586 0.0072102738 -0.043093152
0.002018648 0.0751697 0.12221257 -0.033142574 0.016094506 0.0010721892 0.24839047 -0.36621577
-0.20492882 0.2927356 0.03789718 -0.40680775 0.21346992 -0.47523078 -0.38331485 -0.0010213681
-0.15666716 0.035836864 -0.037886683 -0.00022892583 -0.10716026 -0.1557497 -0.00021961438 -9.4457283e-07
1.483056e-39 0.008398056 0.21422873 3.0614041e-38 -0.0123141045 -0.082379706 0.0065839887 -0.009117706
1.1449976e-16 -0.55311924 0.01603447 -0.15437952 0.035162218 -0.00308007 0.053037446 0.0004389997
-4.9940217e-12 -0.00019359279 -0.19863123 -0.113501675 0.032287557 -0.24413015 -0.5517112 -0.029494721
0.00015637877 0.12143157 0.42956847 -3.70345e-34 -4.0304456e-21 0.6775126 0.034222867 -0.0014190676
0.047858637 0.24540362 -0.18718791 -0.0055562425 -0.17006654 4.2320637e-38 -0.0022617637 0.0038111194
-0.0023775082 0.09616714 -0.15288432 -0.06056567 3.203778e-38 6.484771e-38 6.0468047e-38 -0.00493137
0.042554785 0.20331496 -0.021339802 -0.0057355682 0.027040059 -0.025895847 0.22538811 0.051847678
-0.20441785 -0.1216859 0.29561275 0.0002425012 -0.067927524 0.15018626 2.0470399e-22 -1.6360963e-13
-1.158253e-38 -0.04867359 -0.17082047 2.3931504e-38 0.28803182 -0.28836042 -0.038888127 0.0011734139
-2.0844504e-38 0.043869123 -0.017998783 -0.21130545 0.004034939 -0.016012968 -0.0018124449 6.1829052e-24
-1.8581791e-38 -5.7534433e-12 0.0305292 -0.015600072 0.07970043 0.08183966 -0.084872946 0.04469216
0.028353654 -0.05848752 -0.24867968 3.0091802e-37 -3.5680364e-10 -0.14379726 -0.032104257 -0.014708293
-0.46593717 -0.11430968 -0.0384842 -0.005821346 0.044994894 2.930248e-39 0.00016705201 -0.13191417
-0.00018090958 0.09728242 -0.11046338 0.025902662 0.00019779545 2.7474586e-38 -0.034841098 0.040994216
00000000: e9cd bd3e 19fb 29be 1861 573c aea2 073f
00000010: efeb c3bd d518 18be 4d8d 26bd 4bce b1bc
00000020: 8671 4bbe 6afc e7be 7430 95bc e06e be3b
00000030: 96f4 e1be 7d9d bfbd f7fb 3d37 688f e280
00000040: a090 0301 1bf6 0b3e 8949 223e ee2e d41e
00000050: 558e 023d 2e3f 52be 13c4 223e 036a 213b
00000060: ec54 dcb7 ea30 023f 0ad6 f8bb 28eb bdbe
00000070: f88f 953c 5ee6 5e3c 047d 223d 75d3 5d3a
00000080: e473 7f35 b5f5 333a 3d5e 203e eaaf 473d
00000090: e44c 77bd e0ca 9e3e d0e1 32ba 144b 3d3c
000000a0: 1454 e03c c424 563e 88c0 723e 2949 0105
000000b0: 86be 0a37 d362 38be b266 f9bc eaf3 9fbb
000000c0: e0f9 01bb a400 adbd 9463 96bd 09d8 f3bb
000000d0: d3fb 4cbe a13b 0621 9fb4 ff3b 47f1 fdbd
000000e0: ed09 903c 7996 7cbe 6e77 bcbb d3d8 fd3d
000000f0: 7338 472f c810 1501 0f9a aebc 2599 3bbe
00000100: 0859 7fbe 311a 39be 1a35 0dbe acbd c43d
00000110: a696 6ebe 2201 75bd 22e9 b5be da55 543e
00000120: 5ce3 033e d54b 6fbf 9b07 8abe 8664 63b6
00000130: aea4 adbd 2fb2 adbd 8b34 a72c 55ad 183c
00000140: 9bb6 f206 284e 62bd 882c 06bd 035a 1c80
00000150: 5591 45be ce61 85be a2c2 9f3e 8681 c93c
00000160: 636d 6381 d2ca 263e 2e81 d33c bc01 1bbe
00000170: e416 9abb f04a 2d3a b63a 673b d77f 2eb9
00000180: 048b 1a99 960a 6400 1696 1bbe 830f 633e
00000190: c2bd 193d 16e2 f5be c4fb ca3d 58c5 193d
000001a0: 82c3 133c f5dc 72bf bbde cd3d b38b e78a
000001b0: f925 173a ed0a 163e f71c 453c e114 aebb
000001c0: 7d55 89be 8532 983c 383b cebe d05e 36bb
000001d0: a779 15bc 704e 8b39 2944 ec3b 7282 30bd
000001e0: 4b4b 043b 92f2 993d 954a fa3d 82c0 07bd
000001f0: a0d8 833c b388 8c3a 125a 7e3e a280 bbbe
00000200: dcd8 51be 71e1 953e 133a 1b3d 1b49 d0be
00000210: dc97 5a3e 7351 f3be d841 c4be 6ddf 85ba
00000220: 5b6d 20be adc9 123d 112f 1bbd cf0b 70b9
00000230: d776 dbbd d97c 1fbe 4948 66b9 8d8e 7db5
00000240: 2826 1000 0098 093c c75e 5b3e bfad 2601
00000250: 19c1 49bc b1b6 a8bd 80be d73b 6e62 15bc
00000260: 5d02 0425 3999 0dbf b95a 833c aa15 1ebe
00000270: 4206 103d 00db 49bb cb3d 593d 8b29 e639
00000280: 26b6 afac 2bff 4ab9 fc65 4bbe 9173 e8bd
00000290: f53f 043d 41fd 79be f23c 0dbf ea9e f1bc
000002a0: 9bf9 2339 1db1 f83d 66f0 db3e f022 f687
000002b0: 1444 989d 7771 2d3f 472d 0c3d 0200 baba
000002c0: 6b07 443d 164b 7b3e 30ae 3fbe 2411 b6bb
000002d0: ec25 2ebe 5c6a 6601 193a 14bb f9c3 793b
000002e0: f8cf 1bbb 47f3 c43d b58d 1cbe b513 78bd
000002f0: 266e 2e01 4288 b001 149c a401 5497 a1bb
00000300: ed4d 2e3d cc31 503e cfd0 aebc 6ff1 bbbb
00000310: 1d83 dd3c 8723 d4bc 24cc 663e 3b5e 543d
00000320: ea52 51be 7536 f9bd 8e5a 973e ec47 7e39
00000330: 961d 8bbd 6dca 193e d178 771b 4435 38aa
00000340: 621f 7e80 f55d 47bd 90eb 2ebe a64b 0201
00000350: e878 933e faa3 93be 2849 1fbd 3dcd 993a
00000360: fff9 e280 1cb0 333d 2f72 93bc 7560 58be
00000370: 8637 843b a12d 83bc 8f8f edba 8730 ef18
00000380: 7956 ca80 696e caac 5f18 fa3c 7297 7fbc
00000390: fb39 a33d 8d9b a73d ded1 adbd 200f 373d
000003a0: ec45 e83c 9c90 6fbd e3a5 7ebe 50cb cc02
000003b0: a627 c4af 973f 13be c17f 03bd 0dfb 70bc
000003c0: 518f eebe 321b eabd 9ca1 1dbd fdc0 bebb
000003d0: 914c 383d 57e8 1f00 af2a 2f39 8214 07be
000003e0: 8cb2 3db9 013c c73d a03a e2bd d231 d43c
000003f0: 5067 4f39 fc95 1501 8ab5 0ebd 8de9 273d

_encoder.4.bias f4 [12]
0.26812807 1.0030636 -0.048398625 -0.19082054 0.18056434 -0.22151443 0.30874452 0.41319376
0.91198075 0.8282086 0.30421826 0.16082028
00000000: 1548 893e 6364 803f a33d 46bd 7666 43be
00000010: dce5 383e aed4 62be c313 9e3e 228e d33e
00000020: 9277 693f 7b05 543f 7fc2 9b3e 12ae 243e

_encoder.6.weight f4 [2, 12]
-0.39597917 0.7673449 0.060218774 0.06380499 -0.20598343 -0.38224247 0.46239954 0.16809931
-0.14656115 0.061179027 0.4351666 0.34099823 0.050901067 0.17285043 0.22934772 0.08925146
0.3208591 0.58249474 -0.0762375 -0.26081696 -0.11624023 -0.21012521 0.628207 -0.39185724
00000000: c8bd cabe b770 443f f6a7 763d 31ac 823d
00000010: 52ed 52be 49b5 c3be a2bf ec3e 3a22 2c3e
00000020: 2014 16be dc96 7a3d 28ce de3e 5297 ae3e
00000030: a37d 503d b4ff 303e 21da 6a3e 78c9 b63d
00000040: a547 a43e 601e 153f 6822 9cbd cd89 85be
00000050: 5c0f eebd 102b 57be 2dd2 203f 83a1 c8be

_encoder.6.bias f4 [2]
0.022281395 -0.3795325
00000000: 7987 b63c 1552 c2be

_decoder.0.weight f4 [12, 2]
0.027972993 0.46177134 -0.28365916 -1.3280257 0.0006036176 -0.015530067 0.0001235463 0.0016010805
0.51521987 0.30034414 0.79490167 0.024310505 0.24119277 0.31966963 -0.44592944 -0.035448566
0.15170419 -0.7688363 0.00999721 -0.019475486 0.77714986 -0.47052383 0.6639284 -0.26817963
00000000: 9e27 e53c 4b6d ec3e c63b 91be bffc a9bf
00000010: 173c 1e3a d271 7ebc 358c 0139 59db d13a
00000020: 73e5 033f b5c6 993e ad7e 4b3f d326 c73c
00000030: 3dfb 763e bdab a33e dd50 e4be 8432 11bd
00000040: 5858 1b3e 75d2 44bf 57cb 233c 0e8b 9fbc
00000050: 4bf3 463f 80e8 f0be 36f7 293f d74e 89be

_decoder.0.bias f4 [12]
-0.15370439 0.25199333 -0.12547727 -0.07324033 0.34959617 -0.2754003 -2.2068954 0.27859384
0.44447044 2.2900817 -0.26631236 0.5578034
00000000: af64 1dbe 4505 813e 1d7d 00be 07ff 95bd
00000010: 45fe b23e 4501 8dbe c63d 0dc0 daa3 8e3e
00000020: a191 e33e b390 1240 185a 88be 34cc 0e3f

_decoder.2.weight f4 [64, 12]
-0.014973642 -1.2528002e-08 1.04332e-38 -6.564958e-38 -0.00064505177 -1.5093023e-05 -0.0054583256 -0.01193636
-1.6173032e-12 -2.5835925e-05 -1.118673e-09 -1.0064334e-08 -9.684111e-07 -2.8466967e-09 4.2186774e-38 2.5716408e-38
-1.9435663e-05 -6.7434685e-06 1.3510104e-10 -2.6940257e-34 -3.5876035e-12 -3.4721854e-09 -1.2962366e-08 -7.6233755e-07
-0.09881131 -0.14797324 -0.028125709 0.0016375377 0.00031724994 0.75971365 -0.23692967 -0.23592591
-0.0778832 0.072445035 -1.2070713 -0.39180508 -2.1306909e-14 -1.6412926e-26 -6.120219e-38 -5.002391e-38
-1.317956e-13 -1.9485625e-14 3.5293003e-22 -2.2990017e-26 1.1153171e-38 2.3491066e-27 -3.0667848e-30 -4.8121588e-26
-0.0021818096 -2.3194159e-20 3.3046216e-38 -2.6017233e-38 -0.009591057 -0.015824907 0.0022805412 -0.003430409
-5.3492596e-38 -0.00037914852 -0.003997002 -0.008380278 0.07018564 -0.18123166 2.0109924e-38 -1.1706679e-18
-0.7409494 -0.0300969 -0.029328007 -0.19020909 -0.124735 0.2247695 0.02875427 0.005454176
-3.0233014e-06 -0.011945318 -3.9489e-38 -5.053829e-38 -0.0021116773 -0.0066539757 -1.3106763e-06 -0.0006968035
-0.0049253264 -0.000554581 -0.008723141 -0.0074804085 -0.5176671 -0.14966056 0.04273018 -0.009661526
-0.35826486 0.01090382 -0.3424394 -0.27932227 0.4362899 -0.09460504 0.35260928 0.31651697
-0.74981993 -0.69010746 0.022712769 -0.0011382333 0.14308724 0.18144792 -0.3285579 0.29053816
-0.8825453 0.32744077 0.197112 0.19935451 -0.009885714 0.00067751645 2.0745818e-05 -2.7268394e-38
-0.006387116 -0.009844128 -0.0021365967 -0.041461773 0.010585159 -0.02324542 -0.007397633 -0.007399064
0.18405348 -0.049802147 0.026172576 0.0050859707 -0.017021907 0.5989272 0.4139862 0.23235399
-0.43529165 -0.6822995 0.29608122 -0.017591985 -0.10385896 -0.13710594 -0.040339258 -0.007684356
-0.6081704 -0.3759667 -0.10023464 -0.021908147 0.30826908 0.24374603 0.046426002 -0.0651191
-0.02157499 0.0041478127 3.063234e-39 -2.0374425e-15 -0.008572643 -0.014260815 -0.0075232787 -0.017133541
0.004059356 -0.018159866 -0.017705726 -0.016860416 -0.011403574 -0.011373974 -0.0018482513 1.780626e-36
-0.024171136 -0.029802563 0.0059602195 -0.039136212 0.083616935 -0.0750996 -0.014562253 -0.022388767
-0.092862286 0.33647397 0.008105847 -0.0033424424 0.43586797 -0.05925987 0.22968926 -0.42723367
0.18383184 -0.23100771 -0.44283572 -0.42698726 0.40205523 0.04611501 -0.018586673 -0.0002612513
-0.9863912 0.030526537 -0.12339661 -0.15822567 0.045644857 0.080460444 0.035271958 0.045308657
-0.041154224 0.4207488 -0.005315017 0.003128414 -0.014332733 0.09528011 0.31418368 -0.09985697
-0.15011781 -1.0791436 0.33786073 -0.2855558 0.61544746 -8.57614e-40 0.01977694 -3.1484984e-07
-0.04740473 -0.52007174 0.15784796 -0.56414807 2.2466797e-09 0.08970961 -3.488823e-39 -1.6720625
-0.02381012 -2.9037368e-20 -1.2785e-40 3.4659475e-38 -0.019655507 -0.012398694 -0.009723194 -6.9479714e-20
-6.057267e-08 -0.00045600216 -0.006995121 -0.011974728 -0.8134159 -0.4094514 0.019070737 0.0046702917
-0.5160948 -0.16360596 -1.0622586e-38 0.6110439 0.03367392 0.22990698 0.0609129 0.0901576
-0.8024029 0.2656712 0.030962199 0.034208085 -0.07773866 0.08502593 -0.0869445 -0.16488488
-0.78797984 0.15399095 0.086439446 0.10113822 0.26905587 -0.21175486 -0.015863616 4.29059e-07
00000000: 0254 75bc bc3a 57b2 849b 7100 14b7 b281
00000010: b118 29ba 0a38 7db7 c1db b2bb b990 43bc
00000020: 7d9d e3ab 3aba d8b7 cfbf 99b0 69e7 2cb2
00000030: 5afa 81b5 9e9f 43b1 c8af 6501 7103 0c01
00000040: c509 a3b7 f445 e2b6 908b 142f 790c b387
00000050: 8574 7cac 559b 6eb1 17b1 5eb2 70a3 4cb5
00000060: 965d cabd 4c86 17be e367 e6bc a6a2 d63a
00000070: 9154 a639 987c 423f b19d 72be 9096 71be
00000080: 3a81 9fbd 105e 943d 5081 9abf ad9a c8be
00000090: 63ea bfa8 b68b a294 b49b a681 942d 8881
000000a0: 7f63 14aa cb82 afa8 4755 d51b 9eae e394
000000b0: 8172 7900 8b1d 3a13 a1ce 788e 5c49 6e95
000000c0: b1fc 0ebb 0910 db9e b4eb 3301 bba6 0d81
000000d0: cf23 1dbc 3ca3 81bc 2275 153b b6d0 60bb
000000e0: e69e 9181 74c8 c6b9 48f9 82bb 6f4d 09bc
000000f0: 7dbd 8f3d cb94 39be 49fa da00 95c2 aca1
00000100: dcae 3dbf c68d f6bc 4a41 f0bc 2cc6 42be
00000110: 1075 ffbd fa29 663e 138e eb3c f2b8 b23b
00000120: ece3 4ab6 4cb6 43bc a2ff 5681 0c94 8981
00000130: 1164 0abb 9809 dabb 7fea afb5 b1a9 36ba
00000140: a264 a1bb 4d61 11ba 81eb 0ebc 371e f5bb
00000150: d585 04bf 9e40 19be d705 2f3d 614b 1ebc
00000160: 7e6e b7be f0a5 323c 3854 afbe 5403 8fbe
00000170: 6461 df3e 4ac0 c1bd 3489 b43e 830e a23e
00000180: 33f4 3fbf e2aa 30bf 2110 ba3c c630 95ba
00000190: 7685 123e 7ccd 393e be38 a8be 6bc1 943e
000001a0: 7dee 61bf 51a6 a73e bad7 493e 9723 4c3e
000001b0: b1f7 21bc 5c9b 313a 4e07 ae37 9876 1481
000001c0: 034b d1bb 4449 21bc 2506 0cbb d2d3 29bd
000001d0: 606d 2d3c 2e6d bebc d867 f2bb d973 f2bb
000001e0: 8478 3c3e 56fd 4bbd df67 d63c 37a8 a63b
000001f0: 8771 8bbc 4b53 193f 00f6 d33e 34ee 6d3e
00000200: 8cde debe 2eab 2ebf f597 973e 111d 90bc
00000210: 02b4 d4bd 8065 0cbe c73a 25bd 0dcd fbbb
00000220: 0eb1 1bbf b57e c0be d247 cdbd b778 b3bc
00000230: 72d5 9d3e 8f98 793e 3129 3e3d 2a5d 85bd
00000240: 09be b0bc 60ea 873b 0d5b 2100 2ed0 12a7
00000250: 4574 0cbc 32a6 69bc d685 f6bb a45b 8cbc
00000260: 5904 853b 00c4 94bc 990b 91bc db1e 8abc
00000270: 0ed6 3abc e859 3abc 0641 f2ba 9a7a 1704
00000280: 8c02 c6bc 8124 f4bc f24d c33b 4b4d 20bd
00000290: 5b3f ab3d d2cd 99bd 8496 6ebc a668 b7bc
000002a0: 952e bebd 5146 ac3e 63ce 043c e10c 5bbb
000002b0: 162a df3e 7aba 72bd a933 6b3e 5fbe dabe
000002c0: 6a3e 3c3e 498d 6cbe 5dbb e2be 139e dabe
000002d0: 2fda cd3e 18e3 3c3d 1443 98bc 8ef8 88b9
000002e0: 2284 7cbf ca12 fa3c 5db7 fcbd e905 22be
000002f0: 1af6 3a3d 72c8 a43d 5479 103d 9295 393d
00000300: 5591 28bd 636c d73e 9829 aebb 1406 4d3b
00000310: d7d3 6abc 3822 c33d afdc a03e d081 ccbd
00000320: 7cb8 19be 6121 8abf 15fc ac3e 5f34 92be
00000330: f78d 1d3f ae56 0980 4003 a23c a208 a9b4
00000340: 762b 42bd 6c23 05bf e5a2 213e 026c 10bf
00000350: 0264 1a31 acb9 b73d 6bfd 2580 2506 d6bf
00000360: 710d c3bc 0620 099f 6564 0180 42b4 3c01
00000370: 9604 a1bc e423 4bbc 084e 1fbc e90d a49f
00000380: 2d14 82b3 9313 efb9 5437 e5bb a631 44bc
00000390: 063c 50bf 9da3 d1be 3c3a 9c3c 3f09 993b
000003a0: ca1e 04bf 5288 27be 73ab 7380 5f6d 1c3f
000003b0: aaed 093d bc6c 6b3e ce7f 793d 8ca4 b83d
000003c0: 476a 4dbf 0e06 883e 70a4 fd3c c71d 0c3d
000003d0: 7235 9fbd 1322 ae3d f50f b2bd 95d7 28be
000003e0: 0cb9 49bf ceaf 1d3e 2a07 b13d 8e21 cf3d
000003f0: b1c1 893e 44d6 58be 6af4 81bc 6c59 e634

_decoder.2.bias f4 [64]
-8.3792045e-08 -3.69705e-20 0.16804472 -1.4357631e-27 -2.822092e-06 0.27865952 -1.0098888e-05 0.15188561
0.40776238 -0.020350864 -2.1762278 0.38214254 -0.006801583 -0.06968251 -0.48565248 0.09719015
-1.5103188 0.15719867 -4.1218885e-07 0.3811474 0.19239989 0.14387956 0.91896516 -0.05002808
0.78048956 0.27262276 0.040813833 -0.014047179 0.46948424 0.12757021 -0.016487127 0.22264768
-0.0062533948 0.051527448 -0.03585724 0.2622324 0.34868035 -0.17039622 1.1331914e-38 0.9446281
0.25228998 0.5518794 0.39038348 -7.879751e-20 0.21268599 -0.123915814 0.92533916 -1.7286538
-0.009962694 -2.0522069e-38 5.1606112e-20 0.5720889 0.39808816 0.3581157 0.4078466 4.2572888e-38
0.053564712 0.4489128 -1.6710418 -0.008124551 -1.1379626e-05 0.08788447 0.42577526 -0.023297273
00000000: 2af1 b3b3 9896 2e9f ea13 2c3e 7881 e392
00000010: 2c63 3db6 76ac 8e3e 656e 29b7 e787 1b3e
00000020: 3bc6 d03e dbb6 a6bc 5147 0bc0 30a8 c33e
00000030: d0df debb b4b5 8ebd 71a7 f8be a10b c73d
00000040: 2052 c1bf b0f8 203e ce4a ddb4 c125 c33e
00000050: 7a04 453e 2a55 133e 4d41 6b3f 3eea 4cbd
00000060: 2ace 473f 3695 8b3e 682c 273d 2426 66bc
00000070: 3d60 f03e c4a1 023e 0310 87bc c1fd 633e
00000080: 47e9 ccbb 720e 533d 0bdf 12bd 5343 863e
00000090: 3b86 b23e 597c 2ebe c464 7b00 26d3 713f
000000a0: 272c 813e f847 0d3f 58e0 c73e 2c0e ba9f
000000b0: 5bca 593e 93c7 fdbd 07e3 6c3f 8744 ddbf
000000c0: 913a 23bc 2e77 df80 f6b3 731f 6b74 123f
000000d0: 36d2 cb3e f15a b73e 45d1 d03e f2c9 6701
000000e0: ac66 5b3d e6d7 e53e b3e4 d5bf d61c 05bc
000000f0: 1feb 3eb7 c6fc b33d 37ff d93e ecd9 bebc

_decoder.4.weight f4 [128, 64]
-2.7178584e-07 -2.1388932e-08 -0.034705464 -5.846509e-39 6.743394e-07 -0.029760024 8.974443e-07 0.31392175
-0.029238965 -0.0028012006 -0.7599903 0.12053111 -0.0035095578 0.017007483 -0.8458165 -0.3521501
-0.30496687 0.16324174 -7.789906e-08 0.019714521 0.035744842 -0.13087451 0.05994835 -0.022841366
0.22681896 -0.011871812 -0.035678755 0.21176256 0.033888284 -0.16825397 -0.029174073 0.010458669
0.0001652717 0.042000357 0.017655391 -0.042260356 0.19118977 -0.30661392 6.33604e-40 0.15389921
0.019419871 -0.24264741 0.14878245 -1.9620844e-08 -0.059207033 -0.47116244 -0.2173625 -0.03082259
-0.04462381 -9.132126e-39 1.5633071e-25 -0.67875725 -0.11664562 0.0160515 -0.52351964 3.570232e-10
0.007887285 -0.06494246 -0.5568712 4.4834908e-07 2.2120672e-16 -0.0013985746 -0.19116761 0.015297218
-2.2818564e-20 3.6432774e-38 -0.40069124 -1.663026e-39 -4.2585743e-38 0.00031190095 1.0216458e-08 -0.7148359
0.41909954 0.0007282548 -0.43398643 -0.012044934 3.579773e-05 0.022788739 1.3282977e-38 -1.0141173e-05
1.2558144e-38 4.8216763e-38 6.2805826e-14 -0.13685441 -0.23614274 -0.60323864 0.008844206 0.12448541
-0.018556837 -0.1647313 -0.1367879 -1.4004916e-38 -0.06776726 -0.0057496093 -0.0061842413 0.29736403
-0.0028959822 -0.8093015 3.9437857e-37 0.3234782 -0.034313757 -0.060302347 1.6162208e-38 -0.07748681
-7.06241e-15 0.10088547 -0.065691695 -1.0008453e-34 -0.0028455728 -0.022066632 -0.14014591 -0.003030231
-0.03333583 2.402204e-39 -2.848661e-38 -0.100701995 -0.49707156 0.12889987 -0.04945931 -2.5992926e-38
-0.0020586534 0.081573255 1.4440322e-38 -1.817128e-16 2.186969e-39 0.0814007 2.809966e-06 0.0019084086
-2.1973608e-38 -8.503385e-39 -0.0054144124 -2.5353144e-38 -3.914172e-38 3.124943e-17 5.9551497e-38 -0.018928727
-1.2712809e-24 -2.254682e-38 -0.011372879 1.588813e-38 1.2211251e-38 2.0182375e-38 -0.018362464 0.006476325
-0.00401623 -0.0054661473 1.4483103e-38 -3.2729316e-11 7.107568e-39 -0.0144849 -0.013528818 -0.0002852975
-0.009551152 -0.0024116207 2.7160157e-38 -0.0094736675 -0.00036492874 -4.1708955e-07 -2.8043738e-38 -4.3588583e-38
1.5240746e-38 -0.02133798 -0.0022020934 3.735525e-38 -0.010572948 0.0015960743 -5.7929723e-38 -0.0028963513
-0.017716922 -0.0017101438 -0.014464639 1.3729407e-38 -0.00059216085 -1.8004653e-11 -0.0010732234 0.0033744252
1.1396434e-38 -5.5178504e-38 -1.5177499e-38 -0.0073702945 -2.666684e-39 -0.0047946246 -0.0025229605 5.107749e-38
-0.016373562 -0.0042646783 -0.0010012581 1.9223005e-38 1.1408117e-38 5.826667e-38 8.971155e-39 -1.3269153e-38
-6.5972325e-38 2.8009714e-38 8.722321e-25 7.154357e-39 6.080059e-39 3.36025e-39 -6.6384867e-38 -1.7413237e-07
-0.025881538 -4.55685e-38 -0.031756483 -1.03262785e-07 -1.8818698e-38 3.4152076e-38 -2.6899992e-38 -7.486165e-06
-0.02268485 -0.00011528011 4.626818e-39 -0.00808257 -0.006082354 -7.141278e-15 -0.004998899 -1.3355141e-18
-0.0031659005 -3.4001164e-28 -3.846127e-38 -1.1791885e-24 -2.13882e-21 -7.134506e-38 -6.963952e-38 -1.644969e-24
5.6970294e-38 -5.7807505e-11 3.6678516e-38 -6.79087e-24 -1.6555648e-05 -3.4840727e-05 -4.4111547e-38 -1.9463046e-06
-0.019312011 -0.0017470967 -0.018313248 2.824659e-39 -4.266531e-16 -0.031443316 -0.0070207547 -0.0062732873
-0.026004706 8.290306e-39 4.781186e-39 -0.0019183776 5.8309486e-38 -9.981933e-19 -2.1843109e-08 2.1225457e-38
-0.033319104 -0.002671837 -8.659261e-06 6.989079e-38 1.1592981e-38 -9.716108e-09 -0.016972015 -9.68943e-39
00000000: f6e9 91b4 c2ba b7b2 5127 0ebd b0a9 3f80
00000010: 4004 3535 4bcb f3bc e7e7 7035 5aba a03e
00000020: 8e86 efbc 5994 37bb b98e 42bf 04d9 f63d
00000030: 9c00 66bb 4753 8b3c 6e87 58bf 054d b4be
00000040: 9e24 9cbe d828 273e 7649 a7b3 5980 a13c
00000050: 2f69 123d f803 06be 678c 753d d11d bbbc
00000060: 3b43 683e fd81 42bc e323 12bd 49d8 583e
00000070: 71ce 0a3d c54a 2cbe 77fe eebc d65a 2b3c
00000080: c94c 2d39 9108 2c3d 0aa2 903c 3219 2dbd
00000090: 40c7 433e 80fc 9cbe 3be6 0600 c197 1d3e
000000a0: 6c16 9f3c 9078 78be 6d5a 183e b18a a8b2
000000b0: 1383 72bd 343c f1be 4694 5ebe a87f fcbc
000000c0: 75c7 36bd a770 6380 2e87 4116 09c3 2dbf
000000d0: e6e3 eebd 6f7e 833c 6205 06bf 8c46 c42f
000000e0: ac39 013c 8d00 85bd 1c8f 0ebf a1b4 f034
000000f0: b308 7f25 6050 b7ba 71c1 43be 2fa1 7a3c
00000100: e783 d79e e05b 4601 6727 cdbe d71b 1280
00000110: dddb 6781 a386 a339 7584 2f32 7cff 36bf
00000120: 3794 d63e 5ae8 3e3a 7833 debe 1d58 45bc
00000130: 8525 1638 73af ba3c 89a3 9000 0224 2ab7
00000140: ffbe 8800 2e42 8301 186d 8d29 9023 0cbe
00000150: 67cf 71be d96d 1abf 4ae7 103c 35f2 fe3d
00000160: 8204 98bc 52af 28be 2112 0cbe 0280 9880
00000170: 90c9 8abd 3867 bcbb 2da5 cabb 1940 983e
00000180: 85ca 3dbb 622e 4fbf 3833 0603 ef9e a53e
00000190: 958c 0cbd 98ff 76bd a9fd af00 68b1 9ebd
000001a0: 3c73 fea7 0b9d ce3d 5e89 86bd 0009 0587
000001b0: ca7c 3abb 15c5 b4bc 6982 0fbe d796 46bb
000001c0: 278b 08bd 5e28 1a00 8a18 1b81 d93c cebd
000001d0: 2a80 febe 54fe 033e d895 4abd da84 0d81
000001e0: 79ea 06bb e10f a73d be3d 9d00 2780 51a5
000001f0: 61d0 1700 69b5 a63d d992 3c36 9123 fa3a
00000200: 7b45 ef80 fa97 5c80 626b b1bb 2009 0a81
00000210: 981b 5581 d11c 1024 561d a201 6b10 9bbc
00000220: a0b8 c497 5c83 f580 5055 3abc a401 ad00
00000230: 00f8 8400 40c4 db00 e16c 96bc 5a37 d43b
00000240: 949a 83bb 5e1d b3bb 00b5 9d00 eff1 0fae
00000250: 0265 4d00 1352 6dbc faa7 5dbc fb93 95b9
00000260: 6f7c 1cbc 480c 1ebb bcdf 1301 7137 1bbc
00000270: e853 bfb9 5aec dfb4 44af 1881 9e51 6d81
00000280: 00f5 a500 fdcc aebc ff50 10bb 9f61 4b01
00000290: 283a 2dbc 5e33 d13a 20b3 9d81 b6d0 3dbb
000002a0: 1423 91bc e726 e0ba 18fd 6cbc 0080 9500
000002b0: 3e3b 1bba e05e 9ead 67ab 8cba 7625 5d3b
000002c0: 9f18 7c00 ce35 9681 b144 a580 8382 f1bb
000002d0: a109 1d80 3a1c 9dbb 4158 25bb d10b 8b01
000002e0: d921 86bc b7be 8bbb a63c 83ba eb51 d100
000002f0: 3039 7c00 f19d 9e01 eeaf 6100 007d 9080
00000300: 0098 b381 d87f 1801 acf8 8617 70e7 4d00
00000310: bb34 4200 0397 2400 80b7 b481 24f9 3ab4
00000320: 8505 d4bc 3819 7881 1613 02bd 51c1 ddb3
00000330: e0ea cc80 0cf1 3901 1e75 1281 ab31 fbb6
00000340: 94d5 b9bc 8ac2 f1b8 b061 3200 c16c 04bc
00000350: 7c4e c7bb 55a5 00a8 cecd a3bb 4c16 c5a1
00000360: ff7a 4fbb 0b82 d791 3067 5181 7878 b697
00000370: cc9a 219d 4038 c281 aa93 bd81 f08b fe97
00000380: 8016 9b01 773d 7eae 64b2 4701 c25a 0399
00000390: fce0 8ab7 f221 12b8 862a 7081 429d 02b6
000003a0: 3934 9ebc d6fe e4ba aa05 96bc 00c2 1e00
000003b0: e2f2 f5a5 b5ca 00bd 5c0e e6bb 2690 cdbb
000003c0: d207 d5bc 0046 5a00 0010 3400 1272 fbba
000003d0: c8bb 9e01 ad4e 93a1 81a1 bbb2 f01f e700
000003e0: 9d79 08bd fd19 2fbb 3e47 11b7 c642 be01
000003f0: 843c 7e00 e5eb 26b2 e508 8bbc 3082 6980

_decoder.4.bias f4 [128]
0.19163918 -0.012533727 -0.009253996 -0.024329813 -0.066884935 -0.0036439938 -0.027780237 -0.00042054037
0.05089126 -9.562467e-12 0.14172372 -0.0076414654 0.20754077 -1.7914432e-23 0.024332412 -0.010955186
-0.025878558 -0.008240319 -4.026077e-06 1.831851e-35 -5.1260617e-05 -0.008614594 -0.7749324 -0.01248669
0.36200172 -0.15422413 1.1324795 -5.855087e-19 -0.7843965 -0.5459001 -9.056802e-06 -0.0002729531
-0.066838086 -0.031704172 -0.064136654 -0.03592224 -2.4751777e-26 -0.011047696 0.04250772 -1.3560119e-08
0.0656223 -9.7363045e-06 -0.00020256102 -0.025278673 -0.09722325 0.7343531 -0.05569111 0.29594406
0.13047619 -0.024598347 -0.04701259 0.22318684 -1.943537e-06 -0.02077358 -0.018699834 1.0728147
-1.3704302e-14 -9.251741e-11 0.1784372 -0.030762464 -0.016714754 -0.22990932 0.21138372 -0.02821625
-0.041317638 -0.05168385 0.22642544 -0.041959077 -1.3394402e-33 -2.421437e-09 0.10548533 0.32268563
-0.05408887 -0.04368959 -8.520759e-20 -0.03684948 -0.11792035 -0.002872551 -0.02580641 -0.10658335
-0.038994752 0.1353079 -0.052159507 -1.2912275e-05 -0.00025880217 0.4722272 -0.063386396 -2.9814158e-13
0.111394025 -0.04817366 -1.0318195e-06 -1.076287e-39 -1.4579657e-17 0.09589207 -0.046198174 -0.035697773
6.5578705e-38 -0.062893495 -0.07644589 -0.042797033 0.20264044 -0.0021593005 -0.91210884 -0.074797824
-2.2194927e-05 -0.009401753 0.09023158 -4.1458667e-10 -0.0303503 0.0022592167 -0.039894406 -2.5163525e-08
0.054515015 -0.00018275922 -3.2735807e-36 -4.9635837e-11 0.052813966 -7.0517437e-19 0.28559592 -0.05370189
-0.032260288 -0.090965986 0.33279136 -0.09351034 -0.017200012 -0.0050231162 0.08006969 0.51793015
00000000: 103d 443e 435a 4dbc 139e 17bc 514f c7bc
00000010: f8fa 88bd 12d0 6ebb 6193 e3bc f97b dcb9
00000020: 5b73 503d 8639 28ad 0620 113e 4265 fabb
00000030: 9185 543e fc41 ad99 c454 c73c 617d 33bc
00000040: 45ff d3bc 6702 07bc bd17 87b6 bacb c205
00000050: ab00 57b8 3a24 0dbc f861 46bf f994 4cbc
00000060: 4a58 b93e eeec 1dbe 17f5 903f c9cf 2ca1
00000070: 36ce 48bf 1cc0 0bbf abf2 17b7 251b 8fb9
00000080: 68e2 88bd 3cdc 01bd 145a 83bd 3323 13bd
00000090: 3621 f594 6501 35bc 931c 2e3d 09f6 68b2
000000a0: fc64 863d 1c59 23b7 8f66 54b9 3815 cfbc
000000b0: fc1c c7bd 91fe 3b3f 5d1c 64bd fb85 973e
000000c0: 8d9b 053e 7982 c9bc 4690 40bd 178b 643e
000000d0: b66d 02b6 5b2d aabc 6530 99bc fe51 893f
000000e0: f0df 76a8 ac72 cbae 3eb8 363e 9001 fcbc
000000f0: 61ed 88bc 596d 6bbe f974 583e c425 e7bc
00000100: af3c 29bd 72b2 53bd 12dc 673e 48dd 2bbd
00000110: 7c8d de88 5f66 26b1 b108 d83d 0d37 a53e
00000120: 4a8c 5dbd dbf3 32bd d430 c99f 7bef 16bd
00000130: 3980 f1bd 6941 3cbb f767 d3bc 5f48 dabd
00000140: f6b8 1fbd 278e 0a3e 35a5 55bd cda1 58b7
00000150: d7af 87b9 c3c7 f13e bad0 81bd bbd6 a7aa
00000160: 8d22 e43d be51 45bd 0c7d 8ab5 40b8 0b80
00000170: 3e79 86a3 1063 c43d 4c3a 3dbd d437 12bd
00000180: b085 b201 4ece 80bd aa8f 9cbd f14b 2fbd
00000190: fa80 4f3e 0d83 0dbb f77f 69bf 9a2f 99bd
000001a0: 3e2f bab7 cf09 1abc 56cb b83d e3eb e3af
000001b0: 31a1 f8bc 5e0f 143b 5168 23bd 2d27 d8b2
000001c0: 234b 5f3d 0ea3 3fb9 233e 8b84 fc4c 5aae
000001d0: 7553 583d 7821 50a1 a139 923e 83f6 5bbd
000001e0: 5d23 04bd 604c babd a163 aa3e 5982 bfbd
000001f0: 0ae7 8cbc f498 a4bb 94fb a33d 1297 043f
