yeeef_workspace/ckpt/min_val_loss.pt (torch_old, 882114 bytes, 16 tensors)

_encoder.0.weight f4 [128, 784]
-0.032538407 -0.032626476 -0.032510616 -0.032496467 -0.03388975 -0.034596317 -0.033259284 -0.03637562
-0.02750424 -0.039941147 -0.0059511187 -0.020932999 -0.055189524 0.0036943716 0.024891961 -0.0046810987
-0.0034403142 0.032407533 -0.038762685 -0.028337706 -0.042318985 -0.035338584 -0.034610085 -0.036948368
-0.034799516 -0.03285519 -0.031525802 -0.032626253 -0.03270478 -0.03276942 -0.03255256 -0.033511072
-0.03788235 -0.038034514 -0.03652051 -0.03268847 0.008700799 -0.014330069 -0.08011605 -0.07018562
0.04494929 0.04158555 0.058412954 0.0076909256 -0.06982601 -0.06486549 -0.0063335244 -0.0138345305
-0.037909623 -0.022115648 -0.04911998 -0.052914783 -0.044046633 -0.03560917 -0.031813256 -0.032658115
-0.033196036 -0.03421113 -0.030507095 -0.033631314 -0.038267985 -0.031975023 -0.032737996 -0.03220389
0.034645427 -0.041406438 0.0029475559 0.005805172 -0.027865402 -0.07245911 -0.071533315 -0.11243255
0.02809496 -0.009645939 -0.11841741 0.0097793555 0.0015387856 -0.016222393 0.0019292803 -0.031944387
-0.037408333 -0.031258866 -0.032344252 -0.034498952 -0.025656726 -0.023267055 -0.023685316 -0.031171842
-0.02255227 -0.017251356 -0.029780021 -0.0055482523 -0.024312235 0.017535906 -0.060244195 0.0025864425
-0.066516094 -0.15570721 -0.1539383 -0.13829878 -0.11225963 -0.03991767 -0.029466132 -0.05890203
-0.030544758 -0.048929874 -0.013321174 -0.01998183 -0.028579576 -0.012997205 -0.008649351 -0.028844401
-0.017889109 -0.022393016 -0.032237463 -0.030179532 -0.02325154 -0.021293001 -0.015569504 -0.030170925
-0.012097612 -0.011755952 -0.00884747 -0.04686893 -0.14498405 -0.20305699 -0.168327 -0.127654
-0.1889714 -0.01346428 -0.070620656 -0.087802835 -0.09122927 -0.056981847 -0.024874046 -0.011189169
-0.03256802 -0.024409957 -0.0074264687 -0.0065761353 -0.021590032 -0.015226341 0.0015406342 0.002542999
-0.026132232 -0.05093199 -0.044490278 -0.06534275 -0.065028735 -0.05392113 -0.034394544 -0.07341474
-0.12267336 -0.14879087 -0.12152413 -0.14673859 -0.12924169 -0.0579147 -0.06246098 -0.097063705
-0.08038334 -0.1039173 -0.0679047 -0.02491009 -0.014031321 -0.0305809 -0.014204991 -0.027411416
-0.022407478 -0.0064629195 0.005758439 -0.027207658 -0.036979266 -0.020940589 -0.028985409 -0.11485534
-0.04748488 -0.00585323 -0.025738966 -0.07670347 -0.13784313 -0.11991658 -0.13259488 -0.16580793
-0.14103644 -0.09952703 -0.048776023 -0.097805396 -0.078587346 -0.11638596 -0.09711862 -0.023763876
0.0048383237 -0.029417073 -0.015341099 -0.015128685 -0.0223759 -0.027604582 -0.026099619 -0.048377723
-0.0057741837 -0.0419345 -0.07698615 -0.117707655 -0.03735807 -0.0450164 -0.0616832 -0.09744207
-0.13561377 -0.13859254 -0.12299769 -0.16079593 -0.15398647 -0.14187643 -0.07524574 -0.11445154
-0.13373125 -0.11081788 -0.11622324 -0.06699659 -0.05304948 -0.0042026183 -0.040559515 -0.029311676
-0.033623226 -0.022018883 -0.061144672 -0.047296643 -0.005621324 -0.019025473 -0.05650126 -0.0419692
-0.014979103 -0.035658237 -0.08759755 -0.138549 -0.16569541 -0.13213328 -0.16000924 -0.18342642
-0.17190395 -0.19551344 -0.08961585 -0.082350895 -0.12216555 -0.09603374 -0.08826586 -0.0038299237
-0.018646585 -0.02650662 -0.065487795 -0.034750752 -0.02361404 -0.026713682 -0.02849309 0.079653285
00000000: fe46 05bd 57a3 05bd da29 05bd 041b 05bd
00000010: facf 0abd deb4 0dbd e33a 08bd 9afe 14bd
00000020: 9250 e1bc 5499 23bd 9a01 c3bb ae7b abbc
00000030: 690e 62bd 451d 723b 3aea cb3c e763 99bb
00000040: e576 61bb c3bd 043d 9fc5 1ebd 7a24 e8bc
00000050: ac56 2dbd 31bf 10bd 4ec3 0dbd 2c57 17bd
00000060: f089 0ebd 2a93 06bd 3321 01bd 1ba3 05bd
00000070: 73f5 05bd 3a39 06bd d555 05bd e842 09bd
00000080: 862a 1bbd 14ca 1bbd 8896 15bd 58e4 05bd
00000090: cc8d 0e3c aac8 6abc e213 a4bd 7abd 8fbd
000000a0: bf1c 383d 9c55 2a3d 6c42 6f3d 2904 fc3b
000000b0: f000 8fbd 33d8 84bd 7489 cfbb 3aaa 62bc
000000c0: 1f47 1bbd e02b b5bc 0832 49bd 2cbd 58bd
000000d0: 3e6a 34bd ecda 11bd 9e4e 02bd 84c4 05bd
000000e0: 91f8 07bd f820 0cbd 04ea f9bc fdc0 09bd
000000f0: e4be 1cbd 3ef8 02bd 4718 06bd 3ae8 03bd
00000100: 5de8 0d3d cc99 29bd c82b 413b 5039 be3b
00000110: fc45 e4bc 7165 94bd 0f80 92bd 0943 e6bd
00000120: 6727 e63c 000a 1ebc d484 f2bd 9739 203c
00000130: 14b1 c93a d3e4 84bc e8df fc3a 1ed8 02bd
00000140: 7b39 19bd 4c09 00bd 687b 04bd c64e 0dbd
00000150: 0e2e d2bc 8d9a bebc b507 c2bc 175c ffbc
00000160: 8abf b8bc b752 8dbc 3bf5 f3bc 1dce b5bb
00000170: 742a c7bc 76a7 8f3c 9ec2 76bd 4e81 293b
00000180: 9739 88bd b671 1fbe 00a2 1dbe 329e 0dbe
00000190: 60e8 e5bd b680 23bd f562 f1bc 4143 71bd
000001a0: 0039 fabc b16a 48bd 0e41 5abc efb0 a3bc
000001b0: b71f eabc 3bf2 54bc 02b6 0dbc 184b ecbc
000001c0: 2e8c 92bc 8f71 b7bc 6e0b 04bd 113b f7bc
000001d0: 037a bebc a96e aebc 3c17 7fbc 0429 f7bc
000001e0: 1035 46bc 099c 40bc fbf4 10bc a3f9 3fbd
000001f0: b376 14be 2cee 4fbe ea5d 2cbe bbb7 02be
00000200: b881 41be 4999 5cbc 90a1 90bd f9d1 b3bd
00000210: 69d6 babd cc65 69bd a8c4 cbbc c752 37bc
00000220: 0b66 05bd 64f7 c7bc bc59 f3bb 9f7c d7bb
00000230: 94dd b0bc e777 79bc 1bef c93a 72a8 263b
00000240: 4313 d6bc 109e 50bd 703b 36bd 6bd2 85bd
00000250: c92d 85bd 67dc 5cbd 4be1 0cbd 785a 96bd
00000260: 2c3c fbbd a25c 18be a5e1 f8bd a442 16be
00000270: ef57 04be f737 6dbd 16d7 7fbd 56c9 c6bd
00000280: 05a0 a4bd 98d2 d4bd 9f11 8bbd 3f10 ccbc
00000290: a0e3 65bc cc84 fabc 0dbc 68bc e88d e0bc
000002a0: e38f b7bc e6c6 d3bb 4ab1 bc3b 98e2 debc
000002b0: 9277 17bd 998b abbc cf72 edbc 4739 ebbd
000002c0: 817f 42bd 74cc bfbb 86da d2bc b516 9dbd
000002d0: c026 0dbe d396 f5bd f4c6 07be 8ec9 29be
000002e0: db6b 10be d4d4 cbbd 5ec9 47bd 324e c8bd
000002f0: 67f2 a0bd c35b eebd 21e6 c6bd 76ac c2bc
00000300: cd8a 9e3b 13fc f0bc 3c59 7bbc 4ede 77bc
00000310: aa4d b7bc 0123 e2bc dece d5bc b827 46bd
00000320: 5d35 bdbb 83c3 2bbd eaaa 9dbd b610 f1bd
00000330: c704 19bd 1e63 38bd 86a7 7cbd b58f c7bd
00000340: 56de 0abe 34eb 0dbe 37e6 fbbd b0a7 24be
00000350: a1ae 1dbe 0e48 11be 701a 9abd 9265 eabd
00000360: d8f0 08be 7cf4 e2bd 7306 eebd 8235 89bd
00000370: 694a 59bd 1eb6 89bb bc21 26bd 0a1f f0bc
00000380: 82b8 09bd f260 b4bc d672 7abd 20ba 41bd
00000390: 1533 b8bb 4fdb 9bbc dd6d 67bd e5e7 2bbd
000003a0: e96a 75bc 5f0e 12bd 5866 b3bd cadf 0dbe
000003b0: 0fac 29be f24d 07be 76d9 23be 23d4 3bbe
000003c0: 9707 30be ad34 48be 8488 b7bd 96a7 a8bd
000003d0: ef31 fabd 56ad c4bd bbc4 b4bd 75ff 7abb
000003e0: b9c0 98bc 6924 d9bc 771e 86bd ce56 0ebd
000003f0: 3b72 c1bc a7d6 dabc 576a e9bc 4321 a33d

_encoder.0.bias f4 [128]
0.032522272 -0.004162796 -0.014628551 0.08052328 -0.031092145 -0.011811269 -0.0034453268 -0.13592997
-0.027894728 0.016831426 0.03765245 -0.015194978 -0.0028281137 -0.00078120676 -0.0073627452 -0.011075066
-6.448777e-23 -0.01615788 -0.03671882 -0.03745431 -0.038158223 -0.023226365 -0.018204862 -1.725784e-08
-0.017652104 -0.0066322004 -0.048117485 -0.0011676332 -0.013734184 -0.12901048 -0.012594892 0.024097588
-0.12744765 -0.0025207323 0.22007059 -0.098724544 0.036588944 -0.002487742 -0.014965305 -0.048895072
-0.0133820465 -1.0611901e-09 -0.08066748 -0.019294837 -0.007727226 -0.00018385562 -0.020012887 -0.02845069
-0.09525343 -5.3610092e-05 -0.018164543 0.40055537 -0.021410445 -0.0073921275 -0.006054408 -0.049070347
-0.01277532 -0.009835629 -1.4007427e-13 -0.004746606 -0.00985422 -0.035837773 -0.041380137 -0.011579075
-0.052391347 -6.5756196e-29 -0.0012891991 -0.0002017539 -2.2048104e-10 -0.015463281 -1.1466019e-06 -4.9374186e-05
-1.3654452e-17 -0.11554095 -0.008659346 -0.017933892 -0.11764608 -0.039073512 -0.0013682352 -0.060103495
-0.01784465 0.23844813 -0.07418164 -7.304828e-12 -0.016758142 -0.017485928 -0.03583471 -1.1608566e-11
0.012080794 -0.003366873 -0.06804485 -0.0049428754 -0.1753628 -0.014325575 -0.025695842 -0.042187225
0.027860474 -0.042607557 -0.008930681 -0.00068961224 -0.023363292 -0.09099715 -0.00038122677 -0.10532418
-0.0039494364 -0.0049166568 -0.007770406 -0.046669304 -0.020194538 -0.03272074 -0.10182 -0.02441492
-0.03733139 -0.0044335607 -0.025150733 -0.0045823487 -0.021488788 -0.010558131 -0.018060599 -0.003768618
-0.00090723665 -0.009255668 -0.10854341 -0.0820613 -0.010751792 -0.028137945 -0.02646148 -0.020007197
00000000: 1336 053d 1068 88bb 97ac 6fbc 64e9 a43d
00000010: f4b4 febc 0e84 41bc feca 61bb 3a31 0bbe
00000020: 7c83 e4bc 0fe2 893c 7539 1a3d 5bf4 78bc
00000030: e057 39bb e6c9 4cba 2f43 f1bb 3274 35bc
00000040: ffeb 9b9a 885d 84bc 7966 16bd b169 19bd
00000050: cc4b 1cbd 3845 bebc 5d22 95bc 643e 94b2
00000060: 259b 90bc ee52 d9bb d716 45bd 450b 99ba
00000070: 5805 61bc 531b 04be ce5a 4ebc 4e68 c53c
00000080: a381 02be df32 25bb 2f5a 613e 1830 cabd
00000090: 4ade 153d 6309 23bb 0a31 75bc 3346 48bd
000000a0: 5f40 5bbc 4fd9 91b0 fe34 a5bd 3510 9ebc
000000b0: ab34 fdbb 5ec9 40b9 11f2 a3bc 6c11 e9bc
000000c0: 3b14 c3bd 66db 60b8 cfcd 94bc 9815 cd3e
000000d0: f564 afbc a939 f2bb 0e64 c6bb fdfd 48bd
000000e0: 934f 51bc 9e25 21bc a9b5 1daa 6b89 9bbb
000000f0: 9873 21bc a1ca 12bd 387e 29bd 29b6 3dbc
00000100: 4f98 56bd 36b6 a690 58fa a8ba e68d 53b9
00000110: e56b 72af b459 7dbc f1e4 99b5 2117 4fb8
00000120: 54e1 7ba3 bca0 ecbd eedf 0dbc 19ea 92bc
00000130: 6ef0 f0bd 8c0b 20bd 5b56 b3ba 152f 76bd
00000140: f22e 92bc bf2b 743e 8bec 97bd 0582 00ad
00000150: 5f48 89bc a63e 8fbc 6bc7 12bd 5538 4cad
00000160: 86ee 453c c1a6 5cbb 195b 8bbd d8f7 a1bb
00000170: 4e92 33be d1b5 6abc 1680 d2bc 83cc 2cbd
00000180: a63b e43c 4385 2ebd fe51 12bc 18c7 34ba
00000190: 6064 bfbc b75c babd 64df c7b9 34b4 d7bd
000001a0: 466a 81bb e81b a1bb e49e febb 5028 3fbd
000001b0: 046f a5bc 2f06 06bd 0187 d0bd cc01 c8bc
000001c0: cde8 18bd 6747 91bb e908 cebc 8727 96bb
000001d0: 4109 b0bc 03fc 2cbc d2f3 93bc ebfa 76bb
000001e0: 9fd3 6dba 16a5 17bc 024c debd c10f a8bd
000001f0: 4928 30bc 8c81 e6bc bfc5 d8bc 22e6 a3bc

_encoder.2.weight f4 [64, 128]
-0.0016352015 0.009140972 0.03964322 -0.03141085 -0.08642803 0.043138217 -0.043268114 -0.22940268
-0.017271291 0.026879214 0.28951627 0.0016198772 -0.0072665266 -0.0070440006 -0.023917235 0.0023098122
-0.0034264247 -0.002161456 -0.02968754 0.0073889904 0.021989597 0.013442698 -0.008842888 -0.00561333
0.071734235 0.0021311408 0.35882923 0.024375366 -0.06322516 3.3585125e-05 0.013429407 0.03510742
0.114454605 0.038681053 0.029563013 -0.059682976 0.25905824 -0.03489072 0.012740769 -0.029038986
-0.03790789 0.0049378844 0.060714807 0.024004292 -0.032997817 0.0005623285 -0.009636957 0.04608269
-1.0958339 0.0016508994 0.013716887 -2.688169 -0.021833897 0.0067496332 0.04867332 0.17073682
0.0024407269 -0.006014844 0.0021330067 -0.0058744266 -0.028124738 -0.009396377 -0.008032143 0.0035693292
-0.033485774 -0.006085699 -0.001371548 -0.012389695 -0.004053205 0.024871396 0.005884789 0.0035549628
0.00043027988 -0.18841748 -0.010560069 0.009079985 -0.014766416 -0.098436385 0.01649118 -0.098793104
0.018061174 0.051542565 -0.03966016 0.0005104037 -0.016873179 0.077153124 0.027650055 -0.018852806
0.02579436 -0.0008756619 -0.2795151 -0.021402448 -0.30806488 -0.012376327 -0.099474914 0.063786745
0.118995994 -0.016289873 -0.005734909 0.024788395 0.015283345 -0.4385955 -0.0017166011 -0.15848662
0.10729138 0.007876529 0.008218508 0.009745065 -0.00651865 0.0023735084 0.11901592 0.0006495672
0.0053613936 0.0018063412 0.044000007 0.011897461 0.017747786 0.012370653 -0.04475733 -0.0016714459
0.020751461 -0.002637972 -0.40624556 -0.030856779 -0.020191357 0.015307602 0.01053064 -0.04438998
-0.011003875 -0.014476248 0.03177125 0.0781969 -0.16227204 -0.017133903 0.036299437 -0.11923484
-0.018914651 0.063584864 -0.072555415 -0.0015138917 -0.034701575 -0.0015040705 -0.005851981 -0.011876679
0.004482185 -0.016612077 -0.059262995 -0.019712083 0.00022120003 0.019546201 -0.013302423 -0.0004883547
0.050695874 0.01490803 0.15525888 -0.0053363517 -0.038117126 -4.0342e-10 0.0004437745 -0.013807109
0.056932606 0.046875466 0.12119476 -0.19443229 -0.09347058 -0.013174285 0.046464033 -0.028478136
-0.013926527 -0.014400047 0.0030041104 0.0055439067 0.008265525 0.015078224 0.01765573 0.007465554
-0.9769362 0.0012657683 0.03368194 -1.2161005 0.0043396177 -0.015681999 -0.014269556 0.21707945
-0.0056562345 0.0016877169 0.00093224377 -0.029227594 0.053618666 -0.056941006 -0.034772947 -0.047823552
0.0072193113 -0.0052623306 -0.04202958 -0.0049031153 -0.0042526796 -0.01725334 -0.0036740175 0.008303915
2.1979129e-05 -0.115412444 0.0010850122 0.01134909 0.16854066 -0.032165438 -0.04171843 0.04450028
0.002898229 -0.032765087 0.12268936 7.680683e-05 -0.0338035 0.08082912 -0.007913712 -0.0031727895
0.009498103 -0.014920213 -0.38580218 -0.021298809 -0.30491847 -0.0038557393 -0.07332129 0.20494378
0.022235375 -0.032182146 -0.036467656 -0.07530896 0.0014004965 0.25507957 -0.0029145589 -0.08180267
0.00798151 -0.026567196 -0.015041113 0.024523597 -0.0009376067 -0.020333733 -0.13019773 0.011385987
-0.04192357 0.02533772 -0.028325006 -0.01699428 -0.0056046955 -0.0014091574 0.009328032 -0.023637619
0.008209069 -0.005342162 0.2782224 -0.09205037 -0.06370626 -0.035468258 0.04255198 -0.017603854
00000000: 4254 d6ba 04c4 153c ee60 223d aaa8 00bd
00000010: 2e01 b1bd b3b1 303d e839 31bd 89e8 6abe
00000020: 867c 8dbc cc31 dc3c 7a3b 943e 0f52 d43a
00000030: 0b1c eebb 5cd1 e6bb 14ee c3bc 3860 173b
00000040: de8d 60bb 37a7 0dbb 4933 f3bc 581f f23b
00000050: 8723 b43c c33e 5c3c c3e1 10bc 06f0 b7bb
00000060: 66e9 923d 9caa 0b3b 77b8 b73e d9ae c73c
00000070: 317c 81bd c1dd 0c38 0407 5c3c cccc 0f3d
00000080: 2d67 ea3d 0670 1e3d 222e f23c 2376 74bd
00000090: 48a3 843e 92e9 0ebd a9be 503c 2be3 edbc
000000a0: 4e45 1bbd facd a13b 17b0 783d a6a4 c43c
000000b0: b828 07bd 3a69 133a 54e4 1dbc 34c1 3c3d
000000c0: 4944 8cbf fe62 d83a cbbc 603c f60a 2cc0
000000d0: 00dd b2bc 072c dd3b ad5d 473d a2d5 2e3e
000000e0: 9af4 1f3b 2b18 c5bb eac9 0b3b 437e c0bb
000000f0: da65 e6bc 43f3 19bc 4099 03bc 68eb 693b
00000100: 6128 09bd 8b6a c7bb 84c5 b3ba 26fe 4abc
00000110: bfd0 84bb 19bf cb3c 30d5 c03b 61fa 683b
00000120: 3097 e139 83f0 40be 2404 2dbc 38c4 143c
00000130: d6ee 71bc 0499 c9bd 8318 873c 0a54 cabd
00000140: 07f5 933c 4c1e 533d b172 22bd 9dcc 053a
00000150: 9f39 8abc 7502 9e3d 5e82 e23c 3371 9abc
00000160: b24e d33c ad8c 65ba 9a1c 8fbe 3054 afbc
00000170: aeba 9dbe 14c6 4abc 81b9 cbbd a0a2 823d
00000180: 2cb4 f33d 5772 85bc e7eb bbbb 0811 cb3c
00000190: ff66 7a3c 978f e0be 93ff e0ba 514a 22be
000001a0: 95bb db3d 8f0c 013c eca6 063c c4a9 1f3c
000001b0: 669a d5bb dd8c 1b3b 9ebe f33d b847 2a3a
000001c0: a1ae af3b c1c2 ec3a 5a39 343d 91ed 423c
000001d0: ce63 913c 48ae 4a3c 7653 37bd 6b14 dbba
000001e0: f8fe a93c d3e1 2cbb 6bff cfbe 5bc7 fcbc
000001f0: 5868 a5bc bccc 7a3c b588 2c3c 45d2 35bd
00000200: 9949 34bc c92d 6dbc 9222 023d b225 a03d
00000210: a42a 26be 665c 8cbc b8ae 143d 6531 f4bd
00000220: e6f2 9abc c838 823d ef97 94bd c76d c6ba
00000230: 3d23 0ebd 3b24 c5ba fac1 bfbb 6796 42bc
00000240: 4bdf 923b 0d16 88bc c1bd 72bd 3c7b a1bc
00000250: eef1 6739 5b1f a03c 68f2 59bc ee04 00ba
00000260: 7aa6 4f3d cf40 743c 2ffc 1e3e 90dc aebb
00000270: b420 1cbd 51c8 ddaf 68aa e839 3637 62bc
00000280: 2a32 693d 7d00 403d f534 f83d 4219 47be
00000290: 816d bfbd f5d8 57bc 1251 3e3d fb4a e9bc
000002a0: 172c 64bc 2dee 6bbc 9ce0 443b a9a9 b53b
000002b0: 206c 073c a80a 773c c0a2 903c 9ba1 f43b
000002c0: 7e18 7abf 23e8 a53a 13f6 093d 2ea9 9bbf
000002d0: 5a33 8e3b 8977 80bc dbca 69bc 134a 5e3e
000002e0: ef57 b9bb 6236 dd3a d261 743a b56e efbc
000002f0: 3f9f 5b3d f93a 69bd 146e 0ebd a1e2 43bd
00000300: f98f ec3b a16f acbb 3527 2cbd 50aa a0bb
00000310: 105a 8bbb e056 8dbc c9c7 70bb 250d 083c
00000320: d25f b837 5c5d ecbd f836 8e3a 89f1 393c
00000330: ec95 2c3e e8bf 03bd f2e0 2abd ed45 363d
00000340: 37f0 3d3b af34 06bd 8f44 fb3d 5a13 a138
00000350: 8a75 0abd bd89 a53d 84a8 01bc 93ee 4fbb
00000360: ee9d 1b3c e973 74bc dd87 c5be d77a aebc
00000370: 461e 9cbe 92b0 7cbb 7929 96bd c8dc 513e
00000380: f626 b63c 6dd1 03bd 1c5f 15bd 963b 9abd
00000390: dd90 b73a ca99 823e 2f02 3fbb 2988 a7bd
000003a0: e1c4 023c 73a3 d9bc 006f 76bc b6e5 c83c
000003b0: b8c9 75ba ee92 a6bc 8e52 05be 4a8c 3a3c
000003c0: 0db8 2bbd 0d91 cf3c d809 e8bc 9737 8bbc
000003d0: 98a7 b7bb 7ab3 b8ba 9ad4 183c aea3 c1bc
000003e0: 557f 063c 4e0d afbb 2b73 8e3e e884 bcbd
000003f0: 6d78 82bd 2a47 11bd fc4a 2e3d f535 90bc

_encoder.2.bias f4 [64]
0.4013559 0.05751404 0.13110091 -0.026490765 0.058242988 -0.045666765 -0.07340593 -0.17123708
0.2744595 0.082925975 -0.20795545 -3.3978511e-38 -0.2396113 -0.18063203 -2.475405e-09 -4.107536e-15
-0.007093876 0.05600772 0.03150257 -3.9966317e-06 -0.0028038658 -0.21628259 -0.014934161 -1.7148108e-16
-2.9296913e-38 0.05744873 -1.484904e-14 0.071635686 -0.009936607 -0.026251448 -0.0013156539 -2.600142e-05
-0.0034510577 -0.017033702 -0.023069778 0.08690731 -1.1827148e-05 0.4376018 0.16492514 -0.044727292
-0.007686423 0.46859562 -0.018857498 -0.0041148835 -5.594907e-17 -0.077760585 -0.001257846 -0.005578645
0.3021697 0.45178175 0.22408426 -4.8720496e-38 -0.18616123 -0.0098913945 -0.01971051 0.17826416
-4.865473e-38 0.21280222 -0.09393819 0.010795874 -6.1366397e-38 -1.7025112e-38 0.003070152 0.31906042
00000000: 857e cd3e d893 6b3d 513f 063e 2903 d9bc
00000010: 3390 6e3d 130d 3bbd d955 96bd c658 2fbe
00000020: f585 8c3e 18d5 a93d 46f2 54be 22ff 3881
00000030: aa5c 75be 9af7 38be c91b 2ab1 55fd 93a7
00000040: bf73 e8bb 5a68 653d d708 013d ce1a 86b6
00000050: 10c1 37bb 2f79 5dbe 69ae 74bc 48b4 45a5
00000060: f081 1f81 5c4f 6b3d 8ebf 85a8 bbb5 923d
00000070: 27cd 22bc 470d d7bc 0572 acba a01d dab7
00000080: 242b 62bb 438a 8bbc d5fc bcbc 76fc b13d
00000090: 376d 46b7 580d e03e 23e2 283e f733 37bd
000000a0: 64de fbbb c4eb ef3e 0a7b 9abc 25d6 86bb
000000b0: 8002 81a4 f140 9fbd 4fde a4ba 11cd b6bb
000000c0: fdb5 9a3e f04f e73e 5876 653e 3ba1 8481
000000d0: 0da1 3ebe 840f 22bc ef77 a1bc e18a 363e
000000e0: 6673 8481 d3e8 593e aa62 c0bd 2de1 303c
000000f0: 230e a781 1663 b980 9a34 493b e35b a33e

_encoder.4.weight f4 [12, 64]
0.42072394 -0.13622515 -0.04635311 0.5233314 0.09955397 -0.08722537 -0.025029024 -0.07601898
-0.23907302 -0.36849415 0.0049994886 9.038478e-09 -0.4286243 -0.15344062 1.8181858e-07 -1.6927418e-06
-0.00047611736 0.28587836 0.19737604 0.044721596 0.028908115 -0.07571253 0.09338024 -5.3906652e-09
4.3065964e-19 0.42898571 6.367187e-11 -0.2692223 0.014604972 0.026325326 0.00015074774 0.00072817557
0.010979278 0.04762312 0.19554906 0.017245343 0.0006889513 0.3206745 -0.025679788 0.0038841025
-0.09943393 0.2225541 0.15658331 7.043771e-05 0.0025902544 -0.098818615 1.346392e-12 -0.050591096
0.035029463 -0.0646541 -0.091144636 -2.7934514e-16 -0.23660713 0.028543869 0.035620976 -0.12374049
-2.9396078e-38 -0.22364117 -0.06671496 0.04061082 -0.00012956644 -5.002243e-22 0.07900588 -0.19244161
-0.27761313 -0.19583845 -0.23419891 0.057411786 -0.18347676 -0.16908024 -0.35780638 0.19725968
0.14255506 -0.97878647 -0.29105812 3.6320719e-06 -0.090996325 -0.112523966 0.010998424 0.011929516
0.010369959 -0.08262763 -0.082845904 0.0075881938 -0.1802547 -0.23663318 0.26461872 0.004936687
-2.8549608e-05 0.25857052 0.00012033877 -0.18894935 0.026834296 0.0071331 -0.0036010093 -0.024302538
-0.017611714 -0.010241442 -0.19763783 0.19331835 0.0162534 -0.48207858 0.13210194 0.018918673
0.04962749 -0.8545875 0.13896263 0.0075941277 0.020201284 0.22867747 0.020703655 0.014884641
-0.3519634 0.06271059 -0.46882278 -0.00024498964 0.0034224996 0.019228823 0.027359001 -0.079171896
0.0047751274 0.0758416 0.08360701 0.054262202 0.021220105 6.823993e-09 0.20224352 -0.54730475
-0.20358443 0.28952345 0.093344435 -0.3751588 0.18927936 -0.39150122 -0.35403776 0.000829075
-0.25778618 -0.015977358 -0.041566275 -6.854232e-09 -0.10669388 -0.14882405 2.34325e-40 -5.2836236e-05
-9.837437e-05 -0.058870513 0.23965341 -7.820898e-05 -0.092629045 -0.13342395 -0.07007698 -1.3110287e-19
-7.986867e-39 -0.51121014 -1.2963939e-38 -0.10705739 -0.00806811 0.09884378 1.7668307e-06 -0.0022583585
-0.029530097 -0.077261396 -0.2198211 -0.017183203 3.870238e-14 -0.24446574 -0.5531032 0.048193607
-5.23267e-08 0.09547944 0.43684116 0.0025054645 -3.026232e-39 0.6422395 1.5367466e-05 -0.027591804
0.065518394 0.24159212 -0.14466314 5.5488e-38 -0.119430915 -0.0069858464 0.019747606 0.05042353
3.6438777e-38 0.09888634 -0.1372223 -0.082188785 1.883143e-05 -5.729868e-33 1.49083e-38 -0.046358157
-0.015662134 0.18730888 -0.12922105 0.008512403 0.08276435 0.027601682 0.26317814 0.12571505
-0.155661 -0.047508817 0.30576473 4.4312897e-38 -0.08712918 0.09405964 2.8243092e-09 -1.286296e-12
4.6369685e-08 0.1082681 -0.013827602 2.3763731e-14 0.3192355 -0.2698749 0.022637112 -4.3948866e-32
-9.22166e-40 0.07729315 2.5630315e-38 -0.21634756 -0.0055029197 0.004776717 -9.9014776e-11 -1.3605623e-05
0.020360194 -0.017503792 -0.052252524 -0.031494796 0.0003506987 0.053804222 -0.05127853 0.0036965266
-6.4755355e-08 -0.056154363 -0.14779589 8.6742056e-13 -1.4880534e-13 -0.090784416 -1.996571e-14 0.028255932
-0.42666507 -0.03564312 -0.038984872 6.748386e-39 0.0034035405 -0.0121968165 -0.047490254 -0.19234319
-5.396125e-38 0.014672428 -0.13618043 0.122731075 -9.953143e-39 -6.9063236e-38 -0.05536667 0.07865272
00000000: 2169 d73e 9b7e 0bbe c2dc 3dbd 0cf9 053f
00000010: f4e2 cb3d 37a3 b2bd ab09 cdbc d7af 9bbd
00000020: 8fcf 74be 44ab bcbe c0d2 a33b a647 1b32
00000030: a574 dbbe 8a1f 1dbe e939 4334 2a32 e3b5
00000040: 649f f9b9 a65e 923e f21c 4a3e fe2d 373d
00000050: b6d0 ec3c 2c0f 9bbd 243e bf3d cb38 b9b1
00000060: 7237 fe20 04a4 db3e 1404 8c2e 81d7 89be
00000070: b149 6f3c 36a8 d73c 0a12 1e39 09e3 3e3a
00000080: 6ee2 333c 7610 433d 033e 483e 1b46 8d3c
00000090: bd9a 343a 732f a43e 6b5e d2bc 6d8c 7e3b
000000a0: 04a4 cbbd 39e5 633e 6057 203e f5b7 9338
000000b0: 42c1 293b 6a61 cabd e27c bd2b 9c38 4fbd
000000c0: 0e7b 0f3d 5e69 84bd 0aaa babd 1108 a1a5
000000d0: 2449 72be d5d4 e93c 4de7 113d a76b fdbd
000000e0: 270c 2081 3102 65be daa1 88bd 8857 263d
000000f0: 3adc 07b9 fb2e 179c d6cd a13d 6a0f 45be
00000100: 4f23 8ebe e089 48be d7d1 6fbe 9f28 6b3d
00000110: 55e1 3bbe 5f23 2dbe 6632 b7be 71fe 493e
00000120: f4f9 113e c091 7abf 9205 95be 85be 7336
00000130: 485c babd f772 e6bd bc32 343c 0474 433c
00000140: c3e6 293c ad38 a9bd 1dab a9bd 62a6 f83b
00000150: b094 38be f84f 72be 1b7c 873e efc3 a13b
00000160: d17d efb7 5b63 843e 635e fc38 f07b 41be
00000170: 99d3 db3c c8bc e93b e9fe 6bbb 1e16 c7bc
00000180: 7146 90bc b9cb 27bc 9261 4abe 3ff5 453e
00000190: da25 853c 01d3 f6be bb45 073e 55fb 9a3c
000001a0: 3246 4b3d 3fc6 5abf 384c 0e3e 29d8 f83b
000001b0: 2a7d a53c 6d2a 6a3e b69a a93c b6de 733c
000001c0: 8c34 b4be 696e 803d 8a09 f0be f471 80b9
000001d0: 044c 603b c485 9d3c fc1f e03c e024 a2bd
000001e0: ac78 9c3b d752 9b3d 273a ab3d 0b42 5e3d
000001f0: c9d5 ad3c 7a78 ea31 ed18 4f3e 2a1c 0cbf
00000200: 7078 50be 6b3c 943e 5e2b bf3d d014 c0be
00000210: 73d2 413e d972 c8be 7044 b5be 4856 593a
00000220: 8dfc 83be f3e2 82bc 6641 2abd 7682 ebb1
00000230: 5282 dabd 5565 18be 348d 0200 7a9c 5db8
00000240: 564e ceb8 3522 71bd b467 753e 2004 a4b8
00000250: 4cb4 bdbd 4aa0 08be 8584 8fbd 69c7 1aa0
00000260: 23f8 5680 abde 02bf 302a 8d80 e840 dbbd
00000270: 1b30 04bc 9c6e ca3d d723 ed35 f800 14bb
00000280: 1ae9 f1bc 393b 9ebd c818 61be cac3 8cbc
00000290: ce4c 2e29 3a55 7abe 2c98 0dbf a966 453d
000002a0: d1bd 60b3 ba8a c33d a5a9 df3e b832 243b
000002b0: e7f3 2080 cf69 243f 62e9 8037 3508 e2bc
000002c0: 822e 863d ed63 773e 9322 14be 7e0d 9701
000002d0: 3298 f4bd 87e9 e4bb bbc5 a13c e788 4e3d
000002e0: 3e64 4601 ec84 ca3d 0184 0cbe 9852 a8bd
000002f0: 30f8 9d37 6802 ee89 4656 a200 0de2 3dbd
00000300: e04d 80bc e6cd 3f3e 8652 04be 9b77 0b3c
00000310: 5b80 a93d ec1c e23c 49bf 863e 72bb 003e
00000320: 9965 1fbe 9b98 42bd 328d 9c3e 2a43 7101
00000330: c970 b2bd 57a2 c03d c615 4231 b307 b5ab
00000340: 0228 4733 aabb dd3d 2b8d 62bc 6f0b d628
00000350: d672 a33e 0b2d 8abe 7771 b93c 1032 648b
00000360: a00a 0a80 df4b 9e3d 728b 0b01 378a 5dbe
00000370: d651 b4bb 0286 9c3b 5dbc d9ae b543 64b7
00000380: 6cca a63c 1d64 8fbc be06 56bd b000 01bd
00000390: fcdd b739 d161 5c3d 7009 52bd 6d41 723b
000003a0: a20f 8bb3 1e02 66bd ce57 17be 3d28 742b
000003b0: 388a 27aa 2eed b9bd cbd5 b3a8 fc78 e73c
000003c0: d873 dabe 85fe 11bd 9aae 1fbd c17b 4900
000003d0: ef0d 5f3b 28d5 47bc 2485 42bd 9df5 44be
000003e0: 81e5 9281 a064 703c e272 0bbe 6e5a fb3d
000003f0: 5061 6c80 0d02 bc81 29c8 62bd ad14 a13d

_encoder.4.bias f4 [12]
0.23157693 0.97031116 -0.019340238 -0.17661303 0.20685029 -0.20166525 0.3342588 0.31692976
0.9266863 0.8359773 0.3105017 0.13778794
00000000: 8122 6d3e 5066 783f 6b6f 9ebc 0cda 34be
00000010: 90d0 533e 5681 4ebe f823 ab3e 9e44 a23e
00000020: 503b 6d3f 9c02 563f 14fa 9e3e 4818 0d3e

_encoder.6.weight f4 [2, 12]
-0.3393351 0.7882912 0.05447337 0.0429315 -0.19935524 -0.3598116 0.37455872 0.1563159
-0.13266398 0.052115362 0.41598102 0.32859358 0.059235338 0.18256874 0.20667928 0.06856651
0.31809878 0.5688872 -0.1432514 -0.26883087 -0.08719306 -0.21607278 0.63081884 -0.39642483
00000000: 55bd adbe 74cd 493f 781f 5f3d f1d8 2f3d
00000010: c823 4cbe 3a39 b8be 29c6 bf3e 4611 203e
00000020: 11d9 07be eb76 553d 77fb d43e 6b3d a83e
00000030: c1a0 723d 4df3 3a3e bca3 533e 996c 8c3d
00000040: d8dd a23e 97a2 113f 7fb0 12be 33a4 89be
00000050: 4692 b2bd 2f42 5dbe 587d 213f 32f8 cabe

_encoder.6.bias f4 [2]
0.020941645 -0.3649147
00000000: d08d ab3c 19d6 babe

_decoder.0.weight f4 [12, 2]
0.025693614 0.46334183 -0.28114787 -1.3417199 0.018395651 -0.014724673 0.0064506996 -0.007103026
0.5294703 0.29827836 0.78128415 0.03785195 0.22902937 0.30284235 -0.44583708 -0.044844147
0.18802693 -0.74282324 0.027646821 -0.019928738 0.74296635 -0.48610798 0.6505964 -0.2635865
00000000: 6a7b d23c 243b ed3e 9df2 8fbe 7abd abbf
00000010: 7ab2 963c c13f 71bc 6460 d33b 80c0 e8bb
00000020: 5e8b 073f f1b7 983e 3d02 483f a50a 1b3d
00000030: ad86 6a3e 270e 9b3e c244 e4be 7fae 37bd
00000040: 228a 403e aa29 3ebf 967b e23c 9841 a3bc
00000050: 0b33 3e3f 25e3 f8be 7c8d 263f cff4 86be

_decoder.0.bias f4 [12]
-0.1830522 0.25688815 -0.11038006 -0.113002636 0.34043965 -0.282322 -2.2125897 0.29932135
0.40901685 2.2358754 -0.23820688 0.54960746
00000000: 0972 3bbe d886 833e f10e e2bd ed6d e7bd
00000010: 1b4e ae3e 828c 90be 129b 0dc0 a640 993e
00000020: a86a d13e 9518 0f40 81ec 73be 13b3 0c3f

_decoder.2.weight f4 [64, 12]
0.018922668 -0.048463427 -0.0070520155 -6.564958e-38 -0.036729537 -0.054832265 -0.0057161683 -0.038352802
0.0005987378 -0.04712504 -0.018998 -0.017370038 -0.011870353 -4.8030135e-15 -1.3894715e-24 -1.96895e-25
-0.0005866368 -0.0002243467 -0.0005168331 -0.010471674 -7.230148e-16 -5.061877e-06 -2.9647643e-08 -1.6382487e-06
-0.08375138 -0.06447177 -0.037074246 -0.020411309 0.01110418 0.77372354 -0.22757076 -0.29739133
0.20946431 0.086452745 -1.1717277 -0.3690388 -0.019947115 -0.012595972 -6.120219e-38 -5.002391e-38
-0.0143190855 -0.01550272 0.0025049327 -0.023751479 -0.009647874 -0.026719859 -0.029327894 -0.018015075
-8.014024e-07 -2.241514e-38 3.3046216e-38 -2.6017233e-38 -6.9255725e-07 -6.2724587e-07 -3.7203491e-09 -5.4495032e-08
-1.9635326e-38 -5.358492e-17 -3.788734e-12 -7.3736614e-11 0.053669125 -0.26135325 0.0044373823 8.018141e-05
-0.7071776 0.012483126 -0.09330204 -0.20372254 -0.061316412 0.21313946 0.06186856 0.08717342
-8.307419e-05 -4.3226378e-38 -3.5264766e-38 -5.053829e-38 -9.855467e-06 6.22879e-38 1.6962441e-06 -7.917045e-05
-2.1885505e-38 -2.2517827e-13 -2.5159955e-38 -2.7086928e-38 -0.48827156 -0.19031776 -0.0009122471 0.019054238
-0.3279997 0.024899414 -0.30256435 -0.3165823 0.40475807 -0.13706316 0.33778965 0.30284443
-0.7231651 -0.7342572 -0.01028343 -0.038311593 0.11504663 0.15559286 -0.33818337 0.30542615
-0.8866276 0.34648377 0.17220755 0.17222528 -1.0874741e-11 -0.00051338045 -5.6066137e-38 8.444418e-39
-1.6477887e-06 -1.31001525e-05 -7.565963e-12 -2.907199e-07 0.0002085007 -1.1569869e-05 -0.00010969646 -4.332777e-05
0.17715792 0.0062731374 -0.04541417 -0.009892135 -0.043468036 0.55848014 0.4130919 0.20118654
-0.41713962 -0.7057313 0.28530508 -0.04719533 -0.10580913 -0.2071459 -0.015743207 -0.007313614
-0.63318866 -0.37541535 -0.020556254 -0.03145683 0.2706974 0.2497902 0.07457323 -0.047595695
-0.0007460285 -0.0002471802 -2.907945e-38 -5.284755e-38 -3.5998704e-10 -1.1699976e-06 -2.3461249e-08 -0.0016132538
-0.00014567967 -3.3440225e-05 -7.438337e-05 -3.1589065e-05 0.0006758486 -0.015048264 3.81659e-38 -1.76438e-39
-0.00044391112 -0.012663216 -0.0120515525 -0.010028729 -0.005211176 -0.0058313664 -0.0055296244 -0.0026092138
-0.09071222 0.33040857 -0.04575923 0.0017087489 0.43265933 -0.039982785 0.23820953 -0.40159035
0.15839057 -0.2695949 -0.38208535 -0.39759538 0.37063447 -0.035516005 -0.031276204 0.0073033874
-1.0365999 8.14377e-40 -0.1531629 -0.16212414 -0.016999299 0.031707536 -0.016983876 -0.009992073
-0.042476043 0.4351875 -0.065294616 0.018628042 -0.010419858 0.092056565 0.30334076 -0.059959132
-0.20794655 -0.97367334 0.34902656 -0.28710836 0.61692804 0.0029811305 -0.004883376 -0.01635327
-0.052735943 -0.5187412 0.16347678 -0.558099 0.0007137711 0.07279338 -3.488823e-39 -1.6925972
-0.00039333702 -0.0078927195 -1.2785e-40 3.4659475e-38 -6.9668017e-06 -3.3543447e-06 -3.3292764e-08 -0.0035052635
-0.001121763 -0.0002471486 -0.0006252895 -0.0003252559 -0.8369161 -0.33518517 0.00499423 -0.01898821
-0.4709842 -0.1368042 -1.0622586e-38 0.63052696 0.06530944 0.2745783 0.07196309 0.09735012
-0.8955117 0.27752307 0.002701174 0.0015757239 -0.062872685 0.10652 -0.076162934 -0.11910612
-0.78946364 0.12964755 0.11436539 0.13037504 0.24579567 -0.23890272 0.0010219262 -0.009071273
00000000: b603 9b3c 9681 46bd 9814 e7bb 14b7 b281
00000010: b671 16bd cc97 60bd b24e bbbb d417 1dbd
00000020: 9df4 1c3a 3006 41bd b2a1 9bbc 9c4b 8ebc
00000030: de7b 42bc fb0b ada7 a302 d797 84be 7396
00000040: 87c8 19ba 9c3e 6bb9 157c 07ba 6291 2bbc
00000050: 1365 50a6 31d9 a9b6 dbab feb2 cce1 dbb5
00000060: d885 abbd c609 84bd 2adb 17bd 9e35 a7bc
00000070: 4eee 353c bf12 463f 4f08 69be ad43 98be
00000080: d07d 563e 230e b13d 2cfb 95bf a7f2 bcbe
00000090: 2268 a3bc 565f 4ebc b49b a681 942d 8881
000000a0: 999a 6abc 1fff 7dbc cc29 243b 7692 c2bc
000000b0: 1e12 1ebc 9be3 dabc 0d41 f0bc 5a94 93bc
000000c0: f41f 57b5 4a14 f480 b4eb 3301 bba6 0d81
000000d0: 2ce8 39b5 0260 28b5 13a9 7fb1 ec0d 6ab3
000000e0: 4dcf d580 e81d 77a4 e24d 85ac 0626 a2ae
000000f0: 28d4 5b3d 18d0 85be 7667 913b 1127 a838
00000100: 9709 35bf 0686 4c3c 2415 bfbd a49c 50be
00000110: eb26 7bbd 3b41 5a3e e369 7d3d fa87 b23d
00000120: 1e38 aeb8 c758 6b81 e9ff 3f81 0c94 8981
00000130: e958 25b7 5590 a901 81aa e335 5008 a6b8
00000140: e24f ee80 3887 7daa dcfb 0881 ab79 1381
00000150: bbfe f9be a9e2 42be de23 6fba a217 9c3c
00000160: 94ef a7be dbf9 cb3c b7e9 9abe 1317 a2be
00000170: 733c cf3e 495a 0cbe c4f2 ac3e 6d0e 9b3e
00000180: 5921 39bf 48f8 3bbf d57b 28bc 9eec 1cbd
00000190: 919d eb3d bc53 1f3e 5f26 adbe d160 9c3e
000001a0: 07fa 62bf 5266 b13e 2d57 303e d35b 303e
000001b0: 7b4f 3fad 6194 06ba 65a0 9881 9af3 5b00
000001c0: 9729 ddb5 bac8 5bb7 111a 05ad 3d14 9cb4
000001d0: fba0 5a39 351c 42b7 d70c e6b8 d7ba 35b8
000001e0: e368 353e e48e cd3b 3504 3abd 9f12 22bc
000001f0: 8a0b 32bd 8ef8 0e3f c880 d33e d803 4e3e
00000200: 5393 d5be ceaa 34bf 8213 923e e44f 41bd
00000210: 75b2 d8bd 0e1e 54be e6f7 80bc 0aa7 efbb
00000220: a718 22bf 7136 c0be 9765 a8bc e1d8 00bd
00000230: da98 8a3e 01c9 7f3e dab9 983d b4f3 42bd
00000240: 2091 43ba f797 81b9 d652 1e81 5edd 8f81
00000250: ace7 c5af d008 9db5 d587 c9b2 d173 d3ba
00000260: 97c1 18b9 2b42 0cb8 45fe 9bb8 807e 04b8
00000270: 6f2b 313a fe8c 76bc 80cb 4f01 6036 1380
00000280: bebc e8b9 6179 4fbc e073 45bc 8a4f 24bc
00000290: 83c2 aabb 0c15 bfbb da31 b5bb 58ff 2abb
000002a0: 54c7 b9bd 502b a93e 086e 3bbd 19f8 df3a
000002b0: 8685 dd3e fdc4 23bd 33ed 733e 409d cdbe
000002c0: 2331 223e 5808 8abe b1a0 c3be 9f91 cbbe
000002d0: cdc3 bd3e 3b79 11bd 7a1b 00bd 4151 ef3b
000002e0: 4eaf 84bf 27de 0800 bcd6 1cbe df03 26be
000002f0: 1d42 8bbc c3df 013d c521 8bbc cbb5 23bc
00000300: 5cfb 2dbd e5d0 de3e 2fb9 85bd d699 983c
00000310: 0db8 2abc 2788 bc3d 7b4f 9b3e b597 75bd
00000320: f1ef 54be a842 79bf 9cb3 b23e deff 92be
00000330: ffee 1d3f 125f 433b ba04 a0bb 4bf7 85bc
00000340: a501 58bd 39cc 04bf 7566 273e 93df 0ebf
00000350: 5e1c 3b3a b214 953d 6bfd 2580 06a7 d8bf
00000360: cd38 ceb9 7750 01bc 6564 0180 42b4 3c01
00000370: 5fc4 e9b6 341b 61b6 c8fd 0eb3 90b8 65bb
00000380: 1f08 93ba b993 81b9 78ea 23ba 1c87 aab9
00000390: 2240 56bf 649d abbe a3a6 a33b 2a8d 9bbc
000003a0: d724 f1be 6616 0cbe 73ab 7380 376a 213f
000003b0: f5c0 853d 8795 8c3e 6261 933d 805f c73d
000003c0: 4140 65bf 8117 8e3e 2e06 313b 8588 ce3a
000003d0: 65c3 80bd 2827 da3d 50fb 9bbd e9ed f3bd
000003e0: 4a1a 4abf 54c2 043e 6738 ea3d 0981 053e
000003f0: dcb1 7b3e eaa2 74be 27f2 853a ad9f 14bc

_decoder.2.bias f4 [64]
-0.046318762 -2.7937503e-09 0.18582466 -0.013203256 -1.630737e-39 0.28253338 -6.056763e-23 0.12127528
0.42901668 -1.2206742e-09 -2.221534 0.41756627 -2.0144995e-08 -0.0019630885 -0.54812074 0.03647029
-1.4167117 0.12239524 -2.1610167e-07 0.4318081 0.18150683 0.12379732 0.90871316 -0.04640829
0.7774554 0.29640767 0.05873511 -0.018788956 0.4721592 0.13614787 -9.901097e-22 0.23720619
-1.530406e-09 0.032480635 -0.013395464 0.24170813 0.35405788 -0.19140866 -0.005207578 0.9594534
0.27759886 0.5839813 0.41394407 -5.76378e-39 0.20006146 -0.11824795 0.9128026 -1.7126988
0.040959734 -0.04189403 3.5062585e-28 0.5581582 0.44249064 0.3770772 0.4039599 -2.1687925e-05
0.042146016 0.46745837 -1.6583734 3.3301547e-38 -6.0713e-41 0.116001174 0.4052258 -1.2451545e-15
00000000: beb8 3dbd 2dfc 3fb1 d248 3e3e 7852 58bc
00000010: d5c1 1180 37a8 903e 8c71 929a 2d5f f83d
00000020: 13a8 db3e a8c4 a7b0 9d2d 0ec0 3fcb d53e
00000030: 500b adb2 29a7 00bb a451 0cbf df61 153d
00000040: cf56 b5bf 5baa fa3d 9309 68b4 f415 dd3e
00000050: eddc 393e 7389 fd3d 6da1 683f 9e16 3ebd
00000060: 5107 473f bfc2 973e 3a94 703d 4ceb 99bc
00000070: dabe f13e 596a 0b3e 049f 959c 2ee6 723e
00000080: 6056 d2b0 6a0a 053d a678 5bbc 5682 773e
00000090: 1347 b53e a200 44be 55a4 aabb bd9e 753f
000000a0: 7021 8e3e cc7f 153f 7af0 d33e 13c3 3e80
000000b0: e9dc 4c3e fb2b f2bd 6ead 693f b739 dbbf
000000c0: 65c5 273d 1399 2bbd 4c3c de11 75e3 0e3f
000000d0: 228e e23e 4310 c13e d5d3 ce3e 77ee b5b7
000000e0: 4da1 2c3d b456 ef3e 9445 d4bf 954f 3501
000000f0: 3ea9 0080 0692 ed3d c279 cf3e 1872 b3a6

_decoder.4.weight f4 [128, 64]
-0.010416465 -4.85068e-15 0.0012706232 0.009517574 2.747626e-25 -0.0012779674 3.0820176e-26 0.35272145
-0.09067162 -1.8001727e-16 -0.79461324 0.11006973 4.2810896e-38 -0.0004427056 -0.77778786 -0.31772405
-0.22040491 0.15332323 -0.0036998847 0.010745232 0.0256011 -0.1323777 0.074063785 0.010747664
0.22646222 0.021322394 -0.021996543 0.22014211 0.021135025 -0.13908042 1.2443917e-18 -0.042611867
4.3193178e-17 0.049080204 0.005700564 -0.038141016 0.18836452 -0.27779487 0.019017404 0.104984485
0.027618807 -0.22842476 0.16461042 -2.435193e-39 -0.06978113 -0.47477424 -0.25455773 -0.061426766
-0.060750198 0.024689319 -5.75564e-40 -0.5370269 -0.11105653 0.037102953 -0.48392704 -0.0013283045
0.015222571 -0.040293593 -0.6359642 1.907756e-38 4.347475e-39 -0.013208515 -0.24607727 -3.4921623e-09
-0.008240432 7.913813e-37 -0.51856095 0.010078535 -6.262771e-38 -0.00013437832 3.6230647e-38 -0.7477077
0.42795798 1.6059895e-38 -0.3037781 -0.01344005 -8.918215e-39 5.6919704e-05 -0.0064337724 6.5700574e-38
-0.014667694 -6.425893e-07 2.7210478e-14 -0.14383085 -0.32546288 -0.6621601 0.02669203 0.11196765
0.00023830321 -0.18213204 -0.122955546 -2.3090442e-06 -0.05426101 0.0005496268 -1.6852224e-38 0.26006624
3.179759e-38 -0.8182194 -0.042005163 0.29878575 -0.012321828 -0.03980941 -0.0007163853 -0.07172709
-0.020719087 -0.043098815 -0.057128977 8.303842e-39 -0.0003579597 -0.0020938555 -0.1458268 -0.011377364
-0.020191668 6.5103634e-12 1.0753651e-38 -0.08036934 -0.4921129 0.1340843 -0.026892701 1.1876762e-06
-0.0070038913 0.0964921 1.4440322e-38 3.5111388e-38 -5.971942e-39 0.032642912 -0.01738052 -2.5584811e-20
-2.1973608e-38 -8.503385e-39 -3.256924e-19 -2.5353144e-38 -3.914172e-38 -5.47949e-13 3.263796e-39 -1.0453593e-38
-0.000721724 -2.254682e-38 -0.019117108 -6.0121314e-14 -3.4027798e-38 2.0182375e-38 -8.754573e-09 -0.0009867946
-0.013411634 -0.001447007 1.4483103e-38 0.0010193122 -3.5551414e-12 -3.052396e-06 -0.0022580563 -5.921527e-06
-0.0012333092 -8.323111e-11 2.598716e-39 -3.3692776e-23 -3.7148848e-08 -1.5840882e-16 -2.8043738e-38 1.9269929e-38
1.5240746e-38 -0.004850232 3.076771e-38 -2.775508e-33 -4.1539413e-05 -0.004479331 -5.7929723e-38 -7.2104056e-10
-2.6604173e-08 -1.3736014e-10 -0.001273659 1.3729407e-38 -3.3890283e-05 -0.028796213 -7.4215364e-05 -0.0004867427
-4.2612517e-38 -5.5178504e-38 -1.5177499e-38 -0.0044557736 -1.8550909e-38 -1.6674208e-13 -0.00014327107 5.107749e-38
-1.3515917e-09 -4.922143e-06 2.776555e-05 1.9223005e-38 1.1408117e-38 -2.6545385e-38 -2.7028957e-09 -1.3269153e-38
-6.5972325e-38 5.559599e-38 1.226444e-38 7.154357e-39 6.080059e-39 4.0381464e-38 -6.6384867e-38 -5.940579e-39
-1.0648377e-27 -4.55685e-38 1.1236794e-38 8.079611e-39 -1.8818698e-38 3.4152076e-38 -2.8296414e-38 -9.965752e-32
3.3265884e-38 -1.774508e-39 -6.5038544e-38 -1.253083e-12 1.6454118e-38 -2.1164532e-38 -7.22888e-40 -5.719487e-12
-1.7506666e-23 1.1726783e-38 5.848892e-39 6.6059463e-38 -2.6107516e-38 5.3907784e-38 1.1209676e-38 -3.3336823e-38
-6.0401737e-38 -2.8911688e-38 -2.9551815e-38 -1.6445622e-38 -2.6722526e-38 -7.941158e-10 -4.4111547e-38 -3.4413362e-38
-8.395524e-24 -3.3590598e-38 -1.9296549e-11 2.824659e-39 8.43219e-39 1.2656727e-38 -5.3129427e-25 -2.8267688e-38
-2.2295052e-38 8.290306e-39 -1.50813e-40 -8.106352e-08 1.7625574e-38 -1.7418047e-38 -9.903336e-39 -3.2781774e-38
-2.2484506e-38 -1.466859e-38 1.2800492e-38 6.989079e-38 1.1592981e-38 2.9602408e-38 -4.867766e-29 -1.7865546e-38
00000000: d2a9 2abc a0c3 aea7 0a8b a63a 99ef 1b3c
00000010: df11 aa16 7881 a7ba 379d 1815 e897 b43e
00000020: 0bb2 b9bd b88b 4fa5 c66b 4bbf 3d6c e13d
00000030: ae15 6901 f11a e8b9 1b1d 47bf baac a2be
00000040: d3b1 61be c400 1d3e c479 72bb c50c 303c
00000050: 66b9 d13c 058e 07be c1ae 973d f816 303c
00000060: b6e5 673e 4dac ae3c 1832 b4bc ef6c 613e
00000070: 5c23 ad3c 196b 0ebe caa3 b721 c889 2ebd
00000080: 8131 4724 5308 493d cccb ba3b c139 1cbd
00000090: a1e2 403e 213b 8ebe 63ca 9b3c 1b02 d73d
000000a0: d640 e23c 2ee8 69be a28f 283e 5484 1a80
000000b0: 69e9 8ebd 9c15 f3be 6455 82be a29a 7bbd
000000c0: 33d5 78bd 4141 ca3c 7044 0680 987a 09bf
000000d0: 9b71 e3bd 44f9 173d 49c5 f7be 811a aeba
000000e0: 1768 793c e50a 25bd 8dce 22bf 7abc cf00
000000f0: fe56 2f00 8768 58bc aefb 7bbe c5fa 6fb1
00000100: e002 07bc 84a5 8603 69c0 04bf 7120 253c
00000110: 257d aa81 e8e7 0cb9 2742 4501 c669 3fbf
00000120: 4f1d db3e 74e0 ae00 ce88 9bbe a833 5cbc
00000130: 5b1c 6180 11bd 6e38 65d2 d2bb 9eda b201
00000140: c550 70bc 677e 2cb5 1717 f528 6548 13be
00000150: 12a3 a6be 5383 29bf 3ea9 da3c 4c4f e53d
00000160: 08e1 7939 d280 3abe 1ed0 fbbd 14f5 1ab6
00000170: cb40 5ebd d514 103a 2581 b780 6727 853e
00000180: 5f1f 2d01 d476 51bf 9b0d 2cbd 72fa 983e
00000190: 7ee1 49bc 310f 23bd cecb 3bba a7e5 92bd
000001a0: 13bb a9bc 6288 30bd 1300 6abd bc6b 5a00
000001b0: 8aac bbb9 1139 09bb 9f53 15be 2068 3abc
000001c0: ff68 a5bc 2410 e52c ce18 7500 ae98 a4bd
000001d0: 39f6 fbbe 654d 093e 154e dcbc 3e68 9f35
000001e0: e680 e5bb a69d c53d be3d 9d00 222a 3f01
000001f0: 5807 4180 93b4 053d 9861 8ebc 47a4 f19e
00000200: 7b45 ef80 fa97 5c80 3e41 c0a0 2009 0a81
00000210: 981b 5581 e33b 1aab 238a 2300 5dd4 7180
00000220: 1432 3dba 5c83 f580 7b9b 9cbc 9461 87a9
00000230: d443 3981 40c4 db00 0567 16b2 5557 81ba
00000240: 78bc 5bbc 7fa9 bdba 00b5 9d00 719a 853a
00000250: bc2b 7aac c4d7 4cb6 e6fb 13bb 88b1 c6b6
00000260: fda6 a1ba f306 b7ae 2a4c 1c00 a3ed 229a
00000270: 978d 1fb3 08a2 36a5 44af 1881 b9d4 d100
00000280: 00f5 a500 b2ee 9ebb ee83 2701 8794 6689
00000290: 9b3a 2eb8 5ac7 92bb 20b3 9d81 b832 46b0
000002a0: 3287 e4b2 7107 17af e8f0 a6ba 0080 9500
000002b0: 6a25 0eb8 09e6 ebbc 12a4 9bb8 8031 ffb9
000002c0: 2e01 6881 ce35 9681 b144 a580 bd01 92bb
000002d0: 6300 ca80 22bc 3baa 093b 16b9 d10b 8b01
000002e0: e8c2 b9b0 e328 a5b6 11ea e837 eb51 d100
000002f0: 3039 7c00 de86 1081 d8bd 39b1 007d 9080
00000300: 0098 b381 c058 9701 458c 8500 70e7 4d00
00000310: bb34 4200 8cdb 5b01 80b7 b481 ebaf 4080
00000320: f3ba a892 3819 7881 9c5b 7a00 abfa 5700
00000330: e0ea cc80 0cf1 3901 720f 1a81 e45c 018c
00000340: e01d 3501 9b52 1380 400d b181 135b b0ab
00000350: 632b b300 1b76 e680 1edf 0780 8f3c c9ac
00000360: 6850 a999 80b1 7f00 55b0 3f00 bad4 b301
00000370: 9124 0e81 3ec0 9201 0410 7a00 c080 3581
00000380: de6d a481 0369 1d81 38e5 2081 b413 b380
00000390: c47d 1181 ee48 5ab0 862a 7081 3a5d 3b81
000003a0: 9f64 2299 76e2 3681 f7bb a9ad 00c2 1e00
000003b0: 84d1 5b00 ced1 8900 786d 2497 68e7 1981
000003c0: 89c5 f280 0046 5a00 68a4 0180 2415 aeb3
000003d0: eeec bf00 6eaa bd80 79d6 6b80 207b 3281
000003e0: a8d5 f480 10ba 9f80 9062 8b00 c642 be01
000003f0: 843c 7e00 bc2b 2101 37d3 7690 e089 c280

_decoder.4.bias f4 [128]
0.18336149 0.0040591517 -5.9774335e-05 -1.1932074e-29 0.0009857803 -7.597762e-27 -0.004275632 -2.1420335e-22
0.026464473 -0.00030948286 0.1474413 -3.5753205e-09 0.20385167 -0.061399404 0.023346445 -1.0724725e-32
-3.8034187e-08 -1.6036277e-06 -5.079411e-16 -0.041850008 -4.180929e-10 -0.00051425194 -0.78077114 -0.004626382
0.35035625 -0.15357302 1.1204582 -6.4488255e-08 -0.7876518 -0.49969244 2.7200998e-32 -1.9523892e-23
-0.07322787 -0.07360457 -0.035317868 -2.9039207e-36 -0.025528383 -0.0016932221 0.10221233 -9.570697e-06
0.04984694 -2.6610542e-15 -2.5695324e-05 -1.0493888e-09 -0.0001062429 0.6663149 -0.013565098 0.26585317
0.105419084 -1.1511858e-06 -0.0065642945 0.21645601 -0.0041986974 -1.1960235e-06 -2.971505e-06 0.94394976
-1.7616758e-13 -5.0907293e-14 0.20687622 -6.248866e-05 -4.4322973e-25 -0.23806277 0.24198018 -2.6340917e-18
-1.0991288e-25 -0.040204797 0.2096203 -0.0017325021 -0.04832615 -4.149582e-22 0.11779811 0.32658544
-0.043239716 -0.00022620565 -0.05424228 -0.00023763097 -0.10818645 -8.527886e-05 -7.1555565e-05 -0.046254322
-0.07272791 0.11955721 -0.0001111604 -0.00017660826 -0.0009514641 0.4917824 -0.029223472 -4.0923968e-23
0.11896433 -0.05151021 -0.04958154 -0.05093132 -0.0014193606 0.120031856 -0.045592487 -0.000985992
-0.0066716843 -0.047291756 -5.2301497e-28 -8.331574e-05 0.19596656 -0.0014989792 -0.899581 -0.0101960115
-7.395454e-11 0.0009300815 0.08935257 -7.79628e-33 -0.0437957 -0.005951934 -0.045221135 -7.482254e-06
0.084469296 -1.01789804e-14 -0.025021931 -6.949581e-20 0.05035009 -0.09971825 0.30711046 -0.01741872
-1.044174e-11 -0.11740395 0.34430575 -0.12627307 -3.8445696e-09 -1.2567076e-14 0.0738712 0.49334714
00000000: 1dc3 3b3e a202 853b 34b6 7ab8 df02 728f
00000010: 4c35 813a 3b7d 1694 9a1a 8cbb 5d7a 819b
00000020: 06cc d83c 1642 a2b9 dafa 163e b4b1 75b1
00000030: 7ebe 503e f17d 7bbd 0b41 bf3c 6bbe 5e8a
00000040: 085b 23b3 3a3c d7b5 7067 12a6 ea6a 2bbd
00000050: 58d9 e5af ddce 06ba 9ee0 47bf e898 97bb
00000060: e561 b33e 3f42 1dbe 2d6b 8f3f cb7c 8ab3
00000070: 8ca3 49bf b0d7 ffbe 543c 0d0b d1d2 bc99
00000080: 7ef8 95bd febd 96bd 78a9 10bd cb09 7784
00000090: e620 d1bc 1bef ddba b354 d13d d591 20b7
000000a0: 4e2c 4c3d c9bf 3fa7 4a8c d7b7 163a 90b0
000000b0: b9ce deb8 9d93 2a3f 2540 5ebc e81d 883e
000000c0: f6e5 d73d 7182 9ab5 4b19 d7bb a5a6 5d3e
000000d0: 3a95 89bb 0e87 a0b5 116a 47b6 b1a6 713f
000000e0: d958 46aa 1d44 65a9 5cd7 533e 580c 83b8
000000f0: 472c 0997 bac6 73be a7c9 773e 965c 42a2
00000100: c810 0896 c9ad 24bd b4a6 563e 2015 e3ba
00000110: a4f1 45bd acd3 fa9b 2340 f13d 3536 a73e
00000120: 211c 31bd 9e31 6db9 272d 5ebd 942c 79b9
00000130: dc90 ddbd bdd7 b2b8 1a10 96b8 2c75 3dbd
00000140: 5ff2 94bd 69da f43d c91e e9b8 eb2f 39b9
00000150: ad6b 79ba e7ca fb3e 1066 efbc 6be5 459a
00000160: 92a3 f33d 5ffc 52bd 0316 4bbd 5c9d 50bd
00000170: d709 baba 43d3 f53d 30bf 3abd 673c 81ba
00000180: 259e dabb 00b5 41bd 04c0 2592 ccb9 aeb8
00000190: 75ab 483e 6579 c4ba f14a 66bf 2c0d 27bc
000001a0: b4a0 a2ae b7d0 733a 7bfe b63d 22ec 218a
000001b0: 1f63 33bd 7108 c3bb cc39 39bd 1310 fbb6
000001c0: 3dfe ac3d 435e 37a8 cbfa ccbc a417 a49f
000001d0: e53b 4e3d 1539 ccbd 953d 9d3e b4b1 8ebc
000001e0: 6bb1 37ad 7b71 f0bd d848 b03e ba4d 01be
000001f0: 3119 84b1 6963 62a8 c949 973d ff97 fc3e
